models_save/aug_model_save_k_means_centers_17/aug_model_save.pth (torch, 15950 bytes, 6 tensors)

weight f4 [64, 10]
000000 3b e3 51 bc d6 78 e6 3e b2 ec a2 3e aa 86 94 3e
       -0.012810524 0.45014066 0.3182121 0.2900899
000010 ba c6 78 3d 56 44 05 be 62 57 94 be 8b f4 d0 bd
       0.060736395 -0.1301435 -0.28972918 -0.10202893
000020 fc b5 68 be 94 e7 e8 3b 26 01 a1 3d 23 5b a7 3d
       -0.22725672 0.0071076844 0.07861547 0.0817168
000030 fc c9 07 be c3 6a c4 3e b7 01 65 3e be b2 90 3c
       -0.13260645 0.38362703 0.22363935 0.017663356
000040 8a e9 f0 bd 4b b6 80 3e 40 89 bf 3e 68 ab 84 3e
       -0.11763294 0.25139078 0.374094 0.25912023
000050 3e bf ea 3d 2f 47 ab bd 6c cb 2b 3d 4f e1 4c be
       0.11462258 -0.083631866 0.041942045 -0.20007823
000060 ef 5a dc 3d 57 bf 85 be da 7e 00 3f 21 8e 97 be
       0.10759532 -0.26122543 0.5019356 -0.29600623
000070 08 e3 4f bf 5c 94 90 bc 95 7b 09 bb 2c 41 e8 3c
       -0.812058 -0.017648868 -0.0020978202 0.028351389
000080 ba 00 3d 3e fc b6 32 be f8 38 2b be 72 ad 86 3e
       0.18457308 -0.17452615 -0.1672095 0.26304203
000090 a6 da c0 be fa 93 a0 be 94 fd 1f bf f8 74 9f be
       -0.37666816 -0.31362897 -0.62496305 -0.31143928
0000a0 ed 16 ab 3e 98 08 48 3e a2 c5 f8 3e b8 f3 94 be
       0.33415928 0.19534528 0.48588282 -0.29092193
0000b0 42 d9 06 bd c7 4c 19 bf 6b 7e 26 be 4c 0f 83 3e
       -0.032922037 -0.5988278 -0.16259162 0.25597608
0000c0 4a a0 0d be ce f6 66 bd 9f 41 80 be 88 7c d6 bd
       -0.13830677 -0.056387715 -0.25050065 -0.10472971
0000d0 4c a6 9f 3e df dd 7a be 20 51 06 3e a5 aa be be
       0.31181562 -0.244987 0.13116884 -0.37239566
0000e0 ef 69 e0 3e 72 98 e3 3d e8 73 48 be b3 55 d4 bd
       0.4383082 0.11113061 -0.19575465 -0.10367908
0000f0 ea 55 1f be 34 38 23 3d 52 4a 97 be af a2 9a 3d
       -0.15560117 0.03984852 -0.2954889 0.07550561
000100 11 3a 4a 3e e7 26 0c bf a5 f9 c3 bd 1c 69 51 be
       0.19748713 -0.5474686 -0.095691 -0.20450252
000110 46 64 7a 3e ec ea df bd 40 97 64 b8 6f de e8 bc
       0.24452314 -0.1093348 -5.45003e-05 -0.028426377
000120 f1 f8 97 be 1d c5 2b 3e 59 3e 9b be c7 2b 6d 3e
       -0.29682115 0.16774411 -0.30321005 0.23161231
000130 14 d8 11 bf 9b 07 23 be 77 63 17 3f f9 40 b8 be
       -0.56970334 -0.1592087 0.59136146 -0.3598707
000140 6c 0c 7d 3c 02 ac 52 bd 73 d7 e0 3b 67 d3 90 3e
       0.015444856 -0.05143357 0.006861621 0.28286287
000150 25 4b 29 3e 34 26 cb bc 9f ac 19 3f 32 71 58 3e
       0.16532572 -0.02479849 0.60029024 0.2113693
000160 f9 0b be be ef 1a 46 3e a5 55 21 be 76 fd 19 3e
       -0.3711851 0.19346212 -0.15755327 0.15038094
000170 1c 89 83 be 21 54 d5 3b 7b ea 82 be 3f 2a 8e be
       -0.25690544 0.006510273 -0.2556952 -0.27766606
000180 b9 3a ba 3d 2b 24 ac 3e 39 65 ff bb 92 b5 be 3d
       0.09093232 0.33621344 -0.007794049 0.093119755
000190 16 ac 7a 3e 57 1a 28 3e 23 f2 04 3d 01 2d 0b 3e
       0.24479708 0.16416298 0.032457482 0.13591386
0001a0 86 b9 41 3e 0e 1f 4f 3d fd 11 2b bc e3 dc ca be
       0.18918428 0.050566725 -0.0104413 -0.39621648
0001b0 70 f3 7f be d2 c2 c8 3e d8 74 7f 3e ab 88 cc be
       -0.24995208 0.39211136 0.24946916 -0.3994802
0001c0 14 94 e1 3d a4 bb 85 be 3c 57 a3 3e db da da 3d
       0.11014572 -0.2611972 0.31902492 0.106862746
0001d0 66 5f e0 bc 7d 0b 3a bd d0 56 50 3e 2d 1c 30 bd
       -0.02738924 -0.045421112 0.20345616 -0.04299562
0001e0 d4 12 8b be 14 ee 30 be 66 f6 46 3e 29 f2 f2 bc
       -0.27162802 -0.1727832 0.19429931 -0.029656487
0001f0 de c4 50 3d 3d 03 b1 be 99 8a a2 be ad 6f df be
       0.050968997 -0.34572783 -0.31746367 -0.4363989
000200 6d 38 49 3d b9 6a 61 bd 0f 1e 9c 3d e5 b6 88 3d
       0.049126077 -0.05503342 0.07622921 0.06675509
000210 26 50 21 be 00 40 23 be 9a 62 de bd 66 64 71 bf
       -0.1575323 -0.15942383 -0.108586505 -0.9429382
000220 a7 56 22 be 34 f6 6c 3e 3e 70 63 3b 9a 14 a5 3e
       -0.15853368 0.23140794 0.0034704353 0.3224228
000230 61 14 f2 be 5f f1 1c be 0d ec 44 3c f2 47 9e 3e
       -0.47281173 -0.15326451 0.0120191695 0.30914265
000240 1a 9f 83 3e b0 d4 ae 3c 65 69 6a 3e 71 7d 29 3d
       0.25707322 0.021341652 0.22891767 0.041379396
000250 15 8e 9f be b9 ca e7 3d e1 23 a7 3d 46 a1 1c 3d
       -0.31163087 0.11317963 0.0816114 0.03823974
000260 2b 7b 21 bf fb 12 33 be 1f 55 8d be 8d 71 6c bf
       -0.63078564 -0.17487709 -0.27604005 -0.92360765
000270 56 dc 4c bc 9c ad a7 bd 80 03 95 3d a4 87 44 be
       -0.012503704 -0.0818741 0.07276058 -0.19192368
000280 e0 0b 9b bd 26 53 07 be 5c 33 76 3e ad 76 73 be
       -0.07570624 -0.13215312 0.2404303 -0.2377574
000290 5f aa 91 be a1 9c c0 be ba 5e 96 be 0f 3e b2 3e
       -0.28450295 -0.37619498 -0.29369146 0.34812972
0002a0 57 8d d9 be 5b 08 ea 3e 84 02 92 be 71 19 b8 bc
       -0.42490646 0.457095 -0.28517544 -0.022473069
0002b0 7c 83 86 be c0 d2 08 3f cd 1a e8 3d 12 4b d5 3e
       -0.2627219 0.5344658 0.11333237 0.41658837
0002c0 8c 45 6c 3c ac b6 98 3d 93 cb b8 3e b4 f2 3d 3e
       0.014420878 0.07456717 0.36092815 0.18549615
0002d0 bc 52 ed 3c f6 38 1a be 9f 01 24 be 2a 03 92 be
       0.028970115 -0.15060791 -0.16016243 -0.2851804
0002e0 b7 92 b2 be 62 f4 f3 bd 65 1b 5f 3e 8b bf bb 3b
       -0.3487756 -0.11911847 0.21787794 0.005729621
0002f0 76 d1 ef bd a8 9a a8 3d 2c 49 29 3e 2b 4c 0e 3e
       -0.117098734 0.08232623 0.16531819 0.13896243
000300 e3 7c 0f 3e 8c 2c d5 be 40 54 9c bd 54 96 47 bf
       0.14012484 -0.4163555 -0.07633257 -0.7796376
000310 35 a8 01 bf 4f 16 ac 3e 30 c6 d0 be 2f 40 94 3e
       -0.5064729 0.3361077 -0.40776205 0.28955218
000320 74 62 bb bd 52 0a db bc 9d b4 1b 3f 61 4c a1 3e
       -0.09149638 -0.02673832 0.6082247 0.31503585
000330 54 de 88 3e a1 2b 9d 3f 19 b3 8c be 7d 4d 0c 3e
       0.26732123 1.227894 -0.2748039 0.13701434
000340 26 17 0d 3e 75 a5 c5 bc 8d a8 3f be a4 34 9f bd
       0.13778362 -0.024126748 -0.18716641 -0.07773712
000350 1b d9 99 be 89 2d 78 be 38 0d c1 3c 95 ae fd be
       -0.3004845 -0.2423612 0.023565874 -0.49547258
000360 58 ce 12 3f 8d 0f f5 bd 6c 7e 99 be fd 26 13 3f
       0.57346106 -0.11965857 -0.29979265 0.57481366
000370 48 28 af bd 59 7d f7 bd b0 b1 0d 3b 9f 9d bf 3e
       -0.08552605 -0.12084455 0.0021620803 0.37424943
000380 48 b7 23 bf 31 3d 5a 3d 2a 7c c4 bc 52 64 ba 3d
       -0.6395154 0.053281013 -0.023984987 0.09101166
000390 cd 01 49 3e 45 f2 c6 bd 90 5d 67 be e9 6a b5 be
       0.19629593 -0.09714178 -0.22594285 -0.35433128
0003a0 fe 89 6d 3c 91 e7 c9 bb 73 46 4c be 97 c1 cb bd
       0.014498232 -0.006161638 -0.19948749 -0.09949034
0003b0 b9 9b a4 3d 86 57 c3 3e 8d 32 c4 3d bd 0c 49 be
       0.08037514 0.38152713 0.09579954 -0.19633766
0003c0 b5 91 bb bd d0 2c 02 3e 9e 96 14 be 6d 6c 35 be
       -0.09158651 0.12712407 -0.14510581 -0.17717142
0003d0 f1 95 a1 bd c3 37 76 3e 11 cc 37 3e fa af ab 3e
       -0.07889927 0.24044709 0.17948939 0.33532697
0003e0 d8 68 0c be f6 2f db be da 77 7d bd 88 10 55 bd
       -0.1371187 -0.4281003 -0.061881877 -0.05201772
0003f0 50 e8 12 bf 2f 37 29 be b9 15 41 be ec e7 59 bf
       -0.5738573 -0.16524957 -0.18855943 -0.8511951

bias f4 [64]
000000 b7 b5 f8 be 83 d9 d7 be fb 3c da be 76 02 b1 be
       -0.48576137 -0.42158136 -0.4262465 -0.3457219
000010 cc 34 19 be 2f 3c 87 3d bb a1 14 be ab 12 dc be
       -0.14961547 0.06603276 -0.1451482 -0.42982993
000020 9d 97 24 bf d5 a7 cd be 01 ca a9 3e 9b 39 4f 3e
       -0.64293844 -0.40167108 0.3316193 0.20236818
000030 19 13 12 3d 2e f6 5d be 65 e5 43 bf 3f e4 9e be
       0.035662744 -0.21675941 -0.76521903 -0.31033513
000040 93 21 58 bd 30 95 1a be e5 c9 30 be aa 51 b0 bd
       -0.052766394 -0.15095973 -0.17264517 -0.08609326
000050 e3 8f 31 3e ac b4 eb bd 0c 5d 97 bd 04 f9 ec 3d
       0.17340045 -0.1150907 -0.07390794 0.115709335
000060 fe b2 7d 3d fd 0f f0 3d ef fc e8 be 40 78 bd be
       0.06193828 0.117217995 -0.45505473 -0.37005806
000070 e3 5e d1 bd 36 f7 54 bf 42 33 3c be 47 b1 b9 be
       -0.10223176 -0.83189714 -0.18378928 -0.36268064
000080 0a 38 72 be b2 ce a1 be 5f 5a d2 be 3a c0 14 be
       -0.2365419 -0.31603009 -0.41084573 -0.14526454
000090 31 a7 af be 5b f1 1b be f6 9c 20 be 84 e9 86 be
       -0.34307244 -0.15228789 -0.15684876 -0.26350033
0000a0 a5 cd ff be 27 ad d1 bd 52 be eb be 61 5f d9 3e
       -0.49961582 -0.10238104 -0.4604364 0.4245558
0000b0 bb 00 a8 be b8 03 ff be ed e5 9b bd 25 50 e2 be
       -0.32813057 -0.49807525 -0.07612214 -0.4420177
0000c0 8f f8 10 bf 42 94 a7 3d ce 44 f6 be 79 4c 23 bf
       -0.5662927 0.08182575 -0.4809937 -0.63788563
0000d0 2a 10 b9 be 6a d2 02 bf 18 4d 33 bf 0d b1 1f 3f
       -0.36145145 -0.51102316 -0.7003951 0.62379533
0000e0 7f 46 5c be 97 cb 65 3e af 35 b0 3c d3 15 54 bf
       -0.21511267 0.22440945 0.021509973 -0.828458
0000f0 c8 d8 13 bf d8 ab d0 3d 13 d9 eb be ba 2e 41 3e
       -0.57752657 0.101890266 -0.46064052 0.18865481

weight f4 [32, 64]
000000 06 73 39 3c 4e 40 8d 3d f7 e6 82 be 13 d4 3b 3d
       0.011318928 0.06897031 -0.25566837 0.045856547
000010 e3 8d db bd 68 e3 f6 be fb 9c 47 be 37 81 80 3e
       -0.10720422 -0.48220372 -0.19493477 0.25098583
000020 f4 86 9a bb aa 1a 09 bf 0c be f9 3d ed 26 a2 be
       -0.0047157947 -0.5355631 0.12194452 -0.31670323
000030 fc b6 3c be de c3 5f be 46 7a ba 3e 65 37 8c bd
       -0.18429178 -0.21852061 0.36421412 -0.06846503
000040 a6 99 5f 3c a7 47 38 3e 75 dc f1 be 5b d5 8d bb
       0.0136474725 0.17996083 -0.47238508 -0.0043284125
000050 62 12 17 3e 43 cc 86 3d fe 52 e0 bd b4 96 6a bf
       0.14753106 0.065819286 -0.109533295 -0.91636205
000060 fd 07 0f 3e 3c 27 92 3c ea fa 80 be 02 e8 ea be
       0.13967891 0.017840974 -0.25191432 -0.45880133
000070 10 91 87 bd 83 05 95 bb 47 74 0f 3e 3f a7 7e 3d
       -0.06619465 -0.004547776 0.140092 0.062171217
000080 51 cd 59 be 12 4a b4 3e 71 9e ce 3c c8 a7 bc 3c
       -0.21269728 0.3521276 0.025222035 0.023029223
000090 1e 75 dd 3c d5 8e 4f 3e 7f 01 05 bd 34 36 80 bf
       0.027033385 0.2026933 -0.03247213 -1.0016541
0000a0 81 4e ae be cf cc 7d be ce fe 8e 3e 95 e3 6b be
       -0.3404427 -0.2478516 0.27928776 -0.23036034
0000b0 1d c2 ce bd ed b3 c5 bc 20 a3 d3 be 13 b4 30 bf
       -0.10095618 -0.024133647 -0.41335392 -0.6902477
0000c0 d2 36 0e bf aa e5 dc be c2 f5 09 3e 46 92 e6 3c
       -0.555524 -0.4314397 0.13472655 0.02814592
0000d0 c1 1a 7b bd 64 1e 50 3e 10 78 bb 3d f4 d0 9c bb
       -0.06130481 0.20324093 0.091537595 -0.0047856513
0000e0 dc 09 47 bd c0 d9 a4 3e 87 bb 17 bd 6e 18 f9 3b
       -0.048593387 0.3219738 -0.037044074 0.007601789
0000f0 9a ee 09 bf 14 cc f9 be ec 2e 54 be 1a 69 70 be
       -0.538797 -0.48788512 -0.20721024 -0.23477593
000100 69 1e 7d 3b 8e 8b 26 bf 91 eb 32 3c 0e ea b7 be
       0.0038622862 -0.65056694 0.010920421 -0.35920757
000110 96 de 22 bd 1d 00 37 3e 25 62 42 bf 92 88 9f 3c
       -0.039763056 0.17871137 -0.75931007 0.019474301
000120 1b 57 07 3d ca 47 ba 3d 38 4a fa bd 96 7f 0f be
       0.033042055 0.09095724 -0.12221187 -0.14013514
000130 f2 01 0e be ce 69 e5 be 4c 39 c9 3e 45 93 af be
       -0.1386793 -0.44807285 0.39301527 -0.34292045
000140 dc 6a 8d 3e 8a 98 e6 bd 22 da 94 3e d5 81 4b 3e
       0.2762059 -0.11259563 0.29072672 0.19873746
000150 e7 38 b1 3d 8d ac 6b 3d 25 0e f7 3d 1f 7a 18 3e
       0.086534314 0.057537604 0.12063245 0.14890336
000160 66 dd 31 be 2a 15 72 be 00 fe 2d bf 9a 7b 2b bf
       -0.17369613 -0.23640886 -0.679657 -0.66985476
000170 f4 2c 58 3d 82 21 d8 3e dd 0e 1a bf ab 8f 21 bd
       0.052777246 0.42213064 -0.6017893 -0.039443653
000180 e7 72 d7 bc ac f5 5a be cd 65 fd bd fa 17 f5 be
       -0.026299907 -0.21382779 -0.123729326 -0.47869855
000190 8e 70 90 3e 1d 71 30 bf 5b 6f 74 3e 47 d3 ed 3d
       0.28210872 -0.689226 0.23870604 0.116125636
0001a0 a6 57 ca 3e 0d c3 dc be 9e 5f bc bd 64 a6 86 be
       0.39519995 -0.43117562 -0.09197925 -0.2629882
0001b0 a4 35 b9 bd 7a 19 4e bd 2a 0f 1a 3e 44 8a 4a 3c
       -0.09043434 -0.050317265 0.15044847 0.012362067
0001c0 60 51 19 3d 6f 9f c3 3b 64 c2 12 bf 9a bb c2 bd
       0.03743112 0.0059699337 -0.57327867 -0.095084384
0001d0 99 90 68 bd 7d 23 ed bd bc 24 e4 3d 70 47 84 bd
       -0.056778524 -0.115790345 0.11139819 -0.06458938
0001e0 59 e2 94 3e 7d b0 c2 be 34 7b d5 bc d9 ab b7 3d
       0.2907894 -0.38025275 -0.026059724 0.08968324
0001f0 fb ff 08 bf 1f 65 19 3d b5 c0 43 3e 76 b5 6b 3d
       -0.53515595 0.037449952 0.1911648 0.0575461
000200 c0 c5 93 3e df 82 5a 3e 4e ae 88 be 3f 71 58 3e
       0.2886181 0.21338986 -0.26695484 0.2113695
000210 3f 0a 44 3e d2 4b a7 bd 5e 13 cc 3c 3a f0 ea 3c
       0.19144534 -0.081687585 0.024911579 0.028679002
000220 f3 f3 b3 3e f3 f9 a3 bd 5e a5 76 3d 03 2c be bd
       0.35147056 -0.080066584 0.0602163 -0.09285738
000230 8a 99 27 3d a0 a2 18 be 6e 22 9d bd c7 f5 50 3e
       0.04091791 -0.14905787 -0.076725826 0.20406257
000240 13 07 2a be e3 17 f7 bc a0 aa 96 3d 15 e0 cb 3d
       -0.16604261 -0.030162757 0.07356763 0.0995485
000250 e5 4a 62 bd 22 b4 19 be 1a eb 25 3e 70 fa a6 bc
       -0.055247206 -0.15010121 0.16202965 -0.02038309
000260 f2 02 04 3e fb 0c 07 3d c3 d2 89 bd c4 be c1 ba
       0.12891749 0.032971364 -0.06729653 -0.0014781584
000270 a5 73 f9 bd eb 88 5a 3d c7 b1 fe 3d e9 b4 89 3e
       -0.121802606 0.05335323 0.12436252 0.26895836
000280 b3 44 8a 3c b6 71 a3 be 63 e5 40 3e c1 df 50 3d
       0.016878461 -0.31922692 0.18837504 0.05099464
000290 d6 f1 04 3d f6 4a 8a 3d 35 66 eb 3d b3 70 c8 3d
       0.032457195 0.06752579 0.11494104 0.09787121
0002a0 ad 6c 0f be a8 2c df 3d b7 4d 83 3d e8 c9 c9 3c
       -0.140063 0.108971894 0.06411307 0.02463241
0002b0 e7 f4 a1 3e c7 ce 3f 3e 8f 03 9d bc d9 28 0f 3f
       0.31632158 0.18731223 -0.019166736 0.55921704
0002c0 9c 66 2a bd 04 84 91 3b 7b 38 f7 3d a6 06 0f 3e
       -0.041601762 0.0044407863 0.1207132 0.1396738
0002d0 4c fa 69 3e be c8 d5 3d 4b af a3 3d 0c 32 84 3c
       0.22849387 0.10438679 0.07992419 0.016137145
0002e0 28 b6 69 3e 24 a2 20 be 16 7e ba 3d fe bb 1a bc
       0.22823393 -0.15686852 0.0910608 -0.009444235
0002f0 8a b1 53 3f da fa e5 bd ea e5 fe bc 0e 48 ca bd
       0.8269278 -0.11229487 -0.031115491 -0.098770246
000300 82 93 34 3c 88 71 66 3d f7 86 45 bc 29 59 14 bc
       0.011021497 0.056260616 -0.012056104 -0.009054461
000310 a7 41 1a be 1f 30 0b be 3c c9 4b be 5d 4a ce bd
       -0.15064107 -0.13592575 -0.19900984 -0.100727774
000320 0b 16 37 be 44 39 05 3d d5 d1 0c bc 66 93 2b 3d
       -0.17879502 0.032525316 -0.00859495 0.041888617
000330 b4 a5 f8 bd bc 10 c3 3a f4 af 86 bd 6f 57 1b be
       -0.1214098 0.0014882307 -0.06576529 -0.15170072
000340 0a 53 8a bd 40 bb a4 3c 66 b8 e0 bd 93 32 1a 3d
       -0.0675412 0.020108819 -0.10972671 0.037645888
000350 b6 39 7c bd 36 0e a7 bd 44 94 51 be 57 84 5a bd
       -0.061578475 -0.081570074 -0.20466715 -0.053348865
000360 fa 68 7b bd 87 74 14 be 7f da d9 bd ab b9 b3 bb
       -0.06137941 -0.14497577 -0.10637378 -0.00548478
000370 41 9d 0d bd 87 e0 49 be 18 00 9b 3d a0 14 78 bd
       -0.034573797 -0.19714557 0.07568377 -0.060566545
000380 fa 7e 1a be f2 91 eb bb 79 85 a6 bd de 2f a9 bd
       -0.150875 -0.007189029 -0.08130927 -0.08261083
000390 3a f3 18 bc 22 b7 86 bd 4b cc 7d bd 45 f5 05 be
       -0.0093353335 -0.065778986 -0.061962407 -0.13081844
0003a0 f9 a4 07 be 4a 0c 05 bb 1e 99 fe bc 9d 08 80 3d
       -0.13246526 -0.0020301514 -0.031078871 0.06251643
0003b0 88 ca 67 3d 60 06 4e be f2 c9 01 be f1 74 55 3c
       0.056589633 -0.2011962 -0.12674692 0.013028369
0003c0 de 9d bf bd 71 0d 38 bd 18 47 46 bd 96 04 71 bd
       -0.09356283 -0.044934694 -0.048407644 -0.058842264
0003d0 98 7c 48 be 4d c2 51 bd ad 68 81 3d 00 46 77 bd
       -0.19578779 -0.05121069 0.063187934 -0.06036949
0003e0 f3 31 ea bd 6d 69 27 3d 19 49 1b be 1b c9 cb bd
       -0.11435308 0.040872026 -0.15164603 -0.09950467
0003f0 b6 87 08 3c 19 d2 64 bd 64 3d 26 be af b8 01 be
       0.008333137 -0.055864427 -0.16234356 -0.12668107

bias f4 [32]
000000 96 c1 b2 be bc 77 90 be 94 71 92 bd 4b e9 c3 bc
       -0.3491332 -0.2821635 -0.071505696 -0.023914954
000010 2b 0b 73 3e 13 94 eb 3e 31 11 d7 be d0 4c 0b 3e
       0.23734729 0.4601141 -0.42005304 0.1360352
000020 c9 7b a8 3e 45 6d 93 3e 4e 8d 8e bc e2 f9 94 bd
       0.3290694 0.28794304 -0.017401364 -0.07274224
000030 cb 02 ad 3e 13 7b 91 bd 4e d2 53 bd 84 ba ff bd
       0.33791193 -0.07103553 -0.051714234 -0.12486747
000040 6d 2f 7f bc 4d b9 0a 3f 05 eb 50 bd 9e f0 e3 3d
       -0.015575272 0.54188997 -0.051005382 0.111298785
000050 d0 08 70 3d 04 cd dd 3e 41 bd 83 bd 8a f5 15 bd
       0.058602154 0.43320477 -0.06432582 -0.036611117
000060 60 05 03 3e 68 5f 09 bc c8 b2 88 3e 36 4a 02 3e
       0.12795019 -0.008384563 0.266989 0.12723622
000070 a8 24 dd 3e f0 9b 95 3e ef ad 9b 3d 45 de 04 3e
       0.4319203 0.29220533 0.076015346 0.12975414

weight f4 [8, 32]
000000 5f 2b 89 3e 39 b5 a2 3e a2 c5 64 3e e5 d2 46 be
       0.26790902 0.31778887 0.22341016 -0.19416387
000010 ba d6 51 3d d4 97 e8 3b dd 53 0e 3e dc 46 6b be
       0.05123017 0.0070981774 0.13899179 -0.2297625
000020 96 ac b7 3d 97 5d 8d bd 2c 80 d5 bd e8 93 cf 3c
       0.08968465 -0.069026165 -0.104248375 0.025339082
000030 40 cb 68 be 00 32 40 bd d7 9e 90 3e f3 cf 4d 3d
       -0.22733784 -0.046922684 0.28246185 0.050247144
000040 a5 b3 14 be d9 f9 af bd 53 2a 95 3e 51 3e e9 3b
       -0.14521654 -0.085925765 0.29133853 0.0071180244
000050 5d 11 ea bc ee dd 61 3e 32 10 08 be 2f 93 42 be
       -0.028572733 0.22057316 -0.13287428 -0.19001459
000060 68 25 07 3c 7e 2a 33 be 14 4c 86 3d 18 8d 07 3d
       0.008248664 -0.17496678 0.065574795 0.03309354
000070 65 e1 38 3c 3e a1 1b be 1f ff 51 3d f3 d2 d8 be
       0.011284207 -0.15198228 0.051268693 -0.4234844
000080 78 0b 12 3e 9f 62 d3 3d 0d 2b 2a 3e a5 22 3f 3d
       0.14262187 0.10321545 0.16617985 0.0466639
000090 54 2c 2c 3d 4b 80 90 bc d4 33 dc 3d b9 d3 3d be
       0.042034462 -0.0176393 0.10752073 -0.18537797
0000a0 e4 cd 4c bd eb 08 1e 3d 3f 11 54 3c fa 29 4b bd
       -0.05000104 0.038582724 0.012943565 -0.04960058
0000b0 11 40 78 3b 88 f0 9c 3d 7f fa 1d 3e 4d 62 0d 3e
       0.0037879983 0.07663065 0.15427588 0.1380703
0000c0 ac 1a 02 3d 95 f8 63 be a2 fb d9 3e 0b 15 af be
       0.031763718 -0.22262795 0.42574793 -0.34195742
0000d0 a0 50 9b 3c 45 42 a2 3d e8 47 0f be 08 59 dc 3c
       0.018959343 0.07922796 -0.13992274 0.026897922
0000e0 65 08 90 3c 61 88 c7 bc c8 4b 28 bb d0 bf e3 bd
       0.017582128 -0.024357023 -0.0025679935 -0.1112057
0000f0 bb 06 e2 3b eb 9d ee bc 9e 2a 0a 3e c2 a6 1d be
       0.006897775 -0.029128036 0.1349282 -0.15395644
000100 76 ab 42 bd 8d a3 1f 3d 1e 52 06 be ed 55 01 bd
       -0.0475268 0.038974334 -0.13117263 -0.031576086
000110 0c 40 07 bf 28 4e 09 bf dd 2a ae 3d 66 e6 86 3e
       -0.528321 -0.5363488 0.08504269 0.26347655
000120 da 6a a5 3b fd 74 a9 be 58 76 07 be 0c 80 4d be
       0.005048138 -0.33097067 -0.13228738 -0.20068377
000130 e9 4b 91 be 62 1c 94 be 81 45 ff 3a cf b6 5c 3d
       -0.28378227 -0.28927904 0.001947567 0.053885277
000140 06 91 9b be 0d 82 96 be 73 5e 04 3e ce 97 47 3e
       -0.30384082 -0.29396096 0.12926655 0.19491503
000150 2b 9d 80 be 1d 7f d6 bb b0 d5 c0 bd eb d4 e3 3d
       -0.2511991 -0.006545915 -0.09415758 0.11124595
000160 34 af a7 3d a8 24 20 bb 0e 03 45 bc 1b 9e 71 be
       0.08187714 -0.0024435911 -0.012024654 -0.23595469
000170 c6 d7 61 bf 5c 87 bd be e0 b0 3a bf 40 30 42 3e
       -0.8821987 -0.37017334 -0.7292614 0.18963718
000180 09 61 64 be 42 c3 1c bf 83 ae 82 be 69 a1 e5 bc
       -0.22302641 -0.6123544 -0.25523767 -0.028031068
000190 20 c7 cb be 77 c8 d0 3c ad d0 9a be 36 4e 5e 3e
       -0.39800358 0.025486214 -0.30237332 0.21709523
0001a0 72 10 86 3e fb 75 90 be a1 46 37 be 01 7f 51 3d
       0.26184422 -0.28215012 -0.17898037 0.05114651
0001b0 4a 5a 59 bd 2a fc bb bf 76 6a 09 be fe d7 9b 3d
       -0.053064622 -1.4686329 -0.13419518 0.076095566
0001c0 19 35 06 3e 7f fb ee 3d 17 dc 21 bf a4 67 86 3c
       0.13106193 0.11669063 -0.63226455 0.016406842
0001d0 b6 ae 1b bf 99 ca 24 bc 2f 56 5d 3d e6 54 dc bc
       -0.6081346 -0.010058069 0.05403727 -0.026895951
0001e0 dc 28 f9 3e 0e 6c 29 bd 10 fc 53 be be 6b e0 be
       0.48663986 -0.041362815 -0.20701623 -0.438322
0001f0 d9 bf 6a bf 63 6e 63 bd 1e 2c 0a bf 9c 27 8b bd
       -0.91698986 -0.055525195 -0.5397357 -0.06794664
000200 d8 6a 37 be fb 9d 9e be 52 73 87 3d c1 4d f2 bd
       -0.17911851 -0.30979905 0.066137925 -0.11831237
000210 0b e8 c1 bd 7c ad d4 3b bc 23 da bd f6 98 a9 bd
       -0.09468087 0.0064904075 -0.10651347 -0.08281128
000220 f4 f7 5f be da e6 eb 3c c7 7d 00 be 42 ba 9d be
       -0.2187193 0.028796602 -0.1254798 -0.30806166
000230 21 fc ea 3c 3b fd 03 bf b3 de 95 bb 3f 26 1e be
       0.028684678 -0.51558274 -0.004573667 -0.15444277
000240 82 56 be be de 29 b2 be 50 71 49 3e 4d b2 46 3e
       -0.37175375 -0.34797567 0.19672132 0.19403954
000250 d5 76 3d 3e 42 09 7f be 67 07 79 3d ab 6a 3d be
       0.18502362 -0.24905875 0.060798075 -0.18497722
000260 6e a4 0c be f1 24 fd bb 17 92 f0 3e 72 4d a5 3d
       -0.137346 -0.007725351 0.46986458 0.08071412
000270 30 2e ee 3c 4f e0 dd be d8 ef 8c be 0d e0 7e 3e
       0.029074758 -0.43335196 -0.27526736 0.24890156
000280 63 73 21 be 70 a6 53 3c 5a 9d fd 3d 3b 7b 54 3d
       -0.15766673 0.0129181 0.12383528 0.051875334
000290 3a 64 14 3e 60 21 a0 be fa d2 56 3e 9e dc 3a 3e
       0.14491358 -0.31275463 0.20978919 0.18248221
0002a0 3c 97 b0 3c ad 41 42 3e ae 52 18 be 58 0f 23 bd
       0.02155649 0.18970366 -0.1487529 -0.039809555
0002b0 dd 40 a1 3c 41 cf d9 be 7d 5d e5 3c c3 b5 24 be
       0.01968425 -0.42540935 0.02799868 -0.16084962
0002c0 7c 58 13 bf 78 fa ee bc 79 9e 4a be 54 32 05 bd
       -0.5755689 -0.029172167 -0.19787015 -0.0325187
0002d0 ff 53 64 bd 04 db 25 3d 15 c5 bf bd 7e 50 81 be
       -0.055744167 0.040492073 -0.09363762 -0.25256723
0002e0 24 26 15 bf d4 76 b0 3b 38 f7 89 be 5f 8e 51 3e
       -0.5826132 0.005385259 -0.26946425 0.20464467
0002f0 29 83 89 bd 24 cd 20 3e f4 eb 7f bd c7 90 7c 3d
       -0.0671447 0.15703255 -0.06248088 0.061661508
000300 26 67 94 be 3e d1 cc be 41 e2 6d bd ad 6d fd bd
       -0.28984946 -0.4000339 -0.0580771 -0.123744346
000310 c9 fd 23 3e b4 f0 d1 bd b4 98 51 be 90 03 68 be
       0.1601478 -0.102509886 -0.20468408 -0.22657609
000320 21 7f 62 3e c0 a7 43 3e 27 be 01 be 4d 7b bb 3c
       0.22118808 0.1910696 -0.12670194 0.022885943
000330 45 cd c1 3d 2c 40 b5 be dd 70 0a be d8 47 b1 bd
       0.0946298 -0.35400522 -0.13519616 -0.08656281
000340 99 83 cf 3e 37 72 9d bd d6 4e 44 bf 47 a0 00 3e
       0.4053009 -0.076878004 -0.76682794 0.12561141
000350 4a df c9 3c c7 c9 62 bd fd dd 9f bd da 4d e3 bd
       0.024642605 -0.05536821 -0.07806013 -0.110988334
000360 73 bc 8b 3e 8e 2c 4a 3c f0 0b 19 be 4d 24 4b 3e
       0.27292213 0.012339724 -0.1494596 0.19838066
000370 3d 43 1e bb 04 67 e9 bd ce 30 4f 3d ce ac d5 bd
       -0.0024148964 -0.11396602 0.050583653 -0.104333505
000380 dd 4d 81 be 0d d4 93 be 9e 42 44 be 0c ca b9 3d
       -0.25254717 -0.2887272 -0.19166037 0.090717405
000390 0f ef b3 3d 4b 62 fd 3d 14 b0 b0 3d 97 b1 c8 be
       0.08785831 0.123722635 0.08627334 -0.3919799
0003a0 53 df a0 bd 5a a0 d9 bd a9 3e 6f bd 45 f4 cf bd
       -0.07855096 -0.10626288 -0.058409367 -0.101540126
0003b0 4c 54 25 3d d4 f3 40 be 9e b5 b2 be ed 62 94 3d
       0.040363595 -0.18843013 -0.34904188 0.07245431
0003c0 8f 0c 06 be bf a0 8c 3e 50 4d 85 bf bb b7 63 3c
       -0.13090728 0.2746639 -1.0414219 0.013898785
0003d0 a3 a0 c6 be 18 0a 54 3e f5 71 1c be 47 b5 e4 bd
       -0.3879443 0.20706975 -0.15277846 -0.111673884
0003e0 94 42 b1 3e 17 ed 35 be 99 25 31 3d 8d 62 3f 3d
       0.34621108 -0.17766224 0.043248747 0.046724845
0003f0 ca fc 46 3e aa ce 27 bd 84 76 c2 bd e9 d3 a4 bd
       0.19432369 -0.040968575 -0.09495261 -0.08048231

bias f4 [8]
000000 85 ec cf be 19 1d b5 bb 84 b1 32 be 5b d2 94 bd
       -0.40610138 -0.0055271504 -0.1745053 -0.072666846
000010 af f3 a6 bc 81 83 5d 3e b0 1d 38 3d 59 57 e4 3d
       -0.02037987 0.21632196 0.044950187 0.11149473
