models_save/aug_model_save_k_means_centers_4/aug_model_save.pth (torch, 15950 bytes, 6 tensors)

weight f4 [64, 10]
00000000: 073e ed3d 6dfb be3d 937c c63e bbe0 103e
00000010: c348 743e 3409 5f3f 4332 08be 8eab cb3d
00000020: 440d c6bd e7b7 263e 4caf 3fbe 3cf7 06be
00000030: dbcf dbbd 0ff0 91bd 806e a0bd 6c8f 8cbe
00000040: 4dd7 90be a524 0ebf e9d5 24bb 6f7b 8b3e
00000050: 9f13 a13e 5b86 6f3e a24e 68be 3c04 b8bd
00000060: 5656 a53d 1cd5 273e 6606 0e3f 1960 ccbd
00000070: 8133 e23d 7000 e33d eb44 45bd fb61 223e
00000080: c639 88be c4ad a13b 4323 7ebe 0126 80be
00000090: 6b02 c23d 8968 fe3e 8488 343c 6e25 1ebd
000000a0: e077 08bd 0b4b 6abe 2954 1b3f 032f a5be
000000b0: e573 dc3c 1142 b5bd 7d0e 783e 02d1 133c
000000c0: 7acd 623e ece6 f3bd 9aa3 0dbf 3843 bebd
000000d0: adce 273e 1862 0a3e 00c5 053e 441d b7be
000000e0: 9799 80be b26a af3d b91b ddbd c41e 503e
000000f0: 8e4a 26bc 7a02 26be d5c2 a4bd cf89 2bbe
00000100: bed1 b13d 02ec 013f e2af 8a3e a7ea 0bbf
00000110: 7380 563e 24ca 38bd afbf a53e 221f 883d
00000120: 7c75 1bbe e213 4ebd cb92 a83b df5c d6bd
00000130: ac79 56be ff71 15bf 1b56 31bc 9dea af3d
00000140: b972 9abc 3c58 f83d dc20 4cbd e9df e4be
00000150: 0622 3abe 4f0a 5abf f268 dbbe 2ab1 bd3e
00000160: 3e24 aabe 2230 bc3e 737a 39be 3577 38be
00000170: b205 48bf 8cdf a4be 1960 c3be 24ab 85bf
00000180: 0612 653e 5dc2 98be 1e2e a53e 6554 35be
00000190: 4cce a23e aef9 863e a252 ca3d 0769 993d
000001a0: 498d 773e 6fa3 473e ada7 29be 4dab 953e
000001b0: cd34 82be ee84 5bbd d15f 9dbe 1abe 5dbe
000001c0: 3e24 aebd ffc5 4abe ecc6 d9bd b0cb b83e
000001d0: b23a 8c3e a80f 19bd 7d23 0c3f d96d 6cbc
000001e0: 5295 8dbd 64a0 023f 9003 983c 09e8 893e
000001f0: adb4 17bd a952 15be 780c 17bd 219d dabd
00000200: 28dc 8a3e 59a5 19be b9f7 133e f70c 32be
00000210: 7c1c a63d f885 043e 66f0 463d afe1 21be
00000220: 4235 43bc b53c 2abe 5229 0cbe a782 71be
00000230: 852d 9b3d f548 bc3e 16c3 7b3d fb8f edbe
00000240: 0419 c9be ab29 a0be 7bc0 0dba fa2e adbe
00000250: c9f8 f0bd 83bb 943d 380e a23e 2f27 3dbe
00000260: 0ab3 0abe ddc1 84be b9a7 1bbe c2ac 2dbd
00000270: 1186 dcbe da34 763e 32b6 9bbe 21de ad3e
00000280: cf86 1fbe 033c 5a3d c90c 81be 5a8b 033f
00000290: 55ed 203e c75c 8e3e 74c3 5dbe 7f79 9c3e
000002a0: 32f8 3f3e 4260 ce3d 551e 81be 3b45 a6be
000002b0: 29cc f9be d3de e9bd cde0 aabe 24a1 3b3e
000002c0: a464 40be a275 f4be fdfa e53d d934 7bbc
000002d0: 13b0 803e b71b 673c 7317 883e 6364 f53d
000002e0: 7d1b b43d 22a3 25bf 1f00 32be 2104 c43e
000002f0: 7eed 8ebe ff66 febd e8e8 ee3d 9b3b 873d
00000300: 02ad d63d 9ecb fc3d b5dd 2ebe ce4c ca3e
00000310: 9b70 e4bd 4054 03bf dc8f c23e 604c 263e
00000320: 8b33 67be dc79 35be 8ee2 89be f8d2 1a3d
00000330: 201f 503e a472 073e 8355 d33d e86a 4f3e
00000340: 2980 e63b 02cc 763e 8f6e 323c 9818 b0be
00000350: c0b0 4dbe f5f4 90be 3c67 b03c 28bf 6dbe
00000360: 76a2 2cbe 4791 073e e09f 363e fbcf 88be
00000370: 5d36 4b3d e68d cc3e 9932 2bbe e45d 103e
00000380: 2088 18be 6d60 47be 3e2b ca3d e0ca 913d
00000390: 1980 edbc 6c58 083e d8cf ed3c e46e 20be
000003a0: fd76 553e 74f8 6dbe 097d adbc 4132 49bc
000003b0: 8a9a 3a3e 1f43 503d 2851 bbbe 3e5a 74be
000003c0: ead0 52be 31e9 90bc 2a2d 52bd 070b 703e
000003d0: 5900 ca3d f455 f43e fb8f cf3d 4852 bfbe
000003e0: 7085 a23d 7e5a 04bf 831f ff3d 0fc3 723e
000003f0: 991b f23d d883 87be e1bd 94bd 0776 893e
0.115840964 0.093252994 0.38766918 0.14148228 0.23855881 0.8712342 -0.13300423 0.09944831
-0.09670499 0.1628109 -0.18719214 -0.1318025 -0.10733005 -0.07125866 -0.07833576 -0.27453172
-0.2828926 -0.55524665 -0.0025151914 0.2724261 0.31460282 0.23391096 -0.22686246 -0.08985183
0.08073108 0.16389889 0.55478513 -0.09979267 0.1104498 0.11084068 -0.04816143 0.15857689
-0.26606578 0.0049340446 -0.24818139 -0.25028995 0.094731174 0.4968913 0.011018876 -0.038609914
-0.033317447 -0.22880189 0.60675293 -0.3226243 0.026910732 -0.08850492 0.24224277 0.009021999
0.22148696 -0.11909279 -0.5532776 -0.09290165 0.16387434 0.13513982 0.13063431 -0.35764515
-0.2511718 0.085652724 -0.10796303 0.20324236 -0.010149611 -0.16211882 -0.08044974 -0.16751789
0.08682583 0.50750744 0.27087313 -0.54654926 0.20947437 -0.04511465 0.32372805 0.06646563
-0.15181535 -0.05031193 0.005144452 -0.104669325 -0.20944852 -0.5837707 -0.010823752 0.08589671
-0.018853532 0.12126204 -0.049836025 -0.4470208 -0.18177041 -0.8517198 -0.42853504 0.37049228
-0.33230776 0.36755472 -0.18113117 -0.18014224 -0.7813369 -0.32201803 -0.38159254 -1.0442853
0.22370157 -0.29835787 0.32261747 -0.17707975 0.31798017 0.26362365 0.09879042 0.074907355
0.2417499 0.19495939 -0.1656787 0.29232255 -0.2543091 -0.05359357 -0.30737165 -0.21654549
-0.085030064 -0.19802092 -0.106336445 0.360929 0.2738853 -0.037368447 0.5474165 -0.014430487
-0.06913246 0.51025987 0.018556386 0.2693484 -0.03703754 -0.14582314 -0.036877126 -0.10674501
0.2712109 -0.15004481 0.14449967 -0.17387758 0.08110902 0.1294173 0.048569106 -0.15808748
-0.011914553 -0.1662472 -0.13687637 -0.23584996 0.075770415 0.36774412 0.061465345 -0.4639891
-0.39276898 -0.3128179 -0.0005407405 -0.33824903 -0.11766202 0.072623275 0.31651473 -0.18471979
-0.1354486 -0.25929156 -0.152007 -0.042401083 -0.43071035 0.24043599 -0.30412441 0.33958533
-0.15578769 0.053279888 -0.25205067 0.5138451 0.15715535 0.27805158 -0.2165659 0.30561444
0.18747023 0.100769535 -0.25218454 -0.32474694 -0.48788574 -0.114194535 -0.33374634 0.18323189
-0.18788391 -0.47745997 0.11229513 -0.015332424 0.25134334 0.014105729 0.2658039 0.11982038
0.087943055 -0.64702046 -0.17382859 0.382844 -0.27915567 -0.12421989 0.11665517 0.06603166
0.10482217 0.123435244 -0.17076762 0.39511722 -0.1115429 -0.5130043 0.3800038 0.16240072
-0.22578256 -0.17722267 -0.2693066 0.03779885 0.20324373 0.13227326 0.103190444 0.20255625
0.007034321 0.2410126 0.010890617 -0.34393764 -0.20086956 -0.28311887 0.021533601 -0.23217452
-0.16858849 0.13239013 0.17834425 -0.26721177 0.04961239 0.3995201 -0.1671852 0.14098316
-0.14895678 -0.19470377 0.09871529 0.071187735 -0.028991746 0.1331498 0.029029772 -0.15667301
0.20846172 -0.23239309 -0.021177785 -0.012280048 0.18223014 0.05084526 -0.36585355 -0.2386255
-0.20587507 -0.01768932 -0.051312603 0.23441707 0.098633476 0.47721827 0.10134884 -0.37367463
0.079356074 -0.5170058 0.12457182 0.23707221 0.1182167 -0.26467776 -0.07262779 0.2684786

bias f4 [64]
00000000: d275 5a3e 1f86 003e 8fc7 2abf c2f0 52be
00000010: 1f4f a8bf 359f 06bf 07c9 b83b 051d 5abd
00000020: f01d ffbe 6129 a9be b4cc 37bf 7b31 5abf
00000030: d970 61bf b09d e6be d2ca 54be a59a 90be
00000040: e87a 3ebd b1f4 263d 7fa1 87bf 5caf 40be
00000050: c3cb 2dbf 7880 88be 9d89 04bf e38d c2be
00000060: 5607 0e3e 8fd3 09bf af40 6bbe 52d1 26bf
00000070: 6081 dfbe 6cc9 cebe 4738 80bd bbef 32bf
00000080: 3cf7 69bf 4cdb 8abe 00a8 e6be d7c4 373e
00000090: 4448 d8be 6e98 6f3e eda4 c03e db11 25bf
000000a0: d718 50be 24f6 8cbe 1dcb 04bf ee60 adbe
000000b0: 03ac 2cbf cc2f 65bf f4e4 833e bd65 4fbf
000000c0: 3cd5 0dbf 7dc3 51bf 3b05 3cbe a729 2ebe
000000d0: 729f b3be 9d4d 9cbe 7ff9 57bf 00f8 b63e
000000e0: f7a7 0abc 53b2 0ebf 0def 46bf c7dc ddbc
000000f0: 1a11 1ebf 6162 57be 4f71 23be d975 4bbf
0.21334007 0.12551163 -0.6671075 -0.20599654 -1.3149146 -0.5258668 0.0056391987 -0.05325033
-0.49827528 -0.33039382 -0.7179673 -0.8523175 -0.88062817 -0.4504218 -0.20780495 -0.28242984
-0.04650393 0.0407607 -1.059616 -0.18816894 -0.6788904 -0.26660514 -0.5177248 -0.37998876
0.13869986 -0.5383844 -0.22973894 -0.6516315 -0.43653393 -0.40388048 -0.06260734 -0.6989705
-0.91392875 -0.27120435 -0.4505005 0.17946182 -0.42242634 0.23397991 0.37625828 -0.6448037
-0.20321976 -0.2753154 -0.51872426 -0.33863014 -0.6744997 -0.8952606 0.25760615 -0.81014615
-0.55403495 -0.81938916 -0.1836137 -0.17008077 -0.35082585 -0.30527964 -0.84365076 0.35736084
-0.0084628975 -0.5574085 -0.7770851 -0.027082814 -0.61744845 -0.21033622 -0.15961193 -0.79476696

weight f4 [32, 64]
00000000: 9194 c4be 5e28 bbbe 661b bcbe 51d3 573e
00000010: af0e 383d c207 323e da84 5bbe a59c 7e3e
00000020: c364 b0bf 2a20 fdbd f540 df3e d536 73be
00000030: 22ce fb3d 8748 9cbe 3b0c 17bf f4bf 0dbf
00000040: b09e 9a3e 5de4 d1bb 1c8b 46be eff7 4cbf
00000050: e86a 483e 681c 543e 94a5 b7be b3af a03d
00000060: a63e 30bd d7c0 10bd 6493 a33d cbc6 babe
00000070: 4d26 683d 2136 8abe 4efb 903c f442 68bf
00000080: 1ffc b53e e176 86be 0aad 0ebe c519 43bd
00000090: a001 d5be e1bc 4c3d db3f 8a3d 81a3 a43b
000000a0: 48b7 87bf 101a ae3c 0204 e63d 1b18 8fbd
000000b0: 9bba 25bf 4062 ee3d f65c c23d 7a11 bc3e
000000c0: dc2d 71be 124f 413d 103f c0be c515 7bbe
000000d0: 8efb 58bf b00b 4fbf ca53 1ebf efc0 55bf
000000e0: 474c cebe 5b5c fa3d 5746 5cbf 4064 80bd
000000f0: 94ce 3a3e 9ffa aabd 5c61 003d ab5b e43d
00000100: 7573 5cbe 0b8c 39be 0058 56be ed82 95bd
00000110: 5c7a ecbc 382b b4bd 7200 3bbe ddbb 303c
00000120: 7f30 283d 1aee 2ebe 4342 40bd c48b b1bc
00000130: eab1 febd ebfd b3bd b479 89bd d2fe 84bd
00000140: bf56 0a3d 4a89 1fbe d812 37bc 6672 48be
00000150: cb41 82bd 0d53 37be bf10 0fbe c2ad 50bc
00000160: 3d23 4cbe 6d61 0d3d 157d 53be fc92 413d
00000170: af8c 56be 0dd7 e6bd 1ee7 60be 39e3 76bd
00000180: 2615 31bd 5458 48be baf8 ecbc 8696 483c
00000190: 8d21 583d ccdc c43c d67d 42bd 57d1 dbbd
000001a0: 7480 1bbd 3c33 58bc 5256 99bc b155 0fbe
000001b0: c454 b43d 90c3 28be 4242 b43b 4851 cabb
000001c0: 5d0a 71be 4317 39be f7d7 7d3d 5a00 a53c
000001d0: 6211 27bc 47ce c8bc 4158 11bc ae1e a43b
000001e0: 182a 34be 6e54 10bd 9b66 d9bc c4dc 93bd
000001f0: 914f 71bc b576 7cbe d2f6 04be 5ec5 b2bd
00000200: 0028 8dbd 1013 a5bd bc71 cbbc fe8a 573a
00000210: 0d6c 453e 3e2e 343e 99ec 853d a764 183e
00000220: ec8b c7be 1616 933d cb3e 9f3d 1274 33be
00000230: 5efd 803d 8a63 3e3b 85c4 32be 097c 44be
00000240: 7a41 7c3d f767 f73d b302 03bf 945f aabd
00000250: ebdb 1fbd 10f3 f83d 8d33 343e c243 cabc
00000260: 18e6 163e d2e9 083d 521a ddbb 1f91 bcbd
00000270: 0db7 103e 5064 2dbe 5500 ce3d e124 41be
00000280: fe27 02be 88a1 743e 0b32 503d d384 1f3e
00000290: 0d6a a6bd 58cf 913e d6d8 263e 80d7 173e
000002a0: 2af5 d0be 21b6 a93e f6ed 993e ad91 b6bc
000002b0: 69b3 893e 1166 0fbd 0e79 733c c492 933d
000002c0: 5776 663e c3bf fb3e 49d4 013f 4a59 1bbe
000002d0: f641 8dbd b90d f0be 6af9 2ebe 1296 15bc
000002e0: 5f14 2dbe 6f04 0a3d 9c89 cdbe cffb a53c
000002f0: a2fb 94be 334b 793e 7993 373e 4625 683e
00000300: 1f89 3a3d 0ab8 94bc 0fa9 0bbd bc21 85be
00000310: 007f 03be 282f 27bf e0a6 a13c e6f6 913d
00000320: 2f1d ddbd f256 5a3e 01d4 113e 4740 ebbc
00000330: cb56 16bd c88e 2b3d 267e 1abe edfd ffbd
00000340: d14c a23e bb49 e83c 940e 553e facb 933e
00000350: e212 0e3f 7696 e63d e9ae 0ebe 5635 81bd
00000360: 1437 19bc 295c 3d3e ba2e 9bbc ec99 3bbe
00000370: 9208 213e 0663 1d3e 3639 873e 9a85 063f
00000380: f164 13bd 978f 4cbe e123 903e c177 85bd
00000390: 2374 6cbe c796 bcbc 3a5a 8cbd 63e1 9cbe
000003a0: 03f0 0abe bf67 0e3e 36c9 57bf 5b2d a1bb
000003b0: 30e8 38be 847d 20be 069b 5e3d 2503 073f
000003c0: 3ca9 0f3e 582d 0abe 5fc5 5bbe 8222 d2bd
000003d0: 5c13 8bba 34f2 aabd 0c54 083e f419 593e
000003e0: 9b7e 9c3e ba64 9a3a f2e4 f5be f964 e43d
000003f0: 7485 3d3e 3a6d 8e3b 03de 853e dffd 39be
-0.38394597 -0.36554235 -0.36739653 0.21076705 0.04493588 0.17385772 -0.21437398 0.24864443
-1.378075 -0.123596504 0.43604246 -0.23751386 0.12295176 -0.30524084 -0.5900304 -0.5537102
0.30199194 -0.006405397 -0.19389004 -0.80065817 0.19572031 0.20713961 -0.35868514 0.07846012
-0.043028496 -0.035340156 0.07987097 -0.36479792 0.05667715 -0.26994422 0.017697956 -0.9072716
0.35543916 -0.26262572 -0.13933197 -0.047631998 -0.41602802 0.049984816 0.06750461 0.005024374
-1.0602808 0.021252662 0.11231233 -0.0698702 -0.6473786 0.116398335 0.09490387 0.36732084
-0.2355265 0.047194548 -0.37548113 -0.24520023 -0.8475884 -0.8087721 -0.618466 -0.8349752
-0.4029257 0.12224647 -0.8604483 -0.06269121 0.18242866 -0.083485834 0.03134285 0.11150297
-0.21528418 -0.18119828 -0.20932007 -0.07300363 -0.02886694 -0.08797306 -0.18261889 0.010786978
0.041061874 -0.17083016 -0.046938192 -0.02167309 -0.12436278 -0.087886654 -0.06712666 -0.064939156
0.033774134 -0.15579715 -0.011173926 -0.1957489 -0.06360205 -0.17902775 -0.13971232 -0.01273674
-0.19935317 0.03451674 -0.20653184 0.047259316 -0.20952104 -0.112714864 -0.21963164 -0.06027529
-0.04323306 -0.19564945 -0.028927196 0.012242919 0.05276637 0.024031065 -0.047483288 -0.10733288
-0.0379643 -0.013195809 -0.018717919 -0.13997532 0.0880523 -0.16480851 0.0055010626 -0.0061742403
-0.2353911 -0.1807528 0.06197354 0.02014177 -0.0101970155 -0.024512423 -0.008871139 0.00500854
-0.17594182 -0.03523677 -0.026538184 -0.07219842 -0.014728443 -0.24654658 -0.1298478 -0.08729051
-0.06892395 -0.080602765 -0.024834506 0.00082223106 0.192795 0.17595765 0.06539268 0.14882146
-0.3897394 0.07181947 0.07775649 -0.17524746 0.06298326 0.002905103 -0.17457779 -0.1918794
0.06158588 0.120803766 -0.51175994 -0.08319011 -0.03902809 0.121557355 0.1759779 -0.024690513
0.14736211 0.033426113 -0.0067475224 -0.09207367 0.14132328 -0.16932797 0.10058657 -0.18861724
-0.12710568 0.23889744 0.050828975 0.15578012 -0.08125696 0.28478503 0.16293654 0.148283
-0.40812045 0.33146766 0.30064362 -0.02228626 0.26894692 -0.035009447 0.014860405 0.07205728
0.2250608 0.4916974 0.50714546 -0.1517078 -0.06897347 -0.4688547 -0.17087331 -0.009130018
-0.16902302 0.033695634 -0.4014405 0.020261673 -0.2909823 0.24345092 0.1792735 0.22670469
0.045540925 -0.018154163 -0.034096774 -0.260023 -0.12841415 -0.6530633 0.019732893 0.0712717
-0.10796582 0.2132223 0.1424103 -0.028717173 -0.036703866 0.041884214 -0.15087184 -0.124996044
0.3169923 0.02835547 0.20806342 0.2886656 0.5549756 0.11259167 -0.1393391 -0.06309001
-0.009351511 0.18492188 -0.01894318 -0.18320435 0.15725926 0.15369806 0.26410836 0.5254761
-0.035984937 -0.1997665 0.28152373 -0.06516982 -0.23091178 -0.023021115 -0.06853147 -0.30640706
-0.1356812 0.13906763 -0.842914 -0.004918737 -0.18057323 -0.1567288 0.05434706 0.52739173
0.14029402 -0.1349386 -0.2146201 -0.10260488 -0.0010610628 -0.08346978 0.13313311 0.21201307
0.30565342 0.0011779286 -0.48026234 0.111520715 0.1850794 0.004346517 0.26145944 -0.1816325

bias f4 [32]
00000000: cd91 eb3d 8a56 3ebe adc7 d03e bef0 3dbe
00000010: db0d ac3c c883 c13e 24c6 2b3f 841d dcbe
00000020: 6d93 603e 671c e7bd 8237 7ebd 99f7 03bf
00000030: 8036 ba3e 8113 063f fbe7 a2bd f13a 9c3e
00000040: 1e6c 90bd af5f 353d 78dc 15bc 3eac 65be
00000050: 430a babe 1302 1d3f 3100 033f 9919 cb3d
00000060: 862c 59be 3216 fa3e 9725 a73e c498 be3c
00000070: 3022 163e 4fde 12be 04cc b03e 9ff2 b0bc
0.11502419 -0.185877 0.4077734 -0.18548867 0.0210027 0.37795854 0.67099214 -0.4299127
0.21931238 -0.11284714 -0.062064655 -0.5154968 0.36369705 0.5237351 -0.07954403 0.3051372
-0.07051872 0.044280704 -0.009146802 -0.22428986 -0.36335954 0.6133129 0.5117217 0.09916992
-0.2120839 0.4884506 0.32645866 0.023266204 0.14661479 -0.14342616 0.34530652 -0.021600066

weight f4 [8, 32]
00000000: fb88 a93e cc9d 2cbe d303 8fbd 491d b43d
00000010: 7a21 79bc 6bfc c5bd 697c 11be d0be 9d3e
00000020: bc1f b03d 3921 173d d09b a0bd 8590 783e
00000030: 74e0 12be 268f 713d e361 3c3e 69d6 0d3c
00000040: 1d0d eabd f66b 78bf 3d7d 3d3e baee 9f3e
00000050: 9dd7 1b3e 3def b73d 7f91 3bbd 7513 c7be
00000060: e0a8 703e ff2f acbe 849b 6a3b d725 31be
00000070: a739 c2bd e0ce 0d3d 9892 5abd ce34 4fbe
00000080: f713 1d3c 1f93 bd3b 0012 a1be be69 b6b9
00000090: 4f77 a13d 08a9 1d3e fe4c 8dbe d40a 953e
000000a0: 2ab6 9fbd 6e29 34be 3050 13be 0a4a ba3d
000000b0: f617 bfbd 436b 433e b3c9 b7bc cf7d 28bd
000000c0: 6713 92bd a4ce 80bd a9d7 583e c0fb 4c3e
000000d0: a890 2d3e 1481 0b3e 4af0 863c 9c2f 2f3d
000000e0: 84b0 543e 44ff 1abe 248e 023e 11c2 08be
000000f0: cb03 80bd 8a8e 073e 3802 dfbc 477d 323e
00000100: 8a11 96be 07da 903c 7b7c 423e c7be f2be
00000110: a02e 4b3e b657 cbbe 2cef a0be ecf5 233d
00000120: cd82 c3bd d504 043e a165 8d3d 5506 843e
00000130: 9c63 aabc dc0b f4be a955 a7bd afab 41bf
00000140: 9759 8e3d 2a63 edbc 8ca2 abbc 3910 2e3e
00000150: 64b4 d8be a0e6 a5bd 5445 6fbf d554 48be
00000160: 4297 2fbf c5b6 27be 218c 9ebe 55a5 46bf
00000170: f188 63be 7585 e2bc a956 d8be 1e7a b13e
00000180: f884 853e 3fe8 7cbc 513e 813d 4c5a bdbe
00000190: 2c57 c0be 949d c3be 0bb4 2b3d 6963 fdbe
000001a0: 6a9e f6be a4cb fc3d 3d70 8d3d b45d c13d
000001b0: 6bad c53c e7a3 30be 2cab 70be 66f4 91bf
000001c0: 78a9 073c b49c d5be 06d9 aabe e185 6dbe
000001d0: cace a0be 7846 073e 4135 45bf 181b 8fbd
000001e0: 6794 b9be 1f91 82bd 650d 6e3e 1534 72bf
000001f0: b9b1 a4be 8b48 033e b9d9 b6bd fbfa 30be
00000200: 9f05 093f ddee 253d aa72 4b3e d69c 18be
00000210: 430b de3d d748 723d 52d9 a3be 7a54 23bd
00000220: 8baa 833e 9e88 e8bc 913b 9d3d 166f 823e
00000230: 1cd7 3fbd 9588 dabe aa2f a2bd 6fc4 813d
00000240: 9647 0fbe 4b4d 22bf 1cac 1b3d 8f87 dcbe
00000250: 0c58 49be 7cfc 6cbe f5ea 5cba 5cb1 9e3d
00000260: 9abe 9ebe 1eb5 babe 26ce 2cbf 3606 0a3e
00000270: f7d9 a03d 9e89 95bd 1dc0 8c3d 6fec 743e
00000280: 20e0 d7be 687a 1fbe 8226 2f3b 6a03 3cbd
00000290: 60f8 943d 069e ae3d 43bb 96bc e308 9fbe
000002a0: c049 6e3d 495f 11be a13b c6bc cc2b 773b
000002b0: 01eb ce3e 9c90 813d 58df 07bd 92d6 6e3d
000002c0: 9769 5ebe 61bc eebc 42a5 a0bd 79c8 fb3d
000002d0: e061 633e 5d3f 35be d259 343d 34c8 223c
000002e0: 12c4 a3bd f054 0c3e a01d 5cbe 5e6f 07be
000002f0: ce05 babd eaa4 f3bd d093 8f3d b9fe 01bd
00000300: 0b5d 94be 8f6d 6ebd fdf3 25bd 52d7 3abd
00000310: ee4d 0ebe b969 643e 03bd d93d 11e7 41bf
00000320: 34c3 0cbe 391b b7bd bd5b d5bd 9696 9dbe
00000330: 278b 92be d5c0 713d 0536 7e3c 4159 f43c
00000340: 62c7 15be 6392 c23d 0d54 b0be 67db 87be
00000350: c773 1ebe 9c6b d4bd db90 613e 8b1e d4bc
00000360: cdc2 34be f1be 513e cf79 fb3d 7306 94be
00000370: 9d34 813d 5a79 ca3d bb46 a3bd b1cd c2be
00000380: 6dde c9bd 760a 45bd 7ab7 2f3e b254 bbbd
00000390: 8b6c 1abf e961 b33c 4212 d23d 1e85 e6bb
000003a0: 00f4 44be fb04 f9bd f25d d43c 553e 6dbb
000003b0: 33a0 ebbe 47f5 3e3e 9914 abbe 444d c9bd
000003c0: 167e 5fbd c723 8abe abed edbe 7aaa 76be
000003d0: f1eb b3bc 4d4f 753e 85a2 fb3d 2517 113e
000003e0: 0204 103e d2d6 6e3e 18d5 92bd 3180 cebd
000003f0: c221 58bf 8599 09be 3715 c53c fda1 4dbf
0.3311232 -0.1685707 -0.06983151 0.08794648 -0.015205735 -0.096672855 -0.14207615 0.3080964
0.08599803 0.036896918 -0.07842219 0.2427388 -0.14343435 0.058974408 0.18396716 0.008657076
-0.114282824 -0.97039735 0.18504806 0.3123682 0.15218969 0.08981178 -0.045793053 -0.38882032
0.2350192 -0.33630368 0.003579826 -0.17299591 -0.094836526 0.03462112 -0.05336246 -0.20234987
0.0095872795 0.0057853605 -0.31459045 -0.0003479253 0.078840844 0.15396512 -0.27597803 0.29109824
-0.07798417 -0.17593929 -0.14386058 0.09096153 -0.09330742 0.19083886 -0.022435045 -0.041135605
-0.07132607 -0.062894136 0.21176018 0.2001791 0.16949713 0.13623458 0.016472 0.042770013
0.2077046 -0.15136439 0.12749535 -0.1335528 -0.062507235 0.13237968 -0.027222738 0.17430602
-0.29310256 0.017682089 0.18992798 -0.47411177 0.19842005 -0.39715356 -0.31432474 0.04002945
-0.09546433 0.12892468 0.0690415 0.2578608 -0.02079945 -0.47665298 -0.08170635 -0.75652593
0.06950682 -0.02897795 -0.020951532 0.16998376 -0.42325127 -0.08100629 -0.9346516 -0.19563611
-0.68590176 -0.16378315 -0.30966285 -0.77596027 -0.22220208 -0.027651528 -0.42253616 0.3466348
0.2607801 -0.015436231 0.06310714 -0.36982954 -0.37566507 -0.3820616 0.04191975 -0.49489906
-0.48167735 0.12343529 0.069061734 0.094417006 0.024130544 -0.17250024 -0.23502797 -1.140271
0.008280151 -0.41721117 -0.333687 -0.23195602 -0.31407768 0.13210475 -0.77034384 -0.069875896
-0.36246035 -0.06375336 0.23247297 -0.9461072 -0.32166842 0.12820642 -0.08928246 -0.17283241
0.535242 0.040511 0.1986796 -0.14903578 0.10841992 0.059151497 -0.3200174 -0.039875485
0.2571605 -0.028385457 0.07677377 0.25475377 -0.046836004 -0.4268233 -0.079192474 0.06336295
-0.13992152 -0.6339919 0.038005933 -0.43072173 -0.19662493 -0.2314319 -0.00084273453 0.07748672
-0.31004792 -0.36466306 -0.6750206 0.13478932 0.078540735 -0.07301639 0.0687258 0.23918317
-0.4216318 -0.15574038 0.0026725833 -0.045901693 0.07273936 0.08526234 -0.01839984 -0.31061468
0.058175802 -0.14196505 -0.024198355 0.0037715314 0.4041367 0.0632641 -0.03317198 0.0583101
-0.21719967 -0.02914256 -0.078440204 0.122940965 0.22205305 -0.17699952 0.04403097 0.009935427
-0.07996382 0.13704276 -0.21495676 -0.13226077 -0.090831384 -0.11896689 0.07010615 -0.031737063
-0.28977236 -0.058209952 -0.04051589 -0.0456155 -0.13896915 0.22305955 0.10631754 -0.75743204
-0.13746339 -0.08940739 -0.10417888 -0.3077895 -0.2862179 0.05902179 0.015515809 0.029827716
-0.1462684 0.09500577 -0.34439126 -0.26534578 -0.15473853 -0.10372087 0.22027914 -0.02589347
-0.17652436 0.20482995 0.122790925 -0.2891117 0.06308863 0.09886427 -0.07972475 -0.38047555
-0.098568775 -0.04810568 0.17159835 -0.09147014 -0.60321873 0.021897273 0.10257389 -0.007034912
-0.19233704 -0.12159153 0.025923703 -0.0036200483 -0.4602066 0.18648253 -0.33414152 -0.098291904
-0.054563604 -0.2698042 -0.4647039 -0.24088469 -0.021963092 0.23956032 0.122868575 0.14168985
0.14064029 0.23324135 -0.07169551 -0.10083044 -0.8442651 -0.1343747 0.024057968 -0.803253

bias f4 [8]
00000000: 2de0 b9be eaa7 ccbd 604d d4be 6390 57be
00000010: a6f2 813b fe45 143e 1431 533e 696b b83e
-0.36303845 -0.099929646 -0.41465282 -0.21051173 0.0039656935 0.14479825 0.2062419 0.36019447
