models_save/aug_model_save_k_means_centers_18/aug_model_save.pth (torch, 15950 bytes, 6 tensors)

weight f4 [64, 10]
-2.4985695 -3.5978122 -0.2482697 -0.64801615 -5.4177585 -2.945921 -0.8583421 -3.500628
-2.6302314 -1.0262393 -3.3101938 -0.53014606 -1.9670011 -3.3267882 -3.0378034 -0.4120949
-2.121936 -1.072541 -0.7583091 -2.3278341 -0.37217945 -4.35283 -1.7713242 -2.9235175
0.1351466 -2.2205904 -1.1126808 0.15363382 -1.9399979 0.032430634 -0.42378935 -1.0281572
-3.0716915 -3.1182587 -3.6640797 -2.5451787 -2.0007882 -3.7570632 -0.5988845 -0.7511356
0.43497366 -0.11717992 -5.2617097 -2.878897 -4.7669444 -3.0204833 -4.760671 -4.736852
-1.2723092 -2.3485234 -3.083394 -3.2113364 -3.1163468 -2.29694 -0.94128674 -0.28362775
-0.4986413 -0.34633955 -2.4878414 -1.5131925 -2.946498 -1.2762651 -0.7182994 -1.6765614
-0.04802883 -0.29970053 -2.5172136 -1.1925032 -0.8633011 -0.3278833 -4.4876637 -4.7102633
-3.385763 -0.7098284 -1.2900138 -0.31446052 -0.037590932 -0.64532465 -0.5855942 -1.6364831
-1.6375779 -1.5155941 -2.7961304 -0.26960596 0.02550619 -2.6314266 -3.0855842 -3.6881933
-0.45391175 -0.6249392 0.86434704 -2.6187785 -2.1279495 0.7006104 -3.4908752 -0.07279737
0.010871711 -4.0732293 -2.1353595 -2.7242417 -0.7883731 -2.517533 -2.6749609 -4.001257
-4.0620403 -0.50320596 -1.0575632 -3.94565 -2.1774652 -2.1636868 0.55606246 0.3338654
-4.009828 -4.4926496 -5.017968 -0.9359199 -3.430437 -0.113152705 0.18094951 -2.4881155
-4.0998154 -3.9900725 -3.6521783 -0.26851895 -4.80353 -0.53617567 -0.24199426 -0.5190123
-1.7156482 -0.47919077 -4.040437 -4.146734 1.2986995 -4.4493074 1.620672 -2.0373323
0.55272585 0.4710119 -0.20008348 -0.39247978 -0.24374367 -0.5034883 -2.851596 -3.2079873
-3.6290023 -1.0037366 -2.82379 -1.996501 -2.4137821 -1.8720855 -4.473055 -3.0385723
-4.709394 -0.8675608 0.01275795 -0.546367 -3.5013404 -0.1890314 -0.12095792 -0.6858064
-3.1349876 -2.121348 -3.2647254 -1.0091254 -0.96745366 -2.2991734 -0.7716619 -3.5911565
-0.7652599 -0.6981018 -0.16240904 -2.9941618 -0.10535891 -2.8695269 -4.743568 -1.8167439
0.31599194 -0.8176049 -0.12269128 -2.583051 -3.2737956 -3.5161066 -0.7197324 -3.6729314
-0.28667682 -2.4684436 -0.22727358 -2.1859071 -0.5137517 -2.093578 -2.741574 -1.6823847
-3.2300522 -0.13043724 -3.4416091 -0.31797493 0.2699966 -0.6339948 -2.2090442 -0.83731234
0.121088915 0.2229258 -6.161133 -3.6534915 -6.5113945 -0.5726836 -4.901317 -4.7909226
-2.9605787 -1.8768646 -4.69547 -4.847907 -3.46092 -5.247127 -1.1455469 -1.5073227
-0.1345596 -3.4629478 -0.22860937 -3.152722 -2.542302 -2.3747194 -2.8301127 -0.27632198
-4.5667977 -2.296083 -0.04536536 -0.7802582 -0.5588904 -1.0949631 -3.7947178 -0.5777266
-0.9323705 -2.6307461 -0.023274777 -1.0336648 -3.425384 -2.4242485 -2.3724456 -0.88355297
-1.6507076 -2.7408295 -0.6159213 -2.4708939 -1.7487428 -1.1054289 -0.65320975 -3.574463
-2.9245803 -2.827192 -2.7698958 -1.7541213 -3.4823933 0.36245024 -3.9493616 -0.22830705
00000000: 90e8 1fc0 8e42 66c0 6a3a 7ebe 63e4 25bf
00000010: 475e adc0 f889 3cc0 4fbc 5bbf 4a0a 60c0
00000020: b655 28c0 cf5b 83bf 37da 53c0 a7b7 07bf
00000030: b1c6 fbbf 19ea 54c0 5f6b 42c0 1afe d2be
00000040: cdcd 07c0 0649 89bf 8c20 42bf 3cfb 14c0
00000050: 4e8e bebe 624a 8bc0 c0ba e2bf e91a 3bc0
00000060: df63 0a3e 271e 0ec0 536c 8ebf 2f52 1d3e
00000070: da51 f8bf fcd5 043d ebfa d8be a89a 83bf
00000080: 9896 44c0 8d91 47c0 4880 6ac0 35e4 22c0
00000090: ea0c 00c0 b973 70c0 7f50 19bf 6c4a 40bf
000000a0: deb4 de3e 07fc efbd ed5f a8c0 d93f 38c0
000000b0: cf8a 98c0 994f 41c0 6b57 98c0 4b94 97c0
000000c0: 07db a2bf 354e 16c0 5456 45c0 8986 4dc0
000000d0: 3a72 47c0 1101 13c0 2bf8 70bf a837 91be
000000e0: ea4d ffbe 6b53 b1be cb38 1fc0 4bb0 c1bf
000000f0: 6c93 3cc0 a85c a3bf 78e2 37bf 9099 d6bf
00000100: e1b9 44bd 5972 99be 071a 21c0 f2a3 98bf
00000110: 4d01 5dbf 52e0 a7be f19a 8fc0 7aba 96c0
00000120: 57b0 58c0 50b7 35bf 2c1f a5bf f800 a1be
00000130: f3f8 19bd ff33 25bf 80e9 15bf 4778 d1bf
00000140: 279c d1bf fdfe c1bf cdf3 32c0 cb09 8abe
00000150: 5bf2 d03c 4b69 28c0 367a 45c0 5c0b 6cc0
00000160: 1f67 e8be 04fc 1fbf d945 5d3f 119a 27c0
00000170: 5330 08c0 345b 333f 806a 5fc0 ca16 95bd
00000180: 431f 323c e557 82c0 bba9 08c0 fa59 2ec0
00000190: d2d2 49bf 431f 21c0 8f32 2bc0 4c0a 80c0
000001a0: 3cfc 81c0 1bd2 00bf 3b5e 87bf 8885 7cc0
000001b0: 975b 0bc0 d879 0ac0 1c5a 0e3f 68f0 aa3e
000001c0: 8350 80c0 c9c3 8fc0 3293 a0c0 7298 6fbf
000001d0: 488c 5bc0 9bbc e7bd d44a 393e 493d 1fc0
000001e0: b031 83c0 595d 7fc0 4abd 69c0 517b 89be
000001f0: 85b6 99c0 cf42 09bf 58cd 77be fddd 04bf
00000200: 5c9a dbbf 7e58 f5be 434b 81c0 0cb2 84c0
00000210: c93b a63f ba60 8ec0 2e72 cf3f a763 02c0
00000220: 717f 0d3f 7928 f13e afe2 4cbe 1cf3 c8be
00000230: f197 79be 9ce4 00bf 8d80 36c0 aa4f 4dc0
00000240: 9341 68c0 717a 80bf fab8 34c0 588d ffbf
00000250: 687b 1ac0 7fa0 efbf 4423 8fc0 f877 42c0
00000260: 5bb3 96c0 7718 5ebf b906 513c b5de 0bbf
00000270: f615 60c0 7391 41be c9b8 f7bd 0291 2fbf
00000280: a3a3 48c0 2ac4 07c0 43f1 50c0 052b 81bf
00000290: 0bab 77bf a825 13c0 a28b 45bf 82d5 65c0
000002a0: 13e8 43bf cdb6 32bf 8e4e 26be 59a0 3fc0
000002b0: 6ac6 d7bd 54a6 37c0 4fcb 97c0 108b e8bf
000002c0: b2c9 a13e 8e4e 51bf 9145 fbbd b550 25c0
000002d0: de85 51c0 e407 61c0 6240 38bf 4f11 6bc0
000002e0: 4ec7 92be fbfa 1dc0 68ba 68be e7e5 0bc0
000002f0: 3b85 03bf 2ffd 05c0 f375 2fc0 6258 d7bf
00000300: 2db9 4ec0 5791 05be 5343 5cc0 9ccd a2be
00000310: ff3c 8a3e 7c4d 22bf fb60 0dc0 1a5a 56bf
00000320: 77fd f73d a946 643e 0028 c5c0 ced2 69c0
00000330: 585d d0c0 649b 12bf 97d7 9cc0 3d4f 99c0
00000340: 1f7a 3dc0 193d f0bf 4a41 96c0 0e22 9bc0
00000350: b77f 5dc0 77e8 a7c0 48a1 92bf f3ef c0bf
00000360: fec9 09be f0a0 5dc0 9318 6abe 32c6 49c0
00000370: 13b5 22c0 67fb 17c0 9120 35c0 137a 8dbe
00000380: 3523 92c0 06f3 12c0 07d1 39bd 00bf 47bf
00000390: 7113 0fbf c027 8cbf a8dc 72c0 e4e5 13bf
000003a0: d5af 6ebf 255e 28c0 bfaa bebc 214f 84bf
000003b0: 7e39 5bc0 e326 1bc0 26d6 17c0 8730 62bf
000003c0: 634a d3bf c069 2fc0 05ad 1dbf 2023 1ec0
000003d0: ced6 dfbf b27e 8dbf c138 27bf 00c4 64c0
000003e0: 532c 3bc0 b7f0 34c0 f945 31c0 0c87 e0bf
000003f0: 88df 5ec0 1493 b93e 57c2 7cc0 53c9 69be

bias f4 [64]
-0.8067068 -1.7384869 0.69696057 -0.65666664 1.5169961 -0.22203463 -0.5638714 0.11730104
-0.45951062 3.2906384 -0.980714 0.90224767 -0.25806803 2.820216 0.50421757 -1.0568653
-0.9344595 1.0301633 -0.20641547 0.104617245 0.8878269 -0.41928473 -0.41501307 -0.27356943
-0.42319047 0.32192996 -0.7785867 -1.32404 -0.21646276 -0.4481001 2.443457 -0.29140553
-0.5927031 1.6793712 -0.8593699 1.4497361 -0.56452507 3.9754298 0.30017442 -0.1616055
-0.29353833 0.8496977 0.7545775 0.6696133 0.15224335 -0.7773445 -0.5170008 -1.9407151
-1.0340405 1.1047379 -0.34166062 -0.7558769 -0.61531395 -0.63445127 -1.0037109 0.6467888
0.8141371 0.42283192 0.8160385 2.3030326 1.1903738 -0.7922361 1.8729098 -1.5300305
00000000: 5684 4ebf bd86 debf 026c 323f 4e1b 28bf
00000010: ee2c c23f 0c5d 63be e059 10bf 873b f03d
00000020: fa44 ebbe d299 5240 1310 7bbf b4f9 663f
00000030: 7e21 84be 6b7e 3440 6714 013f 5d47 87bf
00000040: bd38 6fbf 64dc 833f 945e 53be 9141 d63d
00000050: a048 633f 7dac d6be 987c d4be 4b11 8cbe
00000060: 6cac d8be 01d4 a43e 7551 47bf 257a a9bf
00000070: 6aa8 5dbe 606d e5be 9961 1c40 1b33 95be
00000080: 64bb 17bf a3f5 d63f aaff 5bbf f490 b93f
00000090: b784 10bf 716d 7e40 76b0 993e ea7b 25be
000000a0: a84a 96be ca85 593f fe2b 413f c76b 2b3f
000000b0: aee5 1b3e 0d00 47bf 2a5a 04bf 5a69 f8bf
000000c0: 705b 84bf 0d68 8d3f 24ee aebe 2681 41bf
000000d0: 3785 1dbf 666b 22bf 9979 80bf f393 253f
000000e0: 4a6b 503f 6d7d d83e e6e7 503f e364 1340
000000f0: 2b5e 983f fccf 4abf 82bb ef3f 0ad8 c3bf

weight f4 [32, 64]
-5.9818797 6.396032 5.4736595 -6.597917 -1.2688512 -6.7101455 5.6257954 1.6897123
6.523171 -5.8418956 6.13065 -1.6996883 -5.1538506 -5.0458627 6.4438405 1.4889827
-6.5179944 6.2978616 6.1254673 -6.145576 -0.6033895 -1.9834324 -6.558939 -5.5152626
5.960437 -6.3074656 -6.1981206 6.0336475 6.7104373 -6.1901975 4.0341125 0.87640893
-6.11998 -6.751219 5.8764987 -0.5359325 -5.3160543 -5.7552824 -6.6469884 5.910256
-0.49812493 -5.7058396 6.8143377 6.244624 1.0505642 5.9968615 5.4326177 -6.4377165
6.6201997 -6.7429967 -5.7611804 1.8251979 -4.801543 6.0410457 6.574219 -6.0644493
-5.8608174 6.466183 -6.3191257 -6.4012675 -6.7215586 1.5874867 -6.3195806 -6.806003
5.726621 -6.5719595 5.608043 -6.630334 -1.1777807 -6.788291 5.967617 1.6676761
6.4455013 -5.21925 6.047213 1.5374123 -5.4531274 -5.186279 6.439868 1.4472128
-6.4318295 -6.253703 -6.2028546 6.1137266 -0.60313433 -2.0414917 6.510923 -5.6305723
-6.1290603 6.4756804 -6.4401183 -6.163233 6.767095 6.2142854 -5.7874703 0.9334348
6.045045 -6.584831 5.968655 0.39798528 -5.395158 -5.939503 -6.7272687 5.946869
-0.52459866 -6.2271605 -6.9700403 6.1771426 1.1699277 -6.403346 -5.572067 6.178957
6.737494 -6.840737 -5.5350556 -1.8813759 5.173897 -6.349685 6.737131 -5.435281
-5.9939737 -6.4954333 -6.522807 6.194527 -6.7556653 1.6992935 -6.333123 -7.1084867
-5.817986 -6.353359 -5.9414926 -6.619059 -1.3231207 -6.5760465 -5.7490816 1.6489413
6.4077954 0.06725307 6.17237 -1.8015599 -5.426528 2.6435962 6.260474 -1.420381
6.3890996 -6.340502 6.186864 -5.551573 -0.9223005 -2.0230758 6.3304873 -4.852061
6.0788083 -5.7058992 6.027511 6.005953 -6.6726494 6.316883 3.959836 0.84678775
6.0944586 -6.566969 5.791665 -1.083547 4.519684 -5.938636 6.486443 -5.336611
-0.6262417 5.2103043 6.8819704 -6.1942563 -1.2105966 -6.648084 -5.117153 -6.4380345
6.593801 -6.74813 5.312973 1.2074724 -5.170368 -6.3596053 -6.588584 5.175164
-5.758303 6.2777524 6.2346005 -6.485677 6.658984 -1.7312946 -6.453814 -6.7847443
5.8135233 -6.579156 5.542963 -6.605002 1.0606716 -6.7410464 -6.1930046 1.6555866
-6.444074 -5.7231383 -6.1443377 1.4750843 -5.186399 -5.1929936 -6.736273 1.4110715
-6.419871 -6.2641964 -6.3116984 -6.1561656 -0.6696882 2.0116775 6.501539 -5.771907
-6.065605 -6.3698955 6.48148 5.909691 -6.6958575 6.324259 -5.6263776 -0.98125565
-6.216265 6.6253953 5.866755 0.26398513 5.2909966 3.652296 -6.6969085 -5.9949946
0.447919 -5.8658266 6.9204144 6.307074 1.132541 -6.59703 5.4217143 -6.181258
-6.6649103 6.773954 5.6184444 -2.0115921 5.0119214 -6.1074834 6.5877385 5.507679
4.9159646 6.4941955 -6.3586364 -6.429466 -6.774611 -1.6179639 -6.327697 6.7275796
00000000: 8f6b bfc0 4bac cc40 3828 af40 2322 d3c0
00000010: b769 a2bf 83b9 d6c0 8406 b440 7e48 d83f
00000020: d1bd d040 cff0 bac0 492e c440 638f d9bf
00000030: 58ec a4c0 b577 a1c0 f133 ce40 fc96 be3f
00000040: 6993 d0c0 1588 c940 d403 c440 8fa8 c4c0
00000050: bc77 1abf 1de1 fdbf d4e2 d1c0 087d b0c0
00000060: e6bb be40 c2d6 c9c0 0157 c6c0 a413 c140
00000070: e7bb d640 1916 c6c0 7317 8140 565c 603f
00000080: e0d6 c3c0 fc09 d8c0 470c bc40 df32 09bf
00000090: 1e1d aac0 462b b8c0 21b4 d4c0 d120 bd40
000000a0: 3b0a ffbe 3d96 b6c0 0e0f da40 f6d3 c740
000000b0: e378 863f 4ae6 bf40 01d8 ad40 c601 cec0
000000c0: add8 d340 a1c6 d7c0 975b b8c0 16a0 e93f
000000d0: 3ea6 99c0 3f50 c140 0160 d240 f80f c2c0
000000e0: d18b bbc0 f9ea ce40 4736 cac0 2fd7 ccc0
000000f0: 0217 d7c0 c432 cb3f 013a cac0 c7ca d9c0
00000100: 7b40 b740 7e4d d2c0 1775 b340 b22b d4c0
00000110: 85c1 96bf ae39 d9c0 b8f6 be40 6976 d53f
00000120: 8c41 ce40 1904 a7c0 c582 c140 edc9 c43f
00000130: 0580 aec0 fff5 a5c0 6613 ce40 453e b93f
00000140: 8cd1 cdc0 561e c8c0 c97d c6c0 a6a3 c340
00000150: 0367 1abf cda7 02c0 7b59 d040 a62d b4c0
00000160: 4321 c4c0 c638 cf40 7315 cec0 3439 c5c0
00000170: 0b8c d840 6ddb c640 f532 b9c0 95f5 6e3f
00000180: 0271 c140 f0b6 d2c0 39ff be40 bac4 cb3e
00000190: 22a5 acc0 6910 bec0 c945 d7c0 c04c be40
000001a0: 194c 06bf e644 c7c0 920a dfc0 27ab c540
000001b0: 31c0 953f 36e8 ccc0 5f4e b2c0 04ba c540
000001c0: 8d99 d740 51e7 dac0 2d1f b1c0 edd0 f0bf
000001d0: 9090 a540 9f30 cbc0 9496 d740 d2ed adc0
000001e0: a2ce bfc0 97da cfc0 d6ba d0c0 9139 c640
000001f0: 692e d8c0 7382 d93f f2a8 cac0 b978 e3c0
00000200: f12c bac0 b84e cbc0 b520 bec0 55cf d3c0
00000210: 055c a9bf f96e d2c0 7af8 b7c0 8210 d33f
00000220: a90c cd40 fabb 893d 0e84 c540 8499 e6bf
00000230: 1ea6 adc0 ae30 2940 ce55 c840 0bcf b5bf
00000240: 8173 cc40 64e5 cac0 cafa c540 7ca6 b1c0
00000250: e31b 6cbf 137a 01c0 5a93 ca40 1544 9bc0
00000260: 9985 c240 ba96 b6c0 5fe1 c040 c430 c040
00000270: 5886 d5c0 e823 ca40 f46d 7d40 15c7 583f
00000280: ce05 c340 9c24 d2c0 5255 b940 abb1 8abf
00000290: 40a1 9040 4e09 bec0 f190 cf40 84c5 aac0
000002a0: 6051 20bf d0ba a640 1a39 dc40 5937 c6c0
000002b0: d4f4 9abf 1bbd d4c0 b8bf a3c0 6104 cec0
000002c0: 6b00 d340 aef0 d7c0 e003 aa40 758e 9a3f
000002d0: a873 a5c0 e381 cbc0 aed5 d2c0 f29a a540
000002e0: 0544 b8c0 59e3 c840 d981 c740 aa8a cfc0
000002f0: 6616 d540 109b ddbf a585 cec0 a01c d9c0
00000300: 6208 ba40 7288 d2c0 f45f b140 2d5c d3c0
00000310: 16c4 873f a7b6 d7c0 182d c6c0 43ea d33f
00000320: db35 cec0 f323 b7c0 6a9e c4c0 90cf bc3f
00000330: fbf6 a5c0 012d a6c0 8c8f d7c0 fe9d b43f
00000340: 956f cdc0 4c74 c8c0 6ff9 c9c0 4fff c4c0
00000350: b070 2bbf 53bf 0040 9c0c d040 76b3 b8c0
00000360: 7019 c2c0 2fd6 cbc0 4968 cf40 301c bd40
00000370: 7744 d6c0 5460 ca40 490b b4c0 9233 7bbf
00000380: a5eb c6c0 3d03 d440 75bc bb40 0f29 873e
00000390: d84f a940 38bf 6940 134d d6c0 ffd6 bfc0
000003a0: a455 e53e dab4 bbc0 0974 dd40 8dd3 c940
000003b0: 1af7 903f df1a d3c0 af7e ad40 decc c5c0
000003c0: f246 d5c0 3bc4 d840 4cca b340 edbd 00c0
000003d0: a961 a040 8170 c3c0 c1ce d240 e83e b040
000003e0: 954f 9d40 73d0 cf40 f379 cbc0 2fbe cdc0
000003f0: 9dc9 d8c0 7119 cfbf 7e7c cac0 5548 d740

bias f4 [32]
-2.0377052 -2.3371077 -3.877514 -4.0847526 -5.0396366 -4.15755 -3.7735684 -2.751141
-4.5083976 -3.2048097 -3.1088753 -1.945228 0.18585536 -3.2750583 -2.8052585 -2.3666215
-2.6444054 -1.771593 -2.6233506 -1.2238057 -1.664186 -2.206549 -2.9168887 -2.4049592
-3.85283 -3.3654516 -2.0076044 -2.9183908 -3.3222058 -3.5899425 -1.9130242 -4.1081753
00000000: c369 02c0 2c93 15c0 3029 78c0 4bb6 82c0
00000010: b444 a1c0 a60a 85c0 2582 71c0 b212 30c0
00000020: cb44 90c0 9a1b 4dc0 d0f7 46c0 3bfd f8bf
00000030: de50 3e3e 8e9a 51c0 5b89 33c0 ba76 17c0
00000040: f03d 29c0 8fc3 e2bf fae4 27c0 aaa5 9cbf
00000050: 0c04 d5bf 1938 0dc0 4eae 3ac0 daea 19c0
00000060: c494 76c0 8f63 57c0 977c 00c0 eac6 3ac0
00000070: 059f 54c0 9ec1 65c0 fadd f4bf 2c76 83c0

weight f4 [8, 32]
4.5556912 1.8371519 -0.37417892 -2.8723083 0.18578905 -2.8058457 -4.421845 -5.9634147
-0.30564955 -4.2823954 2.2300062 3.6504867 0.6985938 -0.650073 -4.3155966 -3.4956253
-6.3352485 -5.390238 -2.6051457 -6.0975027 -3.7934883 -5.9567866 -5.9837 -0.0036098608
-0.16417153 0.7753739 -5.654462 -4.1976585 1.4704851 1.838184 1.850224 0.002295259
4.3901496 -1.8887899 -0.3396689 2.4323351 0.18545993 -2.7884884 -4.080403 -6.0964675
-0.35777745 -4.2916126 -2.6036587 -2.4701838 0.74478984 0.5550314 -4.24634 1.7371609
-6.3250065 -5.649269 -2.5960052 -5.7779956 -3.813101 -6.199655 -6.2101083 0.0046392516
-0.12680301 0.73382795 -5.776988 -4.1144285 1.4982237 -0.000116115385 1.7539278 -0.01781232
-4.789109 1.8504281 -0.24993075 -2.9010406 -0.0903035 2.4217184 -4.3269444 5.6130524
-0.42772123 4.0186076 -2.7399585 -4.3415103 -0.8927683 -0.62208384 -3.9815936 -1.6693591
-6.528644 5.569049 -3.226951 -5.94756 -5.545985 -6.203052 5.83798 -0.037851132
-0.20209631 0.7418245 -4.243788 3.9192214 -1.6928127 -1.8720244 -1.9360169 -0.030366655
-4.8834167 1.7771461 -0.22655791 2.7691514 -0.21676134 2.4087725 4.0585365 -5.8279686
-0.35398227 -4.1423626 2.8110905 -4.204426 -0.7051781 0.5154915 3.8981564 1.3155818
-6.5528173 -5.6551175 -3.2209744 -5.6592274 -5.2299604 -6.304792 -6.033695 -0.055214874
-0.64497113 -0.54489774 -4.423693 -4.019341 -1.6591191 -2.1534328 1.7927442 -0.025082344
-4.5282288 -1.8845886 -0.28371283 2.5649915 -0.0038493222 2.23042 3.7640893 -5.9746265
-0.3922526 3.5204546 -2.951711 -4.19137 -0.7844426 0.500829 3.7339952 1.1818395
6.153179 -5.735103 -3.0942113 -5.673853 -4.586727 -6.358752 -6.071731 -0.026571408
-1.2146467 0.6711121 -4.3401594 3.723186 1.5484792 -2.2513747 1.575268 -0.009032671
-4.33991 -5.5848813 -2.9005291 1.079107 0.9293139 -5.656659 -3.725365 -0.9222312
-0.65234745 2.2534068 -5.366736 0.94365376 0.7653077 -6.2652545 -3.4422026 -1.133779
-2.6059616 2.5277379 1.4143621 -1.3352637 -2.3348854 2.6462655 0.45238668 -0.013215273
-0.32122356 0.9070779 -1.3325313 -4.0365505 1.5510116 -1.0786332 -5.8716526 -6.156068
-5.865901 -3.6992502 -6.123494 -2.7843204 -0.94932246 -4.0189724 -6.0759306 -3.530987
-0.43095517 2.9563844 2.219649 -2.4306269 -1.0133904 -2.9971871 -6.104931 0.77210766
5.18164 4.1244497 2.5375643 -3.8388126 -3.2508166 4.9364643 -3.7560935 -0.078462966
-0.41961375 1.0480374 -2.5566869 -6.172328 1.9057419 1.8838886 -3.847867 -1.4801391
-1.6652796 1.2980828 0.7885557 -5.4453483 -6.6800117 1.3354617 3.356188 1.4039704
-5.227197 -4.8312974 -2.370336 -5.0543118 -5.8714395 1.0440973 2.6109529 0.56779516
3.5059767 -2.6828587 -5.6657143 3.196908 -3.560754 3.997488 1.6348132 -6.772863
-6.6870766 -6.725351 2.5053596 2.2630723 -6.6873693 -6.6614714 2.236315 -0.046365645
00000000: 39c8 9140 cb27 eb3f 6194 bfbe e6d3 37c0
00000010: 7c3f 3e3e fa92 33c0 c17f 8dc0 4bd4 bec0
00000020: 197e 9cbe 6209 89c0 6cb8 0e40 93a1 6940
00000030: 0bd7 323f 2f6b 26bf 5e19 8ac0 53b8 5fc0
00000040: 5bba cac0 d47c acc0 b5ba 26c0 be1e c3c0
00000050: 83c8 72c0 ff9d bec0 787a bfc0 6a93 6cbb
00000060: 951c 28be e77e 463f 5af1 b4c0 3853 86c0
00000070: db38 bc3f 9d49 eb3f 24d4 ec3f 0e6c 163b
00000080: 1b7c 8c40 dec3 f1bf 15e9 adbe 61ab 1b40
00000090: 35e9 3d3e 9876 32c0 a992 82c0 4316 c3c0
000000a0: 9b2e b7be e454 89c0 58a2 26c0 7e17 1ec0
000000b0: 8caa 3e3f 8a16 0e3f 04e2 87c0 4a5b de3f
000000c0: 7466 cac0 d0c6 b4c0 f324 26c0 57e5 b8c0
000000d0: d909 74c0 9363 c6c0 35b9 c6c0 dd04 983b
000000e0: a6d8 01be 26dc 3b3f 16dd b8c0 66a9 83c0
000000f0: cbc5 bf3f f982 f3b8 b580 e03f 24eb 91bc
00000100: 6240 99c0 d4da ec3f d9ed 7fbe a6aa 39c0
00000110: 0bf1 b8bd 6ffd 1a40 5476 8ac0 209e b340
00000120: 47fe dabe 6f98 8040 7b5b 2fc0 a7ed 8ac0
00000130: 778c 64bf e340 1fbf 6ed2 7ec0 8fad d5bf
00000140: a7ea d0c0 a635 b240 5d86 4ec0 6952 bec0
00000150: b678 b1c0 677f c6c0 bbd0 ba40 ca09 1bbd
00000160: 56f2 4ebe 36e8 3d3f 1ccd 87c0 86d4 7a40
00000170: 16ae d8bf 7f9e efbf 67cf f7bf 7ec3 f8bc
00000180: f344 9cc0 8679 e33f ccfe 67be c739 3140
00000190: aff6 5dbe 5429 1a40 88df 8140 b87e bac0
000001a0: 2a3d b5be 3c8e 84c0 e8e8 3340 a88a 86c0
000001b0: 8d86 34bf 40f7 033f 657b 7940 fc64 a83f
000001c0: aeb0 d1c0 b9f6 b4c0 7224 4ec0 6418 b5c0
000001d0: d65b a7c0 dbc0 c9c0 0814 c1c0 fe28 62bd
000001e0: d41c 25bf 6b7e 0bbf e58e 8dc0 719e 80c0
000001f0: 045e d4bf d8d1 09c0 a478 e53f 7d79 cdbc
00000200: 40e7 90c0 333a f1bf cf42 91be d228 2440
00000210: e944 7cbb 34bf 0e40 d7e6 7040 2430 bfc0
00000220: 55d5 c8be 214f 6140 d5e8 3cc0 b41f 86c0
00000230: 3bd1 48bf 5436 003f c7f9 6e40 8446 973f
00000240: d8e6 c440 f785 b7c0 8f07 46c0 3490 b5c0
00000250: 78c6 92c0 e57a cbc0 9f4b c2c0 48ac d9bc
00000260: 8b79 9bbf 01ce 2b3f 96e2 8ac0 ae48 6e40
00000270: 9134 c63f 8616 10c0 62a2 c93f c5fd 13bc
00000280: 8be0 8ac0 59b7 b2c0 45a2 39c0 2e20 8a3f
00000290: 84e7 6d3f 5a03 b5c0 616c 6ec0 5817 6cbf
000002a0: 3e00 27bf d137 1040 4dbc abc0 4b93 713f
000002b0: 35eb 433f f77c c8c0 0c4d 5cc0 ac1f 91bf
000002c0: 13c8 26c0 75c6 2140 d109 b53f ece9 aabf
000002d0: c36e 15c0 6a5c 2940 3a9f e73e df84 58bc
000002e0: 6a77 a4be 4236 683f 6390 aabf 6c2b 81c0
000002f0: 8c87 c63f a710 8abf 94e4 bbc0 82fe c4c0
00000300: 76b5 bbc0 84c0 6cc0 aaf3 c3c0 4e32 32c0
00000310: cc06 73bf 6c9b 80c0 066e c2c0 b1fb 61c0
00000320: 28a6 dcbe 6735 3d40 bb0e 0e40 648f 1bc0
00000330: c7b6 81bf ead1 3fc0 985b c3c0 d9a8 453f
00000340: ffcf a540 7efb 8340 7467 2240 1baf 75c0
00000350: 610d 50c0 84f7 9d40 d663 70c0 31b1 a0bd
00000360: 9dd7 d6be 1726 863f c2a0 23c0 b683 c5c0
00000370: 5aef f33f 4323 f13f 7443 76c0 3375 bdbf
00000380: e227 d5bf 9427 a63f c9de 493f 4b40 aec0
00000390: a8c2 d5c0 69f0 aa3f c9cb 5640 4db5 b33f
000003a0: 3345 a7c0 fd99 9ac0 96b3 17c0 ecbc a1c0
000003b0: d5e2 bbc0 fba4 853f da19 2740 065b 113f
000003c0: ec61 6040 f5b3 2bc0 884d b5c0 249a 4c40
000003d0: 65e3 63c0 d8d6 7f40 8f41 d13f 4bbb d8c0
000003e0: 88fc d5c0 1336 d7c0 d057 2040 2dd6 1040
000003f0: eefe d5c0 c62a d5c0 c91f 0f40 e7e9 3dbd

bias f4 [8]
-0.19848788 -0.14506565 -2.1852944 -1.7364798 -0.1773392 0.53349835 0.2705602 1.2347621
00000000: 6840 4bbe 178c 14be dddb 0bc0 f844 debf
00000010: 6898 35be 5993 083f de86 8a3e af0c 9e3f
