runthroughs/weight_decay/run_1/baseline_model_save.pth (torch, 16000 bytes, 6 tensors)

weight f4 [64, 10]
00000000: 27fa 92bc c7ac aebb ef86 cabe a1e5 7ebe
00000010: d8d9 6dbe 46f3 a3be e2c0 84bd e73b e2bd
00000020: 8d87 613e 8973 2f3e fc97 adbe 578d 9ebe
00000030: e101 953b 0202 05bc 8ad1 443d 9762 063f
00000040: 294f 813e 79b4 bfbd 54d3 073f f8e2 4cbe
00000050: f4b2 97be fa3b a0bc 2362 95be 217e 593e
00000060: b9a3 e2be 4213 d63d 2887 88bd b6c4 cabe
00000070: 366c d83c d4cd d23d 9a19 1b3e ae87 673e
00000080: d424 c33d 9f77 1fbe 9807 393d b26b 2cbf
00000090: de88 a5be 57e4 0f3d bbf3 05be b07d 733d
000000a0: 8bcc eb3a 6873 95bd 360f ae3d de5b 573e
000000b0: 90aa 563e 5ddd 8ebc 44d4 293e 4ac8 8dbd
000000c0: 1bf7 453b 129a 06bf b670 9cbd 3469 95be
000000d0: 8bee 093e da5e bc3e 371c 35bf d34c 1dbe
000000e0: 863c 143e dbbd c83c cdd6 573a ea37 97bc
000000f0: 30e9 8c3d 054c 863d 7fdf e8be f53f 43be
00000100: 7ca1 10bd 7e7b b93e 24fc 133f 2325 793e
00000110: 40ff 5a3e f2ab 71be 20d6 4abe ac20 dbbc
00000120: ccea 4dbe 98e7 7f3e a364 9a3e 2e19 08bf
00000130: bb45 e9bd f00c 2cbc 9077 b33d 0c3b 89be
00000140: 453b 9e3d e12d acbd 6176 633e 9a45 163e
00000150: ea4c 543e e6f7 813e 590b 9ebe 08d4 15be
00000160: 74b8 2f3e 2fa4 263e d179 8fbe 2f6d 80be
00000170: 221a c93c 8fff 00be c034 82be 0cce 363e
00000180: 0947 b5be d0b6 c43d 323a 65bd 7814 e5bd
00000190: e4d8 acbc 9db7 92bd 1f19 b6bc 3d15 c8bb
000001a0: e1dc b23c 1877 023f a121 223e d74d 37be
000001b0: 5a76 b8be 58da afbe 8895 c53d 480f 553d
000001c0: 3e2b 873e 6b8d 53bc 369c c63d 9d81 173f
000001d0: 6299 59be 629c d5bc a4cb d6be 0000 85be
000001e0: 58cd 43be 6ad6 75bd 887a 82be 4050 933e
000001f0: 001f 08be c67d 22bd dec3 a53e 5852 92bd
00000200: c27e 323e a043 9abd dc0b cf3d 6473 8f3e
00000210: f7f9 763e 561b c63e 67d6 6d3d ce12 83bd
00000220: dbdc e8be a46a 16be dff0 b43c 863f 73be
00000230: c0b2 1cbe 5ff8 83be e0e5 93be 24af 87be
00000240: 0a68 7cbe 0bfb f13e c84f 36bd 5077 53be
00000250: b39f d6bd fff3 93be 91a2 2fbe e2d4 3fbe
00000260: c130 89be bf43 cfbe 618c 6bbe 0184 1cbf
00000270: 46d2 4abe 5f9c 233e 6748 30be 1ebd 893e
00000280: dd37 c9be cd84 11be 5fd6 9c3e 7cd7 01be
00000290: 1fc1 103e 6452 aabd 2a10 debe e52a 613e
000002a0: a05e 75be b8db 293e 1c52 ba3e 771c fbbd
000002b0: d13b 68bd 9693 4bbe 0ac5 773d f1dc ccbc
000002c0: ebb0 303e 4ac4 183e 5bec b5bc 74f3 953a
000002d0: cc0a d63d 4979 0bbe 2a4e e33e 361a 86bd
000002e0: 33fa 37bd cc51 f1b9 9106 aebe fbb9 c5be
000002f0: c414 1abe 6e20 a23e 037c 77be 9a7a 25bd
00000300: 475b 4dbe 8c6e e63e 8bb8 e23d 9fa1 2abe
00000310: a675 61be 0cc5 3c3e be49 a1bd 305b 903e
00000320: 0960 5c3c ec3a abbd 9854 3ebe 5197 91be
00000330: 75ff 91be 7dc6 22bc 62b2 42be 27b7 b5be
00000340: ffed 28bf 8cce 75bf d00f 853e 62ff 13bf
00000350: c074 f9bd 37d3 543e 624c 6a3e f8a4 58bd
00000360: 4671 e6bd 8cce 2d3e d5c4 9bbd c81c aebd
00000370: 1316 4fbe 837d 82bd c648 6dbe e483 b03e
00000380: fe88 603c aabf 1a3f 60cd 3b3e 9b6e 69be
00000390: 7457 8c3e 0a5d 72be 05b6 43be a66f e8bd
000003a0: 6293 e53d 4c72 8b3e 808e c8bc b8eb d23d
000003b0: 7ba6 4a3d 29a7 0cbf 134b 683e 8b64 56be
000003c0: 63ff 033d 6be5 f8bd a0c7 8fbe 9595 243d
000003d0: 593d 423e 0546 143c 4ab9 25be 2b15 cdbe
000003e0: 02d3 08be bde6 573e ef3b d2be 9d91 6dbe
000003f0: 203a 9abe b03d 773e ff56 f83c 2242 0b3f
-0.017941548 -0.0053306553 -0.3955607 -0.24892284 -0.23227632 -0.3202154 -0.06482102 -0.11046582
0.22024365 0.17133917 -0.33905017 -0.3096721 0.004547343 -0.0081181545 0.048051395 0.52494186
0.25255707 -0.09360594 0.53056836 -0.20008457 -0.29628718 -0.019559849 -0.29176435 0.2123952
-0.44265535 0.10452892 -0.06666404 -0.39603204 0.026418786 0.10293165 0.15146485 0.22610351
0.09528509 -0.15572976 0.045173258 -0.6735183 -0.32330984 0.03512987 -0.13081257 0.059446037
0.0017990036 -0.072974026 0.08498995 0.21031138 0.20963502 -0.017439539 0.16584879 -0.06922968
0.00302071 -0.5257884 -0.076386854 -0.29181826 0.13469903 0.36791116 -0.7074618 -0.15361337
0.14476213 0.024504593 0.0008233607 -0.01845928 0.068804145 0.06557468 -0.45483014 -0.19067366
-0.035310254 0.3622703 0.5780661 0.24330573 0.21386433 -0.23600748 -0.19808245 -0.026748978
-0.20109099 0.2499069 0.30154905 -0.5316342 -0.11390253 -0.010501131 0.08763039 -0.26802862
0.077261485 -0.08407188 0.22213127 0.14674988 0.20732465 0.25384444 -0.30868033 -0.14631665
0.17160207 0.16273569 -0.28022626 -0.250833 0.024548594 -0.12597488 -0.2543087 0.17852038
-0.35405758 0.09605181 -0.055963702 -0.11185545 -0.021099515 -0.07163928 -0.022228776 -0.0061060474
0.021833839 0.5096297 0.15833141 -0.17900787 -0.36027795 -0.3434627 0.096476614 0.052016526
0.2640018 -0.012912135 0.096977636 0.5918215 -0.21249917 -0.026075546 -0.4195224 -0.25976562
-0.19121301 -0.060018934 -0.2548411 0.28772163 -0.13293076 -0.03967073 0.32375997 -0.07144612
0.17431167 -0.0753243 0.10109684 0.28017724 0.24118792 0.3869273 0.058065798 -0.06400071
-0.45481 -0.14689118 0.022087513 -0.23754701 -0.15302563 -0.2577543 -0.28886318 -0.2650081
-0.24649063 0.47261843 -0.04450968 -0.20650983 -0.10479679 -0.28897092 -0.17151858 -0.18733552
-0.2679501 -0.40481374 -0.23002769 -0.6113892 -0.19806775 0.1597762 -0.1721512 0.26902097
-0.39300433 -0.14210816 0.30632302 -0.12679857 0.1413617 -0.08316496 -0.43371707 0.21989019
-0.23961878 0.16587722 0.3639077 -0.122612886 -0.05669767 -0.19880518 0.060490645 -0.025007697
0.17254989 0.14918628 -0.02220743 0.0011440353 0.10451278 -0.13620485 0.44395572 -0.06547968
-0.044916343 -0.00046028045 -0.33989385 -0.38618454 -0.15046984 0.31665367 -0.241684 -0.040400125
-0.20054351 0.45006216 0.11070355 -0.16663216 -0.22017536 0.18434542 -0.07875393 0.2819457
0.013450631 -0.08360848 -0.18586957 -0.28435758 -0.2851521 -0.009935019 -0.1901336 -0.35491297
-0.65988153 -0.9601829 0.25988626 -0.5781156 -0.121804714 0.20783697 0.228807 -0.0528917
-0.11252074 0.16973323 -0.07605902 -0.08501583 -0.20223264 -0.06371596 -0.23172292 0.34475625
0.0137045365 0.60448706 0.18340063 -0.22796099 0.2741047 -0.23668304 -0.19112404 -0.1134942
0.11209752 0.2723564 -0.024482012 0.10298866 0.049475174 -0.54942566 0.22684889 -0.20936792
0.032225978 -0.12153133 -0.2808199 0.040181715 0.18968715 0.009049897 -0.16183963 -0.40055212
-0.13361743 0.21084113 -0.4106135 -0.23200078 -0.3012247 0.24144626 0.03031492 0.54397786

bias f4 [64]
00000000: a3ea 93be a134 8cbe fafc 8c3e fb18 573d
00000010: 1ac9 a23d 7a96 1cbe 4305 a7be 25f0 c8be
00000020: 2abb 9b3e 6bde 1d3e a80c 36be cdf2 443c
00000030: dc0d 75bd 7ee2 6ebe d533 c53e a086 fcbe
00000040: d245 9dbe 03f6 0abd cf23 d6be 1715 c2be
00000050: f766 8abe 19bf 7bbe 5939 56be 8816 923b
00000060: 1cd3 debe b42a ef3e 53eb 18be 784f 87be
00000070: 8a77 a8bd 60ea 693e 801a 3bbd 85b7 93bd
00000080: 3004 d1bc 2b62 82be 44b2 53be ffff 06be
00000090: d63a 253e 1f1b da39 3b65 efbe 7473 0fbd
000000a0: a190 bc3d 00c9 123e bcd7 753e ede1 d5be
000000b0: 3a92 053e a012 7b3e 8285 00bf 8f2c 59be
000000c0: bb4e 963e 27ee 34be 82e0 d2be eaf3 22be
000000d0: e1c4 20bf 6dab 493c 0946 debe a53c 3b3e
000000e0: 2cd3 1fbe 124f 6cbe fd06 a6be 25ad 323e
000000f0: 76ce d2be 5e73 54bd 3748 53be 9140 17bf
-0.2888995 -0.27383903 0.27536756 0.052514058 0.07948513 -0.15291777 -0.32621202 -0.39245716
0.30416232 0.15416877 -0.17778265 0.012020779 -0.05982767 -0.23328587 0.38516107 -0.4932146
-0.3071733 -0.03392602 -0.41824195 -0.37906715 -0.2703168 -0.24584617 -0.20920314 0.0044582523
-0.4352044 0.46712267 -0.14933519 -0.26427817 -0.08225925 0.22843313 -0.04567957 -0.07212738
-0.025514692 -0.2546552 -0.20673472 -0.13183592 0.16135725 0.00041600407 -0.4675692 -0.035022214
0.09207273 0.14334488 0.24008077 -0.4177393 0.13044062 0.24518824 -0.50203717 -0.21208404
0.29356942 -0.17668973 -0.4118691 -0.15913358 -0.62800413 0.0123089375 -0.43412808 0.18284853
-0.156079 -0.23077038 -0.32427207 0.17448862 -0.41173142 -0.051867835 -0.20633017 -0.59082896

weight f4 [32, 64]
00000000: 5b9e 52be e1b4 c1bd e090 8c3e 3483 a0be
00000010: b9d6 dc3d c9da 363e a2c7 ec3b 4a47 1a3e
00000020: 9350 023e 7619 9c3b 5f50 4b3e 10ee b0bc
00000030: 6ea9 923d 195d 56be 2e9c 8e3e b5b4 3a3e
00000040: be9f f23d 9448 e3bd d8ae f63b 4911 513e
00000050: 0c54 04bf 7ce1 883d 9b91 9b3c ef4f b2b9
00000060: 3c9a 92bb 11a6 213e 5e09 03bd 9a24 85be
00000070: 25c7 74be b998 cd3d 650d 163d 014f 53be
00000080: 527a fb3d e6a8 a8bc fcba b43d 8ca6 7abd
00000090: 9eaf fcbc 3f86 44be 4ecc b23d cc2c 0dbd
000000a0: cf83 c63d 65de 2d3e c695 563d 10b9 253e
000000b0: 342b ef3c f3f3 c63d 8f4f 9fbd b170 533b
000000c0: 0f50 a5bb 5d23 3f3e 1708 c2bd c5d4 723d
000000d0: 722f dc3c a864 dabc 2506 01bd c13d 29bd
000000e0: d145 80bd d020 1dbe 6bcf 23bd 26e7 b6bd
000000f0: ca51 fcbc d298 35bd 1844 a23d 6b40 723e
00000100: 8a1c 1a3d ac2f 4bbe 98f7 633e c181 18be
00000110: f844 273d 689d b33e 129a 18bd 23f1 6f3d
00000120: d821 3dbe e949 93bd 3b37 82be ffd2 85bf
00000130: d314 993c c856 0abc 0984 5fbd e33a aa3e
00000140: 2c81 f03d 90db 8ebc d711 76be a54a f73d
00000150: 1023 b8be 6d22 b53d 50f6 b9be bc08 5b3e
00000160: 4c37 763d 0684 d6bd 1683 3a3e 68d6 ddbd
00000170: fda2 413d 2021 423e 034d 9b3e 8d63 453e
00000180: 4a73 da3d 5d41 8ebe 2e48 af3c 4470 403d
00000190: fd45 043e 8345 85bf c7fb 233d 19f7 a8bd
000001a0: b09c c63d eb38 7abd 660a 0e3e 8078 5e3e
000001b0: 84c5 a33b 0bb7 153e 2e70 2bbe 688d 473d
000001c0: 1863 783e 5824 bfbc e21c 493e ae27 803e
000001d0: 64d3 323e fe91 6f3e 3db4 bd3b 7e80 603e
000001e0: ab61 7a3d 9dd4 243c deaf 6abe c44d 053e
000001f0: 56c0 2c3e d9ac ab3d 1656 e8be 0e84 9d3d
00000200: e8bd 003d a109 253d 7358 3f3e faa1 ba3d
00000210: 293b 013e 7d08 203e c350 a53d 56c4 e6bc
00000220: f137 05bd 0cd2 c93d 04de 653a 6265 2abc
00000230: 9ac5 b4bd 2844 d8bd bc6d 8d3b 2b94 783d
00000240: 1327 463b bbfd 923d 1b64 d03d 8e31 273e
00000250: cbcc e43d e644 873e fde9 a5bd 3478 003e
00000260: f254 f13d 2ae6 3dbd 24aa d1bd e7b2 80bc
00000270: 764c 57be 86cd 213d 36d0 b7bd d50f 29be
00000280: f0aa d7bd fd23 a6bc 4650 dfbd bdf0 b4bc
00000290: 6d6e d63d 44c8 cf3c 43a3 623d 01cb 653e
000002a0: 781a fcbd a479 aa3d 2935 5fbe 6ffe a33e
000002b0: ce3a 2f3e fea0 3e3d 9006 bf3d fed7 4cbe
000002c0: 9660 53bc f4bc c4bd cf01 3c3d 43b4 9f3e
000002d0: 2b08 8dbb 2598 0cbd f46d cdbb dc00 62be
000002e0: 6be4 d2bd 3ea9 8cbe ae5b 343d 8843 9fbe
000002f0: e662 823e 2183 01bd 514c 653e 044e 1fbe
00000300: fb59 9a8c 2b26 49ac cf99 808c cc3c 9da2
00000310: 1708 f3a5 78e4 a7a1 075b b490 48d5 c880
00000320: aae8 25b6 ece4 f3ab 14a7 86b3 f201 39b9
00000330: b69e 2481 e78a 48b2 99f5 d71a 284c 798d
00000340: d820 a8b5 e86e 8da8 8dd4 70b6 e669 7d80
00000350: 242a 1f8b 57a1 1a9e 279f 46ad f925 c880
00000360: a030 4981 3ec9 12ae 4201 cbb4 3f6b b5b6
00000370: 881b f799 5227 59aa 4eac 67ac dea1 34b2
00000380: f52d ef94 8bfb f4b7 d528 28af 985b c8b6
00000390: 46f4 a791 840a 98ba 6361 b6a6 7561 17ae
000003a0: 1244 39af bf58 338e a1e9 2381 416d 6722
000003b0: 4668 acaf 6d20 5a81 c0d8 5a00 18c4 811e
000003c0: 206a 97b0 96e5 3eb3 ea6b 4ea6 aab2 22b4
000003d0: 51ad 9295 a710 a589 bfd5 af00 8a93 8f30
000003e0: 41b2 bea8 c006 ce2b 4c73 8f29 a99d adac
000003f0: da51 2781 a0d3 93b4 7970 09a1 e09c f698
-0.2056822 -0.09458328 0.2745428 -0.313501 0.107831426 0.17856897 0.0072259465 0.15066257
0.12726049 0.0047637774 0.19854878 -0.021597892 0.071612224 -0.20933951 0.2785353 0.18232997
0.11846875 -0.110978276 0.007528167 0.2041675 -0.51690745 0.06683633 0.018990329 -0.0003401036
-0.0044739526 0.15786006 -0.031991355 -0.26004487 -0.23904093 0.10038895 0.036633868 -0.20635606
0.1227919 -0.02058835 0.08824727 -0.061193988 -0.03084546 -0.19191836 0.08730374 -0.03446655
0.09693109 0.16979368 0.05238893 0.16183877 0.029195406 0.09714498 -0.077788465 0.0032263214
-0.005044944 0.18665834 -0.09474199 0.059284944 0.026878092 -0.026659325 -0.0315 -0.04131866
-0.062633164 -0.15344548 -0.03999273 -0.08930807 -0.030800719 -0.044335194 0.07923144 0.23657386
0.037624873 -0.19842404 0.22262418 -0.14893247 0.040837258 0.3508103 -0.037256308 0.058579575
-0.18469942 -0.071918316 -0.25432763 -1.0455016 0.018686688 -0.008443542 -0.054569278 0.33248052
0.117433876 -0.01743868 -0.24030243 0.12074784 -0.3596425 0.08844457 -0.36320734 0.2139005
0.06011133 -0.104744 0.18214068 -0.1083191 0.04727458 0.18957949 0.30332193 0.19276257
0.10666521 -0.27784243 0.021396723 0.046982065 0.12917323 -1.0411838 0.040035035 -0.08250255
0.096978545 -0.061089437 0.13871154 0.21725655 0.004997911 0.14620607 -0.16742012 0.04871884
0.24256551 -0.02333276 0.19639924 0.25030273 0.17463452 0.23395535 0.0057893083 0.21924016
0.0611283 0.010060457 -0.2291865 0.13017946 0.16870245 0.083825774 -0.45378178 0.07691203
0.03143111 0.040292386 0.18686084 0.09112926 0.12620224 0.15628238 0.08072045 -0.028169792
-0.032524053 0.098545164 0.00087687396 -0.010400148 -0.08826752 -0.10559875 0.00431606 0.06068818
0.0030235692 0.071773015 0.101753436 0.16327497 0.11171874 0.26419753 -0.0810127 0.12545854
0.1178378 -0.04636208 -0.1023753 -0.015710307 -0.21025261 0.039502643 -0.0897526 -0.16509946
-0.105306506 -0.020280832 -0.10903983 -0.02208745 0.10470281 0.025364049 0.05533148 0.22440721
-0.12309736 0.08323982 -0.21797623 0.32030055 0.17112276 0.046540253 0.093274236 -0.2000427
-0.012901446 -0.096063524 0.045900162 0.31192216 -0.004303952 -0.034324784 -0.006269211 -0.2207064
-0.102974735 -0.27472872 0.044032745 -0.3110621 0.2546608 -0.031619195 0.22392394 -0.15557104
-2.3781612e-31 -2.8585005e-12 -1.9814093e-31 -4.2619306e-18 -4.2159262e-16 -1.1376835e-18 -7.113773e-29 -1.844361e-38
-2.4722344e-06 -1.7329727e-12 -6.2702526e-08 -0.000176437 -3.0235912e-38 -1.1673115e-08 8.93187e-23 -7.682072e-31
-1.2526534e-06 -1.5702243e-14 -3.5886508e-06 -1.1517426e-38 -3.065399e-32 -8.1860564e-21 -1.1290336e-11 -1.8380721e-38
-3.6952756e-38 -3.3375296e-11 -3.7812612e-07 -5.4067054e-06 -2.5550321e-23 -1.9287114e-13 -3.2922723e-12 -1.0514183e-08
-2.415096e-26 -2.92042e-05 -1.5294017e-10 -5.9711274e-06 -2.64985e-28 -0.0011599814 -1.2655184e-15 -3.4419984e-11
-1.6849835e-10 -2.2106183e-30 -3.0105992e-38 3.1364176e-18 -3.1360708e-10 -4.006354e-38 8.34295e-39 1.3739509e-20
-1.1016859e-09 -4.444663e-08 -7.161686e-16 -1.5152423e-07 -5.9242375e-26 -3.9737965e-33 1.614789e-38 1.0446553e-09
-2.1171543e-14 1.4639054e-12 6.3704765e-14 -4.9344595e-12 -3.073178e-38 -2.753486e-07 -4.656626e-19 -6.3747913e-24

bias f4 [32]
00000000: e3fe 773e 9f9b 5b3e f795 573e 11bc 34af
00000010: 78ff b03e 9cf3 b13d 675e 46bc d427 893d
00000020: 97ee 3fbd 0eb4 b43c 37d2 fb3d 3146 b6bd
00000030: 9ab7 0f3e dc58 803e 1eaf 5f3e e124 9d3e
00000040: 7a17 f83d 2d82 63be a0b3 ae3d ffed 253e
00000050: 4af2 043c bda3 1f3d 6cf5 afbd eb24 463e
00000060: 0e48 b0bc 2386 32bc 7b39 573d 5b37 6e3e
00000070: 283d ba3d c48c d73d 8cac d73b adf1 f7bd
0.24218325 0.21446083 0.21053301 -1.6437719e-10 0.34569907 0.08689043 -0.012107468 0.0669705
-0.046858396 0.022058513 0.12295955 -0.08900107 0.14034882 0.25067794 0.21844146 0.306922
0.12113853 -0.22217627 0.085303545 0.1620407 0.008114407 0.038974512 -0.085917324 0.1935002
-0.021518733 -0.0108962385 0.052545052 0.23263304 0.09093696 0.10524896 0.0065818485 -0.12106643

weight f4 [8, 32]
00000000: dbb3 2ebe 2f40 41be 1f36 25be a345 e1b6
00000010: 7804 64be 75e0 673e 5b85 b93e cc4a c23b
00000020: 151e 1dbe 7a1d a2bd b4b4 503e 313a ba3e
00000030: 2b18 5cbe 6fed 043e ea5f a23d b008 9038
00000040: b825 c83d 5b36 4c3e 3189 c2bd 1956 1b3e
00000050: 1a15 15be 19c1 123e 4fc6 00bd e19f c2bd
00000060: bdf0 c3be 86b2 80be 5284 84be b492 06be
00000070: 9690 b43c 3ac8 fa3d 6fe2 053e a55d 793e
00000080: 0aaf 6cbd 3ee6 d5bd c8a7 cebd c9cd 8733
00000090: bde2 d2bb 5b0c 6bbc 0eca a53b a80c 683e
000000a0: 1181 c83d 7283 693e 6a82 0b3e a49f a03e
000000b0: 5557 9dbe 2a5f c93c b02b 23bd 8df0 0c3c
000000c0: 0ace 8b3d 74ca cf3c 9f65 bdbe bda3 c63d
000000d0: df39 eabd bb1d 9c3d 927d 8dbe 4cbd 033e
000000e0: 7e5b d3bd b3ae 3ebe d997 cabd 6d3d 0bbe
000000f0: 1b50 a6bd 4c8b 123e 2e6f d93d ba56 003e
00000100: ab85 30bd d17a 35bf d978 86bd 0683 d934
00000110: 8fd5 6abe 8a5a 6bbe 9054 14bf 1d07 843d
00000120: b01b 293e e8f5 543c 31bd c93d f74e 67be
00000130: e79a 783e 29f0 eb3d c4b2 bcbe dde9 35be
00000140: 7b56 16bf 39fb 663e a9e7 013e b1b2 98be
00000150: 1e5a 86bd 2104 9bbc 4fb5 bfbe 55ec 8cbe
00000160: e043 163e 17a0 10bd c8b6 473e e7e7 1d3e
00000170: ea52 b2be 3e64 c43e 1933 d7bd 5da5 0bbe
00000180: 0c47 813e 2482 1fbf 0238 11b9 50f8 58a6
00000190: 257c 1fbe a72f 9d3d feb3 b7be 4feb fcbe
000001a0: ff4c 0dbe 4454 29be 2974 433e be0c 16bf
000001b0: 13f5 1c3e 77b5 da3a 320c 743c dd4a b73d
000001c0: 35ca 28bf b968 66be dba7 7bbd 365e dfbe
000001d0: 74c9 e8be 4c05 6abe f01e f8bd e98a f4be
000001e0: b238 2a3e 6935 8dbd ea00 a03e 2715 a6be
000001f0: def5 4bbe 2689 81be 256e a3be 4ae3 cebd
00000200: 21ff 313e f816 15be 53ca 273e 8d65 c1a9
00000210: 9838 e9bd 63ea 22be 90d3 45be c866 663e
00000220: 7345 ef3e 445a 1b3d 9313 90bd c1c5 e1bd
00000230: 36f8 e23c 4043 02be 990d 7ebe 6046 5bbe
00000240: ab05 dc3d 1cfc c83d 60ad bd3e 0e6b a5bc
00000250: bbb1 12be 8ab8 b83d 56b9 943d bd49 153e
00000260: a9f6 4cbe dba5 b5be 5b57 bd3e 8e18 0f3f
00000270: 84bb 95be 4849 803e 52ae dd3b feb1 19bd
00000280: 2409 d73a fe76 69be b17d 0a3e d808 90b4
00000290: d0ad d63c 6b65 babd 6e82 be3b 5e0f b8be
000002a0: 9993 14bd d7ef d8bb 7386 debd 1cae adbe
000002b0: a1a1 853e 0228 bc3e 4d24 b83d d9c1 16be
000002c0: 1cbc 613e 09dd 953d 5acd 41bd b745 4a3e
000002d0: 9c9c a9bd 73e2 943d 4b58 f9bd 4961 623c
000002e0: 442d b73e f533 c0bb 90a9 98bd 6df0 703f
000002f0: 5497 fd3d d607 1d3e 5adf 6dbd 4cba c3bd
00000300: 25e6 91bd 80ae 2d3e 6e2a a63d cef6 adb2
00000310: ba62 a63d 5bb4 fe3d fe73 383e a1d3 e2be
00000320: 3889 a1bd f30e a73b 35f8 d0bb c84d 5fbf
00000330: 86af 913e c3aa 52be 6beb 183e a601 89bd
00000340: 1b84 acbc a6a4 14be d7ca 623d 9706 a43c
00000350: 4564 223e ab92 b5bd d74e 713d 5cd4 6d3d
00000360: 326a b53d 0be9 84bc 789f c23e 446f 2abf
00000370: 5349 c93d 2ab7 0abd a4a4 69be 2190 8c3d
00000380: 22d8 703e 32c9 3e3e cda9 193e 5cda d734
00000390: abaf 7d3e 9f7a ec3d 1994 5c3d 483b 21bd
000003a0: 5d92 6abc 72bf 0fbf 74a4 7f3e 10be 29bf
000003b0: 8ebf 35bc e680 a2be f031 113e e3a2 a13d
000003c0: eb9d 2c3e c720 f5be 3771 c9bd a6c3 643d
000003d0: 7a8b f23d e4a4 eabe 65b2 b93d 7fd1 6fbd
000003e0: df2f 26be 9c67 013e aa99 acbe 7fa1 6cbf
000003f0: 19fb 2bbe d98f 25bf 8546 7c3d 74b9 2fbe
-0.17060797 -0.1887214 -0.16133927 -6.7136293e-06 -0.2226733 0.22644217 0.36234555 0.0059293266
-0.15343507 -0.079157785 0.20381433 0.36372522 -0.21493594 0.12981199 0.079284504 6.868073e-05
0.09772819 0.1994261 -0.094988234 0.15169562 -0.14558831 0.14331473 -0.03143912 -0.09503151
-0.38269606 -0.25136203 -0.25882202 -0.131419 0.0220416 0.122452214 0.13074659 0.24352129
-0.057784118 -0.10444306 -0.100905955 6.3238595e-08 -0.0064357207 -0.0143462075 0.005059487 0.22661078
0.097902425 0.22804049 0.13623968 0.31371796 -0.30730692 0.02458151 -0.039836586 0.008602274
0.06826408 0.025365092 -0.36991593 0.09699199 -0.11436819 0.07622858 -0.27634865 0.1286518
-0.10320185 -0.1862133 -0.09892244 -0.13597651 -0.08120748 0.1431095 0.10616909 0.12533084
-0.043096226 -0.7089053 -0.065660186 4.0514732e-07 -0.22933029 -0.22983757 -0.5794153 0.06446669
0.16514468 0.012998082 0.098505385 -0.22588716 0.2427784 0.11520416 -0.36855137 -0.17764993
-0.5872571 0.22556771 0.12686028 -0.2982383 -0.06560157 -0.018922867 -0.37443015 -0.27524057
0.1467433 -0.035308924 0.1950332 0.15420495 -0.34828883 0.3835773 -0.10507793 -0.136373
0.25249517 -0.62307954 -0.00013849142 -7.527658e-16 -0.15574701 0.076751046 -0.3587951 -0.49398276
-0.13798903 -0.16536051 0.1908728 -0.58613193 0.15327863 0.0016686161 0.014895486 0.08949826
-0.65933543 -0.22500886 -0.061439376 -0.43626565 -0.45466197 -0.22853583 -0.12115276 -0.4776223
0.1662319 -0.06894953 0.31250697 -0.32438013 -0.1991801 -0.25299948 -0.3191997 -0.10101946
0.1738248 -0.14559543 0.16385774 -8.588538e-14 -0.113877475 -0.15909724 -0.19318986 0.22500145
0.46732673 0.03792788 -0.070349835 -0.11024047 0.027706247 -0.12720966 -0.24809875 -0.21413565
0.107432686 0.09813711 0.37046337 -0.02019265 -0.14325611 0.09019573 0.072619125 0.1457891
-0.20015968 -0.354781 0.3698071 0.5589684 -0.29244626 0.2505591 0.0067651654 -0.037523262
0.0016405922 -0.22799298 0.1352451 -2.6828525e-07 0.026205927 -0.09101375 0.0058138883 -0.35949224
-0.036273573 -0.006620388 -0.10865488 -0.33921897 0.26099876 0.36749274 0.08991299 -0.14722385
0.22044414 0.0731755 -0.04731498 0.19753157 -0.08281824 0.07269754 -0.12175044 0.01381714
0.35776722 -0.0058655688 -0.074542165 0.9411686 0.12382379 0.1533502 -0.058074333 -0.09557018
-0.07123975 0.16961098 0.081135616 -2.0252084e-08 0.08124299 0.12436744 0.18012998 -0.44302085
-0.078875005 0.0050982176 -0.006377245 -0.8722806 0.28454226 -0.20572953 0.14933555 -0.066897675
-0.021059087 -0.14515933 0.055369224 0.020022674 0.15858562 -0.08865865 0.05891308 0.05806385
0.08858146 -0.016224405 0.3801229 -0.6657603 0.098284386 -0.033866085 -0.22816712 0.06863428
0.23519948 0.18631437 0.1500618 4.0205748e-07 0.24774043 0.115468256 0.053852174 -0.039363176
-0.014317122 -0.561515 0.24965078 -0.6630564 -0.0110930335 -0.31738967 0.14179206 0.07892396
0.16857116 -0.4787657 -0.09836047 0.055850647 0.11843009 -0.45828927 0.09067229 -0.0585494
-0.16229199 0.1263718 -0.33710986 -0.92433923 -0.16795005 -0.6467262 0.06159069 -0.17160589

bias f4 [8]
00000000: 52ee 97be 5891 55bd 80bc 30be 2fbd 0b3d
00000010: 5c51 26be 3fcf 3f3e 9704 043e ec20 a53e
-0.2967401 -0.052140564 -0.17259407 0.034115966 -0.16241974 0.18731402 0.12892376 0.3225168
