models_save/model_save_k_means_centers_3/model_save.pth (torch, 15910 bytes, 6 tensors)

weight f4 [64, 10]
000000 73 77 3d 3e bd dc bc 3e 63 3e 18 be 7f 32 a8 bb
       0.18502598 0.3688716 -0.14867549 -0.0051329727
000010 c0 7a a1 bb 05 50 fc 3d f1 e4 08 be 74 37 c9 bc
       -0.004927963 0.1231995 -0.13368584 -0.024562575
000020 42 d3 40 be 14 86 6a be 30 88 55 3e ef f3 b0 3d
       -0.18830588 -0.22902709 0.20852733 0.08640277
000030 87 79 3d be ec c9 20 3c 17 b6 31 bd 27 9d fd 3d
       -0.1850339 0.009813767 -0.043386545 0.1238349
000040 21 1e a8 3e 6b 88 ac bd 1b 6e 23 3e c1 65 16 be
       0.32835487 -0.08424457 0.1595997 -0.14687254
000050 8e ed 30 3d 0c 2b 95 be 47 43 1d 3f 54 89 be be
       0.0431953 -0.29134405 0.6143078 -0.37214148
000060 14 0b a2 3d ae 98 b1 be 90 3f 82 3d b3 49 f8 3c
       0.07912269 -0.34686798 0.0635978 0.03030858
000070 1e fb ad 3d 6c 23 37 be 86 df de 3c 11 39 23 bc
       0.084951624 -0.17884606 0.027206194 -0.009962336
000080 76 19 fc be 5c d3 b5 bd 5d 77 a6 be 3c 74 4c bf
       -0.49238175 -0.08878204 -0.32512942 -0.7986486
000090 d8 93 83 38 1e 73 e7 bd 47 0f 4f 3d 3f a9 9c bd
       6.274105e-05 -0.11301254 0.05055168 -0.07649469
0000a0 e8 83 f2 3d 36 73 04 be ec fb a5 bd d3 dc 5e be
       0.11841565 -0.12934574 -0.08104691 -0.21763925
0000b0 64 46 02 bf fb ee 0a bd d8 05 8d 3d 15 5b 2c 3e
       -0.5088866 -0.033919316 0.0688588 0.1683162
0000c0 80 fe d9 bd 36 a5 07 3e 2f 51 db bd 46 91 ea bd
       -0.10644245 0.13246617 -0.10708844 -0.1145349
0000d0 d3 58 a9 bc 41 5d e4 be 1e 53 95 be 83 3c 7f be
       -0.020672238 -0.44602397 -0.29164976 -0.24925427
0000e0 8c 9f 04 bf e6 f4 96 3e 56 cc f4 be 32 3e 0b 3f
       -0.5180595 0.29483718 -0.47812146 0.5439178
0000f0 33 bb 51 be 9f 13 60 3d 4d 34 f7 bd 46 f8 45 be
       -0.20481567 0.054706212 -0.120705225 -0.1933299
000100 04 6a 42 be 6f de 45 be 3f 7a 65 3e a2 d2 89 3e
       -0.18985754 -0.19323133 0.22409914 0.26918513
000110 6b 8b 94 bc 7d 18 13 bb fe 38 b8 3c 18 33 3a be
       -0.018132886 -0.0022445016 0.022488113 -0.18183553
000120 eb dd 9f be 3c 22 db be 61 2e fb be a4 2c 43 be
       -0.31223997 -0.42799556 -0.49058822 -0.19059998
000130 80 db 93 bd 11 4c c8 be aa 78 8d be 81 48 71 bf
       -0.07219601 -0.39120534 -0.27631122 -0.9425126
000140 4d 7a 31 bd a4 78 58 3c 35 b6 81 be d7 2c 90 be
       -0.043329526 0.013212357 -0.25334325 -0.2815921
000150 26 bc 63 bd 51 32 1b be bd a2 87 3e 26 38 dd bc
       -0.055599354 -0.15155913 0.26491347 -0.027004313
000160 f4 14 ff 3d 9e b6 ca 3d 6d a3 94 bc 4d 8a cc 3c
       0.12455168 0.09898113 -0.018144334 0.02496829
000170 03 7b b2 be 6a 7e d7 bd ff 15 ab bd b8 7e 34 3e
       -0.34859475 -0.105221584 -0.08353805 0.17626464
000180 b3 92 ce 3e a0 fa 50 3f 31 7d 00 be 53 d6 02 be
       0.40346298 0.81632423 -0.12547757 -0.1277707
000190 ff 1c c9 be fe bc 86 be 9e 9d 9f be 53 b8 7a 3e
       -0.39279935 -0.26316065 -0.3117494 0.24484377
0001a0 b6 17 3e 3e 93 7f 13 3f d4 ad 78 3e 0d 4f 32 be
       0.18563733 0.5761654 0.2428506 -0.17412968
0001b0 b4 06 99 3e 0c 13 ed bd 59 69 0c 3d fa 3e a9 3d
       0.29887927 -0.115758985 0.034280155 0.08263965
0001c0 3e cf ae 3e 02 35 37 bd 1d 83 c8 3d 30 cb f6 bc
       0.34142488 -0.044728287 0.09790633 -0.030126184
0001d0 dc 20 47 be f6 4a 85 be 8f 84 1c bf c5 f8 07 3f
       -0.19446129 -0.26033753 -0.6113977 0.5311397
0001e0 61 6a 8d be 5c c2 80 be 20 0d 96 be 62 57 9c 3e
       -0.27620223 -0.25148284 -0.2930689 0.30535418
0001f0 92 03 30 be d3 2a 41 3e e0 a3 bf 3d 8d 0a 93 be
       -0.17188862 0.18863992 0.093574286 -0.28718987
000200 68 cc 14 3e d2 4c 1c 3e 41 04 fa 3d 61 f8 9a be
       0.145311 0.1526368 0.122078426 -0.30267623
000210 ee be a8 be 95 34 08 be 90 e2 a4 bd e6 0b 1a bf
       -0.32958168 -0.13301308 -0.08051026 -0.60174406
000220 6c d7 05 3e e9 97 b5 bd 0c bc 7d 3e 7b a6 8f 3d
       0.13070458 -0.08866865 0.24778765 0.070141755
000230 fc bb 06 3d b2 38 aa be 7f fc 27 3e 1e e5 2b 3e
       0.03289412 -0.3324638 0.16404913 0.1678662
000240 b8 3e c8 be af 27 8d bc 8f 29 66 3d 23 b9 05 be
       -0.3911035 -0.017230837 0.056191977 -0.13058905
000250 bd 33 97 3c 8e a7 ef ba dc 9c 76 3e d5 49 61 ba
       0.018457288 -0.0018284188 0.24083275 -0.00085940707
000260 d5 54 c2 3e d2 f7 08 bd 80 56 54 3d 11 ab 3e 3c
       0.37955347 -0.033439465 0.051840305 0.011637465
000270 67 0f c5 bd fd ad 86 3e 0d 25 5b 3e 80 6e cb 3e
       -0.096220784 0.26304618 0.21400853 0.39732742
000280 a1 4c 80 3d c6 76 08 3e fd 2c 32 bd 55 05 28 bf
       0.06264616 0.13326558 -0.043499935 -0.65633136
000290 e9 e5 9e be 38 b1 bb bd 09 a2 1f 3e e4 94 b7 38
       -0.31034783 -0.09164661 0.15589155 8.753853e-05
0002a0 21 86 51 be 0b e5 89 3e 27 30 47 be ae b7 6b 3d
       -0.20461322 0.26932558 -0.19451962 0.057548217
0002b0 46 36 be be d7 98 f3 bd 59 08 f5 bd 9b 9a e4 3e
       -0.37150782 -0.11894386 -0.11964483 0.44649205
0002c0 fa a4 06 3e c4 67 3b 3e 1d 31 36 3e 13 30 fc 3d
       0.13148871 0.18301302 0.17792173 0.12313857
0002d0 43 2c 2e 3e c2 67 a1 bd db 9f 31 3e 06 9d c7 3e
       0.17009072 -0.07881118 0.17346136 0.38986987
0002e0 85 70 0a bf 15 a7 6a 3c 41 5a 5a 3d c4 a6 5f bd
       -0.5407794 0.014322062 0.05330873 -0.0546024
0002f0 7b da d0 bd 35 56 7a 3c e3 01 c5 be 66 e7 2e bc
       -0.10197922 0.015279342 -0.38478002 -0.010675287
000300 26 21 b1 3c 12 ee 93 bc d9 56 2c 3d a7 c3 96 be
       0.021622252 -0.018057857 0.042075012 -0.29446146
000310 2b c9 bd be 77 72 47 3e ff 5e f2 bd f3 cd c4 bc
       -0.3706754 0.19477259 -0.11834525 -0.024023985
000320 22 9b c8 be 37 a6 bb bd 8c c1 d0 bd 3e 63 f2 3d
       -0.39180857 -0.09162562 -0.10193166 0.11835335
000330 2d 25 05 3e a3 6b 84 3e 39 cc 7b 3e c7 8b 22 bd
       0.13002463 0.2586337 0.24589624 -0.039684083
000340 72 2d a1 bd 4d 72 9b 3e 69 12 cd bb 95 3f f0 bd
       -0.07869996 0.30360642 -0.006258298 -0.11730877
000350 4d 9c f9 bd eb 74 67 3e f7 88 a4 3e e9 6a 58 be
       -0.12188015 0.22603194 0.32135746 -0.21134533
000360 c7 bb be 3e 27 a9 d7 3d dc da 91 3e b8 4c 04 3e
       0.37252638 0.1053031 0.2848729 0.12919891
000370 49 dd b0 bd c1 b4 fd bd 2c cf 35 bf 13 f8 31 be
       -0.08635957 -0.12387992 -0.71019244 -0.17379789
000380 f4 6e 9c be f0 20 5d bf 25 5f 16 3e a6 18 63 be
       -0.305534 -0.86378384 0.14684732 -0.22177371
000390 f7 d9 66 3e c8 b0 02 be b0 fb 66 bd e0 af ef bd
       0.22544084 -0.12762749 -0.05639237 -0.11703467
0003a0 15 47 81 bd 3a 0c b4 3e 51 b3 fb be 1f 09 59 3e
       -0.06312386 0.35165578 -0.49160245 0.21194886
0003b0 9c 6a 08 3e ac 04 d6 bd 37 01 d3 3d 61 d2 74 3d
       0.13321918 -0.1045011 0.10302966 0.059770945
0003c0 01 10 8f 3e 8e 10 c9 be 67 81 88 3c 08 8f 0e bd
       0.27941898 -0.39270443 0.016663266 -0.034804374
0003d0 50 e5 57 3e 0c 30 f0 3d dc b9 84 be 6a 97 c2 3b
       0.2108357 0.11727914 -0.2592305 0.00593846
0003e0 4d 3a 8d bc 5f 7e 46 3c 97 24 08 3e 8f 21 01 bd
       -0.017239714 0.01211509 0.13295208 -0.031526145
0003f0 6a 52 aa bd c6 a0 03 3d ea 2c 09 3e 44 8e bb 3e
       -0.083165005 0.032135747 0.1339604 0.36631978

bias f4 [64]
000000 b0 ba d1 be 35 a8 ed be 2b ba ac bd 18 c4 19 3e
       -0.40962744 -0.46417394 -0.08433946 0.1501621
000010 5b 57 a8 be ed 01 a9 be db 0c dc be a0 fa 8a be
       -0.32879147 -0.33009282 -0.42978558 -0.27144337
000020 ef 2e c6 be 13 4e 96 bd c8 46 c4 3e cf 65 c0 be
       -0.38707682 -0.0733911 0.38335252 -0.37577674
000030 cc 80 99 3e 34 df ff bb 55 91 8e be 86 f0 17 be
       0.29981077 -0.0078085903 -0.27845255 -0.14837846
000040 ce fe 75 be c6 5b 91 be 3e a0 d0 bc 0f 59 b2 be
       -0.24022982 -0.2839033 -0.025467034 -0.3483357
000050 e2 5c 93 be 4d dd f9 bb 06 79 7d 3c c6 b8 0f 3d
       -0.287818 -0.007625258 0.015470749 0.035088323
000060 f8 26 c1 bc 32 94 a1 be e9 e6 33 be b7 4b bf be
       -0.023578152 -0.31558377 -0.17568554 -0.37362453
000070 c8 49 7b bf 62 13 95 bd 59 d4 19 bf 90 30 d9 bd
       -0.98159456 -0.072790876 -0.6008964 -0.10604966
000080 e3 e4 9b be 99 94 a3 be 59 7c 35 bf 4f 15 2a be
       -0.30448064 -0.3194931 -0.70892864 -0.16609691
000090 ba b1 6a 3d 9c 65 02 be 8a 7c f4 bc 9f b1 43 bf
       0.0572984 -0.12734073 -0.029844541 -0.76442903
0000a0 fa 2f de 3c 0e e2 dc bd e3 fd 26 bf 25 3a 4e bf
       0.027122486 -0.10785304 -0.6523115 -0.8055747
0000b0 34 97 18 bf f6 38 60 be c2 88 9b bd a7 dd c8 be
       -0.5960572 -0.21896729 -0.07594444 -0.39231607
0000c0 82 18 c7 be fc 76 1b bf d2 e7 ac be 8c 29 09 be
       -0.38885885 -0.6072843 -0.33770615 -0.13394755
0000d0 bc ef e3 be 9a 30 d8 3d a5 4e 8d be 64 a5 ed 3d
       -0.4451884 0.10556145 -0.27599064 0.116038114
0000e0 92 d9 ce be bf de 6a be 0b 01 46 3e d0 65 9d be
       -0.40400368 -0.22936533 0.19336335 -0.3074174
0000f0 ac a8 2f 3e cd 4b fe be 30 8e 2c bf 18 78 14 3e
       0.17154187 -0.49667206 -0.6740446 0.14498937

weight f4 [32, 64]
000000 b9 65 fa bc 5a 63 38 ba e9 28 94 bb eb 5f 07 3e
       -0.030566083 -0.00070338475 -0.0045214784 0.13220184
000010 a5 81 91 be 58 bf 52 be 2a 29 ee bd c7 43 e2 3e
       -0.28419223 -0.20580804 -0.11628945 0.44192335
000020 f2 d7 bc 3e 16 cc 81 be d5 68 f3 3d f5 a5 34 3e
       0.36883503 -0.25351018 0.118852295 0.17641433
000030 e0 30 1c bd 92 39 2f 3a 49 bb cb ba f8 2a da 3d
       -0.03813255 0.0006684299 -0.0015543486 0.10652727
000040 bd 05 89 3e 25 52 d3 bb bf 8a 94 3d bb a4 5e bd
       0.2676219 -0.0064490014 0.07253026 -0.054356318
000050 06 27 0c be f2 bd 0d 3e 39 62 81 3e eb 0a ae 3c
       -0.13686761 0.1384199 0.2527025 0.02124544
000060 b0 ce 23 be 8b 48 36 bd f2 00 3b 3d de f2 56 be
       -0.15996814 -0.044502776 0.0456552 -0.20991084
000070 38 30 c7 3d b8 1b da ba 18 69 8e 3c fc 63 00 bf
       0.09725994 -0.0016640341 0.017384097 -0.50152564
000080 cb 9e 5a 3e e2 f4 85 be 93 d6 f5 3d 8e 5f 89 be
       0.21349637 -0.26163393 0.120038174 -0.26830715
000090 19 5e 40 be d0 d4 60 be 14 b6 18 be 2c ac 95 be
       -0.18785895 -0.21956182 -0.14913207 -0.2923292
0000a0 a3 28 1c 3d db c6 0e 3c db 2f 8e 3d 4e a5 4c 3e
       0.03812469 0.008714403 0.069427215 0.19984934
0000b0 fa 86 a1 3e 86 d2 c2 3a 60 4f 27 3e 55 b3 6c 3d
       0.3154829 0.0014863766 0.16338873 0.05778821
0000c0 b0 6f 95 3c f5 fe c0 3d c3 aa e8 bc 44 f1 86 3d
       0.018241733 0.09423629 -0.028401738 0.065889865
0000d0 a6 15 93 3c a9 1b c0 3d 08 77 75 3f 94 31 16 bd
       0.017954659 0.09380276 0.9588475 -0.036668375
0000e0 16 37 82 be 82 ed 71 3e b6 0d bf 3c 44 0c b9 3d
       -0.25432652 0.23625758 0.023321968 0.090355426
0000f0 9a d1 e6 3e fc 50 24 bc 6b 08 0e bd 3b 56 1d 3b
       0.45081788 -0.010029074 -0.034675997 0.0024007696
000100 7c a1 c4 be 9c 8c b5 be 99 b7 55 be 20 74 11 3d
       -0.38404453 -0.3545884 -0.20870818 0.035511136
000110 c5 b7 1f be 66 46 70 3e 8d f9 38 be 70 84 cf bd
       -0.15597446 0.23464355 -0.18063946 -0.10132682
000120 9d 02 67 be 35 5b ee bd 16 c3 a9 be 3c 40 8f bd
       -0.2255959 -0.1163849 -0.3315665 -0.069946736
000130 fc 68 0f be 12 08 e7 bd 8d 06 1d 3d 9d 73 8a 3d
       -0.14004892 -0.11280836 0.038336325 0.06760333
000140 19 99 0f be 4e 24 34 be 5c 48 79 be db 78 6b 3e
       -0.14023246 -0.17591974 -0.24344009 0.22995321
000150 65 00 a8 3d 53 3b df 3b f7 4c e2 3c b1 1c 7a be
       0.082032 0.006812492 0.02762459 -0.24425007
000160 10 ae 64 3e 0a b5 f8 be 79 3e fe bd 70 3b c8 3d
       0.22332025 -0.48575622 -0.124142595 0.09776962
000170 f2 c2 0d 3f 8f 8d 3c be 03 61 83 bd eb a7 ec bd
       0.5537559 -0.18413375 -0.06414988 -0.11555465
000180 65 37 3e 3e de 72 c5 3e 1e 49 35 3d 99 db 40 bd
       0.18575819 0.385642 0.044259183 -0.047084425
000190 59 1b 72 be 12 22 c8 bd 28 21 95 3e af 30 da bd
       -0.23643245 -0.097721234 0.2912686 -0.10653817
0001a0 4c 6b 0b be 58 3f 09 be 08 4b c5 be d5 30 1e bf
       -0.1361515 -0.1340307 -0.38533807 -0.6179326
0001b0 32 3a b0 3d 5e e0 ef be 36 3c 8f be 30 af 28 3e
       0.0860485 -0.46850866 -0.27975625 0.16473079
0001c0 cb d4 10 bf 9e 32 85 be 1c 61 67 3e 1c 4e 99 be
       -0.56574696 -0.2601518 0.22595638 -0.29942405
0001d0 42 13 8a be 89 8b 0a be 19 98 44 be 61 b3 56 be
       -0.26967818 -0.13529791 -0.19198646 -0.20966865
0001e0 7e 7c a1 3d 3c 41 9e be cb cf fe be e5 57 28 be
       0.07885073 -0.30909145 -0.49767908 -0.16439779
0001f0 ae 44 09 be 7b 61 ac bc 5f 6d 01 bd a4 fa 13 bd
       -0.13405105 -0.021042576 -0.031598445 -0.0361277
000200 87 1c 81 3e a3 8f 2a be 13 17 f5 be b6 05 f2 be
       0.25217077 -0.16656356 -0.47869167 -0.47269982
000210 76 9c 08 bd 7e 1b bc 3d c1 2b 02 be a9 83 e5 be
       -0.033352338 0.09184931 -0.12712003 -0.4482701
000220 7d 45 9e be 60 72 25 3c 21 c2 e2 3d 67 1a e7 be
       -0.3091239 0.01009807 0.110721834 -0.4513733
000230 db 6f fa 3d e2 ce 40 be d9 98 c2 bd 67 9b b1 bd
       0.12228366 -0.1882892 -0.095018096 -0.08672219
000240 02 9b d4 3d f4 d7 2e 3e 75 25 2a be f9 05 01 be
       0.10381128 0.17074567 -0.16615851 -0.12599935
000250 e4 52 7e bd 63 ea 54 bb 46 25 bc be 74 c3 81 bb
       -0.06209077 -0.0032488338 -0.36747187 -0.0039600674
000260 bc c7 bd bd ba d8 9e be ad 29 f5 3d a7 23 9f be
       -0.09266612 -0.31024724 0.1197084 -0.31081888
000270 66 c0 81 be 5c b2 1f be b4 0d 56 3d 54 25 35 3d
       -0.253421 -0.15595382 0.052259162 0.044225052
000280 f4 bd 5c be 5f 83 88 be 95 13 13 bf 95 0a a3 be
       -0.21556836 -0.26662728 -0.57451755 -0.3184401
000290 d4 ad 46 be 22 d4 c7 be f3 5c 24 3e 9c 55 2e bf
       -0.19402248 -0.39029032 0.16051082 -0.6809938
0002a0 2e 92 11 3e 0c 81 91 3d 75 0a a8 be 8d 63 4b bc
       0.1421592 0.07104692 -0.32820478 -0.0124138715
0002b0 14 80 58 be c9 1d 51 bd 82 9a 1f bc d6 92 8f be
       -0.21142608 -0.051053796 -0.009741427 -0.28041714
0002c0 66 89 3f be fc e8 2e be d1 2b 17 be 5e 9b ff 3d
       -0.18704757 -0.17081064 -0.14762808 0.12480806
0002d0 fe a2 e1 bd f4 0f 67 3d 1c 4a 51 3e 87 6f 09 3e
       -0.110174164 0.0564117 0.20438427 0.1342145
0002e0 19 18 39 be ee 49 e6 3c 24 13 38 be 28 20 a1 be
       -0.18075599 0.028111424 -0.17976052 -0.31469846
0002f0 51 96 9b 3d e8 f6 4c 3e 36 fd c0 3d fe 5d 09 3e
       0.0759703 0.20016062 0.09423296 0.13414761
000300 1f 43 44 bd 7b fd e3 bd 1b ba d7 3d d9 61 14 be
       -0.047915574 -0.11132332 0.10533544 -0.14490451
000310 6c d7 d7 bd 57 86 57 bc 89 62 8b 3d f2 bd 2c 3c
       -0.10539135 -0.013154588 0.068059035 0.010543333
000320 19 ab 6e bd 49 67 c1 bd 1d 1e e9 bb 4b e1 b3 bd
       -0.05826864 -0.09443528 -0.0071141855 -0.087832056
000330 49 a9 d4 bd 40 3e 0a be fc 88 eb bd 16 0c 19 bd
       -0.10383851 -0.13500309 -0.11500737 -0.03736504
000340 b2 18 40 be c7 41 6b bb 5b e1 4d be 37 d1 d2 3c
       -0.1875942 -0.003589736 -0.20105498 0.025734527
000350 dc 7e 13 be 26 10 f8 3d 4b 35 3b 3b cc c6 4d 3c
       -0.14403862 0.12112455 0.00285657 0.012559604
000360 0c f9 53 bd a0 8f b3 bd 61 b4 66 bd be fc c9 bc
       -0.05175118 -0.08767629 -0.056324366 -0.02465665
000370 82 6e d6 3c 83 d0 b6 3d 8f f9 ab bd f6 f0 04 bd
       0.026175741 0.08926489 -0.08397209 -0.03245636
000380 65 a4 bd 3d 18 58 1d be 57 42 cf bd d6 eb 93 bd
       0.092598714 -0.15365636 -0.10120075 -0.072227165
000390 88 6d df bd a0 ff c7 bc bb a8 32 bd 50 f8 15 3d
       -0.10909563 -0.024413884 -0.043617945 0.036613762
0003a0 7e 01 ad bd 4b fc b5 3d 84 41 50 bc c6 e8 05 be
       -0.0844755 0.08886012 -0.012710933 -0.13077077
0003b0 37 79 47 be 7d 4e c9 bd 70 76 09 be 4c cb 45 3d
       -0.19479834 -0.098294236 -0.13424087 0.048289582
0003c0 8b de 99 3d 92 f9 bc 3c 04 62 90 3c 85 92 a7 3c
       0.0751315 0.023068223 0.017624862 0.020455608
0003d0 43 9f 1e bc b8 84 a9 bd 96 cf 96 bc 40 d9 e4 3b
       -0.009681526 -0.08277267 -0.018409532 0.006983906
0003e0 58 d3 d9 bb dc ee b0 bd 8d 47 45 bc 2c 96 ae bd
       -0.0066475086 -0.08639309 -0.012040985 -0.08524737
0003f0 65 90 1b bd 1b 67 0d be e9 e5 e6 bc a1 0e 61 bd
       -0.037979502 -0.13808863 -0.028185802 -0.05494559

bias f4 [32]
000000 ca a8 32 be 23 35 00 bd 7d 8c c3 3d 40 35 a5 bd
       -0.174472 -0.031300675 0.095482804 -0.08066797
000010 92 50 2e be be 34 19 3e 2a 47 8a bd 76 26 8b 3d
       -0.17022923 0.14961526 -0.06751855 0.06794445
000020 90 33 2e 3e 6f 1b e7 3e 72 65 46 3d 89 54 ec bd
       0.17011857 0.45138118 0.04843659 -0.11539561
000030 0a 0e 7e 3e fe 78 0b 3f 0c a8 9c be b4 5e 90 be
       0.24810043 0.54481494 -0.3059696 -0.28197253
000040 a1 78 a1 3e 3b 0e fc 3e c7 aa 85 be 28 cd 61 3d
       0.31537345 0.49229607 -0.26106855 0.055127293
000050 e1 f9 91 be a7 46 4d 3e cd 38 43 3e 64 46 32 be
       -0.28510955 0.20046483 0.19064637 -0.17409664
000060 bd 53 d2 3c ad e8 23 3e 51 ab 9a bd 6e b9 19 3e
       0.025674695 0.16006728 -0.07552207 0.15012142
000070 cf 3a c3 3e 45 0c 97 be ea 02 47 3e 5e c5 a0 3e
       0.38130805 -0.29501548 0.19434705 0.3140058

weight f4 [8, 32]
000000 be 99 2a 3e 65 93 46 be ce 14 09 be 0a d1 d4 3d
       0.1666021 -0.19392164 -0.13386843 0.103914335
000010 3c 54 80 3e 0a 0e d6 3c f4 42 50 be de 39 3a be
       0.25064266 0.026129741 -0.2033804 -0.18186137
000020 d6 66 ee bd 56 96 15 bc 8c a5 19 3d 8e a7 0a 3e
       -0.11640708 -0.009130081 0.037511393 0.1354048
000030 c6 3f 1b 3d 7d 5c bf 3b 36 4a 2a 3e 22 69 9d 3e
       0.037902616 0.005839883 0.16629872 0.30744272
000040 9f 2a d1 be e7 6a 05 bd fc 32 74 3e f2 89 5a 3d
       -0.4085283 -0.032572653 0.23847574 0.05335421
000050 e2 9a 9a 3e 67 45 f7 3d 13 71 e2 bd 87 5d 65 bd
       0.3019629 0.12073784 -0.110567234 -0.055997398
000060 1f 1d 5a 3c 80 11 f6 3d ec 66 34 be 6d fb 6a be
       0.013312607 0.120150566 -0.17617387 -0.22947474
000070 5f 86 20 be 09 8d c2 bd fb 99 5f 3d 03 21 b9 3c
       -0.15676259 -0.094995566 0.054590207 0.022598749
000080 47 ae 41 3e 3f 7c 7a 3e 8a 57 7c be c0 02 29 bd
       0.18914138 0.24461459 -0.24642769 -0.04126239
000090 a6 79 1c 3d da f4 1e bd 1d 01 87 bc 13 c7 42 3e
       0.03820195 -0.038807727 -0.016480023 0.19021253
0000a0 ea d0 75 bd e6 fe da 3d 16 00 0a 3e ab ae 80 bd
       -0.06001369 0.10693149 0.13476595 -0.06283315
0000b0 69 da e0 3d 67 3e d9 bd 36 ac 1c 3e fe 13 4e 3e
       0.109791584 -0.106076054 0.15300068 0.20124814
0000c0 8f ea 9b be d4 43 17 3d 96 a3 11 3e 6d ce 9e 3d
       -0.30452392 0.03692992 0.1422256 0.07754216
0000d0 3a 34 52 3e c5 cc 9e 3e ef 5c f8 bc 77 1b 27 3c
       0.20527735 0.31015602 -0.030317752 0.010199419
0000e0 49 6d da be b7 2d 39 3d 5b f7 a2 3d 1a 2e 18 be
       -0.42661503 0.045209613 0.079573356 -0.14861336
0000f0 41 33 54 be 17 29 a4 3d a8 91 5f bd 9e 98 57 bd
       -0.20722677 0.0801565 -0.054582268 -0.05263578
000100 10 b0 45 be ed fe f1 bd 0d f5 0b 3e e5 6c ed bc
       -0.19305444 -0.11816201 0.13667698 -0.028982589
000110 c1 a7 f9 bb 14 9b 45 bd 60 08 ce bd d2 48 8f 3e
       -0.007618875 -0.048243597 -0.10060191 0.27985245
000120 eb 86 03 3e 2b 96 61 be 49 9f ae be d7 c4 af bd
       0.12844436 -0.22029941 -0.341059 -0.08582466
000130 be 86 e7 bd 04 e8 83 be 30 e3 0e 3e cd 00 cd bd
       -0.11304997 -0.2576295 0.13953853 -0.10009918
000140 a8 f7 11 be 64 4d 39 bf 9d 1e 30 bf eb 6b 79 ba
       -0.1425463 -0.72383714 -0.6879671 -0.0009514677
000150 b1 9d 63 bd 0b 5a 7d 3e ca fd 50 be 62 96 8f bd
       -0.055570308 0.2474138 -0.20409313 -0.07011105
000160 1b 07 89 3c b7 69 7c bc 60 2e 2f be e9 e8 66 3d
       0.016727021 -0.015406064 -0.17107534 0.056374464
000170 ef d3 52 3d 76 a1 5f bf fd 13 fb be 65 04 c3 be
       0.051471647 -0.87355745 -0.49038687 -0.3808929
000180 3f 23 6a be 02 9c 69 bf 79 58 77 3e bb 3e 09 bb
       -0.22865008 -0.91253674 0.24154843 -0.0020941931
000190 be 23 22 be 85 61 3a bd 0f 56 69 be a9 59 a7 bd
       -0.15833947 -0.045503158 -0.22786735 -0.08171398
0001a0 3d 20 0f be 88 be b8 bd 7d a4 f6 be 02 9c 80 3d
       -0.13977142 -0.09020716 -0.4817237 0.06279756
0001b0 45 42 8b be b6 78 2c 3e 4c a3 d3 bd 82 e0 91 be
       -0.27198997 0.16842923 -0.10333881 -0.28491598
0001c0 f9 c5 bb be ea 56 43 bf 9d b1 7f 3b ed d4 db be
       -0.3667448 -0.76304495 0.0039015778 -0.42935887
0001d0 94 f6 06 3b 00 b1 d1 be b1 95 b2 3e 3f ec 87 be
       0.002059375 -0.40955353 0.3487983 -0.2654743
0001e0 20 bb dd 3d ac a0 c8 3d 65 a4 a5 bd 67 c8 d8 3d
       0.10826707 0.09796271 -0.080879964 0.10585099
0001f0 de be 19 be 47 4a a9 3e 4a 72 00 bf 5c 35 bf be
       -0.15014216 0.33064482 -0.5017439 -0.37345397
000200 16 d9 ec bb 12 a2 1b 3d 73 f6 9b 3e ca da 1f 3e
       -0.007228027 0.03799636 0.30461463 0.15610805
000210 57 ec bb 3b 7a 39 38 3e 83 e7 88 3e 36 6f d0 3e
       0.005734961 0.17990676 0.2673913 0.40709847
000220 2f 08 0a 3e fa 81 85 be 5d 45 66 be b4 da 12 3e
       0.13479684 -0.26075727 -0.22487397 0.14341241
000230 78 57 16 3d f9 6d e0 be 76 41 a1 b9 db 5e 22 be
       0.03670451 -0.43833902 -0.00030757085 -0.15856497
000240 3e 7c f5 3d 04 bf ba bc 5f 80 14 3e 02 20 38 3e
       0.11986588 -0.022796161 0.14502095 0.1798096
000250 c2 db f5 bd 07 cd 3b 3e 62 1e 87 3d 30 dd 17 be
       -0.12004806 0.1833993 0.06597592 -0.1483047
000260 d9 78 39 be da 2b c6 be 67 ab 79 3d c7 b9 ba 3c
       -0.18112506 -0.3870533 0.060954478 0.022793664
000270 d5 02 87 3e cc 39 fe be 0f 47 b6 3d 67 b0 b1 3d
       0.26369348 -0.4965347 0.08900272 0.08676224
000280 93 44 2b 3e 91 83 77 bb 6a bf 2b be 0c 9b 16 bd
       0.16725378 -0.0037767629 -0.16772237 -0.036768958
000290 b5 50 0c 3c ec 29 b1 be 13 f5 4e 3e 49 d1 64 3d
       0.008564164 -0.34602296 0.20210676 0.055863652
0002a0 67 00 d9 3e 12 b4 be 3c 25 93 76 bd 17 d0 b2 bd
       0.4238312 0.023279224 -0.06019892 -0.08731096
0002b0 21 58 5f 3d b9 c4 48 bc fc b1 2d bc 55 3a 2e be
       0.054527406 -0.012253934 -0.010601517 -0.1701444
0002c0 fc 87 34 3d fd 5b 9d 3c 6b 03 00 bf 69 ac 91 3b
       0.044074997 0.019208902 -0.50005215 0.0044456017
0002d0 5d 2e 1f be ca 2b 96 bd 88 b7 90 3d d9 07 f8 bc
       -0.1554503 -0.07332571 0.07066256 -0.03027718
0002e0 7a 8b cf 3d 40 9d 34 bc 10 66 03 be df bd e4 ba
       0.10134025 -0.011023819 -0.12831903 -0.0017451606
0002f0 c2 dd 7d be de cc 95 be 8f ab 1e 3e b2 9e 58 be
       -0.24791625 -0.29257864 0.15495132 -0.21154287
000300 9e f4 38 be e4 5c 80 be f0 9f dc bd 05 d0 e1 3d
       -0.18062064 -0.2507087 -0.10772693 0.11026005
000310 7f 99 d1 bb 3e a5 f9 bd 12 73 36 3e 7f b5 c8 bd
       -0.006396472 -0.121897206 0.17817333 -0.09800243
000320 9b 7b a9 bd f8 cd d5 3d 4d 95 d6 bd 77 1e 01 3d
       -0.08275529 0.10439676 -0.104776956 0.031523194
000330 63 73 51 3d 47 c9 2d 3e 5d 35 3f be 7c 43 ff be
       0.051135432 0.16971312 -0.186727 -0.49856174
000340 d5 aa 11 bd 05 c0 32 3e 57 63 c7 be 22 a0 8c be
       -0.03556331 0.17456062 -0.38942978 -0.27465922
000350 1c 75 e4 3d 52 1b e9 be 9b d1 e9 3c 4e b7 98 bd
       0.11155149 -0.45528656 0.02854233 -0.074568376
000360 f4 35 71 3e f6 7c c9 bd c0 83 f3 3d 49 8f 1c bd
       0.23555738 -0.098382875 0.11890364 -0.038222585
000370 80 c8 c5 bd 8d c8 be 3e 18 17 31 3e 8a 69 02 3e
       -0.09657383 0.37262383 0.17293966 0.12735572
000380 02 40 8a bb 1c 6b e3 3d 5d 56 e8 bd 27 06 6e bc
       -0.004219056 0.11104414 -0.113445975 -0.014527834
000390 fc 3d 97 bd bd f8 4e be 03 7c dc be 52 49 fd be
       -0.073848695 -0.20212074 -0.43063363 -0.4947
0003a0 4d 70 71 be 7e e4 25 3e 2c 9a 3f bc 04 ea 25 be
       -0.23577996 0.16200444 -0.011694472 -0.16202551
0003b0 69 33 0d bf 18 d2 68 3d 01 fb b3 be a5 9f 03 bf
       -0.5515657 0.056840986 -0.35152438 -0.51415473
0003c0 86 1c 0b be 67 60 82 3e 36 c4 3f 3e fe 7c a5 be
       -0.135851 0.25464174 0.18727192 -0.32321924
0003d0 53 b7 04 3d eb d7 87 bf 3e 3d 2e 3e 45 f4 95 3c
       0.032401394 -1.0612768 0.1701555 0.018304953
0003e0 dc ab 51 3e d2 e2 45 3e 5c fd de bd 2d 12 49 3e
       0.20475715 0.19324806 -0.10888168 0.1963584
0003f0 f8 88 d9 bd 58 06 61 be 7e 59 72 3d 72 44 94 3e
       -0.10621828 -0.21975076 0.059167378 0.2895847

bias f4 [8]
000000 57 e2 6f be 1a d5 a5 bd dd 97 3b be 63 a5 ac bd
       -0.23426186 -0.080972865 -0.1831965 -0.084299825
000010 47 31 f2 bd fd f6 7d 3e cd 63 ad 3d bb 49 be 3e
       -0.11825805 0.2480125 0.08466301 0.37165627
