models/node_importance_delta/manipulate_nn.pth (torch, 7940 bytes, 6 tensors)

weight f4 [32, 10]
-0.15333204 0.10647552 -1.1883295 0.22788137 -0.29544955 -0.45346576 -0.07723936 -0.23792978
0.040111158 0.0764927 -0.120662905 -0.20944932 -0.37100554 -0.2865663 -0.26094 -0.68944293
0.23001693 -0.1812019 0.30912763 -0.08196654 -0.24878334 0.035296157 -0.24175301 -0.09255656
-0.15536901 0.10072565 -0.29048634 0.15139978 -0.7455652 0.41430676 -0.3696371 -0.11249256
-0.118957445 -0.12797607 0.50436985 -0.2904413 -0.12980798 0.07282676 0.16296795 0.006217718
0.14236303 0.052278146 -0.21231943 -0.03251101 -0.11079112 0.04480598 -0.32875454 -0.6080307
0.18522461 0.057257436 -0.08279023 0.25550777 0.4052127 -0.037538294 0.2432922 0.3532392
-0.3545347 0.19217326 -0.2646869 0.12665938 -0.06324156 -0.101580195 0.4089804 -0.112645686
0.23601092 -0.024596773 0.23503383 -0.15558657 0.25722447 -0.095163025 -0.22360335 -0.047711123
-0.2947233 -0.39570627 -0.29927596 -0.58490396 -0.13774401 0.108531915 -0.1501675 0.3192336
0.24853359 0.21076588 0.060143564 -0.2660302 -0.012435789 -0.9468449 -0.2170312 0.17477854
-0.060421616 -0.0327957 -0.17303282 -0.34638372 -0.32698745 0.16890559 0.1779171 0.5342432
0.2901464 -0.14134708 0.29639572 -0.18145056 -0.36219817 -0.24621007 -0.2605632 0.020280158
-0.15112498 0.5781666 0.028505 -0.45880076 -0.08527057 -0.6319334 0.14051297 0.39500478
0.17924981 0.44036457 0.17823666 -0.011821343 -0.3441472 0.12172035 0.22262155 0.07499336
-0.2246169 -0.29143268 0.060773388 0.28108823 -0.2354851 -0.11715888 0.23328093 -0.11947873
0.12568894 -0.3140315 -0.45520222 -0.24054575 -0.28936532 0.53484774 0.23197639 -0.18166319
-0.23145083 0.10013804 0.19679552 0.19962981 0.18624699 0.055076357 0.045384858 0.42686096
0.108634025 0.39043024 0.0058262255 -0.09974637 0.30491838 0.53216094 -0.3792583 -0.38796428
0.21082416 -0.3416851 -0.37192217 0.010117227 -0.4021881 0.21140705 -0.22484483 0.34664124
-0.06485227 0.0015021923 0.1593958 -0.38554433 -0.051352896 -0.5569306 -0.4054715 0.36887902
-0.45243445 0.3954296 -0.029406916 0.05791623 -0.36486307 -0.14065175 -0.1307391 0.1779618
0.50775766 0.95123696 -0.12726445 -0.25693566 -0.06116742 -0.06644929 -0.7766557 -0.25617406
-0.3167982 -1.241955 0.11357145 -0.19014427 0.2117925 -0.14474697 -0.6350778 -0.1998406
0.107375495 0.047949694 0.07322281 0.17526978 -0.2474866 -0.15616436 -0.10528706 0.41711107
0.30764103 0.20916307 0.15385923 -0.08839901 0.019539436 0.38635832 -0.15424696 0.09335288
-0.27218115 0.12585813 0.0385624 -0.104394555 -0.20703284 0.30326018 -0.7409183 -0.5058666
0.08585466 -0.05267138 0.007261167 0.007782912 0.25392497 0.009219521 0.6338163 0.17086439
-0.009307146 0.23311746 -0.33290997 -0.24393253 0.06778339 0.43131697 0.15090847 0.2359871
0.14072938 -0.5630083 -0.36970514 -0.19263981 0.19427605 -0.18524641 -0.08858229 0.07174128
-0.24124359 0.3026365 -0.5241445 0.1894425 -0.043741766 0.248142 0.30119616 -0.015611678
0.10724148 0.14428453 -0.14487994 -0.10114783 -0.5577432 -0.055160124 -0.2902942 -0.548391
00000000: 1303 1dbe d60f da3d 2e1b 98bf bc59 693e
00000010: 2a45 97be aa2c e8be ab2f 9ebd dda3 73be
00000020: 994b 243d 34a8 9c3d 1d1e f7bd e279 56be
00000030: 70f4 bdbe d1b8 92be ed99 85be 557f 30bf
00000040: 8f89 6b3e fe8c 39be fa45 9e3e 13de a7bd
00000050: 0fc1 7ebe b492 103d 1a8e 77be 4b8e bdbd
00000060: 0e19 1fbe 4049 ce3d a0ba 94be 8b08 1b3e
00000070: 5cdd 3ebf 0420 d43e 1341 bdbe 8062 e6bd
00000080: f69f f3bd 290c 03be 621e 013f b9b4 94be
00000090: 62ec 04be 3226 953d 12e1 263e 00be cb3b
000000a0: 9dc7 113e 9c21 563d 446a 59be 442a 05bd
000000b0: 74e6 e2bd 7a86 373d 8452 a8be e6a7 1bbf
000000c0: 85ab 3d3e c686 6a3d ed8d a9bd ead1 823e
000000d0: 0a78 cf3e c1c1 19bd 9721 793e c5db b43e
000000e0: 9285 b5be 11c9 443e 0b85 87be ffb2 013e
000000f0: ca84 81bd 4709 d0bd e165 d13e c8b2 e6bd
00000100: d9ac 713e 2c7f c9bc b5ac 703e 1652 1fbe
00000110: edb2 833e d5e4 c2bd 47f8 64be bd6c 43bd
00000120: f9e5 96be 039a cabe b33a 99be 44bc 15bf
00000130: c40c 0dbe fb45 de3d 82c5 19be 9672 a33e
00000140: 977f 7e3e 03d3 573e 1959 763d 1c35 88be
00000150: 7bbf 4bbc 6d64 72bf 6d3d 5ebe 25f9 323e
00000160: a87c 77bd c954 06bd 842f 31be 3559 b1be
00000170: e66a a7be 96f5 2c3e e62f 363e 2ac4 083f
00000180: 128e 943e 4abd 10be 2ec1 973e 2dce 39be
00000190: 0a72 b9be 7e1e 7cbe 8a68 85be 9322 a63c
000001a0: 82c0 1abe ba02 143f 5183 e93c efe7 eabe
000001b0: 56a2 aebd 63c6 21bf a2e2 0f3e 113e ca3e
000001c0: 438d 373e 7777 e13e ac83 363e 4eae 41bc
000001d0: 1034 b0be 8548 f93d e7f6 633e 1e96 993d
000001e0: f901 66be aa36 95be 84ed 783d ccea 8f3e
000001f0: 0223 71be fff0 efbd 32e1 6e3e 44b1 f4bd
00000200: 9ab4 003e bdc8 a0be 4410 e9be a051 76be
00000210: b127 94be c8eb 083f 388b 6d3e ea05 3abe
00000220: 7201 6dbe 2c15 cd3d c484 493e c26b 4c3e
00000230: 88b7 3e3e bf97 613d 79e5 393d 858d da3e
00000240: 847b de3d 79e6 c73e ece9 be3b d347 ccbd
00000250: 431e 9c3e b33b 083f 252e c2be 41a3 c6be
00000260: 4ae2 573e 59f1 aebe 956c bebe bac2 253c
00000270: 99eb cdbe 177b 583e b93d 66be f67a b13e
00000280: 44d1 84bd 36e5 c43a a738 233e 1166 c5be
00000290: 6a57 52bd 0193 0ebf f699 cfbe b6dd bc3e
000002a0: 7da5 e7be c075 ca3e c6e6 f0bc 9239 6d3d
000002b0: 55cf babe 0307 10be 78e0 05be 9e3b 363e
000002c0: 68fc 013f 4484 733f 9d51 02be 128d 83be
000002d0: b08a 7abd 9116 88bd e8d2 46bf 3f29 83be
000002e0: 6033 a2be 62f8 9ebf 2698 e83d 2eb5 42be
000002f0: 22e0 583e 8d38 14be 7594 22bf 04a3 4cbe
00000300: afe7 db3d e666 443d d7f5 953d ec79 333e
00000310: 216d 7dbe 8de9 1fbe bea0 d7bd 958f d53e
00000320: 2083 9d3e d82e 563e 468d 1d3e 8a0a b5bd
00000330: 2b11 a03c c2d0 c53e eaf2 1dbe cb2f bf3d
00000340: 545b 8bbe f4e0 003e 9bf3 1d3d d0cc d5bd
00000350: 6b00 54be eb44 9b3e d2ac 3dbf 7980 01bf
00000360: 91d4 af3d f2bd 57bd 15ef ed3b cc07 ff3b
00000370: 7402 823e 790d 173c c941 223f 13f7 2e3e
00000380: 007d 18bc 58b6 6e3e 2d73 aabe 73c9 79be
00000390: 05d2 8a3d 94d5 dc3e c087 1a3e 9aa6 713e
000003a0: 5d1b 103e 5021 10bf fe49 bdbe 5f43 45be
000003b0: 4df0 463e 3cb1 3dbe a26a b5bd 18ed 923d
000003c0: 8f08 77be 2cf3 9a3e 552e 06bf 37fd 413e
000003d0: 912a 33bd f018 7e3e 6236 9a3e 20c8 7fbc
000003e0: 6ca1 db3d 53bf 133e 685b 14be 9826 cfbd
000003f0: 42c8 0ebf 95ef 61bd 71a1 94be 5a63 0cbf

bias f4 [32]
0.073013246 0.20704798 -0.13167366 -0.50810206 0.15444073 -0.29086986 0.53604907 -0.25181192
0.024257539 0.12472008 0.08403267 0.003790766 0.50391424 -0.08332917 0.101037554 -0.03014328
-0.27808005 -0.060694017 0.20096162 0.10886825 -0.028451212 -0.3890459 0.05733728 -0.19185501
-0.23595661 -0.08240482 -0.091676824 0.44942343 0.2407798 0.30617476 -0.12372601 -0.048600238
00000000: f887 953d 6304 543e 76d5 06be fa12 02bf
00000010: b625 1e3e e5ec 94be 833a 093f 7eed 80be
00000020: bfb7 c63c 3e6d ff3d 5219 ac3d 806e 783b
00000030: 8600 013f 7ca8 aabd c7ec ce3d 0aef f6bc
00000040: 8260 8ebe 4a9a 78bd e2c8 4d3e 51f6 de3d
00000050: 8412 e9bc 0631 c7be 7fda 6a3d a475 44be
00000060: 9c9e 71be dcc3 a8bd 0fc1 bbbd d41a e63e
00000070: fb8e 763e f0c2 9c3e 1064 fdbd 0b11 47bd

weight f4 [16, 32]
-0.12009821 -0.21825512 -0.032411423 0.18257566 0.072796635 -0.19800933 0.1377601 -0.33713344
-0.4634575 0.089501485 0.08273609 0.035152495 -0.009868723 0.15706232 -0.04982446 -0.118784584
-1.2068422 0.08860282 0.01991134 0.31865853 0.02068164 0.057926677 -0.098346986 0.21435617
0.09297966 0.08147042 0.109736055 0.25933585 0.16017851 0.21668583 -0.18513097 0.31396374
0.2879846 0.173434 -0.089818224 0.4266497 0.27874714 -0.21999444 0.056044932 0.07761449
0.028273795 -0.049239706 -0.2921679 0.038163196 0.15413792 0.07906206 -0.37224174 0.023466377
-0.098601766 0.15497775 0.26358268 -0.020117033 -0.056390543 0.3040191 -0.058438595 0.05409552
0.042583786 0.11610539 -0.0032180392 -0.08914695 0.11271847 -0.003077392 -0.29053015 -0.054923784
0.07452427 0.36692172 0.086092755 0.07537183 0.18135515 -0.021317068 0.20872998 0.09981953
0.13215882 0.049078252 0.22622305 0.10104346 0.05375878 0.039857026 0.33915025 -0.23436773
-0.17365505 -0.12495934 0.4028926 -0.3924181 0.09410441 0.12587802 0.0011218862 0.33996573
-0.0051816287 0.32415178 -0.036530234 -0.22776376 -0.18900043 0.26882035 0.37350073 -0.062083807
0.17535168 0.18157366 -0.15277633 0.056638923 -0.09496679 -0.26464966 0.4941002 0.15232076
0.20760229 -0.02349454 -0.22270088 -0.2748962 0.23763408 0.119901426 0.049360123 0.2263457
-0.061817802 0.16358104 -0.07304001 0.30430153 0.24195728 0.24923107 0.21912697 0.06588521
0.1526268 -0.22731249 0.15615731 -0.40826923 -0.012044816 0.20461161 -0.17399348 -0.08515045
0.44127592 0.19034962 -0.08413614 -0.04868084 0.024508066 -0.0690175 -0.012109553 0.4463069
0.034859758 -0.32185742 -0.6209791 -0.08707337 -0.067089155 -0.11386375 -0.35978243 0.24218418
0.018012907 0.1704796 -0.08643503 0.24842429 0.3520471 -0.05219435 0.2969634 0.015841207
-0.23521768 -0.0098472955 0.12826435 -0.47351432 -0.03802999 0.07030393 -0.51995426 0.04113525
-0.0030389656 0.31356105 0.1339657 0.03604139 -0.42875972 0.15145749 0.037233304 0.036726076
0.21128787 0.3442466 -0.050139137 0.3868971 0.25564548 -0.21749833 -0.054131504 -0.11188428
0.37546262 -0.14112574 -0.02239133 0.057860237 -0.00016530644 -0.02477103 0.17056133 0.34264395
0.19658282 -0.16393457 -0.0006315599 0.08068135 -0.17926313 0.11931544 0.31836504 -0.25096944
-1.1937349 0.23199624 -0.574874 0.19036415 0.09057094 0.16621885 -0.03512382 0.41972408
-0.11976889 -0.033385605 0.06271275 -0.15148197 -0.042588457 -0.0788475 0.09184079 -0.025158316
0.14467232 -0.051179145 0.19223115 -0.21792993 -0.35502607 0.35830295 -0.08243774 -0.08545461
-0.43236938 0.026601883 0.09069685 0.16954713 0.1310965 0.019279968 -0.06883893 0.08315229
0.16635212 0.00049104454 -0.22440122 0.304794 0.024236005 -0.22732666 0.12209869 0.080162585
-0.11951741 0.1979237 0.24139537 0.036721207 0.0885217 -0.15474238 -0.09198433 0.19171554
0.0031406654 0.083282605 -0.14524694 0.031806063 -0.047665235 -0.019125488 0.12700818 0.073107064
0.11155862 0.23138115 0.25203863 0.24482748 0.016496873 0.12201053 0.10313161 0.17896776
00000000: 0df6 f5bd 457e 5fbe d7c1 04bd 1df5 3a3e
00000010: 6716 953d f5c2 4abe fc10 0d3e c19c acbe
00000020: 4d4a edbe 8e4c b73d 8a71 a93d 10fc 0f3d
00000030: 6db0 21bc f2d4 203e bc14 4cbd 5545 f3bd
00000040: ce79 9abf 6575 b53d 1b1d a33c 3627 a33e
00000050: 8b6c a93c 8644 6d3d 256a c9bd 2f80 5b3e
00000060: 1f6c be3d f7d9 a63d 4cbd e03d abc7 843e
00000070: d605 243e e4e2 5d3e f992 3dbe dbbf a03e
00000080: b872 933e af98 313e 9ef2 b7bd d471 da3e
00000090: f2b7 8e3e 3946 61be 5f8f 653d 59f4 9e3d
000000a0: 729e e73c 93af 49bd 0897 95be 0351 1c3d
000000b0: 55d6 1d3e 4aeb a13d 7896 bebe 8f3c c03c
000000c0: b9ef c9bd 7db2 1e3e 4ff4 863e 7acc a4bc
000000d0: c5f9 66bd 64a8 9b3e 4f5d 6fbd 4493 5d3d
000000e0: 566c 2e3d aac8 ed3d bde5 52bb ad92 b6bd
000000f0: f1d8 e63d 12ae 49bb 5ec0 94be c3f7 60bd
00000100: 2ea0 983d 2add bb3e 6651 b03d 8c5c 9a3d
00000110: 2ab5 393e 22a1 aebc 50bd 553e 2f6e cc3d
00000120: a454 073e 4706 493d 04a7 673e e0ef ce3d
00000130: 2b32 5c3d 1f41 233d 1aa5 ad3e 18fe 6fbe
00000140: a1d2 31be afea ffbd f047 ce3e 06eb c8be
00000150: d0b9 c03d 2be6 003e 410c 933a fd0f ae3e
00000160: a7ca a9bb 39f7 a53e baa0 15bd e73a 69be
00000170: 5489 41be d2a2 893e 7d3b bf3e 974b 7ebd
00000180: 648f 333e 72ee 393e 6671 1cbe 37fe 673d
00000190: f37d c2bd 2980 87be b4fa fc3e f9f9 1b3e
000001a0: b295 543e 9f77 c0bc b30b 64be 32bf 8cbe
000001b0: 5956 733e e18e f53d d72d 4a3d 2bc7 673e
000001c0: aa34 7dbd ca81 273e 0096 95bd 69cd 9b3e
000001d0: a6c3 773e 6e36 7f3e d262 603e d3ee 863d
000001e0: 334a 1c3e 9bc4 68be b4e7 1f3e aa08 d1be
000001f0: 9f57 45bc b585 513e 592b 32be 5c63 aebd
00000200: ebee e13e 03eb 423e 924f acbd 8f65 47bd
00000210: 24c5 c83c 0c59 8dbd 2667 46bc 5782 e43e
00000220: 1bc9 0e3d 7fca a4be 7cf8 1ebf 8653 b2bd
00000230: 0a66 89bd 6631 e9bd 6735 b8be 21ff 773e
00000240: ce8f 933c 3492 2e3e d904 b1bd f062 7e3e
00000250: 843f b43e bec9 55bd 960b 983e 6bc5 813c
00000260: e7dc 70be 8d56 21bc bb57 033e 7870 f2be
00000270: 56c5 1bbd 82fb 8f3d b91b 05bf 707d 283d
00000280: 6229 47bb 138b a03e 4e2e 093e 23a0 133d
00000290: 6586 dbbe ac17 1b3e f381 183d 156e 163d
000002a0: d95b 583e 1741 b03e b25e 4dbd 6017 c63e
000002b0: f7e3 823e e2b7 5ebe ffb8 5dbd 9623 e5bd
000002c0: a33c c03e 4483 10be 066e b7bc dbfe 6c3d
000002d0: 1c56 2db9 9dec cabc a1a7 2e3e 076f af3e
000002e0: 024d 493e 77de 27be 448f 25ba 433c a53d
000002f0: c190 37be a75b f43d be00 a33e 117f 80be
00000300: 4ecc 98bf 6c90 6d3e f12a 13bf d2ee 423e
00000310: 427d b93d 4635 2a3e ffdd 0fbd 13e6 d63e
00000320: 6449 f5bd 58bf 08bd 8b6f 803d 171e 1bbe
00000330: 3c71 2ebd cc7a a1bd 0617 bc3d d018 cebc
00000340: fb24 143e 39a1 51bd 3ed8 443e 0629 5fbe
00000350: fac5 b5be 7c73 b73e 1ed5 a8bd d402 afbd
00000360: 855f ddbe 31ec d93c 45bf b93d c39d 2d3e
00000370: 293e 063e 06f1 9d3c 6dfb 8cbd bf4b aa3d
00000380: 3658 2a3e 71b9 003a 6fc9 65be f60d 9c3e
00000390: 968a c63c 52c8 68be e10e fa3d 482c a43d
000003a0: 8bc5 f4bd 83ac 4a3e 5930 773e fa68 163d
000003b0: dd4a b53d c974 1ebe 4862 bcbd 1451 443e
000003c0: 9fd3 4d3b 1290 aa3d 9dbb 14be 1347 023d
000003d0: 9f3c 43bd 0ead 9cbc 6f0e 023e 28b9 953d
000003e0: d978 e43d 2eef 6c3e 350b 813e 0eb4 7a3e
000003f0: 7324 873c a8e0 f93d aa36 d33d 5343 373e

bias f4 [16]
0.3030975 0.06821817 -0.12831248 -0.02811252 0.17247114 0.0013927849 -0.07973558 0.3406273
0.3163199 0.104671665 -0.20736937 0.07087892 -0.18573663 0.44344288 0.30803582 0.4621742
00000000: 982f 9b3e f8b5 8b3d 5964 03be 3a4c e6bc
00000010: 469c 303e 1b8e b63a 684c a3bd b466 ae3e
00000020: aff4 a13e 195e d63d a358 54be f828 913d
00000030: be31 3ebe f20a e33e dfb6 9d3e 19a2 ec3e

weight f4 [10, 16]
0.5103052 0.22064866 0.29207557 -0.16042525 -0.10060471 0.19926369 -0.044315875 -0.18533449
0.027624328 -0.10930776 -0.0033696631 0.41700536 0.33974698 -0.08815182 -0.2704714 -0.099404946
0.33513102 -0.070193015 0.16648626 0.1480482 0.09432292 0.2924256 -0.22577529 -0.15524054
-0.12079373 0.23441726 0.24091859 0.4499797 0.16008316 0.037764855 -0.19689982 -0.18803462
-0.07915586 -0.4793456 -0.4372794 -0.3041724 0.201704 0.06842804 0.040077932 0.1796674
0.047857516 -0.7531533 -0.35828435 0.17235896 0.21498021 -0.28056848 0.1919238 -0.058069546
0.15411255 -0.50844395 -0.4717139 -0.36021593 -0.05655004 -0.33169016 -0.23845834 0.20313114
-0.07701477 -0.8620104 -0.18887752 -0.40225187 -0.0034202272 0.15053445 -0.17949712 0.08313551
-0.15184428 0.22250757 -0.13296232 0.4320634 0.3184536 0.17507088 -0.3365088 0.090367846
-0.08092529 0.044863187 -0.16014317 0.07641877 0.048901305 -0.44574285 -0.20806366 0.08581558
-0.35078308 -0.09709428 0.09745944 0.16720523 0.15901318 0.18431067 -0.21309714 0.20144002
0.23088117 0.27819034 0.08089543 -0.120556794 -0.13343118 -0.045560792 0.84893936 -0.0070424927
-0.17855527 0.19617322 0.063737914 0.14826877 0.13611925 -0.27800706 0.4214633 -0.003510014
0.19116972 0.22893839 -0.7680761 -0.77753687 -0.027480518 0.028002413 -0.16453949 0.13273796
0.18874872 0.20370737 -0.12216951 0.013651386 -0.7173742 -0.004248092 0.5653175 0.20996702
0.063722506 0.24456069 0.0052342177 -0.8500266 -0.39249974 0.12806612 -0.6219998 0.49089321
-2.143433 -2.3201194 -1.5291159 -1.7591538 -1.6665674 -2.3464162 -0.10111365 -2.1189508
-1.8425838 -0.9256949 -1.3637154 -1.7968955 -1.5602273 -1.2772062 -0.99824995 -1.6909823
-2.482624 -2.0611272 -1.3142575 -1.8213669 -1.5426753 -2.2383413 -0.12087916 -2.0478594
-1.7563032 -0.5790687 -1.6108015 -1.635684 -1.6374342 -1.22897 -0.92143273 -1.4741384
00000000: 5da3 023f b9f1 613e ee8a 953e 8446 24be
00000010: d809 cebd c80b 4c3e 9084 35bd 53c8 3dbe
00000020: 6a4c e23c bfdc dfbd 91d5 5cbb ba81 d53e
00000030: 51f3 ad3e f188 b4bd 3a7b 8abe d294 cbbd
00000040: 4b96 ab3e 5bc1 8fbd 607b 2a3e f399 173e
00000050: 602c c13d cfb8 953e a331 67be 60f7 1ebe
00000060: b462 f7bd 140b 703e 5db3 763e bd63 e63e
00000070: d7ec 233e 52af 1a3d 1ba0 49be 268c 40be
00000080: 781c a2bd c96c f5be 16e3 dfbe 7cbc 9bbe
00000090: 7e8b 4e3e 0024 8c3d c228 243d bbfa 373e
000000a0: 3e06 443d a8ce 40bf 0c71 b7be de7e 303e
000000b0: c623 5c3e aca6 8fbe ac87 443e 55da 6dbd
000000c0: aecf 1d3e 6229 02bf 7c84 f1be 396e b8be
000000d0: 04a1 67bd 4bd3 a9be 6c2e 74be 9c01 503e
000000e0: ebb9 9dbd b7ac 5cbf 1c69 41be f5f3 cdbe
000000f0: e425 60bb b425 1a3e 18ce 37be f342 aa3d
00000100: 117d 1bbe 06d9 633e 4627 08be 6a37 dd3e
00000110: 5a0c a33e c845 333e e24a acbe c712 b93d
00000120: 29bc a5bd 76c2 373d 92fc 23be 7281 9c3d
00000130: bc4c 483d 6838 e4be a40e 55be 14c0 af3d
00000140: d799 b3be 5ed9 c6bd d198 c73d d937 2b3e
00000150: 5ad4 223e f0bb 3c3e 2336 5abe 4b46 4e3e
00000160: 1d6c 6c3e f76e 8e3e 81ac a53d 7be6 f6bd
00000170: 2fa2 08be f49d 3abd 1754 593f b6c4 e6bb
00000180: 31d7 36be a2e1 483e 0689 823d c5d3 173e
00000190: d862 0b3e f156 8ebe 0aca d73e 4308 66bb
000001a0: ffc1 433e d36e 6a3e a3a0 44bf a80c 47bf
000001b0: d31e e1bc 5165 e53c 0a7d 28be 76ec 073e
000001c0: 5847 413e aa98 503e 0234 fabd 10aa 5f3c
000001d0: d6a5 37bf 9433 8bbb a6b8 103f 9801 573e
000001e0: f280 823d 1e6e 7a3e cd83 ab3b 589b 59bf
000001f0: baf5 c8be c423 033e 613b 1fbf 5b56 fb3e
00000200: 022e 09c0 d67c 14c0 12ba c3bf f42b e1bf
00000210: 1552 d5bf af2b 16c0 ac14 cfbd e49c 07c0
00000220: c9d9 ebbf 57fa 6cbf 3a8e aebf ac00 e6bf
00000230: 87b5 c7bf 7e7b a3bf 4f8d 7fbf 1c72 d8bf
00000240: 50e3 1ec0 82e9 03c0 9739 a8bf 8d22 e9bf
00000250: 6276 c5bf fc40 0fc0 7e8f f7bd 2110 03c0
00000260: 8bce e0bf d93d 14bf be2e cebf 185e d1bf
00000270: 7297 d1bf e44e 9dbf 04e3 6bbf 91b0 bcbf

bias f4 [10]
-0.3406229 -0.19335029 -0.23266757 0.19848359 -0.09749326 -0.019814 0.2551532 0.14053898
-1.2753434 -1.0529329
00000000: 2066 aebe 9efd 45be 6840 6ebe 483f 4b3e
00000010: 8caa c7bd f850 a2bc 71a3 823e 73e9 0f3e
00000020: 743e a3bf 81c6 86bf
