models/node_importance_delta/manipulate_nn.pth (torch, 16132 bytes, 6 tensors)

weight f4 [64, 10]
000000 71 dd d7 be 35 e6 5c be ba 9d fc 3c a1 58 b2 be
       -0.42161134 -0.21572192 0.030836929 -0.34833243
000010 7b cd 66 be a6 93 2a 3e 94 65 20 be fa dc 5b 3e
       -0.22539322 0.16657886 -0.15663749 0.21471015
000020 14 50 c8 bc e4 7e e5 3d cf 6e c4 bd 69 c6 4b 3d
       -0.024452247 0.11205843 -0.095914476 0.049749766
000030 a5 7d e9 3b 54 d5 ab bc ae 8c 52 3d a9 92 7e bd
       0.0071255737 -0.020975746 0.051403694 -0.062151585
000040 26 ce 86 3e 74 f5 35 3f 88 92 1f be 21 3e ec bd
       0.26329154 0.71077657 -0.15583241 -0.11535288
000050 a9 8f c3 be 11 ba 50 be 02 3b ab 3b 2d 63 9f 3e
       -0.38195542 -0.20383479 0.00522554 0.31130353
000060 ba c1 46 3d 74 e9 a2 be 64 2b e5 bc b4 9e 3a 3e
       0.048524596 -0.31818736 -0.027974792 0.18224603
000070 79 2c 04 be 04 cf f4 bd 84 61 ee 3d c6 3a 4f 3e
       -0.1290759 -0.119535476 0.116396934 0.20237264
000080 a2 fa 81 3d a6 ff 1b bf db 66 9f be 0b ef 06 be
       0.063466325 -0.60936964 -0.3113316 -0.13177125
000090 4f 3c 39 3e 50 ca 97 3a af db 6e bd 11 0c 81 3e
       0.18089412 0.001158068 -0.058314975 0.25204518
0000a0 e9 e9 9e 3b 5e c7 9a bd d0 c8 e4 3d 0a 9f c7 3e
       0.0048496616 -0.075575575 0.111711144 0.38988525
0000b0 75 ef 4e bf f0 9a 37 be de 40 a0 3d 5f 05 ef 3d
       -0.8083413 -0.17930198 0.078248724 0.11670946
0000c0 14 18 dd bd 66 67 b8 3d fe 77 7a bd 4d 9f 36 be
       -0.10795608 0.09004097 -0.06114959 -0.17834206
0000d0 5c da 4e be a3 93 d2 be 1c f0 aa be e8 99 96 bd
       -0.20200485 -0.41128263 -0.33386314 -0.07353574
0000e0 8d 3c 2a bc e6 5c 9a be 76 5c e3 be 96 5a 6b bf
       -0.010390413 -0.30149 -0.4440648 -0.919351
0000f0 17 03 62 3e 9f a3 19 bd d8 54 43 3e 69 b5 dd bd
       0.22071491 -0.037509557 0.19075334 -0.10825617
000100 d1 32 3c be 21 af 87 3e 03 1f 36 be 50 e0 b1 3e
       -0.1837876 0.265008 -0.17785268 0.3474145
000110 9b c0 2a be ad 15 73 3e af 04 6b be 3a 81 86 be
       -0.16675036 0.23738737 -0.22951005 -0.26270467
000120 a3 1d 27 3c 21 91 ce be b4 8f ef bc 19 ea f6 3e
       0.010199937 -0.403451 -0.029243328 0.48225477
000130 ad b7 0c 3f 1e 4d a5 be b5 fd d0 3e 15 1a 88 3e
       0.54967767 -0.32285398 0.40818563 0.265824
000140 92 13 ba 3d 9a b1 3d bc d2 d4 14 be c9 79 4f 3e
       0.09085764 -0.011577988 -0.1453431 0.20261301
000150 46 11 0a bf 0e 53 bd be 38 19 18 3e 39 d0 5f bc
       -0.5393261 -0.36977428 0.1485337 -0.013660484
000160 5c 8f 44 be f8 a4 a2 3d 56 0e 87 be 83 47 7d be
       -0.19195312 0.079416215 -0.26378125 -0.24734311
000170 1f d3 50 be e8 83 db 3c 7c b1 d3 bd d3 e2 cb 3e
       -0.20393036 0.026796296 -0.10336587 0.3982149
000180 f8 fc a3 3d e4 66 95 be 1a 38 1a be fb 27 29 bf
       0.08007234 -0.29180062 -0.15060464 -0.6607663
000190 3e a6 08 3e 19 9b fd bd 55 44 b1 3e 8e 94 d7 3c
       0.13344666 -0.12383098 0.34622446 0.026315954
0001a0 d3 7f 42 3e 64 c8 a3 bd 20 88 c9 3e 10 74 36 be
       0.18994074 -0.07997206 0.39361668 -0.17817712
0001b0 09 c3 a9 3e 13 c0 ac be f7 73 93 be 73 ae 4e 3d
       0.33156613 -0.3374029 -0.28799412 0.050459336
0001c0 0d 1e 35 bd 1e fa 25 be 35 b1 3c 3e c4 08 02 be
       -0.04421811 -0.16208693 0.18426974 -0.12698656
0001d0 a8 b9 38 be 73 6d 6d bd 50 18 01 be 82 e4 7b be
       -0.18039572 -0.057965707 -0.1260693 -0.24598888
0001e0 8b 3f 6e be ca 34 9e bd 8b 80 da 3d ae 06 90 be
       -0.23266427 -0.077249125 0.10669049 -0.28130096
0001f0 24 b6 ee bd 03 a9 19 3e f7 66 ad be 60 5d 84 3e
       -0.11655834 0.15005879 -0.33867618 0.2585249
000200 f3 a6 89 be 7f be 0a 3f 2f 3c 06 bd f1 ce 4d be
       -0.26885185 0.54196924 -0.03277224 -0.20098473
000210 8b 50 90 3d 46 f5 86 be 4d ce 92 be 7d 35 f7 3e
       0.07046612 -0.26359004 -0.2867302 0.48282996
000220 a8 5c e5 3d d4 87 99 bd 08 a6 09 be 35 a6 30 bf
       0.111993134 -0.0749661 -0.13442242 -0.6900361
000230 6e 4a de 3d a8 11 c4 bd f9 4c d4 3d 07 6f af 3d
       0.1085404 -0.0957368 0.10366244 0.08566099
000240 d1 13 07 bf 07 c2 cc be 16 b9 92 3e e0 5e 44 bb
       -0.5276461 -0.3999178 0.28656834 -0.0029963776
000250 77 cf 68 3e f3 f8 b9 3d bc e2 a9 bd 87 d0 b1 3d
       0.22735392 0.090806864 -0.08295199 0.086823516
000260 8e dc c1 3e 29 da c0 bd fc 5c 54 bd 76 81 15 bf
       0.37863582 -0.09416611 -0.05184649 -0.58400667
000270 98 d6 ad be a0 ab cc bd 57 2d 91 be 98 51 71 3e
       -0.33952785 -0.09993672 -0.28354904 0.23566282
000280 96 c1 c6 3d 85 82 30 be 74 88 17 3f 24 69 a0 be
       0.09704892 -0.17237289 0.59192586 -0.31330216
000290 b6 4c b4 3d 81 44 69 bc 53 b4 df 3d 9a c1 37 ba
       0.08803694 -0.014237524 0.10923066 -0.0007009745
0002a0 c4 12 45 3e 5d bc c8 bd ca 10 03 bc 07 82 10 3e
       0.1924544 -0.098015524 -0.007999608 0.14112101
0002b0 c2 da a9 be aa f7 39 3c 4c aa 33 bd 61 58 40 bc
       -0.3317471 0.011350552 -0.04386358 -0.011739821
0002c0 76 c5 64 3e ad 07 3e 3f 57 b9 68 3c e2 04 57 bc
       0.2234095 0.7423046 0.014204345 -0.013123723
0002d0 e8 56 93 bd 13 cd a6 be 30 55 c1 3d 3b 80 5e 3b
       -0.071943104 -0.32578334 0.09440076 0.0033950943
0002e0 97 5e 8b bd 29 61 93 3e 6b 2e d7 be 40 61 a1 be
       -0.06805151 0.28785065 -0.42027602 -0.31519508
0002f0 1a a5 44 3e 1d 3a 7a 3e ed 89 50 bd 49 43 e7 3d
       0.19203606 0.24436231 -0.050912786 0.112921305
000300 da 82 c2 3e 0a 0a 07 bd c0 72 a6 3d 01 b6 e0 3c
       0.37990457 -0.03296856 0.081273556 0.027430536
000310 60 c1 9f be bf 52 4d 3e c3 29 cb be e5 b6 80 3d
       -0.3120222 0.20051096 -0.396803 0.06284884
000320 c2 5b ab be ff ea 27 be 8b d7 6d be a0 e3 68 3e
       -0.33468443 -0.16398238 -0.23226754 0.22743082
000330 41 9c 54 3e 90 52 f1 bd c4 16 ae bc df bd 2b 3e
       0.20762731 -0.11783326 -0.02125109 0.16771649
000340 7d 9d 99 3d 8a 38 aa 3e 5f 4c 91 3e 4a 10 b8 bd
       0.07500742 0.3324626 0.2837858 -0.08987482
000350 c0 d9 ab 3d 01 ff ad be 2b 54 00 3e c3 85 cb 3e
       0.08391142 -0.33983615 0.12532108 0.3975049
000360 1f 82 2b 3e 9c 5c cd bc 00 d3 76 3e 76 aa f9 bd
       0.16748856 -0.025068574 0.24103928 -0.12190716
000370 a1 97 78 3e a4 0c bc 3e fe e2 90 3e 9a 0c 88 3e
       0.24276592 0.36728394 0.2829818 0.26572114
000380 e9 08 62 bc a1 fc 02 3d f7 04 5f be cc 59 b9 be
       -0.01379607 0.031979207 -0.21779238 -0.36201322
000390 d8 8d 0f 3e 5a 9c 40 bd 59 da 4b be d6 87 aa be
       0.14018953 -0.04702411 -0.19907512 -0.3330676
0003a0 ef b4 d5 be 93 5d 1f 3e c6 61 65 3e 20 c2 db 3d
       -0.41739604 0.1556304 0.22400579 0.10730386
0003b0 15 88 b9 3d 2b 4c a7 bb 81 ab 2f 3e 43 28 0e 3d
       0.09059159 -0.0051055155 0.17155267 0.034706365
0003c0 7c 14 9b 3d f9 2d 5a 3d f8 fe c7 be 88 cd c9 be
       0.075722665 0.0532665 -0.39061713 -0.3941462
0003d0 2e e4 48 be b8 7d 00 bf 3f 9e 3a 3c fd 44 de be
       -0.19618294 -0.5019183 0.011390268 -0.4341201
0003e0 b9 42 65 3e 05 0a 5b 3e 2f 76 e4 3d 5c 5c dd bd
       0.22388734 0.21390541 0.11155354 -0.10808632
0003f0 2f 42 32 3f 49 67 8f be 71 ff 4c 3d f9 fb da 3d
       0.6963224 -0.28008488 0.050048295 0.10692591

bias f4 [64]
000000 b5 45 24 be 4f e6 63 bf 28 ba 2a bf e9 fe 22 be
       -0.16042216 -0.890233 -0.666903 -0.15917553
000010 5f d8 c7 be 1f e6 17 bf ca 9b 9a 3e 2a f5 67 3d
       -0.39032266 -0.5933551 0.30196983 0.05663029
000020 8f 0a a0 bd 13 78 ed 3c 5b 34 02 bf 66 96 20 3d
       -0.07814514 0.02898792 -0.5086114 0.03920593
000030 19 99 fb be 93 94 60 3e 25 32 43 bd 6d 19 1f be
       -0.49140242 0.21931677 -0.047655243 -0.15537043
000040 3e 4c 87 3e 69 f9 33 3e ce 37 9a bd 45 83 65 3e
       0.26425356 0.17575611 -0.07530175 0.22413357
000050 15 76 c5 be f0 7a b7 bb c1 bd fd be 72 b5 cf bd
       -0.38566652 -0.005599372 -0.49558833 -0.1014203
000060 dd 41 30 be 10 b6 39 bf 6b 0c 3e 3e 7f 6b 5a be
       -0.17212625 -0.7254343 0.18559425 -0.21330069
000070 8b e7 70 3e 86 02 6e be c7 d2 30 3d 05 ba d6 be
       0.23525827 -0.2324315 0.043169763 -0.41938797
000080 35 5e 2a bf d0 8b 56 3e 2a 66 18 be c6 25 0c 3e
       -0.6655 0.20951772 -0.14882722 0.13686284
000090 2b 60 49 bd 98 13 d1 be 0d f3 4e be a1 e6 68 be
       -0.04916398 -0.4083526 -0.20209904 -0.22744228
0000a0 45 a1 a9 3c 21 ab ba 3e 8b 49 b2 be a3 7e cb bd
       0.020706782 0.36458686 -0.34821734 -0.099362634
0000b0 dd 28 f9 bd 61 8c 08 3e 68 7a c9 3d d2 db 40 be
       -0.12165997 0.133348 0.098378 -0.18833855
0000c0 bb 62 4b 3e 26 db 9c be 24 ba 17 bf 75 87 68 be
       0.19861881 -0.30635947 -0.59268403 -0.22707923
0000d0 aa 36 89 3d 87 37 b0 be a4 c6 ae be 79 3a 11 bf
       0.066998795 -0.34417364 -0.34135926 -0.5672985
0000e0 35 ae cf 3e ed 22 8f 3e 9e 77 ac be c1 27 1e 3d
       0.40562597 0.27956334 -0.3368501 0.03861213
0000f0 5f 3a a9 bc 70 36 0a be b0 f9 f3 3e 53 a1 07 bf
       -0.020657716 -0.13497329 0.47651434 -0.52980536

weight f4 [32, 64]
000000 20 45 ea bd 1b cd 72 bc fc e5 09 be 4f 05 93 bc
       -0.11438966 -0.014819409 -0.13466638 -0.017946867
000010 88 1f d3 3c 2e e1 e2 bd 88 06 79 bb 3d 0f e8 bd
       0.025771871 -0.11078106 -0.0037998278 -0.113310315
000020 93 23 d4 bc b0 b5 81 be 07 69 78 bd 0b af a2 bd
       -0.02589587 -0.2533393 -0.060647037 -0.07943543
000030 00 49 92 3b 96 09 85 3b 60 b6 44 bc 9f 50 82 bc
       0.0044642687 0.0040599806 -0.012006372 -0.015907584
000040 82 1b c1 bd 8b e0 3c bd 53 5e 8a 3d 57 21 7d bd
       -0.09429075 -0.04611258 0.06756272 -0.061799373
000050 a2 dd fd 3c 7e 97 9a bd 36 eb 58 bd 35 4e b9 bd
       0.030989472 -0.07548426 -0.05295869 -0.0904812
000060 33 1f af 3c f0 e8 c4 bd f5 7d fb bd b5 27 35 bd
       0.021377182 -0.09614742 -0.12279884 -0.04422732
000070 15 3f dc bc cc af 5e ba 30 86 40 be ff a3 6b bd
       -0.026885549 -0.00084948237 -0.18801188 -0.057529446
000080 f1 26 46 bd c9 5d 91 bd b6 ac 61 bd af 06 04 3c
       -0.04837698 -0.07097966 -0.05509635 0.008058234
000090 3a 29 8c bd 82 1d 81 be 23 55 e9 bd 18 d0 ca 3d
       -0.06843801 -0.25217825 -0.11393192 0.09902972
0000a0 e7 2b c1 bb 1d 84 71 be 7f 4e ab 3d 9d 69 98 3d
       -0.005895126 -0.23585553 0.08364581 0.07442019
0000b0 63 45 7a bd f9 59 5c 3d 62 db 3e be 7b d5 fc bc
       -0.06110133 0.053796742 -0.18638375 -0.030863514
0000c0 53 4e 9d 3c 4c 59 73 bd e6 c6 8c 3d 10 81 ff bc
       0.019202387 -0.059411332 0.06873874 -0.031189471
0000d0 3e bf be bd f2 a7 a5 3d 65 a7 a6 bd 8a 4c c7 3d
       -0.0931382 0.08088674 -0.08137397 0.097313955
0000e0 a5 5f d2 bd a4 07 de bd 44 0c 1f be 19 1e bb 3d
       -0.10272149 -0.10841301 -0.15532023 0.091366
0000f0 25 f1 13 3d 5c d3 37 be 3b c2 9a bd d7 19 f6 bd
       0.036118645 -0.17951721 -0.07556578 -0.12016647
000100 35 52 3c 3d 25 6c 8d 3c a7 43 b2 3e fb 97 1b bd
       0.045976836 0.017263481 0.3481724 -0.037986737
000110 d2 7d a9 bd a7 6f 9b 3d 6c 7c 2a be 79 08 a3 bd
       -0.082759514 0.07589655 -0.16649026 -0.079606004
000120 d2 e7 49 bb 74 e6 8f 3e 90 dd 2c 3e 93 9f 7d bd
       -0.0030808342 0.2810551 0.16881394 -0.06191976
000130 ed 24 04 3b 38 e7 82 bd 62 a2 40 be 4a 2f 66 bc
       0.002016361 -0.06391758 -0.18811944 -0.0140493605
000140 b0 de 34 3d d2 aa 39 bd 98 15 87 3d 55 d3 d4 bd
       0.044157684 -0.045328923 0.065959156 -0.10391871
000150 cc a8 5c 3e 6e 8f 8c 3d d1 4d 4e be 94 d9 35 bd
       0.21548766 0.068632945 -0.20146872 -0.04439695
000160 83 fa 93 bd 37 eb c6 3c dd 2b 98 3d 43 1e f5 bd
       -0.07225516 0.024282081 0.07430241 -0.119686626
000170 96 93 8b 3d a4 3c 0e 3e e5 20 13 be fd a7 aa bc
       0.06815259 0.1389032 -0.14368017 -0.020832056
000180 8a cb e7 be 05 e3 6d bd f4 6f 93 3e 36 5d d1 be
       -0.45272475 -0.05807783 0.2879635 -0.40891427
000190 c2 0d d5 3d 35 d3 fa 3c b0 4e 6d bd 44 e6 5f bb
       0.10403015 0.03061829 -0.05793637 -0.0034164349
0001a0 db 9a 04 bc 7c 85 52 3e f5 d8 4c be cc 65 57 3e
       -0.008093561 0.20558733 -0.20004638 0.21034926
0001b0 57 86 d2 3d 16 f9 5c bd 50 dc c4 3d 2f a2 01 bd
       0.102795295 -0.053948484 0.09612334 -0.03164881
0001c0 64 c8 71 3d e7 ed 0f bd 9f b7 dd bb 14 5b a6 3e
       0.059028998 -0.03513899 -0.006766274 0.32491362
0001d0 8d 40 fd bd 68 d2 7e 3d ea da 4e bd d2 3d b0 3c
       -0.12365828 0.062212378 -0.05050174 0.021513853
0001e0 22 56 54 3e 85 c5 2e bd e9 15 9b 3d 83 38 90 bc
       0.20735982 -0.042668838 0.075725384 -0.017605072
0001f0 a0 51 31 3e 61 14 b4 3d 96 51 41 3d 58 a0 c9 3c
       0.17316294 0.087929495 0.047196947 0.02461259
000200 c7 68 83 3d 59 09 a2 3d 5d 6f b2 3e 42 b8 f8 3c
       0.06416469 0.07911939 0.34850588 0.030361298
000210 2b df 70 bd 55 42 ac 3d 60 a7 64 bf f1 c8 c8 3d
       -0.05880658 0.08411089 -0.89317894 0.098039515
000220 ff 58 99 bc e5 ee a7 3d ee f1 9f 3c 1b 47 26 3e
       -0.018719194 0.081998624 0.01952454 0.16238062
000230 ae c8 71 be f5 c1 c0 3d 28 61 b9 3d dc 89 cd be
       -0.2361171 0.09411994 0.09051734 -0.4014424
000240 99 0a 09 be 73 01 e0 3d 5f 15 b7 be fa f1 47 be
       -0.13382949 0.109377764 -0.35758492 -0.195259
000250 e1 05 3b 3e ca a2 d6 be e2 5e 45 3d 6f 9e 5f 3d
       0.18263961 -0.41921073 0.04818619 0.054594453
000260 21 da 1c 3e 48 ee fc be 39 6b ef 3c 75 d7 a9 bd
       0.15317585 -0.49400544 0.029225932 -0.08293048
000270 15 6b 91 3d 2f a0 30 3d 68 a9 96 be ba 83 7c be
       0.071005024 0.043121513 -0.29426122 -0.24659625
000280 23 db fe be f2 59 19 bf 33 97 a5 3c 25 41 48 be
       -0.49776563 -0.5990287 0.020213699 -0.195561
000290 1a dc 20 3e 68 02 0e 3e df 3e c6 3d c2 d2 86 be
       0.15708962 0.13868105 0.096799605 -0.2633267
0002a0 6f 48 fe be 91 0e 26 bc 3f 51 33 3e a6 2e 0f 3e
       -0.49664637 -0.010135309 0.17511462 0.13982639
0002b0 96 db 19 bd 5b 35 7e 3d 90 5d d3 3d da 1a 86 be
       -0.03756293 0.062062602 0.1032058 -0.2619236
0002c0 c5 de a0 3d 63 b2 00 3e cf b0 78 be 25 16 c9 bd
       0.0785499 0.12568049 -0.24286197 -0.09818677
0002d0 c6 b2 cf 3c 61 d3 1f bf c5 d5 36 3e 6d cb 8f 3e
       0.0253538 -0.62431914 0.17854984 0.2808489
0002e0 8f 02 05 bf 12 1f 93 3c 40 3c bc bd 85 7c 5d bc
       -0.5195703 0.017959151 -0.09191179 -0.013518457
0002f0 f5 31 8b bd 86 2f 5f be a9 c5 51 3e 96 95 b8 bc
       -0.06796638 -0.21795473 0.20485558 -0.022532266
000300 93 44 69 be 50 70 59 bc 12 e1 e3 bd b2 b1 8f bc
       -0.22780065 -0.013271406 -0.11126913 -0.017540786
000310 8b 31 7f 3d d1 31 29 be 9e 92 d7 bd a8 04 83 3d
       0.062303107 -0.1652291 -0.10526012 0.063973725
000320 e2 f2 d0 bd f3 1e ad bd 21 1b 99 3d 78 b0 1b be
       -0.10202576 -0.08453169 0.074758776 -0.15204036
000330 1d f8 06 3d 43 e8 7b be f1 5d 1a bc 21 d3 d6 bd
       0.032951463 -0.2460032 -0.009421811 -0.104894884
000340 31 ec 59 bc 4b 7e 89 bd c6 06 e3 3b 4f 05 88 bd
       -0.013300941 -0.067135416 0.0069282977 -0.066416375
000350 25 eb 0f 3e 06 56 5a bc 6c 4b 82 3e 4e b5 6e 3d
       0.14054544 -0.013326174 0.25448167 0.058278374
000360 2f b0 06 3e b6 f7 83 3d 64 77 04 be 83 71 bd 3d
       0.13153146 0.064437315 -0.12936169 0.09250166
000370 15 4a 26 be 2c 89 d3 3d fc d3 89 bd 17 ed 64 3d
       -0.16239198 0.10328898 -0.06729886 0.05589017
000380 fe 1d 69 3d 11 f1 fc 3d 38 8d a5 bd 5b 46 94 3d
       0.05691337 0.12350667 -0.08083576 0.07239982
000390 18 95 89 3d 19 86 46 3e 58 80 8a 3e c8 db 1e be
       0.067178905 0.19387092 0.27051044 -0.15513527
0003a0 63 aa 89 bd 64 26 56 be bb be ef 3c 46 cb f6 3c
       -0.06721952 -0.20913082 0.029265752 0.030126225
0003b0 e5 3f aa 3a 5a 7d 79 3e 81 9e 69 bd 72 bd 49 3e
       0.0012989013 0.24364224 -0.057035927 0.19701174
0003c0 28 36 be bd f4 27 95 3d 13 db 68 be 3d 6d 8c bd
       -0.09287673 0.07283011 -0.2273982 -0.06856773
0003d0 dd 70 07 bd 69 a5 9f 3e a8 d4 0b 3d 5a a7 77 3e
       -0.03306662 0.31180885 0.03413835 0.24184933
0003e0 82 15 7d 3d dd 39 05 3e 58 43 32 be 60 c4 f2 bd
       0.06178809 0.13010354 -0.17408502 -0.11853862
0003f0 44 88 70 bd d8 d0 48 3e c0 10 0d 3b 4e d3 80 3e
       -0.058723703 0.19610918 0.0021524876 0.25161213

bias f4 [32]
000000 e7 39 24 be ed 1b b1 3e 39 ca 2b 3d 47 90 4e 3d
       -0.16037713 0.34591618 0.0419409 0.050430562
000010 55 62 4d 3e 2c 4f 02 3d f0 3d 17 bd 3d e2 57 bd
       0.20057042 0.031813785 -0.036924303 -0.052705992
000020 c6 cd e1 bc 5a 69 6e 3c 36 f9 7b 3e 15 5e 71 bd
       -0.02756394 0.014551485 0.24606785 -0.058927614
000030 57 fe 34 3e 87 7f 32 be ae bd 5e 3e 4c 38 56 3d
       0.17675148 -0.1743146 0.21752045 0.052299783
000040 5d 54 cc bd eb 0a 59 3e d4 28 24 3e 04 f4 aa bd
       -0.099770285 0.21195571 0.160312 -0.083473235
000050 b1 fd 73 3d a5 e0 42 3c 6e 3d 21 3e 95 09 11 3e
       0.05956811 0.01189438 0.1574609 0.14163812
000060 7f ff e8 bd b6 ab 77 be 93 53 ae bd 4b 0e 81 3d
       -0.11376857 -0.24186596 -0.08512034 0.06301554
000070 c2 e3 ac bd af 1d 65 3e d4 73 1e 3d 9b 95 bc 3e
       -0.08441879 0.22374605 0.03868468 0.3683289

weight f4 [10, 32]
000000 83 6e 1d be 19 05 9e be 3b ff 59 3e f5 fb 00 3e
       -0.15374188 -0.30863264 0.21288769 0.12596114
000010 0f db 57 3d 18 04 bd bd 77 53 00 3e 47 02 8b 3e
       0.052699145 -0.092292964 0.1253184 0.27150175
000020 77 30 eb bc 2d f0 fa bc 3c b5 f9 bd 98 73 11 3e
       -0.028709633 -0.030632103 -0.12192771 0.14204252
000030 1b 07 1e 3e 98 77 6c 3e 85 91 7e be 4b 7b bf 3c
       0.15432398 0.23092496 -0.24860199 0.02337422
000040 01 57 c2 3d 96 45 53 3b d3 91 b8 bc d0 84 be 3e
       0.09489251 0.0032237521 -0.022530472 0.37210703
000050 99 0c 54 3e 9d e2 1e bd 6c d4 fd 3d 4d 83 13 3d
       0.2070793 -0.038790334 0.12394032 0.03601389
000060 54 2b a4 3e 8b 21 2c 3e 72 21 6b bd e6 c6 32 be
       0.32064307 0.1680967 -0.057404943 -0.17458686
000070 e6 c9 d9 bb 06 94 73 3d 63 62 87 bc 4b fe d6 3d
       -0.0066463826 0.059467338 -0.016526407 0.10497721
000080 a3 ae 04 be 98 7d 66 bd 59 a2 56 3d 0f aa 90 3d
       -0.12957244 -0.05627212 0.05240092 0.07063686
000090 99 69 6a 3e 67 4f a0 3d 22 9e 35 bd e2 46 00 3e
       0.22891845 0.07827645 -0.04434026 0.1252704
0000a0 43 58 24 3d da 74 f9 3d 67 52 ff bd f2 e3 ca 3d
       0.040123235 0.12180491 -0.12466889 0.09906758
0000b0 3e b3 3a 3d 56 f1 bf 3d fc 9b 11 be bc cf dc bd
       0.045581095 0.09372203 -0.1421966 -0.1078181
0000c0 0b 4f 18 3e a3 39 b4 bd 79 90 68 3e 3a e9 a0 3e
       0.14873902 -0.08800056 0.22711362 0.31427938
0000d0 71 3e a4 3e bd ae 38 be 46 54 66 3e ce 50 69 3e
       0.3207889 -0.18035407 0.22493085 0.22784731
0000e0 e9 dc 1b 3e a6 d4 e9 3c 61 20 d1 3e 69 0e 06 bf
       0.1522099 0.028543781 0.40845016 -0.5236574
0000f0 d0 30 bd bd d8 0b 55 be e1 5a 21 3e 2c 28 16 bd
       -0.09237826 -0.208053 0.15757324 -0.036659405
000100 10 9e 4b 3d 53 02 27 be 2c bf b7 3d 47 37 96 be
       0.049711287 -0.1630948 0.0897201 -0.29339048
000110 60 89 4c be ba a1 69 bc 72 e2 3f be 9e 67 c7 bd
       -0.1997428 -0.01425975 -0.18738726 -0.0973656
000120 0d 5f f4 be 80 d9 21 be d0 0c d7 3c d2 61 22 3e
       -0.47728768 -0.15805626 0.026251227 0.15857628
000130 19 92 95 be 17 9f ec bd 9a 6c 75 3e 0a 71 f9 be
       -0.29213026 -0.115537815 0.2396721 -0.48719054
000140 fb 70 6e be 03 27 a8 3d 00 ca 6e be 7f 73 3b bd
       -0.23285286 0.08210566 -0.23319244 -0.045764443
000150 bd 7f 6a be ae df 81 be 78 19 07 3d 94 3e e1 bd
       -0.22900291 -0.25365967 0.032983273 -0.10998264
000160 38 98 c5 3d 60 d8 2e 3e ec d1 bc 3d 16 cb be 3d
       0.09648174 0.17074728 0.09219727 0.09316079
000170 57 7c 29 bd 90 14 5e 3c 58 6e e2 3d b4 da a0 be
       -0.041378345 0.013554707 0.11056203 -0.31416857
000180 0b cc a3 3d 2b ca 4f 3e 0c 78 c6 3e 7a fb 5b 3d
       0.079979025 0.20291965 0.38763463 0.053706624
000190 fe a9 80 3d 57 5e 72 be b4 ac 91 3d 17 f8 d8 be
       0.062824234 -0.236688 0.07113019 -0.42376778
0001a0 03 ce 40 bf ac aa 9d bd 83 cd 81 be 60 3c 7c be
       -0.7531435 -0.07698569 -0.25352105 -0.24632406
0001b0 6a f5 88 be f2 cc da be d0 39 75 3e 70 04 ed be
       -0.26749736 -0.42734486 0.23947835 -0.46292448
0001c0 d8 4e f7 bd fc 96 16 3e 21 e1 fa bd 53 8e 6e be
       -0.12075585 0.14706033 -0.12249971 -0.2329648
0001d0 3d b2 c2 bd 74 75 08 3e 3a 08 ba bd 4d 55 45 bc
       -0.095066525 0.13326055 -0.090836 -0.012044263
0001e0 25 cf 84 be f4 fc 7a bd 23 08 f1 be 86 34 e9 bd
       -0.2593929 -0.06127639 -0.4707652 -0.11386971
0001f0 80 05 42 bd 6c 41 84 3e db 3e ea be 2e 1e c5 3d
       -0.047368526 0.25831163 -0.4575108 0.09624897
000200 89 5b 64 bc 35 3a 5a 3d 45 ac fa 3e 75 db c9 3c
       -0.013937839 0.053278167 0.48959556 0.024640778
000210 d2 78 38 bf 9a f8 74 3e 56 1b 91 bc 3b e1 8c be
       -0.7205936 0.23922959 -0.01771323 -0.27515587
000220 f1 2f 7b 3e 51 c5 3b 3e 77 fb 88 bd ac 31 e8 bd
       0.24530007 0.18336989 -0.06688588 -0.11337599
000230 1c 67 95 3c 7b b5 14 3e 9f b9 b3 3e 4d a6 7f 3d
       0.018237643 0.14522354 0.35102555 0.062414456
000240 1c ca 1b bd ef 86 d0 be 0e a1 8f bd e0 4e 81 3d
       -0.038034543 -0.40727946 -0.070131406 0.06313872
000250 bb 63 0c bf 70 c7 0e be a3 01 d4 3d 44 cb 89 3d
       -0.54839677 -0.13943267 0.10351875 0.06728223
000260 f0 1c 16 bc b2 ef 03 3e 18 90 e1 3e 09 46 39 bd
       -0.009162173 0.12884405 0.44055247 -0.045232806
000270 99 ff cf be 90 39 7c 3e e7 84 5b 3e ef 43 ac be
       -0.40624693 0.24631333 0.21437417 -0.3364558
000280 bf e9 a6 3d 19 1d 03 3e 8d 36 a5 be fe 65 8a 3d
       0.08150052 0.12804069 -0.3226818 0.06757735
000290 81 7e 88 be da e4 d4 3d b7 86 ef 3d d1 70 7e 3d
       -0.26659015 0.103952125 0.11695617 0.06211931
0002a0 b7 1c 6c 3e 39 51 9d 3d 24 48 ee 3e 18 b3 26 bd
       0.23057829 0.076815076 0.46539414 -0.04069814
0002b0 df d5 71 3e 06 d6 1e be 1c b8 09 3e 93 e8 80 bd
       0.23616742 -0.15511331 0.13449138 -0.0629436
0002c0 b5 ea 83 3d 40 52 c2 3d 3f f4 94 bd 61 f2 d0 3d
       0.06441251 0.09488344 -0.07273149 0.1020248
0002d0 a2 4c 76 be 82 58 91 3d 0c d3 70 be 2b aa 28 3e
       -0.2405267 0.0709696 -0.23518008 0.16471164
0002e0 7c df 4b be ec 67 a8 3d b1 73 2d be c9 1c cc 3d
       -0.19909471 0.082229465 -0.16938664 0.09966428
0002f0 a1 ac be 3e 49 22 eb bd 4b 51 78 3d 18 13 97 bd
       0.3724108 -0.11481149 0.060624402 -0.07376689
000300 9c da be 3d 2d f2 55 bd 8a 9d 8b be 23 2d 1e 3e
       0.0931904 -0.05223291 -0.2726863 0.15446906
000310 f9 d2 ab 3d ee 3f 5a 3e 28 fa bb bd 47 47 b7 be
       0.08389849 0.2131345 -0.09178573 -0.35796568
000320 b9 f9 f0 ba 0d e5 5d 3d 06 3e 78 be 54 db 24 bb
       -0.001838497 0.054173518 -0.2424241 -0.0025155144
000330 ad 38 32 3e 0a c8 8a 3c c3 ac a2 bd ee 38 c0 3e
       0.17404433 0.01694109 -0.07943108 0.37543434
000340 b5 9e 43 bd 37 31 a8 3c 58 d5 0a 3e e1 d0 5c be
       -0.047758777 0.02053128 0.13557947 -0.21564056
000350 56 a9 fb bc 4d 29 28 3e f0 66 87 be 4f 58 ef 3d
       -0.030720394 0.16422005 -0.26445723 0.116867654
000360 4f 94 ef be 18 9c 58 bc 7d 5e 49 bd 1a 59 40 3e
       -0.46792838 -0.013220809 -0.049162377 0.1878399
000370 c4 fd ba 3d 14 f7 45 3d 40 f3 6e be 4a 72 06 3e
       0.09130433 0.048331335 -0.2333498 0.13129535
000380 a3 e8 11 be ef e9 dd 3d f7 84 52 be 9a 69 cb bd
       -0.142489 0.10835635 -0.20558535 -0.09932251
000390 a4 f8 74 3e d9 1c e3 3d 49 6b 92 bd eb 8c 00 3e
       0.23922974 0.11089487 -0.07149369 0.12553756
0003a0 3c 12 21 3e 78 e5 16 3e ef 96 52 be 2d 34 03 3e
       0.15729612 0.14735973 -0.20565389 0.12812872
0003b0 5e 82 9d 3d a4 c9 78 be 5d dc 0a 3d 95 c1 a0 3e
       0.07690881 -0.2429567 0.03390156 0.3139769
0003c0 aa cd 50 bd 7c 53 1a 3e 3b 8e a5 3e 61 b0 e0 bc
       -0.050977387 0.1507091 0.32335076 -0.027427854
0003d0 6a 9e 09 bc d9 35 a5 3a e4 ee 59 3e 14 62 22 bf
       -0.008399585 0.0012604549 0.21282536 -0.63430905
0003e0 de 31 2f bd 58 7e 29 be 83 be 44 be 4c ce 33 3e
       -0.042772166 -0.16552103 -0.192133 0.17559165
0003f0 97 f0 be bd 11 84 38 3e 0b b7 7f bf 06 09 43 3e
       -0.093232326 0.1801913 -0.99888676 0.19046411

bias f4 [10]
000000 9c d5 96 be 6e 0a 97 bd 77 fe c9 bd 60 f3 70 bd
       -0.29459846 -0.07375036 -0.098629884 -0.05882585
000010 da 96 f5 bd 98 5d e2 3d 7c a7 22 3e b1 fe 00 3e
       -0.11991663 0.11053008 0.15884203 0.12597157
000020 1b 9f 83 bf eb ce 2f bf
       -1.028293 -0.68675107
