models_save/single_model_save_k_means_centers_1/single_model_save.pth (torch, 15980 bytes, 6 tensors)

weight f4 [64, 10]
0	0xbd8e0d49	-0.06936128
1	0xbe809d10	-0.2511983
2	0x3e53d6b1	0.20687367
3	0x3e58207c	0.21106142
4	0x3d362e06	0.044477485
5	0xbce2f2ca	-0.027703661
6	0xbdd8f899	-0.10594291
7	0x3d961d3e	0.07329796
8	0x3e9b604b	0.30346903
9	0xbd55678c	-0.052100703
10	0x3cec5bf8	0.028852448
11	0xbe9a41b8	-0.30128264
12	0x3da555e1	0.08073021
13	0xbe0abd5c	-0.13548797
14	0xbd998d21	-0.07497621
15	0xbe2bbab2	-0.16770437
16	0x3e95f04b	0.2928489
17	0x3e5c80f3	0.21533565
18	0xbe0b7324	-0.13618141
19	0xbd9ed6d7	-0.07755821
20	0x3dc542fc	0.09631917
21	0x3df3b5b4	0.118998915
22	0xbe187322	-0.1488767
23	0x3e03821f	0.12842606
24	0x3d4df20c	0.050279662
25	0x3e3a1464	0.18171841
26	0xbe2efcb2	-0.17088583
27	0xbe511567	-0.2041832
28	0x3e168f2a	0.1470305
29	0xbc4a295d	-0.012338963
30	0xbe0d1b5f	-0.13779972
31	0x3e7e26ad	0.24819441
32	0xbd1015d6	-0.035177074
33	0xbe584220	-0.21118975
34	0xbd38df5c	-0.045134887
35	0xbe1606ac	-0.14650983
36	0xbddfab71	-0.10921372
37	0xbe854977	-0.26032612
38	0x3e813e1e	0.25242704
39	0x3e8e7661	0.2782469
40	0xbe8895e6	-0.26676863
41	0x3e4a915a	0.1978201
42	0x3dbd4c0c	0.092430204
43	0xbe034fb9	-0.1282338
44	0xbdbdf2ae	-0.09274803
45	0x3d5ccb80	0.05390501
46	0x3d896539	0.0670876
47	0x3e8975a6	0.2684757
48	0x3e9ab61d	0.30217066
49	0x3c958213	0.0182505
50	0x3e984bee	0.2974543
51	0xbe3f82f2	-0.18702295
52	0x3b2f7090	0.0026769973
53	0xbe85b87c	-0.26117313
54	0x3e1b1eab	0.15148418
55	0x3d812b95	0.06307141
56	0xbe442727	-0.1915556
57	0xbe771570	-0.24129272
58	0xbd80985c	-0.0627906
59	0xbdf49c5f	-0.11943888
60	0xbe03f5ac	-0.12886685
61	0xbe8d035e	-0.2754163
62	0xbe4e50e0	-0.20148039
63	0x3e866171	0.26246217
64	0xbe1f434c	-0.15553015
65	0x3e03ce23	0.12871604
66	0x3cb06f35	0.021537403
67	0xbd30cbb4	-0.043163016
68	0x3dd3df3f	0.10345315
69	0x3e73d577	0.23811899
70	0x3dc9cd57	0.098536186
71	0x3d0c69f7	0.034280743
72	0x3e836cd1	0.25668958
73	0x3cd65cd2	0.026167307
74	0x3d8e5a2b	0.06950792
75	0x3e9ddd23	0.30832776
76	0xbe6a6c69	-0.22892918
77	0x3e6b3fbb	0.2297353
78	0xbe1b8e44	-0.15190989
79	0xbc850dec	-0.01624199
80	0xbe3b670d	-0.1830103
81	0x3e55aa8a	0.20865837
82	0xbe823928	-0.25434232
83	0xbe0f75dd	-0.14009805
84	0x3d5fcc40	0.054638147
85	0xbdf7dc1c	-0.121025294
86	0x3d0b2e9c	0.033979997
87	0x3e94abc6	0.29037303
88	0xbe8f3508	-0.27970147
89	0xbe5267d1	-0.20547415
90	0xbe7bcec1	-0.24590589
91	0x3e9ad32c	0.30239236
92	0x3d9d2de8	0.076747715
93	0xbe69f638	-0.22847831
94	0xbe8ccf76	-0.2750203
95	0x3e6fff12	0.23437145
96	0x3e94b09c	0.29040992
97	0xbe43f29b	-0.19135515
98	0x3da5c15c	0.08093521
99	0xbda0c7fd	-0.07850645
100	0x3e400dd1	0.1875527
101	0xbe35332f	-0.17695306
102	0x3e5d273a	0.21596995
103	0x3ea1a92a	0.31574374
104	0x3e441c73	0.19151478
105	0xbd5d9d84	-0.054105297
106	0x3d296729	0.041358147
107	0x3e0bb888	0.13644612
108	0xbe3ab06c	-0.18231362
109	0xbe16db74	-0.14732152
110	0xbe9e622e	-0.3093428
111	0x3e64b921	0.22336246
112	0xbe167543	-0.1469317
113	0x3e8b1ca1	0.2717028
114	0xbd7e0d89	-0.062024627
115	0xbdef4894	-0.11683765
116	0x3e24de6f	0.16100477
117	0xbcfbfd47	-0.03076042
118	0xbe5b8798	-0.21438444
119	0x3d0b21e1	0.033967856
120	0xbe16c7f7	-0.14724718
121	0xbe6a56f5	-0.22884734
122	0xbe4c5022	-0.19952443
123	0x3de0c6b4	0.109753996
124	0x3cda0726	0.026614737
125	0xbe033e04	-0.12816626
126	0x3de72d28	0.1128791
127	0xbdcabb2f	-0.09898984
128	0xbe79ecf6	-0.244068
129	0x3dde6b52	0.108603135
130	0xbddc89ec	-0.10768494
131	0xbdbfe87e	-0.09370516
132	0x3e68c228	0.22730315
133	0x3e720a3e	0.2363672
134	0xbe9e7986	-0.3095209
135	0x3e8adc6b	0.2712129
136	0x3e90cb2e	0.28280014
137	0xbe698271	-0.22803666
138	0xbea16c84	-0.31528103
139	0xbe7cc858	-0.246858
140	0xbdabefbe	-0.083953366
141	0xbc68f199	-0.014217758
142	0x3db27d8c	0.087153524
143	0x3d9a7607	0.07542043
144	0x3d7af100	0.06126499
145	0xbe7ccc93	-0.24687414
146	0x3e9bd5a4	0.30436432
147	0x3e8b78d6	0.27240628
148	0x3e1dc3fd	0.15406795
149	0x3d8d73f9	0.06906886
150	0xbe34d1b0	-0.17658114
151	0x3cbd4f68	0.023109153
152	0xbe671640	-0.22567081
153	0x3e94d0d0	0.2906556
154	0xbe8fcab2	-0.28084332
155	0x3e89cd2a	0.2691434
156	0x3e986f2f	0.29772326
157	0xbe1cc38c	-0.1530897
158	0xbe907939	-0.28217486
159	0x3de479bf	0.11156034
160	0xbe78882b	-0.24270694
161	0xbe9561f0	-0.29176283
162	0xbe431665	-0.19051512
163	0x3e64e979	0.22354688
164	0xbe4af663	-0.19820552
165	0xbe0198cc	-0.12655944
166	0xbe035354	-0.12824756
167	0x3e6625e1	0.22475387
168	0x3dfaf0f5	0.1225299
169	0x3e399c9f	0.18126152
170	0xbd71fa4b	-0.05907659
171	0xbe3f78ce	-0.18698427
172	0x3de969ed	0.11397157
173	0x3e02a607	0.12758647
174	0x3e86032e	0.261743
175	0xbe97b69c	-0.29631507
176	0xbe6d9bda	-0.23203984
177	0x3e5473b5	0.20747264
178	0x3da7856d	0.08179746
179	0x3e56fb25	0.20994242
180	0xbda3c4d3	-0.079965256
181	0x3ea1716c	0.31531847
182	0x3dfd1a0b	0.12358483
183	0xbdfaac8e	-0.122399434
184	0xbe1c6fe5	-0.1527706
185	0x3daa270d	0.083082296
186	0xbbff2e55	-0.0077875056
187	0xbe1cf0d4	-0.15326244
188	0xbe2d9152	-0.16949967
189	0x3dda3756	0.10655086
190	0x3e1fd838	0.15609825
191	0x3e9a3383	0.30117425
192	0xbe08a5cf	-0.13344501
193	0xbe3f2c15	-0.1866916
194	0xbe4c23ca	-0.19935527
195	0xbe5b5b8f	-0.21421646
196	0x3e9fef7c	0.312374
197	0xbe1e5c8f	-0.15464996
198	0xbe185366	-0.14875564
199	0x3e6d9103	0.23199849
200	0x3e80c0b1	0.25147012
201	0xbe942d74	-0.28940928
202	0xbd0ec6fd	-0.03485774
203	0x3dc29c1a	0.0950243
204	0x3d461667	0.04836121
205	0xbe3818ea	-0.17978254
206	0xbe827973	-0.25483283
207	0xbe69a92e	-0.22818443
208	0x3dd7b926	0.10533361
209	0xbe16c219	-0.1472248
210	0xbe93382e	-0.287538
211	0x3e9fa031	0.31176904
212	0x3e1461da	0.14490452
213	0xbdc137f4	-0.094345
214	0x3d4eb00f	0.05046087
215	0xbde626d8	-0.112378776
216	0xbe5576e3	-0.20846133
217	0xbe95971f	-0.2921686
218	0x3e531542	0.20613578
219	0xbe958433	-0.29202422
220	0xbe743f25	-0.23852213
221	0x3e871a6f	0.26387355
222	0xbe4befb9	-0.19915666
223	0xbdd9714c	-0.10617313
224	0x3abf6964	0.0014603552
225	0xbe9fe34b	-0.31228098
226	0xbe93018b	-0.28712115
227	0xbe83552b	-0.25650916
228	0xbd434188	-0.047669917
229	0xbdea6387	-0.114447646
230	0x3e707dc0	0.2348547
231	0x3e504d1f	0.2034192
232	0x3e9d859a	0.30765992
233	0xbe8c1961	-0.27363113
234	0xbe1a4a87	-0.15067492
235	0x3e5c9692	0.21541813
236	0x3de08316	0.10962503
237	0xbe52ef18	-0.2059902
238	0x3e72c85a	0.2370924
239	0xbe2562ff	-0.16151045
240	0x3e99bcff	0.30027005
241	0xbe81396b	-0.2523912
242	0x3e27d80a	0.16391006
243	0xbc93454e	-0.017977383
244	0xbe8c24f2	-0.27371937
245	0x3e278d27	0.16362439
246	0xbdedb045	-0.11605886
247	0x3bb4529d	0.0055030123
248	0xbdc5b8eb	-0.09654411
249	0xbd90c5b2	-0.070689574
250	0xbda5c0a1	-0.08093382
251	0x3e115fab	0.1419665
252	0xbcd13ae5	-0.025540778
253	0x3e5d3eea	0.21606031
254	0x3e02cd9d	0.12773748
255	0xbaf4dd32	-0.0018681644

bias f4 [64]
0	0x3d956c92	0.07296099
1	0x3e51fe23	0.20507102
2	0xbe993c96	-0.29929036
3	0xbcf1acdb	-0.02950137
4	0xbe9b2bdc	-0.303069
5	0xbe7ee3b4	-0.2489155
6	0x3de4b259	0.111668296
7	0xbd98ff1a	-0.07470532
8	0x3e584891	0.21121432
9	0x3e719282	0.23591045
10	0x3a4b1660	0.00077471696
11	0xbdc04f6d	-0.09390149
12	0x3e609d88	0.21935093
13	0x3e9a5fa5	0.30151096
14	0x3d1c911e	0.038224332
15	0xbe871e8d	-0.26390496
16	0x3e0761a7	0.13220845
17	0xbd58324d	-0.052782346
18	0xbe6e9702	-0.23299792
19	0x3d8b6b1b	0.06807538
20	0x3bf249dd	0.007394059
21	0x3b998e46	0.00468615
22	0x3ea1146e	0.314609
23	0x3e245d56	0.1605123
24	0x3e4c6c74	0.19963247
25	0x3b2c41f6	0.0026284433
26	0xbd800e4e	-0.062527284
27	0x3df2d946	0.11857848
28	0xbe7248bc	-0.23660558
29	0x3e9900b6	0.29883355
30	0x3d20fbac	0.039302513
31	0xbe967ee0	-0.29393673
32	0xbe3afcd7	-0.18260513
33	0x3e1c261b	0.15248911
34	0x3d957623	0.072979234
35	0x3e1ff03e	0.15618989
36	0xbe9faa0a	-0.31184417
37	0xbacc6e6e	-0.0015596875
38	0x3e40f03d	0.18841644
39	0x3e32e25e	0.17469165
40	0x3c8caf93	0.017173564
41	0xbea01473	-0.31265602
42	0x3e8d7f38	0.27636123
43	0x3df8c1d9	0.121463485
44	0x3dfcfbb4	0.12352696
45	0x3e432b0c	0.1905939
46	0x3e3f61be	0.1868963
47	0xbd124f85	-0.035720367
48	0x3e567c05	0.20945747
49	0x3e5c0d61	0.21489479
50	0x3da06a8b	0.078328215
51	0xbe798547	-0.24367248
52	0x3e623db0	0.22093844
53	0xbe1ea4e8	-0.15492594
54	0x3e8a13ba	0.26968175
55	0xbe49b0c5	-0.19696338
56	0xbcb28435	-0.021791557
57	0xbdfa689b	-0.12226983
58	0xbe314e1c	-0.17314953
59	0xbdd59af4	-0.104299456
60	0x3e50b2fd	0.20380779
61	0x3dd5f732	0.104475394
62	0xbceeec9e	-0.029165562
63	0xbe82097b	-0.25397858

weight f4 [32, 64]
0	0xbd8dd206	-0.069248244
1	0x3d9163b4	0.07099095
2	0xbd6f2ba4	-0.05839123
3	0xbdc56672	-0.096386805
4	0xbd8c68e6	-0.06855945
5	0xbd2b33b0	-0.04179734
6	0xbd638888	-0.05555013
7	0x3d877a46	0.06615119
8	0xbac41b00	-0.001496166
9	0x3df1a346	0.1179872
10	0xbdebaa76	-0.11507122
11	0xbd8089b6	-0.06276266
12	0x3d2a1658	0.041525215
13	0x3d9cf542	0.07663967
14	0xbd523fb8	-0.0513303
15	0x3d4cce00	0.050001144
16	0xbd8d05c2	-0.06885864
17	0xbd9b0c28	-0.07570678
18	0x3d8bfe3c	0.06835601
19	0xbbf96a60	-0.007611558
20	0xbdbb56fc	-0.0914745
21	0xbb9e6d60	-0.004834816
22	0x3de14e24	0.11001232
23	0x3ce9ca80	0.028538942
24	0xbcccece8	-0.02501531
25	0xbcb98008	-0.022644058
26	0xbd9891e8	-0.074497044
27	0x3d919e90	0.071103215
28	0x3b075f00	0.002065599
29	0xbd84404c	-0.06457576
30	0x3bed5780	0.007243097
31	0x3d1e418c	0.03863673
32	0x3bad7120	0.0052930266
33	0xbc277e10	-0.010222927
34	0xbdf0a628	-0.11750442
35	0xbb76f3c0	-0.0037681907
36	0xbd23cb04	-0.039988533
37	0xbad1ca80	-0.0016005784
38	0xbd9d41a2	-0.07678534
39	0x3d412e00	0.04716301
40	0xbd9e80a6	-0.077393815
41	0xbd257210	-0.04039198
42	0xbd6b6328	-0.05746761
43	0xbd80e058	-0.0629279
44	0x3ae96e00	0.0017809272
45	0xbd63d368	-0.055621535
46	0xbd5d9f70	-0.05410713
47	0x3c57d9e0	0.013174504
48	0x3d573084	0.052536502
49	0xbd739e74	-0.059477285
50	0x3d8878d2	0.0666367
51	0x3d17e9d8	0.037088245
52	0x3dc5a2fc	0.096502274
53	0x3c4621a0	0.012092978
54	0x3dd20e5c	0.10256645
55	0xbde6afdc	-0.11264011
56	0x3d152b60	0.03641832
57	0xbddbfd50	-0.10741675
58	0x3d587738	0.05284807
59	0xbd446c90	-0.047955096
60	0xbcd1f070	-0.025627345
61	0x3dd8d452	0.10587372
62	0x3defaa26	0.11702375
63	0xbd0063f8	-0.031345338
64	0xbd935dac	-0.07195601
65	0x3d8be462	0.0683067
66	0xbd62cc18	-0.05537042
67	0xbd70c58c	-0.058782145
68	0xbdc0847e	-0.09400271
69	0x3dfe662a	0.1242183
70	0x3bf2eec0	0.007413715
71	0x3cc83688	0.024440065
72	0xbd94dc12	-0.072685376
73	0x3d6ead64	0.058270827
74	0xbdf2bf64	-0.11852911
75	0xbd14a21c	-0.036287412
76	0xbc9c7d50	-0.019102722
77	0x3d96a99e	0.07356571
78	0xbc3ed0e0	-0.011646479
79	0x3c930e90	0.01795128
80	0x3dc3bffe	0.09558104
81	0x3d34462c	0.044012234
82	0x3dcffa6c	0.10155186
83	0xbd2e7ba0	-0.042598367
84	0x3d9e3e8a	0.07726772
85	0xbc9eb8a8	-0.01937516
86	0xbc145fa0	-0.009056002
87	0x3cdad1e8	0.02671142
88	0x3df6d052	0.12051453
89	0x3a04bc00	0.00050634146
90	0xbc5ab950	-0.013349846
91	0xbd486544	-0.0489247
92	0xbda1b4e8	-0.07895833
93	0x3d930d18	0.07180232
94	0xbcd47698	-0.025935456
95	0xbd2c776c	-0.042106077
96	0x3cde4a90	0.027135164
97	0x3caece48	0.021338597
98	0xbca639c0	-0.02029121
99	0x3dd5f26a	0.104466274
100	0x3d9ca450	0.076485276
101	0x3cf97c40	0.030454755
102	0xbd728c00	-0.059215546
103	0xbd541b80	-0.05178404
104	0x3dde9b18	0.108694255
105	0x3cd367a0	0.025806248
106	0xbde867d8	-0.113479316
107	0xbc89d838	-0.016826734
108	0x3ce65fd8	0.028121874
109	0x3d0a37d4	0.033744648
110	0x3dd932e4	0.1060541
111	0x3b8361e0	0.0040094703
112	0xbc76ce90	-0.015063897
113	0x3db5037c	0.08838555
114	0xbc973e50	-0.01846233
115	0x3d24f5b0	0.04027337
116	0xbdbfc05e	-0.09362863
117	0xbd34caa4	-0.044138566
118	0xbdc117ee	-0.09428392
119	0x3c4ba6d0	0.012429908
120	0xbdc8b43c	-0.09800002
121	0x3dc303c0	0.095222
122	0xbd63025c	-0.055422172
123	0xbdaf7374	-0.08566943
124	0x3bf67ee0	0.007522449
125	0xbd714894	-0.058907107
126	0xbd9942ba	-0.0748343
127	0x3dbb75a6	0.09153299
128	0x3d24be98	0.040220827
129	0x3ca7ca08	0.020482078
130	0x3d7bc484	0.06146671
131	0xbd2b166c	-0.04176943
132	0x3c54d610	0.01299049
133	0x3df70742	0.12061931
134	0xbd5d7df4	-0.054075196
135	0x3d4e4d58	0.05036673
136	0x3dd742ca	0.10510786
137	0xbc8f1c30	-0.017469496
138	0x3dd2a564	0.10285452
139	0xbd06817c	-0.03283833
140	0xbccc6fe8	-0.024955705
141	0x3d028534	0.031865314
142	0xbc9e52f0	-0.019326657
143	0xbd0672c4	-0.032824293
144	0xbcc7a2a8	-0.024369553
145	0x3cd18f08	0.025580898
146	0xbd8d67c4	-0.06904557
147	0xbdc380ae	-0.09546028
148	0xbdc8a0c8	-0.097962916
149	0x3dfbd512	0.12296499
150	0x3b5bc2c0	0.0033532828
151	0x3d653264	0.05595626
152	0xbdf53220	-0.11972451
153	0xbc95d820	-0.018291533
154	0xbdc82d8e	-0.09774314
155	0xbc30db70	-0.0107945055
156	0x3de40bf8	0.11135095
157	0x3db9ca7c	0.09071824
158	0xbd38de80	-0.045134068
159	0xbd8b10d6	-0.067903206
160	0xbdd17838	-0.10228008
161	0xbd7c7cd4	-0.061642483
162	0x3d2f1a8c	0.042749926
163	0xbd979690	-0.074017644
164	0x3d8cb6f2	0.068708315
165	0xbd37e950	-0.04490024
166	0x3ded2d84	0.11580947
167	0xbcf7bd00	-0.03024149
168	0xbcb63d20	-0.022245944
169	0x3d96ecc8	0.07369381
170	0x3db375f0	0.08762729
171	0x3db8d494	0.09024921
172	0x3db972c6	0.090550944
173	0xbdf20dc6	-0.11819033
174	0x3d8d297a	0.06892677
175	0xbd85e42a	-0.065376595
176	0x3db5a052	0.08868469
177	0x3dc72fae	0.09725891
178	0xbc2ac5b0	-0.010423109
179	0x3d308afc	0.043101296
180	0x3cd8a4e8	0.02644582
181	0x3d60f584	0.054921642
182	0x3dabb1fa	0.08383556
183	0x3d14308c	0.03617911
184	0xbd2b8458	-0.04187426
185	0x3ba11a00	0.0049164295
186	0x3c6c8540	0.014436066
187	0xbdd387be	-0.10328625
188	0x3d284a0c	0.04108624
189	0xbda6cd42	-0.081446186
190	0x3da259da	0.07927294
191	0x3de568c8	0.11201626
192	0x3c8b5e40	0.017012715
193	0x3dd65ab0	0.10466516
194	0x3b30af80	0.0026960075
195	0x3da0fc32	0.078606024
196	0x3d7f6d64	0.062360182
197	0xbdd555b6	-0.10416739
198	0xbdcd526c	-0.10025486
199	0xbcf5d900	-0.0300107
200	0x3d4bcb0c	0.049754187
201	0xbcbe8c08	-0.023260131
202	0xbccfaa08	-0.025349632
203	0x3d9acdaa	0.075587586
204	0x3de567d0	0.11201441
205	0x3d58c934	0.052926257
206	0x3d17c180	0.03704977
207	0x3d821cd4	0.06353155
208	0x3c8b6028	0.017013624
209	0xbde68dd6	-0.11257522
210	0xbdfdf6b0	-0.124005675
211	0xbdee76e6	-0.11643772
212	0xbde11fca	-0.109923914
213	0x3dc1e444	0.09467366
214	0xbc10a800	-0.008829117
215	0xbdb17392	-0.086646214
216	0x3cdf17c8	0.02723302
217	0x3a2c2c00	0.0006567836
218	0xbd999a32	-0.075001135
219	0xbdf4f6a0	-0.119611025
220	0x3ced0b78	0.028936133
221	0x3afa9980	0.0019119233
222	0xbd35b314	-0.044360235
223	0xbd8ebbde	-0.069694266
224	0xbd077a80	-0.03307581
225	0x3dde8bf0	0.10866535
226	0xbdcce240	-0.10004091
227	0xbd4ae3d4	-0.04953368
228	0xbd22e958	-0.039773315
229	0x3deaa58c	0.11457357
230	0x3bf99a40	0.007617265
231	0x3dae8642	0.085217014
232	0xbc4b3cd0	-0.012404636
233	0xbca03260	-0.01955527
234	0x3d917e8a	0.071042135
235	0xbd44febc	-0.048094496
236	0x3d983f6c	0.07433972
237	0x3ddff214	0.109348446
238	0x3d507330	0.0508911
239	0x3d9e0052	0.07714905
240	0xbdc6645e	-0.09687112
241	0x3dec2f3e	0.11532448
242	0xbd9a5dfa	-0.07537456
243	0x3d9005d0	0.07032359
244	0x3d1fd388	0.03902009
245	0x3c15daa0	0.009146363
246	0x3d049d78	0.032376736
247	0xbdfb2af4	-0.12264052
248	0x3df47e80	0.119381905
249	0xbc03ffc0	-0.008056581
250	0x3de4a508	0.1116429
251	0x3b488fc0	0.003060326
252	0xbd50b450	-0.05095321
253	0x3da03b80	0.07823849
254	0xbb1c0340	-0.0023805648
255	0xbda2943a	-0.07938428

bias f4 [32]
0	0xbc16dda0	-0.009208113
1	0x3cc2ba00	0.023770332
2	0x3de4f29e	0.11179088
3	0xbca970a0	-0.020683587
4	0x3db077d2	0.08616604
5	0xbdd6bee4	-0.10485628
6	0x3d8f548a	0.069985464
7	0xbddd475e	-0.10804628
8	0xbdf2fa8c	-0.11864194
9	0x3d99a2d2	0.07501759
10	0xbda71b7a	-0.081595376
11	0xbd8d7e20	-0.06908822
12	0xbd972e5a	-0.07381888
13	0xbd0d5eb8	-0.03451416
14	0x3d7a05ac	0.061040565
15	0x3d802562	0.0625713
16	0xbdc0b31e	-0.09409164
17	0x3c251810	0.010076538
18	0xbdd3b2f2	-0.103368655
19	0xbdd95bf0	-0.10613239
20	0xbd02c784	-0.031928554
21	0xbc2fd840	-0.01073271
22	0x3d7f7438	0.062366694
23	0x3d5e4338	0.054263324
24	0x3cff6ca0	0.031179726
25	0x3dc35124	0.09536961
26	0xbc6a9110	-0.014316812
27	0xbc35b5d0	-0.011090711
28	0x3df76658	0.120800674
29	0x3c0c3e80	0.008559823
30	0x3dae52ce	0.085118875
31	0xbd7f2584	-0.062291637

weight f4 [8, 32]
0	0x3de83fab	0.11340269
1	0x3dd8515b	0.10562392
2	0x3e0e607d	0.13903995
3	0xbdd6ad7d	-0.10482309
4	0xbe2caeb1	-0.16863514
5	0x3d0057ea	0.03133384
6	0xbcb8130e	-0.022470023
7	0x3e2b529b	0.1673073
8	0xbd71f4e5	-0.05907144
9	0xbd9ea2bc	-0.07745883
10	0x3ce204e9	0.027590232
11	0xbe109bad	-0.14121886
12	0xbe14c01d	-0.1452641
13	0x3de91cd1	0.113824494
14	0x3d256c40	0.04038644
15	0x3d0e9b97	0.03481635
16	0xbcdcd743	-0.026958114
17	0x3dca070c	0.09864625
18	0xbd888cb8	-0.06667465
19	0x3d5bb89f	0.053642865
20	0x3d7198cc	0.05898361
21	0x3d380c94	0.04493387
22	0xbdf74482	-0.12073614
23	0xbe27a7b1	-0.16372563
24	0xbdac9e02	-0.08428575
25	0xbe1a8708	-0.15090573
26	0xbe1ce09b	-0.15320055
27	0xbd7a0113	-0.06103618
28	0xbc99441e	-0.018709239
29	0x3cd5c211	0.026093515
30	0xbdbad2a8	-0.09122211
31	0xbde8f165	-0.11374167
32	0xbd3f524e	-0.04670935
33	0x3dd332c4	0.10312417
34	0x3dbddfcd	0.09271202
35	0x3e288194	0.1645568
36	0x3da7322e	0.08163868
37	0x3e01a08f	0.12658904
38	0x3b3b4850	0.0028577037
39	0xbddf2092	-0.10894884
40	0x3d5ec5f3	0.054387998
41	0x3e1d8277	0.153818
42	0xbd7dc41c	-0.061954603
43	0xbbb48770	-0.0055093095
44	0xbe2118fc	-0.15732187
45	0x3e0bb4e8	0.13643229
46	0xbe13074d	-0.14358254
47	0xbda1805b	-0.0788581
48	0x3ad72103	0.0016413037
49	0xbdaccead	-0.08437858
50	0x3a416bdc	0.0007378438
51	0xbdc515ed	-0.09623323
52	0x3e2f718b	0.17133157
53	0xbdd24333	-0.102667235
54	0x3ce984ed	0.028505767
55	0xbe2d05b3	-0.16896705
56	0x3cccfdd7	0.025023384
57	0x3df039ea	0.11729796
58	0xbde2b279	-0.11069197
59	0xbd0f6a60	-0.035013556
60	0xbbdc1946	-0.00671688
61	0xbbd28863	-0.00642495
62	0x3d0c7c01	0.034297947
63	0x3e1223f5	0.14271529
64	0xbd54fce4	-0.051998988
65	0x3d7011be	0.05861067
66	0xbe14bcd4	-0.14525157
67	0xbdd6c11c	-0.104860514
68	0xbe0276ae	-0.12740585
69	0x3d272d8c	0.04081492
70	0x3cf792dd	0.030221397
71	0x3e30ea58	0.17276895
72	0x3d7f4439	0.06232092
73	0xbc847a63	-0.01617164
74	0xbd905b83	-0.070487045
75	0x3c8c8e30	0.017157644
76	0xbda977d4	-0.082748085
77	0x3ce46a04	0.027882583
78	0xbd234838	-0.039863795
79	0xbde9aa78	-0.114094675
80	0x3c2211c1	0.009891928
81	0x3d8bbffb	0.06823727
82	0xbd0560dc	-0.032563075
83	0x3b543dbb	0.0032385427
84	0xbe337f73	-0.17529087
85	0xbd772998	-0.0603424
86	0xbe342c7c	-0.17595094
87	0x3e33ca14	0.17557555
88	0x3e1a6d5a	0.15080777
89	0xbe1ce65b	-0.15322249
90	0xbe0b3bf7	-0.13597094
91	0xbe1982bf	-0.14991282
92	0x3dd08591	0.10181726
93	0x3d1794c3	0.037007105
94	0xbe273e81	-0.16332437
95	0xbd6049a5	-0.054757733
96	0x3e07f9d0	0.1327889
97	0xbae7a2ae	-0.0017672384
98	0xbe238d92	-0.15971974
99	0x3d7b36d5	0.06133159
100	0x3e33f736	0.17574772
101	0x3e25117e	0.16119954
102	0x3c7d26c7	0.01545114
103	0xbd4706de	-0.048590533
104	0x3c974267	0.01846428
105	0x3e058c71	0.13041855
106	0x3d9c4c74	0.0763177
107	0xbe162631	-0.14663006
108	0x3dbebfa8	0.09313899
109	0x3debb202	0.11508562
110	0xbe19ce7f	-0.15020178
111	0xbdfeac70	-0.124352336
112	0x3df791a9	0.12088329
113	0x3dbfdb2f	0.09367978
114	0xbe1e27e2	-0.15444902
115	0x3d479e90	0.0487352
116	0x3ddaa05d	0.10675118
117	0x3d12a60b	0.035802882
118	0x3dc11cb5	0.094293036
119	0x3d69d18a	0.057084598
120	0x3d5007d6	0.050788723
121	0x3dd30969	0.10304529
122	0xbd76af00	-0.060225487
123	0x3a7db696	0.00096783915
124	0xbd2f51f8	-0.04280278
125	0xbd034b26	-0.03205409
126	0x3d8b979e	0.06816028
127	0xbd8c3bcd	-0.068473436
128	0xbc187f30	-0.009307668
129	0x3e1a3750	0.15060163
130	0x3d6ddbcb	0.05807094
131	0x3e3166b7	0.17324339
132	0xbc062fb0	-0.0081900805
133	0xbd83039f	-0.06397175
134	0x3e1f36c4	0.15548235
135	0xbde38b0c	-0.111105055
136	0x3da8ef39	0.08248753
137	0x3e1912fc	0.14948648
138	0xbdccad30	-0.099939704
139	0xbd11e556	-0.035619102
140	0x3e236eb9	0.15960206
141	0xbc69ee33	-0.0142779825
142	0xbe1ecd08	-0.155079
143	0xbdc8c3e7	-0.098029904
144	0xbe2a6fee	-0.1664426
145	0xbd0ce49c	-0.034397706
146	0x3dc841ba	0.09778161
147	0xbcc1729f	-0.023614226
148	0xbd0724b9	-0.032994006
149	0x3c6caaf1	0.0144450525
150	0xbc69aa24	-0.014261756
151	0xbd00a0ec	-0.031403467
152	0xbd656806	-0.056007408
153	0x3cb2bbc6	0.021818053
154	0xbc300cc7	-0.010745234
155	0xbccfa033	-0.025344944
156	0xbd373ea2	-0.044737466
157	0x3d3ca2ff	0.046053883
158	0xbd8a0d79	-0.06740851
159	0xbc26c90d	-0.01017977
160	0xbcddad35	-0.02706013
161	0x3dff08bd	0.124528386
162	0x3d97c2e3	0.074102186
163	0x3d97b35a	0.074072555
164	0xba8e0e80	-0.0010838062
165	0xbde56069	-0.112000294
166	0x3c41e4dd	0.01183435
167	0xbe0e321f	-0.13886307
168	0x3b7d336b	0.0038635384
169	0x3e31a1fd	0.1734695
170	0xbcd03303	-0.02541495
171	0x3e2ce7b8	0.16885269
172	0xbde176a9	-0.11008961
173	0x3e0e3b31	0.13889767
174	0x3d87ee04	0.06637195
175	0xbd9db982	-0.077013984
176	0xbe32a916	-0.17447314
177	0xbda2dbab	-0.079520546
178	0x3daa702b	0.083221756
179	0x3e2ece02	0.17070773
180	0xbe11977b	-0.14217941
181	0xbda2cfae	-0.07949768
182	0x3d80cac9	0.06288678
183	0xbd3446bd	-0.044012774
184	0xbe1a4a9c	-0.15067524
185	0xbd73966c	-0.059469625
186	0x3d66af9d	0.05631982
187	0xbe3018da	-0.1719698
188	0xbd8684cc	-0.06568298
189	0x3dd4acfa	0.10384555
190	0x3dac8189	0.08423144
191	0xbd9ac0a4	-0.075562745
192	0x3e28727d	0.16449924
193	0x3ce8e9fc	0.028431885
194	0x3dad3502	0.08457376
195	0xbc79ace2	-0.015238972
196	0xbd898f6e	-0.0671681
197	0x3e1cdf22	0.15319493
198	0xbe295591	-0.16536547
199	0x3d7dcccb	0.061962884
200	0xbd9eedf9	-0.077602334
201	0xbd65042b	-0.055912178
202	0x3e0a2f8f	0.13494705
203	0xbe24fe3a	-0.16112605
204	0xbcc2934c	-0.023751877
205	0xbd75ca1e	-0.060007207
206	0x3e04affd	0.12957759
207	0xbe0923b8	-0.13392532
208	0xbd0df0b1	-0.03465337
209	0xbd907083	-0.0705271
210	0x3e06b869	0.13156284
211	0x3e0e2ad7	0.1388353
212	0x3b6f254e	0.0036490741
213	0x3d915cdd	0.070977904
214	0x3e34d99a	0.17661133
215	0xbe1b7f24	-0.15185219
216	0x3b594b07	0.0033156292
217	0x3e2522e6	0.16126594
218	0xbd3d4db8	-0.046216697
219	0xbe060745	-0.1308871
220	0x3e20520a	0.15656295
221	0x3e2b7fe8	0.16748011
222	0x3dd58960	0.10426593
223	0x3e081181	0.13287927
224	0xbc7863e7	-0.015160537
225	0xbdfb4778	-0.12269491
226	0xbe201573	-0.15633182
227	0x3d966d77	0.073450975
228	0xbd4ad0ed	-0.049515653
229	0x3e30ff49	0.17284884
230	0x3ca1a630	0.019732565
231	0x3deacfe9	0.11465437
232	0x3c3ab01c	0.011394527
233	0xbd2664d7	-0.040623512
234	0xbd8b3793	-0.06797709
235	0xbe1a8fba	-0.1509389
236	0xbe2ffce0	-0.17186308
237	0xbd143f3d	-0.03619312
238	0xbe1d3a7d	-0.15354343
239	0xbe34e1f3	-0.17664318
240	0x3db475a3	0.088115
241	0xbd9f3038	-0.07772869
242	0x39512078	0.00019943889
243	0xbd39ba75	-0.045343835
244	0xbe084ccc	-0.13310546
245	0xbd5d407d	-0.05401658
246	0xbde87feb	-0.113525234
247	0x3d028808	0.03186801
248	0x3e2a0826	0.16604671
249	0xbd2c0bd3	-0.042003464
250	0x3cce67f8	0.02519606
251	0x3dcea010	0.10089123
252	0x3d9e2f8d	0.07723913
253	0x3c77882b	0.015108149
254	0xbd786108	-0.06063941
255	0xbd0db5ce	-0.03459721

bias f4 [8]
0	0xbcc74309	-0.024323957
1	0x3e34b8ff	0.17648695
2	0x3ccc77ef	0.024959533
3	0x3decf801	0.115707405
4	0x3dce6c88	0.100792944
5	0x3e152467	0.14564668
6	0x3cf9e64b	0.03050532
7	0x3b486a41	0.003058091
