models_save/aug_model_save_k_means_centers_9/aug_model_save.pth (torch, 15950 bytes, 6 tensors)

weight f4 [64, 10]
0	0x3d5dd853	0.05416138
1	0x3cd019f6	0.025403004
2	0x3e9f45b9	0.31107882
3	0x3e41ca9f	0.1892495
4	0x3e369952	0.17831925
5	0x3f413822	0.75476277
6	0xbe3d0df0	-0.18462348
7	0x3d8f79f1	0.0700568
8	0x3dab9945	0.08378843
9	0x3d869ba5	0.065726556
10	0xbd462c11	-0.04838187
11	0x3d6aae5e	0.057295196
12	0xbdb2c55d	-0.0872905
13	0xbe3ec252	-0.18628815
14	0x3c2aa5d5	0.010415514
15	0xbd95a46d	-0.07306752
16	0xbd3a33ba	-0.045459487
17	0xbf41dfec	-0.757323
18	0x3eb71cb3	0.35764083
19	0x3d11efe4	0.03562917
20	0x3de0e407	0.10980993
21	0x3e85dad1	0.26143506
22	0xbeb88ee9	-0.36046532
23	0xbdad91a6	-0.08475046
24	0xbe729622	-0.23690084
25	0x3d87477a	0.0660543
26	0x3ea43bb1	0.3207679
27	0x3e4bdafc	0.19907755
28	0x3ddf84be	0.109139904
29	0x3e18db52	0.14927414
30	0xbdcd5ff6	-0.10028069
31	0xbd2bcde1	-0.04194439
32	0xbb25c947	-0.0025296973
33	0xbd4e1264	-0.050310507
34	0xbe892ba1	-0.267911
35	0xbde35952	-0.11101021
36	0xbdd13352	-0.10214867
37	0x3ea7bb81	0.32760242
38	0xbdb757c6	-0.08952288
39	0x3eaaa710	0.33330584
40	0x37da7c60	2.6045542e-05
41	0xbe441818	-0.19149816
42	0x3f36bcca	0.7138182
43	0xbe9d92c5	-0.3077604
44	0xb9fd7e66	-0.00048350095
45	0x3c3680f5	0.011139144
46	0x3e470515	0.19435532
47	0x3daf7f9c	0.085692614
48	0x3df2171a	0.118208125
49	0xbd0b7d17	-0.03405484
50	0x38bcda4c	9.0051995e-05
51	0xbd329cc7	-0.043606546
52	0x3e929b50	0.2863412
53	0xbdef573e	-0.11686562
54	0xbdb5167b	-0.088421784
55	0xbea0abbc	-0.31381023
56	0xbedfee29	-0.4373639
57	0x3e7e3f42	0.24828818
58	0xbe8d457c	-0.27592075
59	0x3f04fd40	0.5194893
60	0x3dc155fa	0.09440227
61	0xbe677ff0	-0.22607398
62	0xbd989549	-0.07450349
63	0xbe212333	-0.15736084
64	0x3e6891d4	0.22711879
65	0x3ef3b1bc	0.47596538
66	0x3e6c8849	0.23098864
67	0xbe9bfb67	-0.30465242
68	0xbc0b724b	-0.008511136
69	0xbde5d0ed	-0.1122149
70	0x3ea76374	0.32693064
71	0x3d716624	0.0589353
72	0xbe04668c	-0.12929744
73	0x3be10838	0.006867435
74	0xbce58615	-0.028018037
75	0x3d21ef09	0.039534602
76	0xbe8deb8b	-0.27718768
77	0xbf4d42af	-0.80179876
78	0xbe156b5b	-0.14591734
79	0x3d1822e9	0.037142668
80	0x3d122188	0.03567651
81	0x3d92f5c4	0.07175782
82	0xbe16801e	-0.1469731
83	0xbebb2634	-0.36552584
84	0xbe3ec8aa	-0.18631235
85	0xbf91cd70	-1.139082
86	0xbe94d414	-0.29068053
87	0x3e904d97	0.28184196
88	0xbea8d070	-0.32971525
89	0x3e89ad3e	0.26889986
90	0xbdd9b471	-0.106301196
91	0xbe073750	-0.13204694
92	0xbf50076e	-0.81261337
93	0xbe82e037	-0.25561687
94	0xbeaa4c52	-0.33261353
95	0xbf824925	-1.0178572
96	0x3e42c6cb	0.19021146
97	0xbe5a8bae	-0.21342346
98	0x3e98dd18	0.2985618
99	0xbe24b94d	-0.16086312
100	0x3eb8f71b	0.36126027
101	0x3eabb1c1	0.33534053
102	0x3d65bdb0	0.056089103
103	0x3dde2834	0.10847512
104	0x3e7269c4	0.23673159
105	0x3e6d8956	0.23196921
106	0xbe890a63	-0.26765737
107	0x3ed1ceb9	0.4097803
108	0xbed0dd32	-0.4079376
109	0x3e00220d	0.1251299
110	0xbead340e	-0.33828777
111	0xbeb53baa	-0.35397083
112	0x3da9a1a5	0.082827844
113	0xbe71a3c1	-0.23597623
114	0x3d4cc5c4	0.04999329
115	0x3ed0325b	0.40663418
116	0x3ebeebfe	0.37289423
117	0xbd54d612	-0.051961966
118	0x3edd59cf	0.4323258
119	0xbe1479cc	-0.14499587
120	0xbda14f5e	-0.07876466
121	0x3f18485d	0.5948542
122	0x3e128b42	0.14310935
123	0x3e901cba	0.28146917
124	0xbd0da58f	-0.034581717
125	0xbe8b36c8	-0.27190232
126	0x3d83bd07	0.064325385
127	0x3cca8084	0.024719484
128	0x3e5b9da8	0.2144686
129	0xbdad1b01	-0.08452416
130	0x3e162914	0.14664108
131	0xbe40e2f7	-0.1883658
132	0x3def95f7	0.116985254
133	0x3d547d40	0.05187726
134	0x3d78feab	0.060789745
135	0x3d1c57a3	0.038169514
136	0x3e3c8c18	0.18412817
137	0xbe4f8ad4	-0.20267802
138	0xbf043d0b	-0.51655644
139	0xbe48c88d	-0.19607754
140	0x3ca757fc	0.020427696
141	0x3ea924dd	0.33035937
142	0x3d6f8014	0.058471754
143	0xbed82d00	-0.42221832
144	0xbec061c9	-0.37574604
145	0xbeae467b	-0.34038147
146	0x3d9befb3	0.076140784
147	0xbe4e87d8	-0.20169008
148	0xbe02f1d9	-0.1278757
149	0x3d54305b	0.051803928
150	0x3e961f26	0.2932064
151	0xbdc48dbc	-0.09597346
152	0x3ce3274d	0.027728701
153	0xbe8301ea	-0.25587398
154	0xbe5760c7	-0.21033011
155	0xbe9e910b	-0.30970034
156	0x3dedd26a	0.11612399
157	0x3e0a00d5	0.1347688
158	0x3d0cac6d	0.034344126
159	0x3c9c2ee9	0.019065337
160	0xbe1cdfb5	-0.15319712
161	0x3db18b2e	0.086691245
162	0xbeaa6079	-0.33276728
163	0x3eca0ec7	0.394644
164	0x3e1e0750	0.15432477
165	0x3efc615d	0.49293032
166	0x3dab2006	0.08355717
167	0x3e3a78c2	0.18210128
168	0x3e1ace41	0.15117742
169	0x3e47ec02	0.19523624
170	0xbe5a00f5	-0.21289428
171	0xbe9bc15a	-0.30420953
172	0xbeb8d22d	-0.3609785
173	0xbd202393	-0.039096426
174	0xbe7e0cfa	-0.24809638
175	0x3d940c70	0.07228935
176	0xbdeff134	-0.11715928
177	0xbedcac36	-0.43100137
178	0x3e580cef	0.21098684
179	0xbe39c03e	-0.18139741
180	0x3e38e789	0.18057074
181	0x3da0ed28	0.07857734
182	0x3e037a56	0.12839636
183	0x3e2eb8ce	0.17062685
184	0xbe64241d	-0.22279401
185	0xbec8b6c3	-0.39201936
186	0x3e8fc527	0.28080103
187	0x3e57fe52	0.21093109
188	0xbe801bed	-0.25021306
189	0xbe943f65	-0.28954616
190	0x3e16a819	0.14712562
191	0x3d29df6c	0.041472837
192	0x3e384fbf	0.1799917
193	0x3ea782d9	0.32717016
194	0x3e30bd36	0.17259678
195	0x3e297219	0.16547431
196	0x3e5b416e	0.21411678
197	0xbbe3ff52	-0.006957927
198	0x3eec64c1	0.4617062
199	0x3e6aea4f	0.22940944
200	0xbe7072a2	-0.23481229
201	0xbe3610d6	-0.1777986
202	0xbea44586	-0.32084292
203	0x3cc5c5eb	0.024142226
204	0x3dd10da5	0.102076806
205	0x3e10d1ce	0.14142534
206	0x3df6fb85	0.12059692
207	0xbdf0acf0	-0.11751735
208	0xbe56eb84	-0.2098828
209	0x3ece6f37	0.40319225
210	0x3c3ae3fe	0.011406897
211	0xbdd4a560	-0.10383105
212	0xbe67575b	-0.22591917
213	0xbe27436a	-0.1633431
214	0xbd8a7b2c	-0.067617744
215	0x3e6dc666	0.23220214
216	0x3ea002a7	0.31252024
217	0x3f03b462	0.5144712
218	0xbe47955d	-0.19490571
219	0xbe677e39	-0.22606744
220	0xbcdec430	-0.027193159
221	0x3ddebed3	0.108762406
222	0xbe9406b9	-0.2891138
223	0x3e8e3dc2	0.27781492
224	0xbc711315	-0.014714022
225	0xbd70298c	-0.058633372
226	0x3e2409e2	0.16019395
227	0xbe8c4c6e	-0.2740206
228	0xbe14c3ed	-0.14527865
229	0x3e7a7f11	0.24462534
230	0xbd314452	-0.043278046
231	0xbe159c72	-0.1461046
232	0xbce78edb	-0.028266361
233	0xbe732247	-0.23743545
234	0xbe0376fe	-0.1283836
235	0xbe668df5	-0.2251509
236	0xbc6bdc66	-0.014395809
237	0x3e82d559	0.25553396
238	0xbc9b26de	-0.018939432
239	0xbd323b2c	-0.043513462
240	0xbe857a9c	-0.26070106
241	0xbcd09ed4	-0.02546636
242	0xbe21988c	-0.15780848
243	0x3eaad513	0.33365688
244	0x3e186f9d	0.14886327
245	0x3ebdc2b4	0.3706261
246	0x3e429c85	0.1900502
247	0xbde957ef	-0.11393725
248	0xbda67ee0	-0.08129668
249	0xbee4e365	-0.44704738
250	0x3e2c45f0	0.16823554
251	0x3ebe47d3	0.37164173
252	0x3d073a8b	0.033014815
253	0xbed2af37	-0.41149303
254	0xbe7694d9	-0.24080218
255	0x3e30efa0	0.1727891

bias f4 [64]
0	0x3e54024d	0.20704003
1	0xbec43b80	-0.38326645
2	0xbf6f7b5a	-0.93547595
3	0xbd0eb144	-0.034837022
4	0xbf87da58	-1.0613508
5	0xbf78e58d	-0.97225267
6	0xbe95776b	-0.2919267
7	0xbd63f7fd	-0.055656422
8	0xbf20afbc	-0.6276815
9	0xbdc81007	-0.09768682
10	0xbf1a8dd6	-0.60372674
11	0xbf5be929	-0.8590265
12	0xbf66c2da	-0.9014107
13	0xbeb38dc0	-0.35069084
14	0xbedb1b75	-0.42794386
15	0xbd9fc871	-0.07801903
16	0xbed4e12e	-0.41578048
17	0x3e5c82c0	0.21534252
18	0xbf377e84	-0.7167742
19	0xbe7fdbb1	-0.2498615
20	0xbecb62b7	-0.3972375
21	0xbedab6c3	-0.4271756
22	0xbecaf9c2	-0.39643675
23	0xbd88c62c	-0.06678423
24	0xbe96e15b	-0.29468808
25	0xbf513633	-0.81723326
26	0xbcbdf80b	-0.023189565
27	0xbed8c582	-0.42338187
28	0xbf57137d	-0.8401411
29	0xbe61db37	-0.2205628
30	0x3d9a9754	0.07548395
31	0xbf0e9086	-0.55689275
32	0xbf5a3204	-0.8523257
33	0xbf23d064	-0.63989854
34	0xbecd05d3	-0.40043506
35	0x3deb9373	0.11502733
36	0xbf0363c3	-0.513241
37	0x3ebb9828	0.36639524
38	0x3e9e2db0	0.30894232
39	0xbf5a8803	-0.8536379
40	0x3df17353	0.117895745
41	0xbc78679e	-0.015161423
42	0xbe1304e9	-0.14357342
43	0xbf20b2d3	-0.62772864
44	0xbf689166	-0.9084686
45	0x3ea9f1bd	0.33192244
46	0x3f0222df	0.5083446
47	0xbf35e403	-0.71051043
48	0xbef18dc2	-0.47178465
49	0xbf46a149	-0.7758985
50	0xbe00547a	-0.12532225
51	0x3de9b6a7	0.11411791
52	0xbecdd890	-0.40204287
53	0xbf19c4e5	-0.6006606
54	0xbf4ee0fd	-0.80812055
55	0x3ebc0ee0	0.367301
56	0xbe3ebf42	-0.18627647
57	0xbcb246f7	-0.021762354
58	0xbf7f7a6a	-0.99796164
59	0xbeac7f59	-0.3369091
60	0xbf8ba8e3	-1.0910915
61	0xbe3fa99a	-0.18717042
62	0xbe29b3bc	-0.1657247
63	0xbf3683cf	-0.71294874

weight f4 [32, 64]
0	0xbe706b1d	-0.2347836
1	0xbe4df006	-0.20111093
2	0xbf150a53	-0.5821888
3	0x3e3df145	0.18549068
4	0xbdacf26d	-0.084446765
5	0xbf5280cc	-0.8222778
6	0xbe9a7499	-0.30167082
7	0x3e59fb7b	0.21287338
8	0xbfa932e8	-1.321866
9	0xbd45cd1a	-0.048291303
10	0xbf085176	-0.532493
11	0x3d6bcb92	0.057567187
12	0x3e282088	0.1641866
13	0x3e393ad4	0.18088847
14	0xbec0cbb9	-0.37655428
15	0xbe510e4c	-0.2041561
16	0xbe374ff7	-0.17901598
17	0x3e92e136	0.28687447
18	0xbed3b845	-0.41351524
19	0xbe6d3abb	-0.23166935
20	0xbe4f1dd6	-0.20226225
21	0xbd2befb2	-0.04197664
22	0x3d702a04	0.05863382
23	0xbd8559a4	-0.06511238
24	0xbd3f6a00	-0.04673195
25	0xbe3efeee	-0.18651935
26	0x3e2da8f9	0.16958989
27	0x3e534c34	0.20634538
28	0xbdd9bfc4	-0.106322795
29	0xbf1a3f4e	-0.60252845
30	0x3d4cea89	0.050028358
31	0xbf4fc94b	-0.81166524
32	0x3dc99d66	0.098444745
33	0xbee85bbb	-0.45382485
34	0x3d88c482	0.06678106
35	0x3e7aaa5b	0.24479048
36	0xbea2dc94	-0.31808913
37	0x3e908d46	0.28232783
38	0x3e6a8de8	0.22905695
39	0x3d417957	0.04723486
40	0x3e2cd696	0.16878733
41	0xbbafb1c4	-0.0053617675
42	0x3e2961c3	0.165412
43	0x3d30422a	0.04303185
44	0xbec94130	-0.39307547
45	0xbb94ce55	-0.0045411983
46	0xbe27afde	-0.16375682
47	0x3e01118d	0.12604351
48	0xbf814697	-1.0099667
49	0x3e46b44c	0.19404715
50	0x3e23b056	0.15985236
51	0xbd5ef2a4	-0.05443062
52	0xbead6a5d	-0.3387021
53	0xbf9b0997	-1.2112302
54	0xbef9ade1	-0.48765472
55	0xbcf72318	-0.030168101
56	0xbe804ab0	-0.25056982
57	0x3d32675e	0.04355561
58	0xbc744639	-0.0149093205
59	0x3e51f137	0.20502172
60	0x3eb02758	0.34405017
61	0xbd12ed0c	-0.035870597
62	0xbdf70b1f	-0.12062668
63	0xbe2359ca	-0.1595222
64	0xbe7e1979	-0.24814405
65	0xbd85d958	-0.06535596
66	0xbf16fb58	-0.5897727
67	0x3df90ddb	0.12160846
68	0x3eb8c9b4	0.36091387
69	0xbe025a5a	-0.12729779
70	0xbf733e2d	-0.9501675
71	0xbde09540	-0.10965967
72	0xbc295ca3	-0.010337028
73	0xbd745fd6	-0.05966171
74	0x3dc5f1d0	0.09665263
75	0xbebc5fa7	-0.36791727
76	0x3e09c9e7	0.13455926
77	0x3d96ac55	0.073570885
78	0x3e1a2005	0.15051277
79	0xbf53c1f1	-0.82717806
80	0xbd463729	-0.04839245
81	0x3d86073a	0.06544347
82	0x3cd612bb	0.026131978
83	0xbc240098	-0.010009907
84	0x3e6dcf12	0.23223522
85	0x3e6679b0	0.22507358
86	0xbec6764e	-0.38762134
87	0x3d97b7f2	0.07408132
88	0xbe6b8ab5	-0.23002131
89	0x3dffcc9b	0.12490197
90	0xbe9b2ca5	-0.303075
91	0x3e25ffd2	0.16210869
92	0xbd9bbab5	-0.07603971
93	0x3d9112cc	0.07083663
94	0x3d4bcba5	0.049754757
95	0xbf199430	-0.5999174
96	0xbda9c9c7	-0.08290439
97	0xbfd12e0a	-1.6342175
98	0x3c85c160	0.01632756
99	0x3e47c1c9	0.19507517
100	0xbf6f4c17	-0.9347548
101	0x3d6407e2	0.05567158
102	0xbe94977f	-0.29021832
103	0x3ec69bd7	0.3879077
104	0xbd202771	-0.039100114
105	0x3e7014bc	0.2344541
106	0x3e3dd725	0.18539102
107	0x3dc9e399	0.09857864
108	0x3e9d0130	0.30664968
109	0xbcf83060	-0.030296504
110	0x3e09a934	0.13443452
111	0x3e80767d	0.250904
112	0xbea229ec	-0.3167261
113	0xbdd2fbb9	-0.103019185
114	0x3d934724	0.07191303
115	0xbd474b69	-0.0486559
116	0xbe8d50a7	-0.27600595
117	0xbf0a837a	-0.5410687
118	0xbf2e438c	-0.6807182
119	0x3eb94900	0.36188507
120	0xbeeb17c5	-0.45916572
121	0xbe71338d	-0.23554821
122	0x3e13a2d4	0.14417583
123	0x3b020192	0.0019837362
124	0xbed6dc26	-0.41964835
125	0x3df699ab	0.120410286
126	0xbdffb00c	-0.1248475
127	0x3debefb1	0.11520327
128	0xbe1fc464	-0.15602261
129	0xbd5865e9	-0.052831564
130	0xbdfaeba6	-0.122519776
131	0x3dbf4e6d	0.093411304
132	0x3e779cb6	0.24180874
133	0xbe5e6872	-0.2171953
134	0x3e6b3250	0.22968411
135	0x3e11a579	0.14223279
136	0xbf371c42	-0.71527493
137	0xbd21825f	-0.039430972
138	0xbe1de271	-0.15418412
139	0xbe244c07	-0.16044627
140	0xbe860368	-0.26174474
141	0xbe0ecce0	-0.13945341
142	0xbd9464d6	-0.072457954
143	0xbd8e4b5d	-0.06947968
144	0xbe03fe01	-0.12889864
145	0x3d6dfa6a	0.05810014
146	0xbf20f869	-0.62879044
147	0xbe2c24eb	-0.16810958
148	0x3d867e80	0.06567097
149	0x3ebb459d	0.36576548
150	0xbe3b4f5c	-0.18291992
151	0x3cd75c88	0.02628924
152	0xbdbda4ec	-0.09259972
153	0xbda7a6d7	-0.08186119
154	0x3ce46e16	0.027884524
155	0xbea5497c	-0.32282627
156	0xbd83cd2f	-0.0643562
157	0xbe399893	-0.18124609
158	0x3d46e8a4	0.048561707
159	0xbe227249	-0.15863909
160	0x3d3b5e51	0.045744244
161	0xbe4f1cbf	-0.2022581
162	0xbd6c969a	-0.057760812
163	0x3db8e44b	0.090279184
164	0xbea2a8b4	-0.31769335
165	0x3e742a04	0.23844153
166	0xbdb01109	-0.08596999
167	0x3e9c7163	0.30555257
168	0x3d5397be	0.051658385
169	0x3ec5f9aa	0.3866704
170	0x3e940e6a	0.28917247
171	0xbd0667cd	-0.032813836
172	0x3eaac28a	0.33351547
173	0x3db7f75e	0.089827284
174	0x3c652dc6	0.013987964
175	0x3d112900	0.03543949
176	0x3d82cdff	0.06386947
177	0x3efb7932	0.49115902
178	0x3f0511de	0.5198039
179	0x3e193c82	0.14964488
180	0xbd4e21ac	-0.05032508
181	0xbef3227e	-0.47487253
182	0xbe5956ef	-0.21224569
183	0xbdcdb3a9	-0.10044033
184	0xba9e41c5	-0.0012074044
185	0x3cfc59a0	0.030804455
186	0x3eb7668e	0.3582043
187	0x3dba1905	0.09086803
188	0xbe75c050	-0.23999143
189	0x3e8c988d	0.27460137
190	0x3da2df09	0.07952697
191	0x3eb76160	0.3581648
192	0x3d4724ce	0.048619084
193	0xbd888d2e	-0.06667553
194	0xbdcb26ec	-0.09919533
195	0xbe829606	-0.25505084
196	0xbe1018c5	-0.14071949
197	0xbcf98519	-0.030458974
198	0x3e39406b	0.1809098
199	0x3cd110e5	0.025520751
200	0xbe132367	-0.14368974
201	0x3e7e306f	0.24823163
202	0x3e7daf2a	0.24773851
203	0x3f04c3da	0.51861346
204	0xbe5d58f1	-0.2161596
205	0xbe34e3e7	-0.17665063
206	0xbd0ac99e	-0.033883683
207	0x3d8dfd50	0.06933081
208	0x3e372d7d	0.17888446
209	0xbe94545f	-0.2897062
210	0x3e4eb8f8	0.20187747
211	0x3e5d60a0	0.21618891
212	0x3d997ffc	0.07495114
213	0xbcb59284	-0.02216459
214	0xbe1ec68a	-0.15505424
215	0xbe7ef0ad	-0.24896498
216	0x3daaaf57	0.08334225
217	0x3eb70ade	0.35750479
218	0xbe65569b	-0.22396319
219	0xbe3fa72b	-0.18716113
220	0x3f0503d4	0.51958966
221	0x3e3f5d4d	0.18687935
222	0x3e81c31c	0.2534417
223	0x3e93f4b3	0.28897628
224	0x3e0de223	0.13855796
225	0xbe35e58a	-0.17763343
226	0xbd93420a	-0.0719033
227	0xbeeca6f6	-0.4622113
228	0xbe880fd3	-0.26574573
229	0x3b9c7ba8	0.004775483
230	0x3dbd0d8f	0.09231102
231	0xbe18dcb9	-0.14927949
232	0xbd887f53	-0.0666491
233	0xbe905e7b	-0.28197083
234	0xbf218ceb	-0.6310565
235	0xbde31545	-0.11088041
236	0xbf07d7b6	-0.53063524
237	0x3e45d0c8	0.19317925
238	0xbe27e531	-0.16396023
239	0x3e55b8eb	0.20871322
240	0xbe1cb685	-0.15304
241	0x3dc76399	0.097357936
242	0xbdfc96e2	-0.12333466
243	0x3d4033ce	0.046924405
244	0xbd02036b	-0.03174154
245	0xbe04fbb6	-0.12986645
246	0x3e44f24d	0.19233055
247	0x3e45a920	0.19302797
248	0x3dc5ae6d	0.0965241
249	0x3de52005	0.11187748
250	0xbcda2b3b	-0.026631942
251	0xbe9f030b	-0.3105701
252	0x3e9b4990	0.3032956
253	0x3d2ca827	0.04215255
254	0x3d585454	0.052814797
255	0x3eb9b561	0.36271194

bias f4 [32]
0	0x3eb59491	0.3546491
1	0x3db82d66	0.08993034
2	0x3e84aa77	0.25911304
3	0xbe169363	-0.14704661
4	0x3ea62339	0.32448748
5	0x3eb22ce7	0.34799883
6	0x3f1059c2	0.5638696
7	0xbe89ff6b	-0.2695268
8	0x3bec46d7	0.007210593
9	0xbddd4b38	-0.108053625
10	0x3e9ec8a1	0.31012443
11	0xbf0e9512	-0.55696213
12	0x3e53c905	0.20682152
13	0x3d9df5c5	0.077128924
14	0xbe011f88	-0.12609684
15	0x3e1759e2	0.14780381
16	0xbda8683b	-0.082230054
17	0xbe1c4d56	-0.15263876
18	0xbe349e33	-0.17638473
19	0xbee099eb	-0.4386743
20	0x3cc00081	0.02343774
21	0x3efb4ab8	0.49080443
22	0x3edbbdb4	0.4291817
23	0x3a10c9c8	0.0005523232
24	0x3d1efb19	0.038813684
25	0x3ee723ad	0.45144406
26	0x3f0a0987	0.5392079
27	0x3d06f610	0.032949507
28	0x3e46d07f	0.19415472
29	0xbe0d76d9	-0.13814868
30	0x3e4b5b87	0.19859134
31	0x3eb35981	0.35029224

weight f4 [8, 32]
0	0xbd089e98	-0.03335437
1	0xbea19525	-0.315591
2	0xbe07e256	-0.13269934
3	0x3d47aba8	0.04874769
4	0xbd0027c0	-0.03128791
5	0xbe50d3ca	-0.20393291
6	0x3c0ad282	0.008473041
7	0x3ee15de1	0.44016936
8	0x3e6c20be	0.23059365
9	0x3cf6c9d8	0.030125543
10	0x3d2309b4	0.039804175
11	0x3e62eef4	0.22161466
12	0xbe303d28	-0.1721083
13	0x3c9a4aa4	0.01883442
14	0x3e9127b9	0.28350618
15	0xbc3bd3f7	-0.011464111
16	0xbe340e13	-0.17583494
17	0xbe2a86c2	-0.16652969
18	0x3df1c2c2	0.11804725
19	0x3e075516	0.13216051
20	0x3e5723c6	0.2100974
21	0x3dfcce80	0.12344074
22	0xbd94eda5	-0.072718896
23	0xbea6c72f	-0.3257384
24	0x3e61a429	0.22035278
25	0xbf04e965	-0.5191863
26	0x3d84a83c	0.06477401
27	0xbde29c4e	-0.11064969
28	0xbea29c3d	-0.31759825
29	0x3d6b6dc3	0.057477724
30	0xbc16dc55	-0.009207805
31	0x3e19f59a	0.15035096
32	0x3e3a571b	0.1819729
33	0x3de114ff	0.10990333
34	0xbec35899	-0.38153532
35	0x3d117408	0.035511047
36	0x3d1940ec	0.03741543
37	0x3d591db1	0.05300683
38	0xbe35881c	-0.17727703
39	0x3eec8e23	0.46202192
40	0x3c784d86	0.015155202
41	0xbe3154eb	-0.1731755
42	0xbbc9044d	-0.006134546
43	0x3e51aad9	0.2047533
44	0xbdc64089	-0.09680278
45	0x3d37dbc5	0.044887323
46	0xbd2c6be6	-0.042095087
47	0xbd6c848c	-0.057743594
48	0xbd98173f	-0.07426309
49	0xbe36b30f	-0.17841743
50	0x3e31873b	0.17336743
51	0x3e6af5fd	0.229454
52	0x3e201c55	0.15635808
53	0x3d9c6550	0.07636511
54	0x3d97818a	0.073977545
55	0xbe0a7280	-0.13520241
56	0x3e59f45c	0.21284622
57	0xbe576f81	-0.21038629
58	0x3d990f3b	0.07473608
59	0x3c8788d0	0.01654473
60	0xbe2ba4de	-0.1676211
61	0x3d802677	0.062573366
62	0x3c42611d	0.011863974
63	0x3e70a243	0.23499398
64	0xbe2fb9f8	-0.17160785
65	0x3ec6e6cc	0.3884796
66	0x3e60e41a	0.21962014
67	0xbf1bf313	-0.60917777
68	0x3d6a0420	0.05713284
69	0xbec1cda8	-0.37852216
70	0xbeb7382e	-0.3578505
71	0x3e04c3dc	0.1296534
72	0xbe747f61	-0.23876716
73	0x3e03c09e	0.12866446
74	0x3e83db01	0.25753024
75	0xba9ef814	-0.0012128376
76	0x3d4ae81e	0.04953777
77	0xbf0ef92b	-0.5584895
78	0xbd4e5498	-0.050373644
79	0xbf6cd5e3	-0.92513865
80	0x3d909384	0.070593864
81	0xbe15b4e2	-0.14619783
82	0xbe06abbb	-0.13151447
83	0x3e25155b	0.16121428
84	0xbdd59d9e	-0.10430454
85	0xbddf4151	-0.1090113
86	0xbefb20b0	-0.49048376
87	0xbd8a2cf3	-0.06746855
88	0xbf299693	-0.66245383
89	0x3d542711	0.05179507
90	0xbe0885a7	-0.13332234
91	0xbe25b871	-0.1618364
92	0xbe42bc61	-0.19017173
93	0xbd7f48f0	-0.062325418
94	0xbf27bb97	-0.65520614
95	0x3e035990	0.12827134
96	0x3ebc8854	0.3682276
97	0xbe03e38e	-0.12879774
98	0x3de630c8	0.11239773
99	0xbf1e776b	-0.6190097
100	0xbeaf494a	-0.34235603
101	0xbe86cd1a	-0.26328355
102	0xbcf862fc	-0.030320637
103	0xbfa08635	-1.2540957
104	0xbef4a764	-0.4778396
105	0x3df867e9	0.12129194
106	0xbe728c90	-0.23686433
107	0x3db1988a	0.08671673
108	0x3ce2bb29	0.027677136
109	0xbedff6b0	-0.43742895
110	0xbe738d5f	-0.23784398
111	0xbf8eeb86	-1.1165626
112	0x3c551bef	0.013007148
113	0xbdf126e6	-0.117749974
114	0xbe85c3c3	-0.26125917
115	0xbe9d1eba	-0.30687505
116	0xbe8f2fd2	-0.27966172
117	0x3e04008d	0.12890835
118	0xbf1530c6	-0.5827755
119	0x3e3ce50d	0.18446751
120	0xbd4e2320	-0.050326467
121	0x3c9928a2	0.018696133
122	0x3e033089	0.12811483
123	0xbe3fd75a	-0.18734494
124	0xbe90b85b	-0.28265652
125	0x3e00cb9e	0.12577674
126	0xbe138266	-0.14405212
127	0xbf15b81e	-0.58484066
128	0x3de5f20c	0.112278074
129	0x3ecb4ad7	0.39705536
130	0x3e11bd61	0.14232399
131	0xbd4a48e8	-0.049385935
132	0x3e0965c9	0.13417734
133	0x3d5462d2	0.051852055
134	0xbea9b45f	-0.33145425
135	0x3c64df8a	0.0139693115
136	0xbdf0331f	-0.117285006
137	0xbd1db529	-0.038502846
138	0x3ea66268	0.32496953
139	0xbd3f3f4b	-0.04669122
140	0x3d29d2f6	0.041460954
141	0xbe3bdb3b	-0.18345349
142	0xbe497587	-0.1967374
143	0x3d6c1521	0.057637338
144	0xbd86d7d4	-0.06584135
145	0xbd491a66	-0.04909744
146	0x3cad5b7b	0.021161785
147	0xbe236447	-0.15956222
148	0x38d8e5ce	0.00010342487
149	0xbe6d5d7e	-0.23180196
150	0xbd1fa08b	-0.038971465
151	0x3d0eb4d2	0.034840412
152	0x3e2f55e8	0.17122614
153	0xbe2ceeed	-0.16888018
154	0xbf04db7e	-0.5189742
155	0xbc1661dd	-0.009178606
156	0x3e47145b	0.19441359
157	0xbe25736e	-0.16157314
158	0x3bf18544	0.007370623
159	0x3de7b907	0.11314588
160	0xbefba883	-0.49152002
161	0xbc865332	-0.016397092
162	0x3b001af6	0.001954732
163	0xbd0f2393	-0.034946036
164	0xbd202840	-0.039100885
165	0x3e0948d0	0.13406682
166	0xbd813fcc	-0.063109964
167	0xbe7ed8d8	-0.24887407
168	0xbd8bad9a	-0.06820221
169	0xbe18cf6b	-0.14922874
170	0xbe9c06d9	-0.30473974
171	0x3e180f95	0.14849694
172	0x3edc9707	0.43083975
173	0x3d910f1b	0.07082959
174	0xbe011ed4	-0.12609416
175	0x3d6ebb27	0.05828395
176	0xbe4f192d	-0.20224448
177	0xbd4c5892	-0.049889155
178	0xbe10499c	-0.1409058
179	0x3c01b9b4	0.00791781
180	0x3e0c6319	0.13709678
181	0x3c23c6a5	0.009996091
182	0xbd91efd1	-0.071258195
183	0x3d36c4c5	0.044621248
184	0xbebd5c0d	-0.36984292
185	0xbbc2179c	-0.0059232246
186	0xbd942d2c	-0.07235178
187	0x3cdc3558	0.026880905
188	0x3d2ca8b4	0.042153075
189	0xbdc425d5	-0.095775284
190	0x3e071ff8	0.13195789
191	0xb9db6372	-0.00041845028
192	0x3e13c63a	0.14431086
193	0xbe0b2ea4	-0.1359201
194	0xbce23394	-0.027612485
195	0xbd41ab4a	-0.047282495
196	0xbe2d7861	-0.16940452
197	0x3e3c21ec	0.18372315
198	0x3e6cab9f	0.23112343
199	0xbf8194d3	-1.0123543
200	0x3ce08869	0.027408795
201	0xbdcef69e	-0.10105632
202	0xbcb02374	-0.02150128
203	0xbf027cd7	-0.5097174
204	0xbe8f9bae	-0.28048462
205	0x3d3f5738	0.046714038
206	0xbdc738f0	-0.09727657
207	0x3d0f2c24	0.034954205
208	0xbe2efcba	-0.17088595
209	0xbc7e2009	-0.015510567
210	0xbee39658	-0.4445064
211	0xbead4f1a	-0.33849412
212	0x3d2224d0	0.03958589
213	0xbdb33eeb	-0.08752235
214	0x3e56a438	0.20961082
215	0x3c1fe138	0.009758286
216	0xbd579ea8	-0.05264154
217	0x3df767a8	0.12080318
218	0xbd8a12d6	-0.06741874
219	0x3dc7cdde	0.09756063
220	0xbca5ac2a	-0.020223696
221	0x3d8b0878	0.06788725
222	0xbd6229ce	-0.05521565
223	0xbe8338a5	-0.25629154
224	0xbd379dcf	-0.044828232
225	0xbe5edf93	-0.21764974
226	0x3e1e4c03	0.15458684
227	0xbde66c66	-0.11251144
228	0xbedae4ce	-0.4275269
229	0x3dedea66	0.116169736
230	0x3d609fab	0.05483977
231	0xbf6fccc3	-0.93671817
232	0xbd10330a	-0.035204925
233	0xbdf13d21	-0.117792375
234	0xbe0203c1	-0.12696745
235	0xbdb785ed	-0.08961091
236	0xbee9d937	-0.45673534
237	0x3d6a2806	0.057167076
238	0xbeaba281	-0.33522418
239	0xbd7a1b92	-0.06106145
240	0xbd8065b1	-0.06269396
241	0xbdd84f06	-0.105619475
242	0xbe958f88	-0.29211068
243	0x3dc337e4	0.09532145
244	0xbec577ca	-0.38567954
245	0x3eb4d501	0.3531876
246	0x3e7375a4	0.23775345
247	0x3e2f5046	0.17120466
248	0x3caba7b9	0.020954
249	0x3da16840	0.07881212
250	0xbce9f0b3	-0.028557157
251	0xbe3ca061	-0.18420555
252	0xbf547412	-0.8298961
253	0xbe3fbb07	-0.18723689
254	0x3c896fb6	0.0167769
255	0xbf9684c0	-1.1759262

bias f4 [8]
0	0xbeb0cf32	-0.34533077
1	0xbe28b0c1	-0.16473676
2	0xbecb0c9c	-0.39658058
3	0xbe643a34	-0.22287828
4	0x3d840be8	0.064475834
5	0x3e9da360	0.30788708
6	0x3d865b13	0.0656034
7	0x3ea522a7	0.32253
