models_save/aug_model_save_k_means_centers_6/aug_model_save.pth (torch, 15950 bytes, 6 tensors)

weight f4 [64, 10]
-0.0034648674 0.038695607 0.282155 0.25379127 0.21421571 0.7635044 -0.18320715 0.1003624
-0.013335061 0.1061911 -0.26641226 -0.16831921 0.14645894 0.015479385 -0.08596616 -0.065040044
-0.4230761 -0.745594 0.119797364 0.35832736 0.30274752 0.06429181 -0.22763383 -0.19097985
-0.2422074 0.22509785 0.12055743 -0.0034819294 0.2228356 -0.025105951 0.010120236 0.11948191
-0.17215197 0.04068905 -0.19864136 -0.22975743 -0.10866135 0.33772403 -0.011500484 -0.050457396
0.0135742 -0.19368774 0.54533637 -0.3990221 -0.010675163 -0.06512599 0.23144734 0.031140238
0.06182269 -0.2667155 -0.4892449 -0.29616076 0.16101094 0.2640871 0.19701497 -0.3752478
-0.31153688 0.19914038 -0.11278738 0.06648786 0.108075894 -0.039533246 -0.1992095 0.012491526
-0.03187058 0.36734962 0.022819873 -0.6205408 -0.09991269 0.058134127 0.056059923 0.10284686
-0.28479722 0.007390962 -0.174537 -0.1976587 -0.4043156 -0.36509722 -0.20943125 -0.39528513
-0.15596506 0.061088126 -0.054422572 -0.42913288 -0.23241128 -0.42235318 -0.5111835 0.39541534
-0.3984367 0.57433444 -0.120361246 -0.1579066 -0.6801405 0.03498501 -0.58312476 -0.92947733
0.2500925 -0.1656602 0.27446318 -0.1812518 0.3459969 0.4515752 0.14452928 -0.008573903
-0.026615892 0.07740486 -0.52095747 0.17659268 -0.2848054 0.27665505 -0.295749 -0.13687082
-0.0698119 -0.2943103 0.0383665 0.42928198 0.17384438 -0.00053090777 0.3485452 0.1788753
-0.002560547 0.41082758 0.05843241 0.27186915 0.123007424 -0.17449334 -0.23924701 0.069428906
-0.047446426 -0.10924136 -0.01214122 -0.19906278 0.16036466 0.20278311 0.2028871 0.0018025411
0.044948976 -0.19627486 -0.02921348 -0.018304596 0.0214815 0.2494077 0.14049366 -0.3568255
-0.16673651 -0.24914593 0.04216981 -0.24878417 -0.044872485 0.1624878 0.07039846 -0.10475894
0.07671009 -0.21182337 -0.23391868 -0.1313555 0.09768324 0.29549092 -0.20743136 0.036482297
-0.15861921 0.10115757 -0.3672116 0.48092422 0.16737689 0.3197958 0.1061187 -0.0099254595
0.04234904 0.2881522 -0.16376641 -0.3552569 -0.3541855 -0.060650673 -0.29716972 -0.34439418
-0.013397195 -0.29164338 0.20618571 -0.21578431 0.34255126 -0.18104696 -0.21442598 -0.08066446
0.09831228 -0.124602005 -0.14239898 0.34352076 0.039803676 0.3257958 -0.09782312 -0.17269348
0.09858303 -0.24388511 0.14682725 0.18074438 0.5086325 -0.15042375 0.16068861 0.23166664
-0.21168022 -0.18199728 -0.43962622 -0.013004428 0.15552703 0.22946496 0.03763422 0.08516151
0.29153433 0.27282923 -0.019332876 -0.14811708 -0.22249274 -0.16977906 -0.10396831 0.26515308
0.14427647 0.08967134 -0.031464923 -0.13418253 0.22885399 0.097244255 0.120838225 0.16796358
-0.19076423 -0.15768304 0.1186876 -0.10329867 -0.5470719 0.38374752 -0.0020122104 -0.18240692
0.24576241 -0.29309586 0.10974478 -0.028717004 0.0076997406 0.15251555 -0.21751568 -0.4596548
-0.15883204 0.04839799 -0.09702979 0.009010417 -0.088442124 0.4849793 -0.04535666 0.09345875
-0.34203327 -0.6498394 0.004216213 0.17069903 -0.0012469057 -0.40727073 0.03968861 -0.062927224
00000000: d412 63bb 497f 1e3d 9f76 903e eef0 813e
00000010: 5d5b 5b3e 0675 433f a89a 3bbe cd8a cd3d
00000020: 4d7b 5abc b87a d93d 3067 88be df5b 2cbe
00000030: 55f9 153e 3f9d 7d3c 070f b0bd b733 85bd
00000040: 6e9d d8be 40df 3ebf 5258 f53d af76 b73e
00000050: b901 9b3e 6dab 833d d818 69be 3990 43be
00000060: 3705 78be 0d80 663e d0e6 f63d 1531 64bb
00000070: 042f 643e ffaa cdbc 59cf 253c eeb2 f43d
00000080: 9b48 30be 90a9 263d a468 4bbe 8845 6bbe
00000090: d889 debd 2aea ac3e 876c 3cbc 6aac 4ebd
000000a0: 5266 5e3c 1456 46be 2a9b 0b3f a04c ccbe
000000b0: e1e6 2ebc c660 85bd 8800 6d3e d019 ff3c
000000c0: ca39 7d3d ef8e 88be 4f7e fabe 62a2 97be
000000d0: 0de0 243e 6d36 873e 4bbe 493e 7b20 c0be
000000e0: c381 9fbe 75eb 4b3e 12fd e6bd ca2a 883d
000000f0: e556 dd3d 9ded 21bd 93fd 4bbe 42a9 4c3c
00000100: ba8a 02bd 4015 bc3e bef0 ba3c c3db 1ebf
00000110: 069f ccbd 0d1e 6e3d 179f 653d 60a1 d23d
00000120: f1d0 91be e22f f23b d4b9 32be 0b67 4abe
00000130: 7402 cfbe 06ee babe 2575 56be d062 cabe
00000140: 4eb5 1fbe 8b37 7a3d 34ea 5ebd 4eb7 dbbe
00000150: 39fd 6dbe ad3e d8be ecdc 02bf e173 ca3e
00000160: e5ff cbbe 9507 133f f57f f6bd 45b2 21be
00000170: b01d 2ebf 714c 0f3d aa47 15bf 3af2 6dbf
00000180: 200c 803e d4a2 29be 7086 8c3e 129a 39be
00000190: 8126 b13e dd34 e73e 7cff 133e 8e79 0cbc
000001a0: 9209 dabc 7086 9e3d 785d 05bf b6d4 343e
000001b0: 03d2 91be bba5 8d3e 6a6c 97be dd27 0cbe
000001c0: 8bf9 8ebd d7af 96be 3126 1d3d d9ca db3e
000001d0: 4304 323e 9e2c 0bba 8474 b23e 162b 373e
000001e0: dace 27bb fe57 d23e d356 6f3d 6f32 8b3e
000001f0: 51eb fb3d 62ae 32be 2bfd 74be be30 8e3d
00000200: 2f57 42bd efb9 dfbd f8eb 46bc 1dd7 4bbe
00000210: a236 243e 60a6 4f3e a3c1 4f3e 3e43 ec3a
00000220: 6b1c 383d 47fc 48be 1c51 efbc 85f3 95bc
00000230: f8f9 af3c bb64 7f3e 92dd 0f3e d5b1 b6be
00000240: fabc 2abe 1c20 7fbe 40ba 2c3d 47c1 7ebe
00000250: 36cc 37bd 3463 263e 112d 903d db8b d6bd
00000260: 2e1a 9d3d 3ae8 58be 6188 6fbe 0e82 06be
00000270: 270e c83d 964a 973e e368 54be 766e 153d
00000280: 136d 22be b32b cf3d 2903 bcbe b33b f63e
00000290: d964 2b3e 46bc a33e c354 d93d 659e 22bc
000002a0: 3076 2d3d af88 933e 62b2 27be 3be4 b5be
000002b0: cd57 b5be d76c 78bd a126 98be 6f54 b0be
000002c0: e97f 5bbc 4852 95be 5922 533e 90f6 5cbe
000002d0: e162 af3e 6064 39be 7c92 5bbe 6933 a5bd
000002e0: f357 c93d 562f ffbd 0ad1 11be f4e1 af3e
000002f0: 2e09 233d b5ce a63e 7d57 c8bd 8fd6 30be
00000300: e6e5 c93d 05bd 79be e259 163e 0e15 393e
00000310: bd35 023f af08 1abe 8e8b 243e 053a 6d3e
00000320: b3c2 58be 7f5d 3abe b016 e1be 8610 55bc
00000330: 7a42 1f3e ddf8 6a3e 5726 1a3d 2869 ae3d
00000340: fd43 953e 46b0 8b3e fb5f 9ebc 01ac 17be
00000350: 23d5 63be 90da 2dbe 56ed d4bd 25c2 873e
00000360: 36bd 133e 9ca5 b73d 5de1 00bd 2567 09be
00000370: b358 6a3e ff27 c73d 087a f73d a5fe 2b3e
00000380: b357 43be aa77 21be 7c12 f33d 418e d3bd
00000390: e70c 0cbf 8e7a c43e 4adf 03bb e1c8 3abe
000003a0: 24a9 7b3e a910 96be dfc1 e03d ec3f ebbc
000003b0: 1b4e fc3b 092d 1c3e 6ebc 5ebe e057 ebbe
000003c0: dea4 22be f93c 463d 8eb7 c6bd 6ea0 133c
000003d0: 2521 b5bd 354f f83e e8c7 39bd 4d67 bf3d
000003e0: fc1e afbe e05b 26bf 2828 8a3b bacb 2e3e
000003f0: 366f a3ba ca85 d0be 8690 223d fddf 80bd

bias f4 [64]
0.053646315 0.43663803 -0.99301106 -0.44642672 -1.1448193 -0.74459404 -0.06641783 -0.5407316
-0.46728662 -0.25939754 -0.56884646 -0.75815964 -0.23500484 -0.23477697 -0.17099833 -0.53385454
-0.07955473 0.10516404 -0.32176653 -0.32152745 -0.106116384 -0.3219273 -0.18043211 -0.15385659
-0.07861641 -0.38183618 0.10983587 -0.6463618 -0.31382006 -0.14498194 0.12685822 -0.6173405
-0.71739 -0.21665938 -0.09428383 -0.21867551 0.09199227 0.28900155 -0.23049933 -0.33577356
0.037961632 0.009476633 -0.6113341 -0.4758969 -0.5252673 -0.6980413 0.30723542 -0.89543694
-0.5157793 -0.6555543 -0.13128915 -0.51906806 -0.62228423 -0.13246965 -0.6873174 0.25230402
-0.14542386 -0.5508087 -0.4614063 0.0029052843 -0.3053238 -0.3242981 -0.24883288 -0.7748104
00000000: 3dbc 5b3d 058f df3e f935 7ebf 0b92 e4be
00000010: 7089 92bf b79d 3ebf 1206 88bd 636d 0abf
00000020: 3140 efbe c1cf 84be ec9f 11bf c016 42bf
00000030: 1ca5 70be 6069 70be 301a 2fbe b1aa 08bf
00000040: 97ed a2bd 3f60 d73d 95be a4be 3f9f a4be
00000050: 8c53 d9bd a8d3 a4be 32c3 38be 958c 1dbe
00000060: a401 a1bd 0880 c3be a1f1 e03d f877 25bf
00000070: 06ad a0be 2576 14be 1fe7 013e 070a 1ebf
00000080: dfa6 37bf f5db 5dbe e117 c1bd 79ec 5fbe
00000090: 7166 bc3d 03f8 933e 0408 6cbe 83ea abbe
000000a0: a87d 1b3d e143 1b3c 6480 1cbf c2a8 f3be
000000b0: eb77 06bf d6b2 32bf f64d 9d3e 5b3b 65bf
000000c0: 1d0a 04bf 68d2 27bf aa70 06be a5e1 04bf
000000d0: 054e 1fbf 20a6 07be 08f4 2fbf fe2d 813e
000000e0: fee9 14be cd01 0dbf 723d ecbe 9566 3e3b
000000f0: 6753 9cbe 670a a6be 0cce 7ebe f959 46bf

weight f4 [32, 64]
-0.31582507 0.24139358 -1.112587 -0.16320124 -0.034750685 -0.031691812 0.08392162 0.16320679
-0.64813197 -0.111899585 0.45367628 -0.116602056 0.022841454 -0.019095274 -0.20403023 -0.51904345
0.08064604 0.05784585 -0.026355427 -0.18892634 0.14748183 -0.14453088 -0.4787714 0.087158985
-0.1276906 -0.08921358 0.22577226 -0.14202163 0.08366764 -0.40399212 0.06259523 -0.17691576
0.10290145 -0.3839612 0.109751314 0.017532505 0.028081097 0.15749617 0.07696508 0.1910843
-0.2804611 0.0720185 0.093269125 0.08924324 0.03599648 -0.14106771 0.008783159 0.22032237
-0.7454599 0.049746457 0.15788151 -0.83509403 -0.51671296 -1.1204817 -0.63188 -0.13770312
-0.24143572 0.0418685 -0.15960956 0.040172145 -0.10214877 -0.34735566 0.2123058 -0.14228489
-0.15177028 -0.14105393 -0.1739602 -0.03135558 -0.08866225 -0.020728173 -0.1462237 0.025683526
-0.061597683 -0.17895691 -0.11119944 0.003984579 -0.07349567 -0.06730644 -0.22426078 -0.14306098
0.062159717 -0.052576054 -0.00583917 -0.1466514 0.005775586 -0.21483028 -0.08020686 -0.04288758
-0.08005643 -0.036539346 -0.11273489 -0.06729835 -0.15037619 -0.17539093 -0.16951759 -0.14989944
-0.02724261 -0.21815681 -0.03216974 0.06121715 0.013274847 0.15310991 0.026583783 -0.04663258
-0.07578717 0.0625154 -0.03858342 -0.10996672 0.07436694 -0.16746876 0.02911149 0.058244612
-0.17449439 -0.25506333 0.11508422 0.036796242 -0.078247644 -0.11006401 -0.048725285 -0.0065908954
-0.067690514 -0.04000891 -0.02101172 0.0059330226 0.00037930344 -0.14992195 -0.11234036 0.03011143
-0.022481749 0.22824498 -0.13247561 0.08705338 0.230418 0.24411443 -0.021281114 0.031358607
-0.1505042 -0.036957514 -0.00653089 -0.44695544 -0.027828258 0.0013411449 -0.20392336 -0.104336604
0.14493749 0.19583672 -0.06596792 -0.110508434 0.20014739 0.048438914 0.30464116 -0.09691403
0.065295696 -0.38167793 0.1270595 -0.36570722 0.11250342 -0.30163392 0.082911916 -0.12830706
0.22795269 0.17270382 -0.03243793 0.042180214 -0.31823498 0.12505844 -0.025012316 -0.11210651
0.12309711 0.33195522 0.12511711 0.1950588 -0.008083295 -0.012919452 0.17359199 0.16590385
-0.106712006 0.31967404 -0.075529546 0.04277477 -0.36946422 -0.60059553 -0.22806606 -0.17434043
-0.023749927 0.052939136 -0.17661598 0.21678597 -0.4542056 0.2455407 -0.13728838 0.3703467
0.03016347 -0.23213364 -0.15048784 -0.0071985316 -0.4984328 -0.46459484 0.11103804 0.010799869
-0.06847718 0.14820176 0.15901917 0.36137506 0.18121137 0.1448463 -0.05141974 -0.025171613
0.050913822 -0.0951762 -0.051076923 0.33031923 0.033099193 0.09242049 -0.08409085 -0.056883596
0.026989384 0.16858047 -0.32047182 -0.049098205 0.32575774 0.01576474 0.13434175 0.046004307
-0.07399874 0.11418089 0.42362577 0.26562607 0.19927368 -0.0854883 -0.057389967 -0.28176913
-0.24513903 0.033636395 -0.8598562 0.23718666 -0.65161955 0.3335679 0.23261409 0.32684487
0.037655666 -0.042803127 0.07094803 -0.16194995 -0.09703134 -0.115415074 -0.10881998 0.25380582
0.017293276 -0.09430088 0.04303534 -0.1206958 -0.055866666 0.25441727 -0.095781006 -0.12121939
00000000: d3b3 a1be e12f 773e 4069 8ebf 3a1e 27be
00000010: bc56 0ebd 46cf 01bd 19df ab3d ae1f 273e
00000020: faeb 25bf 9c2b e5bd 4248 e83e 0fcd eebd
00000030: 001e bb3c b16d 9cbc 4ded 50be 08e0 04bf
00000040: c029 a53d c5ef 6c3d 56e7 d7bc e875 41be
00000050: 7a05 173e e7ff 13be 8621 f5be 6980 b23d
00000060: 53c1 02be 9cb5 b6bd d830 673e 1e6e 11be
00000070: f159 ab3d 0ed8 cebe ee31 803d 6829 35be
00000080: ffbd d23d 9096 c4be 4cc5 e03d 54a0 8f3c
00000090: 540a e63c ad46 213e de9f 9d3d 9aab 433e
000000a0: 9998 8fbe 6f7e 933d e203 bf3d 29c5 b63d
000000b0: 0c71 133d 0e74 10be 3de7 0f3c 309c 613e
000000c0: 76d6 3ebf f1c2 4b3d b1ab 213e b9c8 55bf
000000d0: 4d47 04bf f26b 8fbf e3c2 21bf 0c02 0dbe
000000e0: ed3a 77be 4e7e 2b3d b070 23be 8c8b 243d
000000f0: 6033 d1bd 9ad8 b1be b166 593e 21b3 11be
00000100: ab69 1bbe 7170 10be 9f22 32be b56e 00bd
00000110: 8e94 b5bd 21ce a9bc aabb 15be 4266 d23c
00000120: da4d 7cbd 7b40 37be 88bc e3bd 1291 823b
00000130: e684 96bd f5d7 89bd 9ea4 65be 947e 12be
00000140: 309b 7e3d fd59 57bd 8256 bfbb c92b 16be
00000150: 2041 bd3b 78fc 5bbe 7f43 a4bd e3aa 2fbd
00000160: a0f4 a3bd 48aa 15bd 8de1 e6bd b8d3 89bd
00000170: 37fc 19be ae99 33be 0596 2dbe 3d7f 19be
00000180: e52b dfbc 8064 5fbe 6bc4 03bd d6be 7a3d
00000190: be7e 593c d8c8 1c3e 3cc6 d93c ce01 3fbd
000001a0: 4e36 9bbd 1308 803d a609 1ebd 3b36 e1bd
000001b0: b24d 983d ee7c 2bbe 387b ee3c e791 6e3d
000001c0: a8ae 32be a997 82be 47b1 eb3d a8b7 163d
000001d0: 4d40 a0bd 3d69 e1bd 2a94 47bd 70f8 d7bb
000001e0: 53a1 8abd 62e0 23bd c520 acbc cd69 c23b
000001f0: 3fdd c639 2485 19be b412 e6bd 3fac f63c
00000200: a52b b8bc 0db9 693e b0a7 07be 0b49 b23d
00000210: b2f2 6b3e 22f9 793e bb55 aebc e271 003d
00000220: c61d 1abe c360 17bd 1301 d6bb 58d7 e4be
00000230: 16f8 e3bc 5bc9 af3a 49d1 50be 6eae d5bd
00000240: 7e6a 143e 6c89 483e 301a 87bd 3f52 e2bd
00000250: 70f3 4c3e e267 463d edf9 9b3e dd7a c6bd
00000260: c0b9 853d 4a6b c3be e31b 023e fa3d bbbe
00000270: 3168 e63d c36f 9abe b9cd a93d ed62 03be
00000280: 6e6c 693e 45d9 303e a3dd 04bd 29c5 2c3d
00000290: b2ef a2be 520f 003e a1e6 ccbc 1998 e5bd
000002a0: 561a fc3d 09f6 a93e b31e 003e 7ebd 473e
000002b0: cc6f 04bc 1cac 53bc 19c2 313e b3e2 293e
000002c0: d38b dabd 51ac a33e 3caf 9abd 9934 2f3d
000002d0: 6a2a bdbe a1c0 19bf 268a 69be 4c86 32be
000002e0: 358f c2bc b5d6 583d d2da 34be 24fd 5d3e
000002f0: a38d e8be 056f 7b3e 5395 0cbe 159e bd3e
00000300: 6219 f73c 71b4 6dbe 7c19 1abe a9e1 ebbb
00000310: 9532 ffbe 60df edbe e967 e33d eff1 303c
00000320: c43d 8cbd 34c2 173e ecd5 223e 2706 b93e
00000330: 798f 393e 9752 143e 819d 52bd b334 cebc
00000340: 038b 503d bdeb c2bd 0936 51bd 9a1f a93e
00000350: 0593 073d f446 bd3d d337 acbd c6fe 68bd
00000360: d718 dd3c 5ca0 2c3e e214 a4be 331b 49bd
00000370: b8c9 a63e 0e25 813c e290 093e 036f 3c3d
00000380: a78c 97bd acd7 e93d 7ae5 d83e 2400 883e
00000390: 660e 4c3e 7d14 afbd be11 6bbd 0b44 90be
000003a0: ba05 7bbe 51c6 093d 891f 5cbf 0fe1 723e
000003b0: 8ad0 26bf 69c9 aa3e 6332 6e3e 3658 a73e
000003c0: d43c 1a3d 5552 2fbd 334d 913d 35d6 25be
000003d0: 5eb8 c6bd bd5e ecbd 02dd debd d6f2 813e
000003e0: a1aa 8d3c d220 c1bd d345 303d 5c2f f7bd
000003f0: 72d4 64bd fb42 823e d528 c4bd df41 f8bd

bias f4 [32]
0.27994937 -0.18818066 0.38128248 -0.028111206 0.50084245 0.3283101 0.487267 -0.59410304
0.20219624 -0.57098603 -0.023697998 0.26138604 0.27531722 0.33996704 -0.13110617 0.13390847
0.15982674 0.27908555 0.08925517 -0.55012685 -0.04723091 0.39144078 0.14768139 0.19708902
-0.4462907 0.28466237 0.08783519 0.027223522 -0.30730134 -0.16173552 0.30743685 0.3134004
00000000: 8655 8f3e 6eb2 40be 7537 c33e 7949 e6bc
00000010: 3637 003f 4318 a83e 0f7b f93e 2317 18bf
00000020: 880c 4f3e 242c 12bf 4e22 c2bc 64d4 853e
00000030: 61f6 8c3e 2910 ae3e b240 06be 4d1f 093e
00000040: 9fa9 233e 4de4 8e3e 6acb b63d 1dd5 0cbf
00000050: 3375 41bd ed6a c83e ca39 173e b4d1 493e
00000060: 3780 e4be 44bf 913e f0e2 b33d dd03 df3c
00000070: 9a56 9dbe ff9d 25be 5d68 9d3e 0476 a03e

weight f4 [8, 32]
0.16032758 -0.2611678 -0.17200604 0.05595382 -0.06981201 -0.19367933 -0.17689598 0.3045183
-0.049143597 -0.1919576 -0.14310421 -0.05236709 -0.045497686 0.0090332385 0.18603992 -0.0021742391
-0.48228705 -0.0051120524 0.18808372 0.28379944 0.031272348 0.121652365 0.045317877 -0.17716575
0.31199595 -0.42939883 0.19251032 -0.062265825 -0.04821528 0.02359884 -0.0019885076 -0.16069584
0.25198027 0.035324447 -0.27274853 -0.041015778 -0.021382388 0.16223115 -0.34823096 0.21655418
-0.23864 -0.20476311 -0.10614799 -0.3360772 0.014759517 0.0076408354 -0.060443286 -0.15914242
0.104882 -0.07704534 0.24010937 0.2990366 0.111310124 0.1159998 0.0029097989 0.08506168
0.09904336 -0.059959076 0.08360174 0.11204274 0.1667133 0.065936245 -0.047987346 -0.014927148
-0.48618254 0.1026081 -0.01680028 -0.45600578 0.11487932 -0.36751983 -0.07452653 -0.089771
0.109062694 -0.42155644 0.032679554 -0.0026246978 -0.071162045 -0.5513633 0.061387125 -0.62310433
0.056398384 -0.21708515 -0.11927048 0.14269698 -0.30095035 -0.019598262 -0.7335946 -0.40105122
-0.2420126 -0.13807622 0.5242935 -0.17252435 0.032718286 -0.062025577 -0.40599674 0.45507967
0.17081937 0.021231294 0.19216312 -0.4118773 -0.27827632 -0.20707962 -0.05515749 -0.7979916
-0.20596445 0.14779523 0.13383389 -0.06974126 0.039141268 -0.3298734 -0.07398422 -0.82123756
-0.17224059 -0.1017774 -0.39012125 -0.4540029 -0.37681875 0.082647756 -0.5459426 -0.43043536
-0.47089002 -0.15386362 0.41906464 0.065520115 -0.43888244 0.12174979 -0.25713158 -0.16832952
0.048392154 0.101122364 0.07370816 -0.13916412 0.17798688 0.18245684 -0.34831193 -0.12698466
0.08226838 -0.33088377 -0.05151197 0.60299206 -0.11360798 -0.25229704 -0.08457844 0.010912954
0.139315 -0.18757953 -0.032567494 -0.49036515 0.07153688 -0.3634696 -0.019177854 0.025091855
0.021465253 0.12417965 -0.11071836 0.049478937 0.16094624 -0.115334965 0.18211462 0.27684572
-0.302123 -0.033105057 0.013821805 -0.108329155 0.11568361 0.12838751 -0.0138785895 -0.080259144
0.015973303 -0.23685178 -0.06697075 -0.14039598 0.32016087 0.15336224 -0.016311927 0.035438303
-0.36070162 -0.17210597 -0.07462914 -0.044905692 0.09741913 -0.020277685 0.076437436 0.0066404543
0.043657377 0.46884364 0.07248216 0.0608081 -0.38015968 -0.18738909 -0.018361354 0.17421618
0.121397436 -0.10740465 0.0609961 0.020124964 -0.01766538 0.20558687 0.12268957 -0.837979
-0.073943414 -0.024879958 -0.03039488 -0.0020262124 -0.22976993 0.104774825 -0.14466116 0.11512801
-0.46846634 0.13110965 -0.3622575 -0.41101092 0.061032027 -0.14418472 0.06383759 -0.030620517
-0.22387487 -0.09370183 0.18478851 0.05070127 -0.3547279 0.16650376 -0.06498784 -0.5067846
0.009379059 -0.039868597 0.26499572 0.026351457 -0.43035597 0.09169908 0.03184213 0.06991258
-0.06146201 0.5613906 0.0590083 -0.1213251 -0.28907725 0.105208136 -0.45312005 -0.043154396
-0.37811598 -0.18473244 -0.33712754 -0.27892762 -0.39055824 0.3265588 0.090351485 0.18374713
-0.1605545 -0.08199734 -0.26942334 -0.04646245 -0.5008491 -0.101848416 0.089614 -1.0023115
00000000: ea2c 243e c9b7 85be 5a22 30be d52f 653d
00000010: 99f9 8ebd e053 46be 3824 35be d3e9 9b3e
00000020: cc4a 49bd 8890 44be e989 12be e07e 56bd
00000030: c85b 3abd 2600 143c 4081 3e3e ae7d 0ebb
00000040: 54ee f6be 0183 a7bb 0599 403e 294e 913e
00000050: 6f17 003d e024 f93d 3d9f 393d f06a 35be
00000060: efbd 9f3e 2ada dbbe 6d21 453e 730a 7fbd
00000070: 637d 45bd 5b52 c13c 9f51 02bb 738d 24be
00000080: 8f03 813e 5eb0 103d b2a5 8bbe 2900 28bd
00000090: 1e2a afbc ec1f 263e 544b b2be 61c0 5d3e
000000a0: 0b5e 74be 6cad 51be 1e64 d9bd 5012 acbe
000000b0: e7d1 713c f95f fa3b 6193 77bd 3bf6 22be
000000c0: 60cc d63d f2c9 9dbd 3bdf 753e 531b 993e
000000d0: 90f6 e33d 4e91 ed3d 53b2 3e3b d134 ae3d
000000e0: 3fd7 ca3d a697 75bd 6437 ab3d aa76 e53d
000000f0: e4b6 2a3e 9509 873d 618e 44bd ff90 74bc
00000100: ebec f8be 3224 d23d bea0 89bc 9779 e9be
00000110: d945 eb3d 8f2b bcbe 5ea1 98bd dcd9 b7bd
00000120: 435c df3d 3fd6 d7be ffda 053d 1f03 2cbb
00000130: 68bd 91bd 2526 0dbf 1171 7b3d c483 1fbf
00000140: fe01 673d 924b 5ebe 1544 f4bd 281f 123e
00000150: 2a16 9abe 898c a0bc dbcc 3bbf 9656 cdbe
00000160: 27d2 77be da63 0dbe 1938 063f 39aa 30be
00000170: 9c03 063d 880e 7ebd cede cfbe 3400 e93e
00000180: 46eb 2e3e 40ed ad3c 69c6 443e 95e1 d2be
00000190: 3c7a 8ebe ae0c 54be d2ec 61bd 2d49 4cbf
000001a0: 58e8 52be a257 173e c00b 093e 81d4 8ebd
000001b0: 9852 203d 2be5 a8be 0a85 97bd a03c 52bf
000001c0: d65f 30be ab70 d0bd f9bd c7be 1173 e8be
000001d0: 63ee c0be 3a43 a93d e5c2 0bbf 0662 dcbe
000001e0: 7f18 f1be 6d8e 1dbe a48f d63e 692f 863d
000001f0: 33b5 e0be f457 f93d c0a6 83be 935e 2cbe
00000200: da36 463d 3e19 cf3d 4ef4 963d 0a81 0ebe
00000210: 3142 363e f7d5 3a3e f155 b2be 4408 02be
00000220: 537c a83d 9969 a9be 37fe 52bd b05d 1a3f
00000230: 4dab e8bd 142d 81be 7637 adbd 3fcc 323c
00000240: 97a8 0e3e d914 40be 7e65 05bd 2411 fbbe
00000250: ee81 923d b018 babe e01a 9dbc 6f8d cd3c
00000260: e6d7 af3c e651 fe3d 4fc0 e2bd 6daa 4a3d
00000270: 17cf 243e bd34 ecbd 417c 3a3e b9be 8d3e
00000280: deaf 9abe 2b99 07bd da74 623c addb ddbd
00000290: 87eb ec3d 0478 033e 0663 63bc e85e a4bd
000002a0: 72da 823c 4689 72be f627 89bd f7c3 0fbe
000002b0: 20ec a33e fe0a 1d3e 97a0 85bc c127 113d
000002c0: e2ad b8be 8c3c 30be 2ad7 98bd 08ef 37bd
000002d0: ae83 c73d 631d a6bc 3b8b 9c3d 2b98 d93b
000002e0: 14d2 323d 460c f03e 8771 943d ea11 793d
000002f0: 4aa4 c2be ede2 3fbe 8d6a 96bc ba65 323e
00000300: 389f f83d f8f6 dbbd 0cd7 793d 1cdd a43c
00000310: fdb6 90bc 5d85 523e ab44 fb3d cb85 56bf
00000320: a56f 97bd 0ed1 cbbc affe f8bc 34ca 04bb
00000330: cf48 6bbe 2f94 d63d 0e22 14be 3cc8 eb3d
00000340: d2da efbe 9c41 063e d179 b9be 0670 d2be
00000350: b8fc 793d 29a5 13be 48bd 823d e1d7 fabc
00000360: 743f 65be bfe6 bfbd 3339 3d3e 23ac 4f3d
00000370: e59e b5be f67f 2a3e 5818 85bd a3bc 01bf
00000380: a0aa 193c 414d 23bd 85ad 873e 03df d73c
00000390: 9e57 dcbe bacc bb3d e56c 023d 542e 8f3d
000003a0: 97bf 7bbd 4bb7 0f3f b0b2 713d 4b79 f8bd
000003b0: ef01 94be 5d77 d73d 5aff e7be aac2 30bd
000003c0: 6b98 c1be 802a 3dbe fb9b acbe 9acf 8ebe
000003d0: 40f7 c7be b732 a73e 330a b93d 3528 3c3e
000003e0: 6668 24be 39ee a7bd dbf1 89be 694f 3ebd
000003f0: a637 00bf e795 d0bd 8b87 b73d be4b 80bf

bias f4 [8]
-0.47450778 -0.03239513 -0.28565994 -0.18907003 0.048924305 0.08046538 0.13115695 0.44105363
00000000: aff2 f2be c1b0 04bd 0542 92be 939b 41be
00000010: da64 483d 08cb a43d 024e 063e c8d1 e13e
