runthroughs/monotonically_above_with_bars/baseline_model_save.pth (torch, 16000 bytes, 6 tensors)

weight f4 [64, 10]
00000000: ac58 2cbd b0ef 22ba 8cca b6be b21e adbe
00000010: cd16 44be 21af e9be 2cb4 62be 90b0 e83c
00000020: 3d3d d9bd 9e58 2d3e 00d3 85be d088 8bbe
00000030: ec3b e73c f09e 3dbd 1ca1 a3bd 1244 da3e
00000040: d7cd 63be 8eef c53d f0db 253f 9aa2 9bbe
00000050: 2f38 8bbe e0a7 76bd 160c 8cbe 5e0d 6a3e
00000060: f7be e7be 8c38 7c3d baca 98bd 2d38 9fbe
00000070: c52e 463d aff7 023e f3af c33d 102c 1a3e
00000080: ac3d 0f3c 1a52 98be dfc7 b0bd 2607 04bf
00000090: f407 50be e1a9 5ebe b891 7e3d a95e 1a3e
000000a0: 2448 05be 3fde aabd 3f8d 8d3e 5dcd a03d
000000b0: 714f 7d3e bac4 4c3d d008 813e f2ee 46bd
000000c0: db82 f63d 48cd 94be 6200 48bd b7e7 a4be
000000d0: 3e62 f33d ef6e b23e d427 39bf 7e56 3bbe
000000e0: ecb6 8c3e 7839 bbbd c84b 343c d7ba ba3d
000000f0: b89f 2cbd 5de1 7c3e 8c98 abbe 9986 36bd
00000100: 3c06 de3d c88d 0b3e 9a42 bd3e e952 ec3e
00000110: 2b0f 1a3e ec06 9cbe 08fa 1ebe 752e f3bc
00000120: 904e 47be ece4 8a3e 196f 833e 5744 1abf
00000130: 6abe adbd 3111 95bc 8f3b 133e d12c a0be
00000140: cfd5 053e 4f30 cbbd 7b06 193e 7dc4 683e
00000150: b8f3 0d3e eee6 823e aa2a 31be dce6 89bd
00000160: 4cef a73e f48c 5a3e 88e9 9fbe 9522 81be
00000170: eb74 beba 9818 b9bd 702e 25be 1125 e33d
00000180: 2f2e abbd d958 0dbe 6f6a 77be 020d c1be
00000190: 6125 2fbe e585 bebd f9ac 03be 3d12 ef3d
000001a0: f263 af3c 8fd7 bd3e 4ace 173f 7775 5bbe
000001b0: 0a6a 7f3c 0e2a 0d3e 9111 653d a156 e13b
000001c0: 9461 de3d 25b7 9cbd 4113 44bd 9986 e03e
000001d0: 1774 b6be 9274 83be c4ff 04bf 23cf 7bbe
000001e0: c4d5 64be 783b 2ebe 1848 8ebe 0507 273e
000001f0: f5b6 89be 04b0 f23d c544 8e3e cd7b 61bc
00000200: 0628 c03c ce70 033d 0566 e33d f0e8 693e
00000210: da54 a23e 004a c53e 9af6 6e3e c41d 4d3d
00000220: ac83 d7be 9d56 59bd c713 dc3c a806 d3bd
00000230: 64c7 99be 0abe 9bbe 0431 70be c97f c2be
00000240: f058 57be 7587 163f db07 b73d 147b a3be
00000250: 9935 fd3d dbf1 0ebf eb9d 5bbe 0a05 1ebe
00000260: 4991 00bf a93a a3be fab2 7cbe 7264 56bf
00000270: a0b2 ecbd f3e7 64bd 0d50 083d 1a84 173e
00000280: 9304 98be ecc4 78be cf1f ae3e d4cc 75bd
00000290: f1f2 f43d b844 5dbd bd1a a4be 554d b93e
000002a0: efb6 febd 8bcf 473e 295f c63e b2e6 9cbd
000002b0: f81b 11be 2d6b c9bd 32b9 4fbd 2a21 763d
000002c0: 42b5 f13d a3d3 a23d fd05 96bd 1491 753d
000002d0: 5005 773c 1cbc e7bc 14b5 c13e 1ada 453c
000002e0: 7519 c5bc 4293 83bd a65b c3be 9de9 bdbe
000002f0: 182f a2bd c93a 9e3e f6b5 3abe 7a2d 62bd
00000300: baca 39be 79a6 923e 17f1 66bd 2c5c 93be
00000310: d760 93be 88ca 893e 42e4 8fbd 4ab2 393e
00000320: 62f7 da3d 948c 0bbc 1690 32be 9bde 94be
00000330: cd69 56be 2198 82be 9776 f8bd 31b8 62be
00000340: 41f9 1bbf 58a1 45bf 1b21 913e 17b7 14bf
00000350: e24a 0ebe 6809 753e 7600 663e e532 7e3b
00000360: 6413 c3bd df1f 633e ac00 b7bd a58c 12be
00000370: ca70 15be 4fc2 81bd 8d0d 33be 0145 9f3e
00000380: 541c d13b e95a 183f 13a7 8f3d 759d 94be
00000390: 22e9 233e 0423 5cbe 3602 05be fd5f 18bd
000003a0: 866c 903d 2bed a63e 4011 13be 6b37 4f3b
000003b0: ce86 5a3d 0637 e0be dc1c 3d3e d753 9dbe
000003c0: dcc7 823d 2cd1 85bd a74d 6fbe 100b eb3c
000003d0: c07a 923e 70a7 77bd af36 16be b3f5 71be
000003e0: 0e03 1abe 0a82 333e f80f d5be 495e 71be
000003f0: ebc7 85be 32d3 563e 6ed8 fa3d a84b 083f
-0.04207675 -0.0006215526 -0.35701406 -0.3381248 -0.19149323 -0.45641425 -0.22139043 0.028404504
-0.106073834 0.16928336 -0.26137543 -0.27252817 0.028226815 -0.046294153 -0.079897135 0.4263006
-0.2224649 0.09664832 0.64788723 -0.30397493 -0.27191302 -0.06021869 -0.2735297 0.22856662
-0.45262882 0.061577365 -0.07460542 -0.31097546 0.048384447 0.12789796 0.09555044 0.15055871
0.008742731 -0.2975014 -0.086318724 -0.5157341 -0.20315534 -0.21744491 0.062150687 0.15075172
-0.130158 -0.08343171 0.27646825 0.0785167 0.24737336 0.0499923 0.25202036 -0.04856772
0.120366774 -0.29062867 -0.04882849 -0.32208034 0.118839726 0.3485026 -0.723264 -0.18294713
0.27483308 -0.09141821 0.011004396 0.09117668 -0.042144507 0.24695344 -0.33514822 -0.044561956
0.10841033 0.13628304 0.36964875 0.46157005 0.15044849 -0.3047403 -0.15525067 -0.029685238
-0.19463563 0.2712778 0.25670698 -0.6026053 -0.08483584 -0.018196674 0.14378189 -0.31284192
0.13069843 -0.099213235 0.14943878 0.22731204 0.13862503 0.2556681 -0.17301431 -0.06733486
0.32799757 0.21342832 -0.31232858 -0.25221696 -0.0014530694 -0.09037894 -0.16130996 0.11091054
-0.08358418 -0.13803424 -0.24161695 -0.37705237 -0.17104103 -0.09302882 -0.12858953 0.116734006
0.021409962 0.3707852 0.5929915 -0.21431528 0.0155892465 0.13785574 0.055924956 0.006876782
0.10858455 -0.076521195 -0.047869924 0.4385269 -0.35635445 -0.25674874 -0.5195277 -0.24590735
-0.2234717 -0.17014873 -0.27789378 0.16311271 -0.26897398 0.118499786 0.27786842 -0.013762427
0.023456585 0.03209 0.11103443 0.22842765 0.31705362 0.3853302 0.23336259 0.050077215
-0.42092645 -0.053061116 0.0268649 -0.10304004 -0.30034935 -0.30418426 -0.23456198 -0.37988117
-0.2103002 0.5880044 0.08937045 -0.3192984 0.123637386 -0.5583779 -0.2144696 -0.1543161
-0.5022169 -0.31880692 -0.24677649 -0.8374702 -0.115575075 -0.055885267 0.033279467 0.14796486
-0.2969099 -0.2429387 0.34008643 -0.060009792 0.119604 -0.054020613 -0.3205165 0.36191812
-0.124372356 0.19512765 0.38744476 -0.07661189 -0.14170825 -0.09834895 -0.050713725 0.06009022
0.1180215 0.07950523 -0.07325361 0.05995281 0.01507695 -0.02828794 0.37833464 0.012075925
-0.02405999 -0.064245716 -0.3815586 -0.37092295 -0.07919139 0.30904225 -0.18233475 -0.05521915
-0.1814374 0.28642634 -0.056382265 -0.2878126 -0.2878482 0.26912332 -0.070259586 0.18134418
0.10691716 -0.008517403 -0.17437777 -0.29076084 -0.20938797 -0.2550669 -0.12131994 -0.22140576
-0.60927206 -0.77199316 0.2834557 -0.5809187 -0.13895753 0.2392937 0.22461113 0.003878766
-0.09525183 0.22180127 -0.08935675 -0.14311464 -0.14593807 -0.063358895 -0.17485638 0.31107333
0.006381551 0.5951372 0.07014289 -0.2902638 0.16006902 -0.21497732 -0.12989125 -0.037200917
0.07051949 0.3260282 -0.14362049 0.0031618725 0.053351216 -0.4379198 0.1846804 -0.30728027
0.063857764 -0.06534037 -0.23369466 0.028691798 0.28609276 -0.060462415 -0.14669298 -0.23628883
-0.15040228 0.17530075 -0.41613746 -0.23571123 -0.26129088 0.20979002 0.12248312 0.5324044

bias f4 [64]
00000000: 09cd c6be 12bd d5bc 85f9 d43e 1974 153e
00000010: b908 313e ea25 37be 7785 0fbf b461 8bbe
00000020: 6dce a63d 70a8 463e 7a0b adbe 61cc 583e
00000030: 1643 76be d7eb 6cbe db1f 4dbd 40f0 99be
00000040: 1fc8 3ebe 325e 433d 392b fbbe d6a1 17be
00000050: 687e 62be 30a1 d0bd 16f9 7ebe 47a0 1ebd
00000060: 901c bfbe fb26 ec3e 51fe a63c cef0 82bd
00000070: ad00 d5bc 4d15 f7bd 6c73 073e 8330 05be
00000080: b65e b23c 8962 bebe 4880 86bd 2609 e8bd
00000090: 0e60 063d ee3c c43c 03da 24be b9c0 14bd
000000a0: f8b5 b0bc ac0b 8d3b f38c 11bd 8d3b bbbe
000000b0: fe7e a73e 8907 603e e3fd 92be e66b 4abe
000000c0: 8075 ae3e c2c6 3bbe b0a4 a5be 43b9 48bc
000000d0: bc75 0fbf 35a3 0cbc 869f dabe a045 19bd
000000e0: 7d04 2cbe 50d3 08be 256d 49be ac85 b53e
000000f0: 0707 cfbe 7158 c33c 2e1e b03c c63a 35bf
-0.38828304 -0.026091132 0.41596618 0.14595069 0.17288484 -0.17885557 -0.56063026 -0.2722298
0.08144841 0.19400191 -0.33797818 0.21171714 -0.24049029 -0.23136841 -0.050079208 -0.3006611
-0.18631028 0.047697254 -0.49056414 -0.1480783 -0.22118533 -0.10186994 -0.24899706 -0.03872707
-0.3732648 0.4612349 0.02038494 -0.06393586 -0.026001299 -0.1206461 0.13227624 -0.13006787
0.021773677 -0.3718455 -0.065674365 -0.1132987 0.03280645 0.023954835 -0.1609879 -0.036316607
-0.021571144 0.00430437 -0.03553481 -0.3656887 0.32714075 0.21877874 -0.28709325 -0.19767722
0.3407402 -0.18337539 -0.3235221 -0.012251201 -0.56039023 -0.008583833 -0.42699832 -0.037419915
-0.16798587 -0.1336186 -0.19670542 0.35453546 -0.4043505 0.023845883 0.021498766 -0.70792806

weight f4 [32, 64]
00000000: 8f3e 47be c7e5 c6bd 2141 8c3e 087c ecbd
00000010: 8add 653d 9893 663e bfce 2f3d 5a3c 7d3e
00000020: 9337 a43d 4cb2 033d 491e febb 7834 6ebd
00000030: 8167 293d 2922 9dbd 58e0 613e 3b42 a33c
00000040: 6e3b bd3d 97d0 81bd 4746 2a3d 8058 953e
00000050: fb94 c3bd af62 dc3d d7d2 81bd b37f 173e
00000060: 3a4d d9bd 2e1d e83d 1e35 1cbd 7717 6abe
00000070: edfb 2ebe 2764 8a3c 51ce 0d3d 57be 65be
00000080: acf6 e83d e069 6e3a 3690 753e 418c 39bd
00000090: e075 d8ba 483c 5cbe 7a89 d0bc f57f 74bd
000000a0: f173 093e 94c6 4b3e 7755 4b3d 256d 043e
000000b0: e260 9f3d e07a 0a3e 0c5d d8bc e427 083c
000000c0: fa7d 6b3a 7583 273e d6b3 bb3d 65e2 4c3d
000000d0: 5c7e ea3d 712d 88bc d061 1abd 60c8 9d3c
000000e0: 40d1 65bd a82f a2bd 5dfd 94bd 7490 cdbd
000000f0: a426 1bbd c513 5dbd 3a3c 013e f595 1a3e
00000100: 7b6a c53d f02a c9bd 2488 703e c68d 88bd
00000110: 41ac 113d 0dc5 b33e f026 f93d f176 2c3d
00000120: 0826 89be 3a3d 35be 9381 59be af1d 02bf
00000130: 882e 6e3d 1ca9 c8bd 9914 f4bd 9d3e 6a3e
00000140: e58c ea3d df47 8f3c cc15 b1bd 3f26 283e
00000150: d790 c7be 9263 c93d a67c acbe 1554 fb3d
00000160: 3124 3b3e 2e0b 62be 6f4f 403e e2d1 33bc
00000170: a4b0 583e fa05 7b3e 1c7f 973e 8549 973d
00000180: f39c ad3d 48ce 85be be35 b1bc a46e 31bc
00000190: 8bc0 363e f997 89bf 333d e83c b40b 93bd
000001a0: b266 fb3b 5276 343e b526 183e cf12 993d
000001b0: 7ca9 4e3d c304 3d3e e7ff 90bd 551b 353d
000001c0: ed4f 653e bde1 e0bc 171d be3d 05fa 663e
000001d0: a96e ad3e 044b 093e 89fb a63d 4b83 183d
000001e0: db8d 4bbc 4afe aa3c d46b 48be a166 0e3e
000001f0: 3bfa 873e 0867 c63d 170b 92be 3255 a33d
00000200: 9544 cb3d b480 0f3e 026f 053d ab51 f23d
00000210: 7c61 cf3d 0cd7 463e 2cb8 e53d f76c d93b
00000220: 4c76 21bd a810 073e d6f9 e0bd 678d 093e
00000230: 74a1 b2bd fb6b 68be 0d91 1a3e 46e0 333c
00000240: 0427 de3c ca74 a83d 1520 233d ead1 0bbe
00000250: b927 5f3e 1ffb 883e e48b 213e 56f5 013c
00000260: f844 513e d7e6 753c 0eb1 4bbe 24a4 cabd
00000270: 0176 89be 9e5b 6cbb b9b6 883b 0258 17be
00000280: fd3a cbbd 1213 033d 9186 99bd 78f5 b53d
00000290: 88d3 473c d360 8dbb c6e6 66be 3eaa f93d
000002a0: a78f c1bc b053 dd3c 0eaa 71bd 3ed4 2e3e
000002b0: cd95 053e cdfe 053c 5298 9ebd 508f 09be
000002c0: a909 2f3d 40da 033d 1529 edbc a029 783d
000002d0: ce9d 59bc d71d 053e 5ad0 9a3c 6af6 803d
000002e0: c218 49be 815c 2abe 2c28 21bd 2bf7 98bd
000002f0: 3f7f 8e3e fac1 013d d041 973e 285e dabd
00000300: f80a 453e a7a9 91be 1a45 70be 87d8 013c
00000310: 718b 15be 5d85 f73c 9a7a e7bd bdfd 513e
00000320: dbff 98bd aaea 87bb df6a ba3d 59ea debc
00000330: d85d 2fbe e725 1ebe 4ab4 4ebe cbcb 213e
00000340: 3514 663c 58be 05be 6d88 52bd 82fa 0a3e
00000350: 9268 273e 48c4 a0bd 2130 88bd c7e6 acbe
00000360: 2b0d 0c3b 4c6b 1ebe 1b99 833d 0cbc 43be
00000370: 7bc4 dabe c78b 12bd cb63 513e acaa c53d
00000380: ca76 21bd eab1 1ebe 6cf6 c9bc fd1b 41bd
00000390: a473 5b3b 5976 c1be 9c12 a0be 806e adbd
000003a0: 4c9d ae3d b71b 5cbd 4be9 19be 6e2b bdbd
000003b0: b8be 2d3d 4ad3 03bb 340e debe 32c7 f0bd
000003c0: 4770 f0bc a956 30be 7562 8d3d 89a6 be3d
000003d0: acb6 ee3d d6eb d6bd 1287 003e f05e fb3a
000003e0: 1a3d c9bd 3d2d 7d3d e86a 173e 938e 6abe
000003f0: 2b4e c2bd 0cbe 39bd 9c18 f73d d561 85be
-0.19457458 -0.09711795 0.2739344 -0.115470946 0.05611948 0.2251724 0.042921778 0.24730054
0.080184124 0.03215246 -0.007755075 -0.058155507 0.041358475 -0.07672531 0.22058237 0.019929042
0.09239851 -0.063386135 0.041570928 0.29169083 -0.095499 0.1076101 -0.06339043 0.14794807
-0.10610433 0.113336906 -0.038136594 -0.22860514 -0.1708829 0.01689346 0.034620587 -0.2243589
0.11375174 0.0009094756 0.23980793 -0.045299772 -0.0016514622 -0.2150737 -0.025456179 -0.05969234
0.13423134 0.1989997 0.049642053 0.1293226 0.07782151 0.13523436 -0.026411556 0.008310292
0.00089833105 0.1635874 0.0916516 0.050020594 0.114498824 -0.01662323 -0.037690938 0.019260585
-0.05610776 -0.07919246 -0.07274888 -0.10037318 -0.037878647 -0.05397393 0.12620631 0.15096267
0.0963945 -0.09822643 0.23489434 -0.06667666 0.035564665 0.35111275 0.1216563 0.04210562
-0.26786828 -0.17699137 -0.21240835 -0.50826544 0.058149844 -0.0979788 -0.11917991 0.22875448
0.11452655 0.017490325 -0.086467355 0.1642084 -0.38977692 0.09833445 -0.3368885 0.12271897
0.18275525 -0.22074577 0.18780302 -0.010975333 0.21161133 0.24513999 0.29589164 0.073870696
0.08477201 -0.26133943 -0.021632072 -0.010829601 0.17846887 -1.0749503 0.028349495 -0.071799666
0.0076721543 0.1762326 0.14858516 0.074742906 0.0504546 0.18458848 -0.070800595 0.04421552
0.2239377 -0.02745139 0.09282892 0.22556312 0.3387349 0.13407522 0.08153445 0.037234586
-0.012423958 0.020873208 -0.19572383 0.13906337 0.26558098 0.096876204 -0.28524086 0.07975234
0.0992519 0.1401394 0.03257657 0.11831983 0.101260155 0.19417971 0.112167686 0.006635304
-0.039419457 0.13189948 -0.109851524 0.13432847 -0.08722201 -0.22697441 0.15094395 0.010978764
0.027118213 0.08225401 0.039825518 -0.13654295 0.21792497 0.2675409 0.1577602 0.007932028
0.20436466 0.01500865 -0.1989176 -0.098945886 -0.26847842 -0.003606535 0.004172173 -0.14779666
-0.099233605 0.03200061 -0.0749637 0.0888471 0.012196429 -0.004314521 -0.2254897 0.12190674
-0.02362807 0.027017444 -0.059000067 0.17073151 0.13045426 0.008178425 -0.077438965 -0.13433576
0.042733822 0.03219056 -0.028950254 0.06058657 -0.0132822525 0.12999664 0.018898178 0.06297
-0.1963835 -0.1663685 -0.03934495 -0.074690185 0.27831456 0.03167913 0.29542398 -0.1066249
0.19242465 -0.28449747 -0.2346386 0.007925159 -0.14603974 0.03021496 -0.11302681 0.2050695
-0.074706756 -0.004147847 0.09102415 -0.027211355 -0.17125642 -0.15444146 -0.20185962 0.15800397
0.014042904 -0.13060892 -0.051399637 0.13572124 0.16348484 -0.07849938 -0.06649805 -0.3376982
0.0021370153 -0.15470618 0.06425687 -0.19114703 -0.42728028 -0.035777833 0.20448224 0.09651694
-0.039419927 -0.15497556 -0.024653636 -0.047145832 0.0033485675 -0.37785605 -0.31264198 -0.08468342
0.08526096 -0.05373737 -0.150304 -0.09236799 0.04241821 -0.0020114952 -0.4337021 -0.117567435
-0.029350413 -0.17220558 0.06903545 0.09309108 0.11655936 -0.10494201 0.12551525 0.0019178074
-0.09826107 0.06181072 0.14786875 -0.2290595 -0.094875656 -0.04534726 0.12065241 -0.26051202

bias f4 [32]
00000000: dca4 493e b3c5 043e 0a69 363e 430d 3dbe
00000010: 8dc0 853e e830 ba3c 6587 3fbc d4e5 0e3e
00000020: 4aec 3c3c 2ceb c83d b689 c63c eec1 bcbd
00000030: e434 d33d 387c 373e 6441 cb3d 2bdc 983e
00000040: 7b95 0d3e 2d92 ecbd 5b44 5abd 737c ef3d
00000050: 265b 5d3d 18ea e63c f516 e9bd 72bc 1c3e
00000060: c1ab ea3d fca4 91bc 0886 ec3d c346 b13d
00000070: 38d2 1b3e ac2a d1bc 6308 3abd 25ae 92bd
0.19691795 0.12966041 0.17813507 -0.1846209 0.26123467 0.022728398 -0.011689995 0.1395486
0.011530945 0.098104805 0.024235588 -0.09216677 0.103128225 0.1791848 0.09924582 0.29855475
0.13826554 -0.11551318 -0.053287845 0.11693659 0.054042004 0.028187796 -0.11381332 0.15306261
0.11458541 -0.017778866 0.11549002 0.08656075 0.15216911 -0.025533043 -0.045418154 -0.07162122

weight f4 [8, 32]
00000000: 47ae bdbd f344 26be 7889 c2bd cb98 5dbd
00000010: c514 30be 9138 413e a01f bd3e 1acf 01bf
00000020: 27d4 81be d1b7 eabc 18f3 2e3e f3ce 573e
00000030: fe0b dcbd 3a06 eb3d edc4 043d cc1c b63d
00000040: 9982 913d 5c37 423e 91a6 c53d 48e2 333e
00000050: cc2e 22be b775 0e3e 434b 3dbd fc40 9ebd
00000060: d256 10be 4a93 7abe 0044 af3c 8a1c 65be
00000070: 5cab 9abc 8938 39bc d716 083e 640f 773e
00000080: f624 51bd 1542 c9bd 4f3e 18be 6a9b 5ebe
00000090: 8aa1 06bd e077 c73c 3c2a fa3d afeb e73e
000000a0: 049f 613d a861 683e 69d3 de3d 7ca7 583e
000000b0: 0882 0abe 3af1 e43d fff0 683d dccf 843c
000000c0: c3d6 3e3d 847d 133d 2de2 1cbf f94d 5c3d
000000d0: 7343 a7be 399e 773d 510e 17be 6585 0d3e
000000e0: c11b 4cbe eb67 42be d779 26be b240 33be
000000f0: 81cd 8fbd 510e 213e 9b95 433d 82af f03d
00000100: e339 12be 9da6 18bf e392 db3d bc2c fd3c
00000110: 9888 36be 4608 60be 33c2 e1be 46f8 acbd
00000120: 5a86 293e 0feb aabd a408 9d3d 7036 40bd
00000130: dfe9 0ebe be21 273d fc6e d1be bb2a 63be
00000140: e88a 09bf b736 9c3d 6994 2abd 560f aabe
00000150: cc5e d3be 6bf1 263d 901a 05be cf76 8abe
00000160: 11a6 debd c51b 82bd 0924 133e 7f3f ad3e
00000170: a802 febe cdb4 a63e 0d39 93bd 0be0 b5bd
00000180: 896d 613e 66d6 16bf 6820 13bd 68d4 4dbe
00000190: fb9f 0dbe 01e7 48bd e565 943a 7dd5 3d3e
000001a0: 03c1 d9bd 5470 50be a276 3d3e cf41 a9be
000001b0: bcb7 f33d 4bfd c5bd d40f c93d 531d ad3d
000001c0: 581d 19bf c0ca 98bd f310 b43d 627b c2be
000001d0: 357d 6e3d 97a0 4dbe b701 38be c614 f5be
000001e0: 4b17 a83c 7cf8 19be 8776 1dbe 38d5 7c3e
000001f0: a442 86be 1095 73be aaa7 8abe fe30 f4bd
00000200: e385 323e ac3a 32be a6af 183e a0c3 12be
00000210: 0d93 16be 799b 13be 7050 003d f34e 513e
00000220: ed73 ea3e f9eb d13d 4ad0 8dbd ac37 22be
00000230: 832f 143e 65a1 d1bc df9a 72be 0a58 44be
00000240: 9e81 be3d cb8e 3e3d e859 b3be beed a2bb
00000250: a93e edbe e9ba 0a3e 1470 88bd 77a1 1c3e
00000260: 64c1 d6be c8b3 4abe 0611 9f3e d567 613d
00000270: a5b3 b8be 010b 813e 417e fc3c b2ad 45be
00000280: d8ba e63c fea9 72be a52b fb3d c611 2abd
00000290: 5898 513d a031 9e3b 21b2 bebe 1092 97be
000002a0: d863 71bd 1457 3dbd 63f0 0ebe 8e72 a0be
000002b0: e19b 0a3e 462f d43e 414a e43d 6bf1 02be
000002c0: 5262 8d3e a85b 5839 82c7 dc3d aa08 3a3e
000002d0: 6130 64bd b03c 563d 30b4 05be a562 163d
000002e0: f625 333e dec4 f9bc cf93 c3bd 7e1d 8d3e
000002f0: d589 ef3c ee64 493e bd26 97bd 92ec 2abe
00000300: b748 f1bd f536 2e3e 4054 a23c e98f 1b3e
00000310: 335d df3d 99e7 9a3d 7f5f 1b3e adf1 48be
00000320: 0b4f 923c b5b0 fdbc b12b c53d cd3f 10bf
00000330: 5b71 673e 94f5 9dbe 94f0 be3d e8d1 86be
00000340: fdf8 c0bb ea98 eebd 8d7e 553e 807b 8d3d
00000350: 1fd4 013f 0d59 d2bd 1fce 10be 23a5 4f3d
00000360: 31f7 943e e3d1 e0bd 002b 5d3e 66fb 303c
00000370: c8b8 9e3d ab16 383d baa1 39be 0bf2 1a3e
00000380: b74d 753e 6085 323e 03af 303e a4a7 ba3e
00000390: ac3c 403e d1ac c93d f810 cc3d 7cc3 9ebe
000003a0: 63b6 203d 1d9a 16bf 9a5e 803e ec25 6cbe
000003b0: cba8 8c3d 9517 afbe ddea ea3d 7d49 193e
000003c0: e74f 0d3e a3a0 65be 5880 c53d acf9 bc3c
000003d0: fe22 903d 1f62 edbe 833e 7f3d 315e d7bd
000003e0: 359d bb3d f236 1e3e 0314 5ebd 92d7 7dbe
000003f0: 1ad2 8e3d 6d93 1fbf 359a 433d 03b2 89bc
-0.092617564 -0.1623724 -0.09498876 -0.054100793 -0.17195423 0.18869235 0.3693819 -0.50706637
-0.25357172 -0.028652104 0.1708492 0.21075039 -0.10744475 0.11475797 0.032414366 0.08892211
0.07104988 0.1896643 0.09650911 0.17566788 -0.15838164 0.13912092 -0.046214353 -0.077272385
-0.1409562 -0.24470249 0.02139473 -0.22374168 -0.018880539 -0.011304983 0.13289963 0.24126965
-0.05106064 -0.09827057 -0.14867519 -0.21738973 -0.0328689 0.024349153 0.12215087 0.45297
0.05508329 0.22693503 0.10880167 0.2115764 -0.13526165 0.11178823 0.056870457 0.016212396
0.04659153 0.036008373 -0.61282617 0.053785298 -0.32668647 0.060453627 -0.14751555 0.13820417
-0.19932462 -0.18984954 -0.16257416 -0.17505148 -0.07021619 0.15728118 0.047750097 0.117522255
-0.14279895 -0.5962923 0.10721376 0.03090512 -0.17825544 -0.21878156 -0.44093475 -0.08445792
0.16555157 -0.08345615 0.07667664 -0.046926916 -0.13956402 0.040803663 -0.40904987 -0.22184269
-0.5372758 0.076276235 -0.04164544 -0.33214825 -0.41283262 0.040757578 -0.12998414 -0.2704377
-0.108715184 -0.06352953 0.14369215 0.33837506 -0.49611402 0.32559815 -0.07188616 -0.088806234
0.2201444 -0.58920896 -0.035919577 -0.20100558 -0.13830559 -0.049048427 0.0011321871 0.1853847
-0.10632517 -0.2035535 0.18502286 -0.3305802 0.11900279 -0.096674524 0.09817472 0.08452859
-0.598104 -0.074605465 0.08792295 -0.3798476 0.058224875 -0.20080791 -0.17969404 -0.4786741
0.02051892 -0.15036196 -0.15377246 0.24690711 -0.26222718 -0.23787332 -0.27081043 -0.11923407
0.17433886 -0.17405194 0.14910755 -0.14332438 -0.14704533 -0.14414777 0.03132671 0.20440273
0.4579157 0.10250086 -0.069244936 -0.1584155 0.1447125 -0.025589654 -0.23691891 -0.19174209
0.09302066 0.046522897 -0.3502953 -0.0049721887 -0.46336868 0.13547863 -0.06662002 0.15295969
-0.4194442 -0.19795144 0.31067675 0.055030663 -0.36074558 0.25203708 0.030821921 -0.19304541
0.028165266 -0.2369766 0.12264184 -0.041520856 0.051170677 0.004827693 -0.37245277 -0.29603624
-0.05893311 -0.046225622 -0.13958888 -0.31337398 0.13536026 0.41442317 0.11146975 -0.12787406
0.27614075 0.0002063351 0.107802406 0.18167368 -0.0557102 0.05230397 -0.13057017 0.03671517
0.1749495 -0.030489381 -0.095496766 0.27561563 0.029240528 0.19667408 -0.073804356 -0.16691807
-0.117814474 0.17013152 0.019815564 0.15191616 0.10906448 0.07563705 0.15173148 -0.19623442
0.017859956 -0.03096805 0.09627474 -0.5634735 0.22601835 -0.30851424 0.093232304 -0.2633202
-0.0058890567 -0.1165026 0.20849057 0.069083214 0.50714296 -0.10270891 -0.14141129 0.050694596
0.29094842 -0.10977533 0.21598434 0.010802126 0.07750088 0.044943493 -0.181281 0.15131395
0.23955427 0.17433691 0.17254262 0.36456025 0.18773144 0.09847415 0.09964174 -0.31008518
0.039236438 -0.5882891 0.25072175 -0.23061341 0.06868132 -0.3419768 0.11470578 0.1496944
0.13800012 -0.2242456 0.0964362 0.023068272 0.07037924 -0.46363923 0.062315475 -0.105160125
0.09160844 0.15450647 -0.054218303 -0.24789265 0.069736674 -0.6233433 0.047754485 -0.016808515

bias f4 [8]
00000000: 35b4 8abe 82ab 9ebd 0b99 21be cc27 3e3d
00000010: e646 3fbd c641 183e aec3 2c3e 107b 703e
-0.27090612 -0.07747556 -0.15781038 0.046424672 -0.046698473 0.1486884 0.16871521 0.23484445
