runthroughs/good_early_high_late_same/aug_model_save_k_means_centers.pth (torch, 16174 bytes, 6 tensors)

weight f4 [64, 10]
-0.19133729 0.28517947 0.57461596 0.12016866 0.0043655722 -0.21696723 -0.37162298 -0.019092863
-0.1889487 0.2315501 0.22001655 0.24376404 0.010916692 0.14578913 0.18148012 0.10414152
-0.5779316 0.0088354675 0.2541038 -0.267407 0.06782418 -0.10474155 0.56603736 -0.07792737
0.23522952 -0.15576126 0.33760533 0.013348051 0.24893731 -0.29283726 -0.084051944 -0.1449772
-0.0020679422 -0.42646885 -0.13449545 0.085392036 0.29754293 -0.37399286 -0.579901 0.47228128
0.37391904 0.14235945 0.447084 -0.2792588 -0.009460025 -0.539543 -0.16910456 0.22070113
-0.08158645 0.0288398 -0.052197948 -0.018199155 0.2855351 -0.15418929 0.176415 -0.27773544
0.5136852 -0.037446752 -0.21225823 0.007215404 -0.09782172 -0.08772584 -0.17966767 -0.12345535
-0.09155589 -0.3776477 -0.13464318 -0.3003167 0.23109074 0.10112368 -0.16110197 0.02905165
0.039406084 0.14579417 -0.16974096 0.23421267 0.09884469 -0.62520224 0.3781586 -0.016723579
0.0124440035 0.0033159817 0.23036586 0.58959544 0.13135637 0.26748374 0.572751 0.25895706
-0.16057704 0.1301819 -0.17193855 0.28308252 -0.2040087 -0.060525455 -0.011983151 -0.17738861
0.21293698 0.5122245 0.16625364 0.010164671 0.2437568 0.015906338 -0.09447088 0.21960202
0.15613383 0.3934136 -0.2112453 -0.44484687 -0.29781124 0.43713516 0.22231232 -0.5533112
-0.0149167115 -0.079393774 0.24230483 0.06879763 -0.022322742 -0.007895706 0.13479988 -0.09650855
-0.47682428 -0.29722807 0.11158398 0.06506436 0.11352554 -0.028345708 -0.21575013 -0.8180491
0.287462 -0.16617422 0.18534485 0.07018878 0.32136863 -0.13312323 0.17005381 -0.73716265
-0.49562475 0.3993324 -0.5640225 0.26345035 -0.48815888 -0.17753613 0.10496472 0.34270135
0.36396375 -0.027927527 0.3218477 0.11275373 -0.42398116 0.18116954 0.23118788 0.12982963
-0.35621157 -0.40579593 -0.27043048 -1.4072183 -0.14354122 0.13819863 -0.11679382 -0.009902073
-0.033648737 -0.043132197 0.19719657 -0.544501 -0.23746444 -0.3346641 -0.44734704 0.3376734
-0.5449937 0.5112479 -0.3427359 -0.08660052 -0.28604773 0.4956706 0.08964732 0.5188453
-0.024819287 -0.04803668 0.12941499 -0.07715974 0.023316095 0.2296094 0.081699215 -0.2816756
-0.33589193 -0.20020232 0.33336723 -0.20560719 -0.17908388 0.3649291 0.26376498 0.2522812
0.101705335 -0.51620746 -0.10036926 -0.89052707 -0.2853406 0.28770763 -0.4606712 0.39113468
-0.008145376 0.008919733 0.8539284 0.27532303 0.353367 1.4571782 -0.15016042 0.17739682
-0.20838824 0.21571952 -0.16073824 -0.06321838 -0.10533121 -0.21019226 0.09938294 -0.6166877
0.7634356 -0.25247818 -0.39138153 0.26989967 0.055149037 0.0071525075 0.018345686 0.44493905
-0.43129823 0.0513198 -0.055685695 0.117789686 0.35828575 -0.071971685 0.0381464 -0.18002531
0.047685012 0.26825282 -0.3117188 -0.027727336 0.03353447 -0.024333911 -0.12264176 -0.21495442
-0.05851384 -0.016925156 -0.19133301 -0.095942184 -0.035305824 0.32199138 0.35714787 0.509039
-0.22046487 -0.061709125 -0.10041776 -0.2173254 -0.47362196 -0.3201767 -0.3137864 -0.84927285
00000000: eced 43be 0b03 923e 081a 133f fd1a f63d
00000010: 130d 8f3b a82c 5ebe 5e45 bebe a368 9cbc
00000020: c57b 41be 781b 6d3e 054c 613e 489d 793e
00000030: eddb 323c bf49 153e edd5 393e 2648 d53d
00000040: 53f3 13bf a3c2 103c e519 823e 92e9 88be
00000050: 67e7 8a3d bd82 d6bd d3e7 103f 6398 9fbd
00000060: 02e0 703e e17f 1fbe 9bda ac3e c9b1 5a3c
00000070: 6ce9 7e3e c4ee 95be 6d23 acbd e774 14be
00000080: 5086 07bb 205a dabe 2db9 09be 05e2 ae3d
00000090: 8c57 983e fe7b bfbe 6474 14bf dace f13e
000000a0: 5172 bf3e adc6 113e 32e8 e43e 02fb 8ebe
000000b0: 38fe 1abc 7d1f 0abf bf29 2dbe 7aff 613e
000000c0: cc16 a7bd 7241 ec3c 84cd 55bd 6516 95bc
000000d0: a831 923e cce3 1dbe 22a6 343e 5733 8ebe
000000e0: e080 033f c461 19bd 395a 59be 326f ec3b
000000f0: c156 c8bd 9ba9 b3bd cdfa 37be 29d6 fcbd
00000100: a881 bbbd 0a5b c1be e7df 09be 1cc3 99be
00000110: 0da3 6c3e ef19 cf3d eaf7 24be bafd ed3c
00000120: 4668 213d 114b 153e 93d0 2dbe 72d5 6f3e
00000130: 166f ca3d 410d 20bf 019e c13e e3ff 88bc
00000140: efe1 4b3c f150 593b 07e5 6b3e baef 163f
00000150: 4982 063e a1f3 883e cf9f 123f 0596 843e
00000160: 4f6e 24be 674e 053e a910 30be 31f0 903e
00000170: a8e7 50be 8ae9 77bd fa54 44bc 5ca5 35be
00000180: 270c 5a3e 2521 033f 653e 2a3e b889 263c
00000190: 629b 793e 024e 823c f379 c1bd 5adf 603e
000001a0: 8ce1 1f3e 826d c93e b050 58be f8c2 e3be
000001b0: b77a 98be 2ed0 df3e d7a5 633e cea5 0dbf
000001c0: 3965 74bc 3499 a2bd c21e 783e c6e5 8c3d
000001d0: 2fde b6bc fe5c 01bc fb08 0a3e 46a6 c5bd
000001e0: 5022 f4be 472e 98be 2486 e43d 7740 853d
000001f0: 1480 e83d 4235 e8bc 9aed 5cbe aa6b 51bf
00000200: 382e 933e 9329 2abe 0acb 3d3e 23bf 8f3d
00000210: 6e8a a43e 7551 08be 9622 2e3e b1b6 3cbf
00000220: 87c2 fdbe 4c75 cc3e c763 10bf f7e2 863e
00000230: f6ef f9be 08cc 35be bef7 d63d 8d76 af3e
00000240: 7559 ba3e 45c8 e4bc 39c9 a43e 6deb e63d
00000250: 0f14 d9be 8284 393e 84bc 6c3e 0ff2 043e
00000260: 5d61 b6be 7cc4 cfbe dd75 8abe bb1f b4bf
00000270: 78fc 12be f183 0d3e 9931 efbd 4e3c 22bc
00000280: 42d3 09bd 63ab 30bd e6ed 493e 6b64 0bbf
00000290: e129 73be 1859 abbe ac0a e5be 87e3 ac3e
000002a0: b584 0bbf 24e1 023f 147b afbe 9d5b b1bd
000002b0: d974 92be 89c8 fd3e 0499 b73d 0cd3 043f
000002c0: d151 cbbc 1cc2 44bd 5d85 043e ed05 9ebd
000002d0: 6501 bf3c ba1e 6b3e eb51 a73d c937 90be
000002e0: 07fa abbe d601 4dbe 1caf aa3e b18a 52be
000002f0: c461 37be fdd7 ba3e 340c 873e 002b 813e
00000300: e34a d03d 2c26 04bf 668e cdbd 95f9 63bf
00000310: 2a18 92be 6a4e 933e 18dd ebbe ce42 c83e
00000320: 2f74 05bc 1224 123c 0d9b 5a3f 24f7 8c3e
00000330: 85ec b43e d184 ba3f a7c3 19be 83a7 353e
00000340: ba63 55be 94e5 5c3e 9198 24be a378 81bd
00000350: e4b7 d7bd a43c 57be 4889 cb3d 3fdf 1dbf
00000360: 8470 433f d244 81be 2963 c8be 4a30 8a3e
00000370: f5e3 613d 955f ea3b b149 963c 0dcf e33e
00000380: 1fd3 dcbe b634 523d af16 64bd b83b f13d
00000390: 3b71 b73e e465 93bd 663f 1c3d 8e58 38be
000003a0: 5c51 433d 6f58 893e 9b99 9fbe 7024 e3bc
000003b0: 715b 093d e957 c7bc 9a2b fbbd 031d 5cbe
000003c0: 35ac 6fbd a0a6 8abc cdec 43be 567d c4bd
000003d0: d79c 10bd 0edc a43e 16dc b63e 6150 023f
000003e0: 8bc1 61be b5c2 7cbd d4a7 cdbd 8d8a 5ebe
000003f0: 947e f2be 33ee a3be 9ca8 a0be f269 59bf

bias f4 [64]
-0.7115802 -0.8774102 -1.0401281 -0.78696436 -0.47171545 -0.09743893 -0.042972017 -0.38186908
-0.8677755 -0.8699399 -0.29986122 -0.29221097 -0.35450658 -0.73726535 -0.94995826 -0.29876152
0.14828698 -0.36070982 -0.54980475 -0.45193285 0.17823939 -0.35650432 -0.37495917 -0.35424486
-0.24123949 0.49227005 -0.67538065 -0.895035 -0.09254117 -1.0589118 -0.48990086 -0.30697712
-0.68173176 -0.24588382 -0.2502222 -0.022080697 -0.9691408 -0.049113695 0.021850763 -0.48090184
-0.6434003 -0.28738636 -0.42858192 -0.39615768 -0.28333184 -0.5735505 -0.23201062 -0.5768646
-0.5132531 -0.4872097 -1.0617229 -0.70261985 -0.37401128 -0.47687745 -0.34587118 0.5241866
-1.1117612 0.30822718 -0.33462858 -0.9741444 -0.92894363 -0.1275776 -0.59601456 0.27025133
00000000: 1f2a 36bf f49d 60bf eb22 85bf 7f76 49bf
00000010: b084 f1be 108e c7bd 6d03 30bd 5884 c3be
00000020: 8926 5ebf 62b4 5ebf 6987 99be ad9c 95be
00000030: e381 b5be 6cbd 3cbf 7730 73bf 45f7 98be
00000040: 8bd8 173e f5ae b8be 01c0 0cbf be63 e7be
00000050: 6384 363e bc87 b6be a6fa bfbe 955f b5be
00000060: 7c07 77be d20a fc3e bfe5 2cbf 0421 65bf
00000070: 3a86 bdbd 6c8a 87bf 49d4 fabe 1b2c 9dbe
00000080: f985 2ebf f8c8 7bbe 201d 80be 94e2 b4bc
00000090: 9d19 78bf 712b 49bd 5f00 b33c c438 f6be
000000a0: e2b5 24bf 4e24 93be 176f dbbe 2ed5 cabe
000000b0: df10 91be 35d4 12bf 3194 6dbe 66ad 13bf
000000c0: 8e64 03bf 8d73 f9be 89e6 87bf e5de 33bf
000000d0: 687e bfbe 4829 f4be 0716 b1be 1831 063f
000000e0: 314e 8ebf f4cf 9d3e 7054 abbe 8761 79bf
000000f0: 40cf 6dbf b4a3 02be 6994 18bf 625e 8a3e

weight f4 [32, 64]
0.0093196705 -0.102521405 -0.015482869 0.07246088 -0.08628162 -0.1089963 -0.12632373 0.03128649
-0.12668166 -0.09731304 0.03204939 -0.10786716 0.08719761 -0.11143768 -0.012182218 -0.06548107
-0.042955164 0.033640873 0.04570337 -0.12336408 0.032964293 0.013498852 -0.041397177 -0.116050735
-0.024624253 0.06882045 -0.11636249 -0.12005069 -0.16836569 -0.0076257098 -0.09589483 -0.10233343
0.044032138 -0.05190134 -0.10457128 -0.016183287 -0.09511919 -0.08209845 0.019941298 0.001317623
-0.09547881 0.08351465 0.0531852 -0.13359131 0.009758356 0.00028843075 -0.13309473 -0.11028838
-0.13191001 5.6222096e-05 0.00010419743 0.02650562 -0.10845814 0.06414032 -0.034884445 -0.1452532
-0.06659464 0.016170254 -0.012842481 -0.06699805 -0.11226837 -0.15984556 0.05228547 -0.10348995
0.26193854 -0.9517041 0.35853648 -0.6137154 -0.09596607 -0.25859788 0.0675601 -0.19092298
-0.16691668 0.079082385 -0.423356 -0.022651108 0.041103117 0.29475805 -0.26961112 0.109920785
0.33286846 0.2415845 -0.3176533 0.34655353 0.14241233 -0.8017325 -0.01822616 0.091376714
0.11018681 0.1698903 0.022726377 0.014315349 -0.060124233 0.47594416 -0.112042926 -0.0395547
0.39911667 0.06672735 -0.18346149 -0.2574637 -0.9999851 -0.0686612 -1.9561708 -0.08152761
0.43469232 -0.0867499 -0.33723158 -0.470796 -0.17933209 0.039651543 0.15504907 -0.0774884
0.024734458 0.14049283 -1.0042666 -0.10633962 0.03435153 0.25885737 -0.16374049 -0.25885743
-0.3943763 -0.22747575 -0.1549884 0.0061518233 -0.532885 0.1314685 -0.08103688 0.08927559
0.32753393 0.09789696 -0.238618 0.3398816 0.07620748 0.0587439 0.22116543 -0.5942342
-0.18426438 -0.22584455 -0.03808707 -0.08102755 -0.09671676 -0.27483317 -0.50125223 -0.040087163
-0.32636172 -0.49501824 0.12616904 0.13126159 -0.041012473 -0.0019150826 -0.0035085103 -0.1955766
0.042350538 0.22445117 0.11148283 -0.0919989 0.018060597 0.26365003 0.23001577 0.1557459
-0.060928997 -0.05920547 0.12899691 0.41950554 0.2079339 0.15541083 -0.10018524 0.13412678
-0.5494878 0.2096058 -0.2287294 0.21592085 0.29944044 0.16851905 -0.6927865 0.36325598
0.08417463 0.21737961 0.51310617 -0.412819 -0.025614528 -0.06715933 -0.13785607 0.021034753
0.39643025 -0.14606315 0.07602751 -0.031178003 0.2532332 -0.27283064 -0.31632 -0.112729065
-0.004936469 0.1856992 0.18646537 0.24638243 -0.07196069 -0.019493213 -0.1727737 -0.47367656
-0.13529943 0.29523936 -0.097723834 0.4050404 -0.3825956 0.5660721 -0.06337017 -0.35593134
-0.050367337 -0.08111925 0.0015683143 0.06558301 -0.1355739 0.28137296 -0.3748275 -0.3866887
-0.12687556 -0.28838557 0.07073897 -0.07802391 -0.21938668 0.0348622 -0.20085192 -0.16514353
-0.6585688 0.02950234 0.13347344 -0.29320738 0.11814903 -0.43004176 -0.24008474 0.048680704
-0.4449523 -0.1796484 0.23658907 -0.06841795 0.17744711 -0.23989649 -0.50555336 0.26074162
-0.14686047 -0.1557354 0.28282675 0.026443541 -0.37541497 -0.13343455 0.00031277147 -0.42026868
-0.5772915 -0.17765646 -0.43791404 -0.10254515 -0.10059089 -0.34421843 -0.23519623 -0.3133396
00000000: 88b1 183c bef6 d1bd dcab 7dbc 5f66 943d
00000010: 6bb4 b0bd 7439 dfbd 025b 01be 4326 003d
00000020: d6b8 01be 0f4c c7bd 3946 033d 75e9 dcbd
00000030: a994 b23d 7039 e4bd ed97 47bc f01a 86bd
00000040: c1f1 2fbd 03cb 093d 7533 3b3d 4fa6 fcbd
00000050: 9105 073d 4a2a 5d3c 1690 29bd 02ac edbd
00000060: cdb8 c9bc bcf1 8c3d 754f eebd 23dd f5bd
00000070: 0e68 2cbe 17e1 f9bb 8264 c4bd 3094 d1bd
00000080: 0b5b 343d 8096 54bd 7829 d6bd d092 84bc
00000090: dacd c2bd 3b23 a8bd ef5b a33c 17b4 ac3a
000000a0: 658a c3bd bb09 ab3d b9d8 593d 29cc 08be
000000b0: 83e1 1f3c 8538 9739 fc49 08be e0de e1bd
000000c0: 6b13 07be 04d0 6b38 9284 da38 5022 d93c
000000d0: 4d1f debd 005c 833d fee2 0ebd 41bd 14be
000000e0: c562 88bd 7b77 843c 4569 52bc 4636 89bd
000000f0: f6ec e5bd 8eae 23be 4a29 563d 8af2 d3bd
00000100: cf1c 863e e1a2 73bf 1892 b73e 741c 1dbf
00000110: dc89 c4bd f166 84be f35c 8a3d 5081 43be
00000120: 35ec 2abe f2f5 a13d 1ec2 d8be d18e b9bc
00000130: be5b 283d 87ea 963e 780a 8abe 261e e13d
00000140: bc6d aa3e ed61 773e 74a3 a2be 776f b13e
00000150: 8ad4 113e 573e 4dbf 074f 95bc b723 bb3d
00000160: 9fa9 e13d b9f7 2d3e ab2c ba3c ed8a 6a3c
00000170: d444 76bd f4ae f33e c376 e5bd 1c04 22bd
00000180: 0559 cc3e 59a8 883d 54dd 3bbe 48d2 83be
00000190: 06ff 7fbf 3e9e 8cbd ce63 fabf f3f7 a6bd
000001a0: fe8f de3e eea9 b1bd 9ea9 acbe 2c0c f1be
000001b0: d5a2 37be a869 223d 2fc5 1e3e 3db2 9ebd
000001c0: eb9f ca3c 5add 0f3e cf8b 80bf 96c8 d9bd
000001d0: 31b4 0c3d f488 843e 96ab 27be f688 84be
000001e0: b1eb c9be 67ef 68be 47b5 1ebe 3c95 c93b
000001f0: 276b 08bf ae9f 063e aaf6 a5bd 1fd6 b63d
00000200: 87b2 a73e 347e c83d 4758 74be f604 ae3e
00000210: ab12 9c3d 729d 703d 3179 623e bc1f 18bf
00000220: cdaf 3cbe cb43 67be 3001 1cbd c6f1 a5bd
00000230: 7013 c6bd efb6 8cbe 1152 00bf 7032 24bd
00000240: e218 a7be 0873 fdbe 7532 013e 7069 063e
00000250: b2fc 27bd 8203 fbba 09ef 65bb 3b45 48be
00000260: c277 2d3d 87d6 653e 1c51 e43d eb69 bcbd
00000270: d1f3 933c 23fd 863e 4189 6b3e da7b 1f3e
00000280: af90 79bd 6f81 72bd c417 043e 6ec9 d63e
00000290: a0ec 543e 0424 1f3e eb2d cdbd 8858 093e
000002a0: 3cab 0cbf e7a2 563e 0a38 6abe 5b1a 5d3e
000002b0: 4250 993e 4290 2c3e 755a 31bf b0fc b93e
000002c0: c063 ac3d c398 5e3e ed5a 033f 035d d3be
000002d0: 8fd5 d1bc d58a 89bd 242a 0dbe 1351 ac3c
000002e0: e8f8 ca3e 9491 15be 50b4 9b3d 0369 ffbc
000002f0: c8a7 813e 75b0 8bbe b2f4 a1be 7fde e6bd
00000300: 1ac2 a1bb ee27 3e3e c7f0 3e3e ad4b 7c3e
00000310: 2060 93bd 3bb0 9fbc 97eb 30be bc85 f2be
00000320: ef8b 0abe 9d29 973e 6f23 c8bd 7561 cf3e
00000330: 92e3 c3be 1aea 103f 38c8 81bd a23c b6be
00000340: fb4d 4ebd d921 a6bd e58f cd3a 6350 863d
00000350: e2d3 0abe 1e10 903e 64e9 bfbe 10fc c5be
00000360: abeb 01be 46a7 93be 98df 903d 00cb 9fbd
00000370: e7a6 60be abcb 0e3d 20ac 4dbe 631b 29be
00000380: f797 28bf e4ae f13c 43ad 083e 471f 96be
00000390: 1ef8 f13d 6f2e dcbe c6d8 75be 6b65 473d
000003a0: cad0 e3be c0f5 37be 6844 723e b61e 8cbd
000003b0: b2b4 353e 6da7 75be f26b 01bf ed7f 853e
000003c0: 9762 16be 1a79 1fbe abce 903e 20a0 d83c
000003d0: 6436 c0be 11a3 08be 7afb a339 752d d7be
000003e0: 60c9 13bf 93eb 35be 4536 e0be 3103 d2bd
000003f0: 9902 cebd 663d b0be 48d7 70be 0c6e a0be

bias f4 [32]
-0.04567221 0.022612516 -0.15148368 0.057134826 0.12741369 0.6761028 -0.21916236 0.14342692
0.73229426 0.16639823 -0.08023275 -0.15681471 0.6072983 -0.04361834 0.09152089 -0.22719349
-0.18791504 0.5294762 -0.38792852 0.26055783 -0.1968827 0.57074517 0.3017206 -0.060080193
0.42040828 -0.031347442 0.15789741 0.29512563 0.5952316 0.35643604 0.30642152 0.0771661
00000000: c912 3bbd e23d b93c 8a1e 1bbe 3506 6a3d
00000010: bc78 023e 1315 2d3f 196c 60be 82de 123e
00000020: a377 3b3f 4c64 2a3e 1151 a4bd 0994 20be
00000030: e777 1b3f 25a9 32bd 4e6f bb3d 69a5 68be
00000040: cd6c 40be c18b 073f 919e c6be d667 853e
00000050: 9e9b 49be 5b1c 123f 1f7b 9a3e a616 76bd
00000060: c13f d73e 2d66 00bd dcaf 213e b51a 973e
00000070: 1961 183f c97e b63e 48e3 9c3e 4309 9e3d

weight f4 [8, 32]
0.123707436 0.2206526 0.16093543 -1.1060839 0.025287297 -0.26842532 0.21866104 -0.2851468
0.067607366 -0.07762856 -0.0781247 0.043571047 -0.2469595 -0.101315 0.20129083 0.16103911
-0.03661892 0.06689648 0.11910926 0.120146446 -0.0687244 -0.050572 -0.38342255 -0.13955356
0.2611459 -0.19040501 0.28145567 -0.17524612 -0.08018526 -0.25216493 -0.027321262 -0.23302972
0.09273227 0.32465276 0.13673446 -0.55671203 -0.02485265 -0.2555167 0.06653427 -0.39780158
-0.094713196 0.025003392 -0.040291436 0.12873611 -0.031146877 0.04243745 0.07837781 0.005871824
-0.13191108 -0.13289982 0.22725706 -0.15596126 0.13509129 -0.034300625 -0.50288415 0.123667
0.3667348 0.0018141752 0.07756226 -0.26832753 0.001000228 0.08053983 -0.020806393 -0.2174741
-0.095702074 0.22965565 -0.11528914 -1.0096064 -0.51544136 0.27978772 -0.003377561 0.07787153
-0.32938924 -0.23196721 -0.13078348 -0.027483804 -0.64788 0.040498614 -0.048524026 -0.08313149
-0.26752374 -0.16166209 -0.036880065 0.0587767 -0.024448333 -0.040782142 0.18208277 0.100150734
-0.29165268 0.10532751 -1.1691403 0.07966634 -0.8311796 -0.32859933 -0.65531355 0.018884316
0.046578083 -0.5509415 -0.53729975 -1.3416755 -0.5639478 0.2102921 -0.32388964 0.14384691
0.056659594 -0.26138324 -0.17836645 0.12769315 -0.057724476 0.09152039 -0.1782507 -0.12839323
-0.03315257 0.09145393 -0.6072153 -0.16900524 -0.48350298 -0.11830479 0.20716447 -0.19184458
0.28388363 0.065426536 -0.28917488 0.11339048 -1.1772527 0.30618188 0.032807495 0.017872365
-0.0410069 0.175854 0.10489601 -0.06266369 -0.05747863 0.11134923 -0.1411701 -0.392916
-0.30567703 0.0706746 0.04200309 -0.12948039 -0.11546169 -0.13436934 -0.014561496 -0.13623591
-0.060140308 -0.3951808 0.13098425 0.3464363 0.15844856 -0.1067672 0.61590374 -0.17018312
-0.089876756 0.049638033 -0.06597721 0.0049986457 0.06328641 -0.3748328 -0.3759455 0.36352777
-0.130688 -0.15402007 0.039122153 0.054361664 0.2037629 -0.25640187 0.023505548 0.13788034
-0.030207284 0.07667205 -0.16976246 -0.118434116 0.111387454 -0.18957917 -0.03910411 -0.13590696
-0.24003148 0.08822878 -0.021407655 -0.004897979 -0.08869851 -0.15774155 -0.20393191 -0.10920676
-0.7181934 0.02679156 -0.4192082 -0.084059656 -0.029357366 -0.23067626 -0.18062107 0.17031007
-0.08797162 -0.68049705 -0.013029751 -0.9485054 0.008784581 -0.06982582 -0.18724352 -0.0047254534
0.28286216 0.1438001 -0.065413184 0.11387246 0.06952162 -0.18948871 -0.13209827 -0.30359456
-0.123276934 -0.063856535 -0.42383265 0.34037107 0.062308885 -0.23184747 -0.4288805 -0.21601366
0.18197985 -0.015834955 -0.13396107 0.30387342 0.06459545 0.093368486 0.12323735 -0.17175955
-0.11866953 -0.6666921 -0.23099878 0.3645338 0.005580471 0.01549989 -0.22630665 -0.040550455
0.123018526 -0.58022904 -0.25616217 -0.124443315 0.10932684 -0.039605938 -0.34207714 0.048556536
0.007994703 0.25333542 -1.055568 0.10620768 -0.11565826 0.02232684 -0.3405999 -0.2256184
0.37342668 -0.059842035 0.1743417 0.037198376 0.10731172 0.1996735 0.09466546 -0.164246
00000000: 535a fd3d c1f2 613e 42cc 243e 2894 8dbf
00000010: 4e27 cf3c 0b6f 89be aee8 5f3e c3fe 91be
00000020: bb75 8a3d b9fb 9ebd d8ff 9fbd 8e77 323d
00000030: f3e2 7cbe 3d7e cfbd 2f1f 4e3e 70e7 243e
00000040: b8fd 15bd 0601 893d 8eef f33d 570f f63d
00000050: 61bf 8cbd 9624 4fbd f64f c4be 21e7 0ebe
00000060: eab4 853e 88f9 42be f51a 903e b873 33be
00000070: 2b38 a4bd c31b 81be d7d0 dfbc 589f 6ebe
00000080: 6bea bd3d e338 a63e 1e04 0c3e ae84 0ebf
00000090: c997 cbbc 16d3 82be 1f43 883d a6ac cbbe
000000a0: fef8 c1bd ead3 cc3c a208 25bd 66d3 033e
000000b0: bc27 ffbc e4d2 2d3d 8c84 a03d 6e68 c03b
000000c0: b313 07be e416 08be 13b6 683e 4fb4 1fbe
000000d0: 5f55 0a3e d07e 0cbd 04bd 00bf 2045 fd3d
000000e0: aac4 bb3e 9ec9 ed3a f6d8 9e3d 3a62 89be
000000f0: 151a 833a 11f2 a43d 2b72 aabc 88b1 5ebe
00000100: 73ff c3bd da2a 6b3e b61c ecbd c83a 81bf
00000110: f7f3 03bf 5640 8f3e 125a 5dbb 1c7b 9f3d
00000120: b5a5 a8be d088 6dbe 1bec 05be b725 e1bc
00000130: 77db 25bf e0e1 253d 21c1 46bd d840 aabd
00000140: dff8 88be bf8a 25be 8d0f 17bd d6bf 703d
00000150: df47 c8bc 2d0b 27bd e873 3a3e d41b cd3d
00000160: 8053 95be f3b5 d73d 64a6 95bf 1b28 a33d
00000170: 30c8 54bf 2c3e a8be a1c2 27bf 48b3 9a3c
00000180: a9c8 3e3d 810a 0dbf 7a8c 09bf 06bc abbf
00000190: e25e 10bf d056 573e ddd4 a5be 9b4c 133e
000001a0: e413 683d 06d4 85be b2a5 36be fec1 023e
000001b0: 8070 6cbd 0b6f bb3d 5a87 36be 8479 03be
000001c0: fdca 07bd 334c bb3d 7672 1bbf b60f 2dbe
000001d0: b48d f7be c849 f2bd ec22 543e e872 44be
000001e0: 3259 913e 59fe 853d bb0e 94be 4539 e83d
000001f0: 37b0 96bf dfc3 9c3e 2761 063d 1169 923c
00000200: daf6 27bd 1213 343e b8d3 d63d d255 80bd
00000210: b66e 6bbd 110b e43d e58e 10be 492c c9be
00000220: b381 9cbe d8bd 903d 6f0b 2c3d 8296 04be
00000230: 2e77 ecbd 1e98 09be 5793 6ebc 6d81 0bbe
00000240: af55 76bd 2355 cabe bc20 063e 1960 b13e
00000250: 5740 223e c3a8 dabd deab 1d3f 7c44 2ebe
00000260: 4e11 b8bd 4051 4b3d 0f1f 87bd aecb a33b
00000270: 4e9c 813d 16ea bfbe ee7b c0be 5020 ba3e
00000280: 13d3 05be 70b7 1dbe 8d3e 203d 56aa 5e3d
00000290: 39a7 503e 1b47 83be b58e c03c 8130 0d3e
000002a0: 4475 f7bc 3c06 9d3d 36d6 2dbe 968d f2bd
000002b0: 1b1f e43d 0b21 42be a22b 20bd 322b 0bbe
000002c0: d0ca 75be 4ab1 b43d 1b5f afbc 3a7f a0bb
000002d0: 90a7 b5bd 0087 21be 87d3 50be cba7 dfbd
000002e0: 86db 37bf f979 db3c 75a2 d6be 7827 acbd
000002f0: dc7e f0bc 6636 6cbe bbf4 38be c365 2e3e
00000300: 772a b4bd 0e35 2ebf bd7a 55bc 40d1 72bf
00000310: 34ed 0f3c d700 8fbd c4bc 3fbe fad7 9abb
00000320: 4fd3 903e 5540 133e 59f7 85bd f735 e93d
00000330: 5a61 8e3d 5409 42be c544 07be bf70 9bbe
00000340: 9e78 fcbd 37c7 82bd 9800 d9be 1e45 ae3e
00000350: 9a37 7f3d 6c69 6dbe 3a96 dbbe af32 5dbe
00000360: ed58 3a3e 4fb8 81bc 172d 09be 4c95 9b3e
00000370: 9f4a 843d fa37 bf3d dd63 fc3d bce1 2fbe
00000380: 0309 f3bd 55ac 2abf f28a 6cbe 2da4 ba3e
00000390: 62dc b63b 40f3 7d3c eebc 67be 3c18 26bd
000003a0: 23f1 fb3d e489 14bf b027 83be 23dc febd
000003b0: c0e6 df3d d639 22bd bc24 afbe 38e3 463d
000003c0: 37fc 023c 2eb5 813e da1c 87bf 6a83 d93d
000003d0: 3dde ecbd c7e6 b63c 1c63 aebe 8308 67be
000003e0: c831 bf3e ec1c 75bd a186 323e 535d 183d
000003f0: 3fc6 db3d 3677 4c3e f7df c13d 1a30 28be

bias f4 [8]
-0.36377427 0.018172337 -0.21999232 -0.058279514 -0.08840556 0.3472386 -0.06697293 0.07446502
00000000: 9f40 babe 27de 943c ab45 61be 80b6 6ebd
00000010: f90d b5bd 42c9 b13e 1b29 89bd 1e81 983d
