runthroughs/good_early_high_late_same/baseline_model_save.pth (torch, 16000 bytes, 6 tensors)

weight f4 [64, 10]
0	0x3bb0236e	0.0053753173
1	0x3c509205	0.012730126
2	0xbede3468	-0.43399358
3	0xbe894f69	-0.26818398
4	0xbeb2bc70	-0.3490939
5	0xbebc0997	-0.36726066
6	0x3ca832a6	0.020531964
7	0xbdf298f4	-0.1184558
8	0x3d34b872	0.044121213
9	0x3d3b7717	0.04576787
10	0xbeb69537	-0.35660717
11	0xbe870d71	-0.26377442
12	0x3cc27b2a	0.02374037
13	0x3d98702f	0.07443272
14	0xbcf790e8	-0.030220464
15	0x3ef54870	0.47906828
16	0xbd235e1e	-0.03988468
17	0xbc42357e	-0.011853574
18	0x3f284dc2	0.6574365
19	0xbe98caf8	-0.29842353
20	0xbeaae3e8	-0.33377004
21	0xbe049777	-0.12948404
22	0xbe2ec364	-0.17066723
23	0x3e58872e	0.21145317
24	0xbecb2f4b	-0.3968452
25	0x3ce37020	0.027763426
26	0xbe0c73b1	-0.13716008
27	0xbeb46cd5	-0.35239282
28	0xbc42030e	-0.011841549
29	0x3e4cefea	0.20013395
30	0x3e23bc05	0.15989693
31	0x3e82d5c8	0.25553727
32	0x3d3aeda2	0.04563678
33	0xbe74323f	-0.23847292
34	0xba5c8988	-0.0008412828
35	0xbef96fbc	-0.4871806
36	0xbe9f54f9	-0.31119516
37	0xbe36c2a0	-0.17847681
38	0x3b86212d	0.0040933103
39	0x3d95e46a	0.07318957
40	0xbe01ebcd	-0.12687607
41	0xbdbb6c76	-0.09151547
42	0x3e9d74c5	0.3075315
43	0x3ceb6cbf	0.028738378
44	0x3ea1c1a9	0.31593063
45	0xbd0d6269	-0.03451768
46	0x3e671bda	0.22569218
47	0xbd8bde61	-0.06829525
48	0x3e0fd409	0.14045729
49	0xbe7f084b	-0.24905507
50	0x3c8a7d82	0.01690555
51	0xbe859d81	-0.26096728
52	0x3e1de0e5	0.15417822
53	0x3ec11266	0.3770935
54	0xbf48db14	-0.78459287
55	0xbd9daebd	-0.07699344
56	0x3e7bacc3	0.24577622
57	0xbd2c38bf	-0.042046305
58	0xbd93d7d0	-0.07218897
59	0x3d41a6e4	0.0472783
60	0x3a807f76	0.0009803611
61	0x3da778b8	0.08177322
62	0xbec4eb41	-0.38460734
63	0xbdb301ab	-0.087405525
64	0x3cc18994	0.023625173
65	0x3e3fbf71	0.18725373
66	0x3eb7c886	0.35895175
67	0x3f42fb86	0.76165044
68	0x3cd3dac0	0.025861144
69	0xbe8c8646	-0.27446193
70	0xbe91bf98	-0.28466487
71	0xbc9afae3	-0.01891846
72	0xbd3998a6	-0.045311593
73	0x3e114806	0.14187631
74	0x3e88e394	0.26736128
75	0xbf32ab6d	-0.69792825
76	0xbc05737c	-0.008145209
77	0xbd74ff56	-0.05981382
78	0x3e81bca1	0.25339225
79	0xbe3295c5	-0.17439945
80	0x3d6fc25a	0.058534957
81	0xbcc0fef2	-0.023559067
82	0x3e651640	0.22371769
83	0x3e22282b	0.15835635
84	0x3e0d11b2	0.13776281
85	0x3e4f2bed	0.202316
86	0xbe5bb3ad	-0.2145526
87	0xbd2e3f00	-0.04254055
88	0x3ea41b01	0.32051852
89	0x3e2c8d4a	0.16850773
90	0xbf12d1f4	-0.57351613
91	0xbef4a2b3	-0.4778038
92	0x3d5715cf	0.052511033
93	0xbe5a9c45	-0.21348675
94	0xbdf0423b	-0.117313825
95	0x3ea71f4f	0.32641074
96	0xbdbc2785	-0.09187225
97	0xbcd8e168	-0.02647467
98	0x3e1fb5cf	0.15596698
99	0x3cb70ef4	0.022345997
100	0xbe7352d3	-0.23762064
101	0xbdd78f53	-0.10525384
102	0xbe4dba7d	-0.20090671
103	0x3e50f27d	0.20405002
104	0x3dde60e3	0.108583234
105	0x3f04d60d	0.51889116
106	0x3f0ba190	0.545434
107	0xbd41068e	-0.04712539
108	0x3e7779e3	0.2416759
109	0x3dfef017	0.12448137
110	0x3daf99c9	0.08574254
111	0x3dd279ce	0.10277139
112	0x3eb48ac9	0.35262135
113	0x3daa8aae	0.08327232
114	0x3db9bda7	0.090693764
115	0x3f33299b	0.6998536
116	0xbe5bc892	-0.2146323
117	0xbd7e1cde	-0.06203925
118	0xbef92d7b	-0.4866751
119	0xbe50bb1a	-0.20383874
120	0xbeace8fa	-0.33771497
121	0xbe1cce77	-0.15313135
122	0xbecf93a5	-0.4054233
123	0x3e84837f	0.25881574
124	0xbe80fea3	-0.25194272
125	0x3d6251b5	0.055253703
126	0x3e63f9b3	0.22263221
127	0xbe0322e3	-0.12806277
128	0x3dfc0bee	0.12306963
129	0xbdd3a3be	-0.10333966
130	0x3de8e9b1	0.11372698
131	0x3ea45cdb	0.32102093
132	0x3e8101d2	0.251967
133	0x3eb0d4a1	0.34537223
134	0x3db8b7b1	0.09019411
135	0xbbd0b3f4	-0.0063691083
136	0xbef7ae7c	-0.4837531
137	0x3d92fbc5	0.071769275
138	0x3d1deec9	0.0385578
139	0xbe448d4c	-0.19194525
140	0xbe822fa3	-0.2542697
141	0xbe7ebbd7	-0.24876343
142	0xbe62bba8	-0.22141898
143	0xbe9f4327	-0.3110592
144	0xbdb38c63	-0.08767011
145	0x3ef47e59	0.47752646
146	0x3e8878cd	0.26654664
147	0xbe9b3a06	-0.30317706
148	0x3e1860e9	0.14880718
149	0xbee067ea	-0.4382928
150	0xbe6d943d	-0.2320108
151	0xbe2a6d64	-0.16643292
152	0xbed7fe76	-0.42186326
153	0xbebfeeb1	-0.37486795
154	0xbe93a696	-0.28838032
155	0xbf2f4b9b	-0.6847474
156	0xbdb0035a	-0.08594389
157	0xba7bbd60	-0.0009603109
158	0x3b3dc7ec	0.0028958274
159	0x3e4c3896	0.19943461
160	0xbe4f4fa7	-0.20245229
161	0xbe3a1a5c	-0.18174118
162	0x3e92a309	0.2864001
163	0xbe23aca8	-0.15983832
164	0x3dd95990	0.10612786
165	0xbd826f36	-0.06368868
166	0xbe55cf83	-0.2087994
167	0x3eb025af	0.3440375
168	0xbe984bcf	-0.29745337
169	0x3d478130	0.048707187
170	0x3ed6b12e	0.41932052
171	0xbdb6c758	-0.089247406
172	0xbdb909ef	-0.09035098
173	0xbd4be47b	-0.049778443
174	0xbdca2743	-0.0987077
175	0xbc333347	-0.010937518
176	0x3e01e0a6	0.12683353
177	0x3e0b4663	0.13601069
178	0xbde65564	-0.11246756
179	0x3d9249c8	0.07142979
180	0xbe55aafc	-0.20866007
181	0x3dc00186	0.093752906
182	0x3ebf8c65	0.374118
183	0x3da2969e	0.07938884
184	0xbda87b17	-0.082266025
185	0xbe2c15cf	-0.16805194
186	0xbe30f1b9	-0.1727971
187	0xbdf760c4	-0.120790035
188	0xbe46e644	-0.19423777
189	0x3e0f0867	0.13968049
190	0xbeaf213f	-0.34205052
191	0xbd2a28a4	-0.041542664
192	0x3da4c61b	0.08045598
193	0x3e8d01d9	0.27540472
194	0x3db82981	0.08992291
195	0xbedc67eb	-0.43048033
196	0xbeb38d11	-0.35068563
197	0x3e8ab665	0.2709228
198	0xbe3fc330	-0.18726802
199	0x3e156aa6	0.14591464
200	0xbb26722f	-0.0025397649
201	0xbdbf9f1e	-0.09356521
202	0xbe6a4949	-0.22879519
203	0xbe9d38a4	-0.30707276
204	0xbea52a2c	-0.32258737
205	0xbda50978	-0.08058447
206	0xbe191526	-0.14949474
207	0xbea0f7ad	-0.31438962
208	0xbf2018d3	-0.6253788
209	0xbf65c91e	-0.89760005
210	0x3ea30197	0.3183715
211	0xbf09e8d2	-0.5387088
212	0xbda4352c	-0.08017954
213	0x3e401341	0.18757345
214	0x3e508eee	0.20367023
215	0xba8b8259	-0.0010643705
216	0xbe078f6e	-0.13238308
217	0x3e41068c	0.18850154
218	0xbd33f5f5	-0.043935735
219	0xbdf58e66	-0.11990051
220	0xbd9f3877	-0.07774442
221	0xbe64261d	-0.22280164
222	0xbe390c1a	-0.18071023
223	0x3c85ba27	0.016324116
224	0xbe542865	-0.20718534
225	0x3f08608b	0.5327231
226	0x3e326d63	0.1742454
227	0xbecd64b0	-0.4011588
228	0xbe18520f	-0.14875053
229	0xbf4b11de	-0.7932414
230	0xbe516ec6	-0.20452413
231	0xbdf08701	-0.117445
232	0x3d291609	0.04128078
233	0x3e6d1fd5	0.23156674
234	0xbc8bdd9f	-0.01707345
235	0x3e30a58f	0.17250656
236	0x3e37ef6a	0.17962423
237	0xbf063e5b	-0.52438897
238	0x3e5c8783	0.21536069
239	0xbe9576e0	-0.29192257
240	0x3e05db82	0.13072017
241	0xbcb99af5	-0.022656897
242	0xbecb9994	-0.39765608
243	0x3dd9eba4	0.10640648
244	0x3ea710b4	0.3262993
245	0x3b4fc9fc	0.0031706085
246	0x3d96bd2d	0.07360301
247	0xbe8146b6	-0.2524926
248	0xbe5cd77f	-0.2156658
249	0x3e7ce7a5	0.2469774
250	0xbedb9193	-0.42884502
251	0xbe5c454f	-0.21510814
252	0xbe98543f	-0.29751775
253	0x3e53981e	0.20663497
254	0x3dc476cb	0.095929705
255	0x3f01e270	0.5073614

bias f4 [64]
0	0xbeade7e5	-0.33965984
1	0xbd65fff0	-0.056152284
2	0x3eab071c	0.33403862
3	0x3e3ed78c	0.18636912
4	0x3db0742d	0.08615909
5	0xbe3cdcd0	-0.18443608
6	0x3d2c1533	0.042012405
7	0xbee2efa3	-0.44323453
8	0x3e4d70f5	0.20062621
9	0x3dbc2b81	0.09187985
10	0xbee71f5f	-0.45141122
11	0x3e3384f2	0.17531183
12	0xbd85f80a	-0.0654145
13	0xbe3510e7	-0.17682229
14	0x3ab71e78	0.0013970872
15	0xbf164913	-0.5870525
16	0xbeb03247	-0.3441336
17	0x3d4a13a7	0.04933515
18	0xbead92ca	-0.33901054
19	0xbee6011a	-0.44922715
20	0xbec21d96	-0.37913197
21	0xbebf290a	-0.37335998
22	0xbd178bc1	-0.036998514
23	0xbda556ef	-0.08073222
24	0xbe7e449a	-0.24830857
25	0x3f06c575	0.52645046
26	0xbe146622	-0.14492086
27	0xbe903883	-0.28168115
28	0xbbaa3134	-0.0051938538
29	0x3e072b09	0.1320001
30	0x3d6009b1	0.054696742
31	0xbd1f5f65	-0.038909335
32	0x3d672791	0.056434218
33	0xbed52e13	-0.41636714
34	0xbe2aaebc	-0.16668218
35	0xbeaab842	-0.33343703
36	0xbda2f98b	-0.07957753
37	0xbe5d4f44	-0.21612269
38	0xbe7c6594	-0.24648124
39	0xbe84ef18	-0.25963664
40	0x3e439183	0.19098477
41	0xbda68769	-0.08131296
42	0x3dc7fed6	0.09765403
43	0xbf036d55	-0.513387
44	0x3e7a92db	0.24470083
45	0x3d678aa5	0.056528706
46	0xbf034b21	-0.5128651
47	0xbe8070a6	-0.25085944
48	0x3eb414dc	0.35172164
49	0xbeb8af0b	-0.36071047
50	0xbe4ac0d5	-0.19800122
51	0xbeafabbe	-0.34310716
52	0xbf55884e	-0.8341111
53	0x3dc84eb1	0.09780634
54	0xbef25a77	-0.47334644
55	0x3ddc46f3	0.1075572
56	0xbe8d77f1	-0.2763057
57	0xbed2ce79	-0.4117315
58	0xbea91140	-0.33020973
59	0x3e4da50d	0.20082493
60	0xbf057a23	-0.5213949
61	0x3cceb021	0.02523047
62	0xbead5397	-0.33852836
63	0xbf4935fd	-0.78598005

weight f4 [32, 64]
0	0xbdbbd9d8	-0.0917241
1	0xbe009ebb	-0.12560551
2	0x3e8cb4a1	0.2748156
3	0xbe0b1b42	-0.13584617
4	0x3b95409c	0.004554821
5	0x3e65e45c	0.22450393
6	0x3cc5f4fb	0.024164667
7	0x3e250996	0.16116938
8	0x3db1af45	0.08676008
9	0x3cc703f5	0.024293879
10	0xb8e877a1	-0.00011084905
11	0xbdea2bb6	-0.114341184
12	0x3db9583c	0.090500325
13	0xbe39a757	-0.18130241
14	0x3e186e64	0.1488586
15	0x3de9ee87	0.114224486
16	0x3d8e6c43	0.06954243
17	0xbd854c24	-0.06508663
18	0xbe0a633b	-0.13514416
19	0x3f0631a2	0.52419484
20	0xbeb89ef7	-0.3605878
21	0x3e4d07e1	0.20022537
22	0x3d0d7741	0.034537558
23	0x3d9c8dd4	0.07644239
24	0xbe359e86	-0.17736253
25	0x3e3045a4	0.17214066
26	0x3bd22296	0.0064128144
27	0xbe61954b	-0.22029607
28	0xbe662eab	-0.2247874
29	0x3e1065b6	0.141013
30	0x3d4ea593	0.050450873
31	0xbdeecdfc	-0.11660382
32	0x3df548d3	0.11976781
33	0x3cd60322	0.02612454
34	0x3e9e2ca1	0.30893424
35	0xbda7b738	-0.08189243
36	0x3d8a6ade	0.067586645
37	0xbd66705b	-0.056259494
38	0x3d814eb7	0.06313842
39	0xbe272760	-0.16323614
40	0x3dfcb692	0.1233951
41	0x3d8376d9	0.06419153
42	0x3e14cc93	0.14531164
43	0x3df0269a	0.11726113
44	0x3ce08ace	0.027409937
45	0x3da95f37	0.08270114
46	0x3d6c7b42	0.057734735
47	0xbc862138	-0.016373262
48	0xbcc5c189	-0.024140136
49	0x3de48bd8	0.111594856
50	0x3d29661e	0.041357152
51	0xbd3b4880	-0.04572344
52	0x3e09bd5d	0.13451143
53	0xbd234d72	-0.03986878
54	0xbdc2d9a4	-0.09514168
55	0x3df8d8bc	0.12150714
56	0xbe124591	-0.1428435
57	0x3b45574f	0.0030111854
58	0xbdfab26c	-0.122410625
59	0xbd34e609	-0.04416469
60	0xbbac9ba9	-0.0052675796
61	0xbd869d8b	-0.06573018
62	0x3d8810d0	0.06643832
63	0x3e804073	0.2504917
64	0x3df12c9b	0.11776086
65	0xbe292485	-0.16517837
66	0x3e26da0d	0.16294117
67	0x3c679480	0.014134526
68	0x3de080ef	0.10962092
69	0x3ec014f5	0.3751599
70	0x3ddbe4ae	0.107369766
71	0xbbddfae1	-0.006774292
72	0xbe119bc0	-0.1421957
73	0xbe5bdb79	-0.21470441
74	0xbe5b02b5	-0.21387751
75	0xbf7b8efe	-0.98265064
76	0xbd53cadf	-0.051707145
77	0xbde63e17	-0.112423114
78	0x3d5a9ee5	0.05337419
79	0x3e072d8e	0.13200971
80	0x3d8e5e1d	0.069515444
81	0xbc841552	-0.016123448
82	0x3a983d55	0.0011614958
83	0x3e870098	0.2636764
84	0xbf031622	-0.51205647
85	0x3dbce507	0.09223371
86	0xbe476ba3	-0.19474654
87	0x3e10ffaf	0.14160036
88	0x3db58ca4	0.08864716
89	0xbe39a276	-0.1812838
90	0x3e3e4884	0.1858235
91	0xbe80df52	-0.2517038
92	0x3df36d09	0.11886031
93	0x3df0024c	0.11719188
94	0x3e6b7043	0.22992043
95	0x3d910adc	0.070821494
96	0x3e13380f	0.14376853
97	0xbe6b9f27	-0.2300993
98	0x3d3647f8	0.04450223
99	0xbccf79f5	-0.025326708
100	0x3d092139	0.03347895
101	0xbfd4455f	-1.658367
102	0x3d5cb4ec	0.053883478
103	0xbe16241c	-0.14662212
104	0x3caae520	0.020861208
105	0xbd004df7	-0.031324353
106	0xbb3cfff0	-0.0028839074
107	0x3e3b5b57	0.18296562
108	0x3e5b0e3e	0.21392152
109	0x3e2e09d6	0.1699594
110	0xbd9bac04	-0.07601169
111	0x3e057e55	0.13036473
112	0x3e97a530	0.29618216
113	0x3d527f43	0.051390897
114	0x3dd93003	0.10604861
115	0x3e8a8335	0.27053228
116	0x3e56ffbf	0.20995997
117	0x3e443c44	0.19163615
118	0xbd7bcb8f	-0.061473425
119	0x3e4bcbaf	0.19901918
120	0x3d70de91	0.058806006
121	0xbd2074e2	-0.039173968
122	0xbe3a98b0	-0.18222308
123	0x3e0ccf1d	0.13750882
124	0x3e8aec07	0.271332
125	0x3da77d64	0.08178213
126	0xbe749d7c	-0.238882
127	0x3d1165cc	0.03549747
128	0x3d1bc914	0.03803356
129	0x3d455715	0.04817875
130	0x3d90b17b	0.07065102
131	0x3dd8258d	0.10554037
132	0x3e0def26	0.13860759
133	0x3e54de66	0.20787963
134	0x3e5dd5d4	0.216636
135	0x3ce72aab	0.028218588
136	0xbd92f4f8	-0.0717563
137	0x3e632f32	0.22185972
138	0xbdd1b070	-0.10238731
139	0x3dcdca7f	0.10048389
140	0xbc684772	-0.01417719
141	0xbeabfe2f	-0.33592364
142	0x3df5f8ec	0.12010369
143	0x3d0c1925	0.034203667
144	0x3d82839e	0.0637276
145	0x3dd8f988	0.10594469
146	0xbb0d45e5	-0.0021556553
147	0x3c6236fa	0.013807053
148	0x3e448ff5	0.1919554
149	0x3ec4c973	0.38434944
150	0x3df07a15	0.11742035
151	0x3de75467	0.11295395
152	0x3e252358	0.16126764
153	0x3d69d85a	0.057091095
154	0xbdcdcf24	-0.100492746
155	0xbe13d2ad	-0.14435835
156	0xbea70de9	-0.326278
157	0x3e1feeb5	0.15618403
158	0xbbe33d44	-0.0069347937
159	0xbe24d8f4	-0.16098386
160	0xbe20d607	-0.15706645
161	0xbd91e2a1	-0.07123304
162	0xbdeca83e	-0.11555527
163	0xbdf50638	-0.11964077
164	0xbd64ac86	-0.055828594
165	0x3d12f914	0.03588207
166	0xbedaf841	-0.42767528
167	0x3e97e04e	0.29663318
168	0xbde2dbff	-0.11077117
169	0x3e49aac1	0.19694044
170	0x3c95bfa6	0.018279862
171	0x3dcaa9a4	0.09895638
172	0x3db01728	0.08598167
173	0xbdeb8208	-0.11499411
174	0x3c0db880	0.008649945
175	0xbdd94e08	-0.106105864
176	0x3ba2c859	0.004967731
177	0x3cdab206	0.026696216
178	0x3dcefbba	0.10106607
179	0x3ce352b5	0.027749399
180	0x3ce77c88	0.028257623
181	0x3dad66f6	0.08466904
182	0xbdeb5721	-0.11491228
183	0x3db0b83b	0.08628889
184	0xbe3495f9	-0.17635335
185	0xbe822a8d	-0.2542309
186	0xbc2fbe5b	-0.010726537
187	0xbc1af02c	-0.0094566755
188	0x3ec3c059	0.38232687
189	0xbc3361d8	-0.010948621
190	0x3ec2d171	0.38050416
191	0xbc82875a	-0.015933681
192	0x3d027f40	0.031859636
193	0xbd032a2a	-0.032022633
194	0xbe0a9a82	-0.13535503
195	0xbdc959f6	-0.09831612
196	0xbd2457db	-0.040122848
197	0xbddc3585	-0.107523955
198	0x3d6d1f08	0.05789092
199	0x3d0a3497	0.03374156
200	0xbc9a1cdd	-0.018812591
201	0x3d1c70fc	0.038193688
202	0x3d875229	0.06607468
203	0x3d37c918	0.044869512
204	0xbdeefca6	-0.116692826
205	0xbdc1df18	-0.0946638
206	0x3d34546f	0.044025835
207	0xbce87d87	-0.028380169
208	0x3d79b2b8	0.060961455
209	0xbe34adcf	-0.17644428
210	0xbe0da728	-0.13833296
211	0x3d770537	0.060307708
212	0x3d96d454	0.07364717
213	0xbdfb2508	-0.122629225
214	0x3d004f0c	0.031325385
215	0xbddeb19f	-0.10873722
216	0x3d4711ed	0.04860108
217	0x3ca2b156	0.019859951
218	0x3d97dc6e	0.074150905
219	0xbe2d72fb	-0.16938393
220	0xbe179e52	-0.14806488
221	0x3cfac199	0.030609893
222	0x3d697a84	0.057001606
223	0x3c883d45	0.016630778
224	0x3cdc5c9e	0.026899632
225	0xbdf94792	-0.12171854
226	0x3db0cccb	0.08632811
227	0xbe001711	-0.12508799
228	0xbc920359	-0.017823862
229	0xbe1128e6	-0.14175758
230	0xbd993f8b	-0.07482823
231	0xbcfbc8b1	-0.030735346
232	0xbd5eb465	-0.054371256
233	0xbcdb7531	-0.02678928
234	0xbdfd57e1	-0.12370277
235	0xbe09ef36	-0.13470158
236	0x3bfad180	0.007654369
237	0xbd79d4da	-0.060994007
238	0xbde8e113	-0.113710545
239	0xbd92db63	-0.07170751
240	0xbe0c4257	-0.13697182
241	0xbe156d35	-0.1459244
242	0x3d89951a	0.06717892
243	0x3cb4ea6f	0.022084443
244	0x3b5a917b	0.0033350873
245	0xbde713c8	-0.1128307
246	0x3cc47800	0.023983002
247	0xbc861a45	-0.016369948
248	0xbdaaa948	-0.08333069
249	0xbcb84c43	-0.022497302
250	0x3d831816	0.064010784
251	0xbe13556f	-0.14388059
252	0xbe27933f	-0.16364764
253	0xbd276aca	-0.040873326
254	0x3dc0c612	0.09412779
255	0xbda208c1	-0.07911826

bias f4 [32]
0	0x3e656466	0.2240158
1	0x3e761a8b	0.24033563
2	0x3e0515a1	0.12996532
3	0xbe17b5f6	-0.14815506
4	0x3ea17e06	0.3154146
5	0x3e165ab3	0.14683037
6	0x3cf7d40f	0.030252485
7	0x3cd3b2b1	0.025842043
8	0xbd0c2948	-0.034219056
9	0x3d3f97c9	0.046775613
10	0x3cb655d9	0.022257732
11	0xbe05152b	-0.12996356
12	0x3debab94	0.11507335
13	0x3e73a648	0.237939
14	0x3e8429fb	0.2581328
15	0x3eb035f1	0.34416154
16	0x3dc1e2ab	0.094670616
17	0xbe5da9dd	-0.21646829
18	0xbdbc9e0c	-0.092098325
19	0x3da071a5	0.07834176
20	0x3e1406f9	0.14455785
21	0xbaca611e	-0.001544032
22	0xbe1434bc	-0.14473242
23	0x3dfc783f	0.123276226
24	0xbc865a46	-0.016400468
25	0xbd0161f9	-0.031587575
26	0x3e025d99	0.12731017
27	0x3e3e543f	0.18586825
28	0xbde44035	-0.11145059
29	0x3c9e9021	0.019355835
30	0xbd4fe2d5	-0.050753433
31	0xbdb76501	-0.08954812

weight f4 [8, 32]
0	0xbe322265	-0.17395933
1	0xbe42f06c	-0.19037026
2	0xbd28c9c3	-0.04120804
3	0x3e06923a	0.13141719
4	0xbe2d935b	-0.16950743
5	0x3e26c988	0.16287816
6	0x3e8b2e30	0.27183676
7	0x3bca5ed5	0.0061758556
8	0x3cb1c833	0.021701908
9	0x3cc7cc74	0.024389483
10	0x3e4b94cd	0.19880982
11	0x3ec31870	0.38104582
12	0xbe691492	-0.22761753
13	0x3e05fcc6	0.13084707
14	0x3dea3736	0.11436312
15	0x3dd1b985	0.10240463
16	0x3ddab0ec	0.106782764
17	0x3e412ec5	0.18865497
18	0x3d8f3df6	0.0699424
19	0x3e2f80c7	0.17138968
20	0xbe275bdf	-0.1634364
21	0x3e4b8691	0.19875552
22	0xbe63bac9	-0.22239222
23	0xbdd9ef6f	-0.106413715
24	0xbea61e27	-0.3244488
25	0xbe99afcf	-0.30016944
26	0xbe90c5b9	-0.2827585
27	0xbe7101e0	-0.23535872
28	0xbe07bedf	-0.13256405
29	0x3dad1a7f	0.08452319
30	0x3de28422	0.110603586
31	0x3ea02b0c	0.31282842
32	0x3c3b7b81	0.01144302
33	0xbdce5e24	-0.1007655
34	0xbe730431	-0.23732068
35	0xbdabca27	-0.08388167
36	0x3c3abb1b	0.0113971485
37	0xbc2e1ed2	-0.010627465
38	0x3d539bc0	0.051662207
39	0xbc9a2087	-0.018814338
40	0xbbe3578b	-0.006937926
41	0x3e7a95d1	0.24471213
42	0x3d85c6dd	0.06532071
43	0x3e93966f	0.2882571
44	0xbdad0f4f	-0.084501855
45	0x3d96860a	0.07349785
46	0x3e1c8a0a	0.15287033
47	0xbc6b9e1f	-0.014380961
48	0x3c704153	0.014664012
49	0x3dae8706	0.085218474
50	0xbf1b7e26	-0.6073936
51	0x3d407fd0	0.04699689
52	0xbdc5c18b	-0.09656056
53	0x3e1f1c87	0.15538226
54	0xbecdfa6a	-0.40230113
55	0x3e43d881	0.19125558
56	0xbe0f2ac6	-0.1398116
57	0xbe30064e	-0.17189905
58	0xbe84b2d8	-0.25917697
59	0xbe1cdc69	-0.15318455
60	0xbe25f8a6	-0.16208133
61	0x3d9baf73	0.07601824
62	0x3d7740b4	0.06036444
63	0x3dedfd7d	0.11620615
64	0xbe0d6bd8	-0.1381067
65	0xbeee80c0	-0.46582603
66	0x3d5a9bb9	0.053371165
67	0x3de1e074	0.11029139
68	0xbea6f104	-0.32605755
69	0xbe6d9491	-0.23201205
70	0xbecad8e0	-0.39618587
71	0xbd19612f	-0.037446197
72	0x3e523427	0.20527707
73	0xbdce2af5	-0.10066787
74	0xbc73e18f	-0.01488532
75	0xbc6dd0a6	-0.014515078
76	0xbdce3dd8	-0.100703895
77	0x3d4996b0	0.049215972
78	0xbe879e9d	-0.264882
79	0xbe5cf7a5	-0.21578844
80	0xbf139500	-0.5764923
81	0x3e1af5bb	0.15132801
82	0xbe024810	-0.12722802
83	0xbea7511e	-0.32679075
84	0xbf007b9f	-0.5018863
85	0xbd8abdf3	-0.06774511
86	0x3ecb9090	0.3975873
87	0xbebdcc8b	-0.37070116
88	0x3e0769bd	0.1322393
89	0x3e04c064	0.12964016
90	0x3eee6e94	0.4656874
91	0x3f126045	0.57178146
92	0x3c250ae7	0.0100734
93	0x3dcf26f3	0.10114851
94	0xbd8252c7	-0.06363445
95	0xbe46db81	-0.19419672
96	0x3e414663	0.18874507
97	0xbee7806c	-0.45215166
98	0xbc8b59bf	-0.017010568
99	0x3dbd0429	0.09229309
100	0xbe2821fb	-0.16419213
101	0x3d2bf591	0.041982237
102	0x3e3ac7be	0.18240258
103	0x3d5ade2e	0.053434543
104	0xbe67b7a6	-0.2262865
105	0xbe922942	-0.28547102
106	0x3e5453ac	0.20735043
107	0xbf7cde0d	-0.9877632
108	0x3debd15d	0.11514542
109	0xbdf76704	-0.120801955
110	0x3d02c444	0.031925455
111	0x3cf973b3	0.030450677
112	0xbf210bc6	-0.6290859
113	0xbd6e9907	-0.058251407
114	0x3dff2db6	0.124598905
115	0xbee63ee9	-0.44969872
116	0xbe1ca8c4	-0.15298754
117	0xbe828540	-0.25492287
118	0xbe61751e	-0.22017333
119	0xbec9a3fe	-0.3938293
120	0x3d79cfd2	0.06098921
121	0xbe49bccf	-0.19700931
122	0x3e6cd708	0.23128903
123	0x3ea6bb94	0.32564986
124	0xbe8f220a	-0.27955657
125	0xbd04b49a	-0.032398798
126	0xbe8de41c	-0.27713096
127	0xbd95f6a9	-0.07322437
128	0x3e6e4039	0.23266686
129	0xbe81215d	-0.25220767
130	0x3e552801	0.20816042
131	0xbda5bd46	-0.08092742
132	0xbe0603ef	-0.13087438
133	0xbe955bbf	-0.2917156
134	0xbe8fdab2	-0.2809654
135	0x3da5a9a8	0.08089
136	0x3ed0d776	0.40789384
137	0x3d8b2b7c	0.06795403
138	0xbe1ab774	-0.15109044
139	0xbd7b5738	-0.061362475
140	0x3dc52c86	0.09627633
141	0xbe100765	-0.14065321
142	0xbee9b1ca	-0.45643455
143	0xbe16102c	-0.14654607
144	0x3d9fd04d	0.07803402
145	0x3dac30b8	0.0840773
146	0xbef3833b	-0.47561058
147	0x3d16613c	0.036713824
148	0xbed121c3	-0.4084607
149	0x3d92c35f	0.0716617
150	0xbe985c68	-0.29758
151	0x3dc7bfec	0.09753403
152	0xbe94c728	-0.29058194
153	0xbe953898	-0.2914474
154	0x3e6a93ad	0.22907896
155	0x3e9fe4a3	0.31229123
156	0xbe46fcb9	-0.19432344
157	0x3e6dda7f	0.23227881
158	0xbcde86e6	-0.027163934
159	0xbe8b96b2	-0.2726341
160	0x3d025b17	0.03182515
161	0xbe79ceb5	-0.24395259
162	0x3daf1080	0.08548069
163	0x3daacbcb	0.08339652
164	0x3dae7381	0.08518124
165	0xbe60be8f	-0.21947692
166	0xbe880fc6	-0.26574534
167	0xbdf22e52	-0.11825241
168	0xbe267f82	-0.16259578
169	0x3d488317	0.048953142
170	0xbe06faf3	-0.13181667
171	0xbeafa162	-0.34302813
172	0x3e280899	0.1640953
173	0x3f0137e9	0.5047594
174	0x3dd9ea5e	0.10640405
175	0xbe382adb	-0.17985098
176	0x3eac7205	0.3368074
177	0x3c5d79c3	0.0135178
178	0x3e44b3a3	0.19209151
179	0x3e4fa197	0.20276485
180	0x3cfe323e	0.031029817
181	0xbd9fd0f2	-0.07803525
182	0xbe2e8259	-0.17041911
183	0x3cf525c3	0.029925233
184	0x3ecae493	0.39627513
185	0xbced14e4	-0.028940625
186	0x3d65f53c	0.056142077
187	0x3e7f5c29	0.249375
188	0x3cf506a4	0.029910393
189	0x3e3f0d5d	0.18657441
190	0xbcfb3a7f	-0.030667542
191	0xbe42a89d	-0.19009633
192	0xbddf01ee	-0.1088904
193	0x3e1d13ae	0.15339538
194	0x3d64cad6	0.055857502
195	0xbd923639	-0.071392484
196	0x3dbd7a86	0.09251885
197	0x3eaf61ce	0.34254307
198	0x3e7e0406	0.24806222
199	0xbd811151	-0.06302131
200	0x3d1eec2a	0.038799442
201	0xbe5766c2	-0.21035293
202	0x3e15018b	0.1455137
203	0xbf6896e2	-0.9085523
204	0x3e891a19	0.26777723
205	0xbe86484f	-0.26227042
206	0x3dab786f	0.0837258
207	0xbe47c181	-0.1950741
208	0xbc9dfdf5	-0.019286135
209	0xbe8b3379	-0.27187708
210	0x3e3660bc	0.17810339
211	0x3d726ae2	0.059183963
212	0x3e7ecf1c	0.24883693
213	0xbd62aa74	-0.055338338
214	0x3ea311d8	0.3184955
215	0x3d9e48c0	0.0772872
216	0x3e78f556	0.24312338
217	0xbc6067db	-0.013696636
218	0x3edf06d8	0.4355991
219	0xbebcf719	-0.3690727
220	0xbd652e8f	-0.055952605
221	0x3d35fcae	0.044430427
222	0xbe3fe00e	-0.18737814
223	0x3e399e9b	0.1812691
224	0x3e5d7efe	0.21630475
225	0x3e71261c	0.23549694
226	0x3e350c5e	0.17680499
227	0x3e1e8945	0.15482052
228	0x3e364fbe	0.17803857
229	0x3df9654a	0.121775225
230	0x3e076343	0.13221459
231	0xbe06dd6d	-0.13170405
232	0x3d82d8a2	0.06388976
233	0xbf10e214	-0.5659497
234	0x3e84b56c	0.25919664
235	0xbf15c5aa	-0.58504736
236	0x3d704215	0.05865677
237	0xbebccdc5	-0.3687574
238	0x3de38fd1	0.11111415
239	0x3e1f271b	0.15542261
240	0x3ded801e	0.11596702
241	0xbe6cef15	-0.23138078
242	0x3e03b2ec	0.12861222
243	0x3b85114f	0.0040609012
244	0x3d212087	0.03933766
245	0xbee2121d	-0.44154444
246	0x3f193875	0.5985177
247	0xbdd46327	-0.10370474
248	0xbe3b6d2d	-0.18303366
249	0x3dc4430a	0.09583099
250	0xbe8c524b	-0.27406535
251	0xbe7e4138	-0.24829566
252	0xbd70ccd1	-0.05878908
253	0xbeef8b42	-0.46785933
254	0x3d4c9aa1	0.049952153
255	0xbd0333c1	-0.03203178

bias f4 [8]
0	0xbea9c9d8	-0.33161807
1	0xbdaf95bd	-0.08573482
2	0xbdb3d279	-0.08780379
3	0x3daab7b1	0.083358176
4	0xbd5e59e1	-0.054284934
5	0x3e06b35b	0.13154356
6	0x3da85ed0	0.08221209
7	0x3eb1c7e4	0.34722817
