models_save/aug_model_save_k_means_centers_8/aug_model_save.pth (torch, 15950 bytes, 6 tensors)

weight f4 [64, 10]
000000 03 8c cb 3d ab 37 a7 3d 12 a8 e4 3e 19 b7 57 3e
       0.099388145 0.08164915 0.44659477 0.2106594
000010 bb fa 96 3e 1d aa 82 3f 15 d0 42 be b4 7a 17 3e
       0.29488167 1.0208164 -0.1902469 0.14792901
000020 c6 25 27 be d3 20 38 3e 7f 2e 2a be 3d 1b 3f be
       -0.16323003 0.17981271 -0.166193 -0.18662734
000030 c8 3e c6 bd 84 bf eb bc 31 5e e9 bd 38 f0 a5 be
       -0.09679943 -0.028777845 -0.11394919 -0.32409835
000040 09 61 25 be ec 29 3f bf 74 05 fd 3d 79 4d 30 3e
       -0.16150297 -0.7467334 0.12354556 0.17217053
000050 27 22 ad 3e 95 89 95 3e bf da 9e bd 8b c4 c7 be
       0.3381512 0.2920653 -0.07756566 -0.39017138
000060 d2 7b 89 be 7e e2 8a 3d 44 98 6f 3e c8 95 a0 3d
       -0.2685228 0.06781481 0.23397928 0.078410685
000070 36 73 a4 bb c1 58 58 bc 0b 2a 49 be 3a 8d cb 3d
       -0.005018617 -0.013204754 -0.19644944 0.09939046
000080 04 e1 a4 3d 22 8d 92 3d 6e e8 80 be 71 3b a7 be
       0.08050731 0.07155825 -0.2517733 -0.32662538
000090 4e 04 59 bd 9a 9a 57 3e 56 ee 99 3d eb 8b 07 be
       -0.05298262 0.2105507 0.07516162 -0.13236968
0000a0 83 d6 11 bc 4f 46 87 be fe ba 2d 3f 9b 0d cf be
       -0.008901241 -0.2642083 0.6786345 -0.40440068
0000b0 ca a6 c4 bb 80 2d 5a bd 91 4f 9a 3e 38 e9 0c 3d
       -0.006001328 -0.05326605 0.3013883 0.034402102
0000c0 23 3a 51 3e 22 c4 3b be d7 b4 ef be ca a3 08 be
       0.20432334 -0.18336537 -0.46817657 -0.1334373
0000d0 04 af 2c 3e 6f 74 48 3e 74 46 04 3e bc f6 dd be
       0.16863638 0.19575666 0.129175 -0.43352306
0000e0 b1 ee 84 be f0 51 0f 3d 03 7f a8 be 1c 91 50 3e
       -0.25963357 0.03499025 -0.32909402 0.20367855
0000f0 06 13 20 3d 7e 97 b8 bd 92 f9 67 bb dd 85 79 be
       0.039080642 -0.0901327 -0.0035396558 -0.24367471
000100 13 04 bc bd 22 3f e9 3e 23 b3 67 be ce 6b 3d bf
       -0.091804646 0.4555598 -0.22626929 -0.7399262
000110 0a 6c 17 bf bf 94 ac be b8 8d c9 3c 42 0c 5b bc
       -0.5914923 -0.33707234 0.02460371 -0.013369622
000120 8f ae 1a be f3 cd 71 be 3a 9b 87 be 11 5f 98 3d
       -0.15105651 -0.2361372 -0.26485616 0.074400075
000130 25 b6 93 be cb 9c 00 bf 8e 09 07 3e dc 6e e3 3d
       -0.28849903 -0.5023925 0.13187239 0.11105129
000140 80 5f 73 3c 00 e8 1a 3d 89 c4 7d be 6f cf 03 bf
       0.014854312 0.03781891 -0.24782003 -0.51488394
000150 47 9c 95 be 51 83 89 bf 7a 80 78 be c2 94 77 3e
       -0.29220793 -1.07432 -0.2426776 0.2417784
000160 69 e8 8c be 3a 70 60 3e fe 8b 46 be 85 78 5f be
       -0.27521065 0.21917811 -0.1938934 -0.21823318
000170 81 9d 53 bf 08 cc b6 be 67 5e bc be 02 b2 8b bf
       -0.82662207 -0.35702538 -0.36790773 -1.0913699
000180 55 83 61 3e 2f 7f 87 be 48 98 b9 3e b3 2c 38 be
       0.22022755 -0.2646422 0.36248994 -0.17985801
000190 5e 73 b4 3e 19 65 d3 3e be 16 2c 3e 9b 7a b8 3d
       0.35244268 0.4128807 0.1680555 0.0900776
0001a0 16 72 70 3e 1f ce a8 3e f1 4d 6c be bc d1 62 3e
       0.2348102 0.32969758 -0.23076607 0.2215032
0001b0 9f d1 37 be eb 95 a7 3d 2c 25 dd be cb 39 d2 be
       -0.17951058 0.081828915 -0.43192422 -0.41059718
0001c0 f0 f6 83 3d c6 6a 07 be 20 a2 99 bc f1 55 e8 3e
       0.06443584 -0.13224325 -0.018754065 0.45378068
0001d0 61 85 8f 3e de 87 98 bd a9 47 13 3f c1 b2 5c 3c
       0.28031448 -0.074477896 0.5753122 0.013470353
0001e0 22 32 4d 3d fd f0 15 3f b9 68 2e 3d 26 e5 87 3e
       0.05009664 0.58570844 0.04258034 0.26542014
0001f0 0e 51 81 bd 5e 90 06 be f4 50 fe bd 0f 5b 49 bc
       -0.06314288 -0.13141009 -0.12417784 -0.0122897765
000200 56 e6 9c 3c a4 86 41 3d 18 ab f3 3d 60 b3 57 be
       0.019152801 0.047247544 0.11897868 -0.2106452
000210 5e 87 5a 3e da 97 8e 3e 65 94 b4 bd 4b 30 c1 bd
       0.21340701 0.2785023 -0.088173665 -0.09433039
000220 8c 5d 4c 3d 53 da 04 be fc c6 6b be 9c 70 cd bd
       0.0498939 -0.12973909 -0.23025125 -0.10031244
000230 9f aa de 3d 85 33 a3 3e a7 e5 27 be 07 90 b7 be
       0.10872387 0.31875244 -0.16396199 -0.35852072
000240 e7 c5 6e be f9 08 1d bf 4c 0d 46 bd ee 5b c2 be
       -0.23317681 -0.61341816 -0.048352525 -0.37960762
000250 be 5e 00 3e 7a 1f 87 bc b4 fe a6 3d a1 cb 3d bc
       0.12536141 -0.016494501 0.081540495 -0.011584193
000260 d3 ed 6a be fc 74 56 be 5f b3 31 be 03 4a c9 bd
       -0.22942285 -0.20943063 -0.17353581 -0.0982857
000270 3c c3 8b 3e dc ef 16 3f 15 c9 d1 be 88 64 49 be
       0.2729739 0.58959746 -0.40973726 -0.19667256
000280 56 f8 3a be a7 1c 97 3d a9 68 b9 be a7 d3 c8 3e
       -0.18258795 0.07378512 -0.36212662 0.39223978
000290 27 aa 5a 3e 01 bb 31 3f 95 e7 bd 3e a6 37 69 3d
       0.2135397 0.6942597 0.37090746 0.056937836
0002a0 05 a3 4a 3e b1 1a 31 3e 70 4a 20 bd b4 16 ae be
       0.1978875 0.17295338 -0.03913349 -0.34001696
0002b0 a7 6a b3 be 17 7b 2d be ed 64 ab be cd b3 07 be
       -0.35042307 -0.16941486 -0.33475438 -0.13252182
0002c0 5c d2 49 bd 62 b1 84 be 0b 8b 0c 3e 2f 4a 80 3c
       -0.04927288 -0.25916582 0.13724916 0.015660373
0002d0 ac 2c eb 3e f9 71 49 be f1 a0 1b be a8 79 0a be
       0.4593252 -0.19672383 -0.15198113 -0.1352297
0002e0 f0 f7 cf bc 1b 8a 66 bc 3d 5b 52 be 47 4a 83 3e
       -0.02538678 -0.014071013 -0.20542617 0.25642607
0002f0 69 77 c4 bd 48 78 64 3e 9b 06 e3 3c c6 a4 86 3d
       -0.09593088 0.22311509 0.02771311 0.06574397
000300 b9 2e 30 3e bc 1f 41 3e 6f 5a 53 3e 0e b3 03 3e
       0.17205323 0.18859762 0.20639966 0.12861273
000310 1e b0 e5 3d 68 ce 5f 3e 64 96 b4 3e b3 26 dc 3e
       0.11215232 0.21856081 0.3527099 0.42998275
000320 d4 fa 62 be 64 b8 9a be 50 94 e8 be 96 0f 00 3c
       -0.22165996 -0.30218804 -0.45425653 0.007816216
000330 22 84 72 3e 25 d4 e6 3d 02 ff 83 3d 81 fe 74 bd
       0.23683217 0.11270932 0.06445123 -0.059813026
000340 ea 68 16 3e 8a 16 5f 3d 99 ca 67 bd 61 cb 5f be
       0.14688459 0.054464854 -0.056589697 -0.21854927
000350 14 99 8b bd 1c ce b6 be 87 8a 9a bd c1 3a aa 3e
       -0.06816307 -0.35704124 -0.07545953 0.3324795
000360 af 10 f5 bd b1 d2 11 3d 3d e2 ca bd 86 08 71 bd
       -0.11966073 0.03560132 -0.09906433 -0.05884602
000370 ac 06 36 3e 7f 1c 30 3e 55 ea 15 3e 3f ec bd 3e
       0.17775983 0.1719837 0.14640172 0.37094304
000380 c2 55 69 3e 58 a3 05 be 50 df ec bc 7a ef e0 3d
       0.2278662 -0.13050592 -0.028915077 0.109831765
000390 b8 33 45 be 3c 15 1c 3e 1e c5 0f 3d 42 3b cd bd
       -0.1925801 0.15242475 0.035100095 -0.10021068
0003a0 d0 05 af 3e 64 77 13 bd 13 4b 45 3e f7 1a 9b be
       0.34184122 -0.03600253 0.1926692 -0.3029401
0003b0 b9 ff ea 3c 8e c5 93 3e 45 9f a4 bd 6a 49 e9 bd
       0.028686391 0.2886166 -0.08038191 -0.11390956
0003c0 ed 37 75 be 5b e8 aa 3d 78 91 0a bc bf 43 3d 3e
       -0.23947115 0.083450995 -0.008457534 0.18482874
0003d0 1f bb 06 3e 41 3d d4 3e 74 6a e3 bc 61 f4 34 3c
       0.13157319 0.41452983 -0.027760722 0.011044593
0003e0 d2 19 06 3d 9e fb 63 be ae 9f 7b bd a4 a0 2d bd
       0.032739468 -0.22263953 -0.06143158 -0.042389527
0003f0 12 0b 40 3a 58 43 92 be 05 0d 93 3d 95 9e d8 bc
       0.00073258684 -0.28567004 0.07180218 -0.026442805

bias f4 [64]
000000 7a 6f 4c 3e bb ce 92 3e 76 fc 9c bf a1 90 05 bf
       0.199644 0.28673348 -1.2264545 -0.5217381
000010 9d 22 a5 bf e4 8f 43 bf 4d e8 22 be d1 f1 2c bf
       -1.2901188 -0.76391435 -0.15908928 -0.6755648
000020 28 37 31 bf ee 26 9e be 9e 76 54 bf 6b da 71 bf
       -0.69224787 -0.30889076 -0.82993495 -0.94473904
000030 90 b9 31 bf 80 12 20 bf 22 30 dd be 03 bf fd be
       -0.6942377 -0.6252823 -0.43200785 -0.49559793
000040 e0 b9 bc be 16 57 9c 3e c5 e8 de bd eb 8e 89 3d
       -0.3686056 0.3053519 -0.10884241 0.067167126
000050 da 2b 7b be d2 3a f0 be 96 34 4a bf 9a d2 28 bf
       -0.24528447 -0.46919876 -0.7898649 -0.6594635
000060 6e 23 22 be 09 ef dd be d6 9e d4 be 2b f1 26 bf
       -0.15833828 -0.43346432 -0.41527432 -0.65211743
000070 ff 8a af be cf d6 69 be d5 55 fb be 2c 0f 57 bf
       -0.34285733 -0.22835849 -0.49088922 -0.84007525
000080 1f c2 6f bf 23 ed 00 bf 0c d3 cc bd 50 6c 26 3e
       -0.9365558 -0.5036184 -0.100011915 0.16252255
000090 ee 4f 36 be 5e 61 a3 3d f1 b0 4a bd db c8 d5 be
       -0.17803928 0.07977556 -0.04948515 -0.41754803
0000a0 42 58 21 bc eb 89 dc be 1a 95 bf be a1 5c 17 bf
       -0.009847702 -0.43073973 -0.37418443 -0.59125715
0000b0 48 8c 38 bf 49 3a 8b be a4 d6 a7 3e 49 a1 3c bf
       -0.7208905 -0.27192906 0.32780945 -0.736836
0000c0 e5 1c 0a bf dc 28 a4 be 73 a4 28 bd 7e f0 4b bf
       -0.5395034 -0.32062423 -0.041172456 -0.79663837
0000d0 61 b7 79 be 64 47 b6 be fc c0 ee be c7 41 c2 3e
       -0.2438636 -0.35601342 -0.4663161 0.3794081
0000e0 0e bf fe be 50 5b e8 bb c7 dd 5e bf 69 be b9 be
       -0.49755138 -0.0070909634 -0.87057155 -0.36278084
0000f0 05 54 87 be b3 f4 a1 be ad aa 96 be 17 f9 98 be
       -0.2643129 -0.31632003 -0.2942709 -0.2987754

weight f4 [32, 64]
000000 40 25 fe bc e8 ee 9c 3b e3 6e 20 3d 04 4d 8f be
       -0.031023622 0.004789222 0.03916825 -0.27988446
000010 ce 4c 0e bf 6d 18 c2 3b 8a 8c 0c 3e db a6 90 bd
       -0.55585945 0.005923322 0.13725486 -0.07063075
000020 d2 09 c7 bf 73 e8 d4 3d ff 59 87 bc aa c7 32 be
       -1.5549872 0.10395899 -0.016522406 -0.17458978
000030 7c 2e a4 3e ea b9 06 bc 4e 27 8d bf 84 9f bd bf
       0.32066715 -0.008223036 -1.102762 -1.4814305
000040 21 c4 f1 bd e7 7f 36 3e bb 32 47 3d c8 ac 8c be
       -0.11804987 0.17822228 0.048632365 -0.27475572
000050 18 f8 bc bc 29 2e fb bd ce 44 1f bd 6b f6 05 3e
       -0.02306752 -0.12264664 -0.038883977 0.13082282
000060 b0 7e 14 be 98 4c cc 3e b1 40 fe 3c 4e 45 3a 3d
       -0.14501452 0.39902186 0.031036707 0.04547625
000070 cb 77 14 be ea e3 03 bf f4 05 0b 3e b8 52 9a bf
       -0.14498822 -0.51519644 0.1357649 -1.2056494
000080 4c a3 97 3e f7 5d af be 4c 0c 6d 3e c6 44 62 3e
       0.29616773 -0.34251377 0.23149222 0.22096547
000090 a4 78 80 bd 33 b8 18 3e 8c ce a6 3e ae fe 76 3e
       -0.062730104 0.14914016 0.32579458 0.2412059
0000a0 d7 cf 31 be a5 47 d8 bd 6e c3 16 3e 89 74 90 be
       -0.17364441 -0.1056054 0.14722988 -0.2821391
0000b0 66 63 ba 3c ae ee 2e 3d 65 4a ca bd 5f c5 69 3e
       0.022752475 0.04270809 -0.09877471 0.22829197
0000c0 d2 71 02 bf ba 2b ad be 56 0c b1 3e 05 d5 ba be
       -0.50954926 -0.33822423 0.34579724 -0.36490646
0000d0 8b 44 ba be 71 aa 91 bf eb 2e a7 bf cf ce 5c be
       -0.3638042 -1.138014 -1.3061193 -0.21563266
0000e0 4a c9 66 bd 75 4e 8b bd cf 3f 1f bd bd b1 79 bd
       -0.056344308 -0.06802074 -0.038879212 -0.06096052
0000f0 cf fd ba bd 03 14 ad be 36 04 1a 3e 83 60 e0 3d
       -0.091304414 -0.3380433 0.15040669 0.10955908
000100 e3 9c 93 bf 37 34 50 3e 2e d4 c6 bd 88 98 b0 3e
       -1.1532253 0.20332418 -0.09708439 0.34491372
000110 4b 42 b3 be 28 67 ed 3d 12 7a 29 be b3 5c 57 3e
       -0.35011515 0.11591941 -0.16550472 0.21031456
000120 e2 be a1 be d7 58 09 c0 8f cc 98 be 91 e7 48 be
       -0.31590945 -2.1460474 -0.29843566 -0.19619586
000130 a8 60 8e be 32 18 60 3d 37 de 3b be c3 aa c6 be
       -0.27808118 0.054710574 -0.18346487 -0.38802156
000140 97 d4 13 bf fe 42 b1 3e 77 e3 83 3e 15 4c 3f be
       -0.5774626 0.34621423 0.2575948 -0.18681367
000150 ae 53 8b 3e 75 8b 89 3e 73 1b 40 bf a4 a3 af be
       0.2721228 0.2686421 -0.75041884 -0.34304535
000160 ac 39 9a be ac 32 aa bc f3 cd 9e be 31 03 9a 3d
       -0.30122125 -0.020776115 -0.31016502 0.0752014
000170 fa 28 1b bf 48 c9 3d bd 3c 38 05 bf 0c 89 d0 bd
       -0.606094 -0.046334535 -0.5203893 -0.101823896
000180 62 3d d2 3d 23 57 0d bf 29 19 9d bf 1b 01 61 3e
       0.10265614 -0.55211085 -1.2273303 0.21973078
000190 2d 33 d6 bd 20 6f 6e 3d a2 7f 73 3e 4c d7 cd 3e
       -0.1045898 0.058211446 0.23779157 0.4020332
0001a0 2b f8 ef be 85 eb 48 be 5e c9 44 3e e7 d2 bc 3c
       -0.46869025 -0.19621094 0.1921744 0.023049785
0001b0 eb fd f1 3d 71 82 12 be e8 7a 95 3e c7 1d 01 3d
       0.11816009 -0.14307572 0.29195333 0.03152254
0001c0 09 67 e9 bf 66 4b 73 3e 56 2e 3c 3e 8d 3d b8 3e
       -1.8234569 0.23759231 0.18377051 0.3598446
0001d0 5d bd c4 be a3 a1 bd bd 0e 96 c3 3e 37 4e 00 3d
       -0.38425723 -0.092593454 0.3820042 0.03132459
0001e0 f7 dc a7 be 84 89 2e 3e 11 66 f8 3d f2 d5 08 3f
       -0.3278577 0.17044646 0.121288426 0.53451455
0001f0 27 08 97 be cc 45 89 3e ba 49 8a 3d 21 41 40 bf
       -0.29498407 0.26811063 0.067523435 -0.7509938
000200 d3 10 7f be e7 2b a9 3d 6d 65 9a be f0 1a 0b 3d
       -0.24908762 0.08260327 -0.30155507 0.033961236
000210 42 c5 b4 3e 88 55 36 3e 37 ef 4e bc 87 85 a8 bd
       0.35306746 0.17806065 -0.012630275 -0.08228593
000220 fb b0 f9 be 3b f3 bb bd de ac 7f bc ce fe aa be
       -0.48767838 -0.09177252 -0.01560518 -0.33397526
000230 a7 92 28 3e 50 d3 06 bd dc ea 28 be 07 0e ad 3e
       0.16462193 -0.032916367 -0.16495842 0.33799765
000240 c9 34 31 be 42 3f 14 3e de a0 38 bd b7 3d 9d be
       -0.17305292 0.14477256 -0.04507529 -0.30711147
000250 55 67 ba 3d 94 55 83 3e 94 1a 3d 3d 5b b2 2f be
       0.0910174 0.25651228 0.046167925 -0.17157881
000260 17 e8 23 bd ce b2 ee be 70 1f 94 be 91 88 cb be
       -0.04001626 -0.46620792 -0.28930235 -0.3975263
000270 ef 1d 25 3e 82 26 81 be 0d 26 7a 3d 0e 69 65 bd
       0.161247 -0.25224692 0.061071444 -0.05600839
000280 e5 fa 8b 3e 6c 6d 0f be 79 c1 b6 3b 16 40 ee 3d
       0.27339855 -0.14006585 0.005577263 0.11633317
000290 b6 6e 51 bf 1f 02 4f 3d 1a 7e 02 bb 49 2b 5e 3e
       -0.81809556 0.050539132 -0.0019911588 0.216962
0002a0 58 cb 01 bf 5f 31 49 3e 09 92 fc 3e 22 1e 04 3f
       -0.507009 0.1964774 0.49330166 0.5160848
0002b0 8c 7d d2 3e 1e ba 99 bd 76 7d 27 3e cc d6 10 be
       0.4111141 -0.07506202 0.16356453 -0.14144439
0002c0 ee 64 7b 3c 7c d5 b0 3e fe a5 f2 3c 2d e1 5a 3e
       0.015343888 0.34537876 0.029620167 0.2137496
0002d0 f5 84 32 be 5b 33 ce be fa 7a 03 bd e7 5d 43 be
       -0.17433532 -0.40273556 -0.0320997 -0.1907879
0002e0 7f 69 21 3e 35 f0 20 3d af e9 81 bd 1e f1 8f 3e
       0.157629 0.03929158 -0.063434 0.28113645
0002f0 92 ec 12 be c9 6d 6f 3e f3 1c e4 3c 6e 37 22 3e
       -0.14348057 0.23381723 0.027845835 0.15841457
000300 78 76 a3 3d d0 6a ce 3c 7a 8d 64 3e b3 4d 4d be
       0.079815805 0.025197417 0.22319594 -0.20049171
000310 60 ec 45 be f0 58 15 bf e9 b0 9b 3e 09 f5 f8 bc
       -0.19328451 -0.5833883 0.3040841 -0.03039028
000320 69 40 98 bc d3 de 93 3e 82 12 25 3d c1 af cb 3e
       -0.0185854 0.2888094 0.040300854 0.39782527
000330 07 fa 00 be 27 12 6e 3e 84 2b 4f be 3c 5d 82 be
       -0.12595378 0.23249112 -0.20231444 -0.25461757
000340 02 87 03 3e 0f 4a 99 bd fb e0 65 bc 0c 36 cf 3d
       0.1284447 -0.07484829 -0.01403069 0.101177305
000350 dc 13 e4 bd dd f0 f0 3d d3 1e 96 bc 87 af ae bd
       -0.111366004 0.11764691 -0.018325245 -0.08529573
000360 ba 37 e8 bd e5 22 c3 bd 47 2d 08 bf 3c 22 cf 3c
       -0.11338754 -0.0952814 -0.5319409 0.025284879
000370 b2 3c b1 3e 6f d4 87 3e a1 d3 00 3f 90 99 eb 3e
       0.3461662 0.2652926 0.5032292 0.46015596
000380 a3 bd 32 be df 70 c9 be 0a e5 bd 3e 8b fe bf 3d
       -0.17455153 -0.39343926 0.37088805 0.09374722
000390 84 1f a9 3d 87 90 d3 bd 8f 84 fe bd c7 77 17 be
       0.08257964 -0.10330301 -0.12427627 -0.14791785
0003a0 2f 92 a5 3c 44 12 a0 3c 33 f1 53 bf 3d 52 4a 3d
       0.020211307 0.01953996 -0.82789916 0.049394835
0003b0 38 c6 2d bf 31 eb 23 be 8b df 0e bd b7 1c e3 3e
       -0.6788058 -0.16007687 -0.034881156 0.44357845
0003c0 f1 de 5b 3d 42 b7 ec 3d 09 1c d7 bd fc 70 2d be
       0.05367941 0.11558391 -0.10503394 -0.16937631
0003d0 11 72 ef bd d9 95 98 be c0 58 42 3e e7 85 f9 3e
       -0.11691678 -0.29801825 0.18979168 0.48734972
0003e0 e4 c3 0a 3e 3a 5d 2e 3d dc c6 d5 3d bf 1d c4 bc
       0.13551289 0.042569377 0.1043832 -0.023939965
0003f0 85 0b 4b 3e 2b 46 e0 3c 97 a7 0a 3e 80 bd 81 3d
       0.19828613 0.027377209 0.13540493 0.063349724

bias f4 [32]
000000 94 48 05 3f 04 29 83 bd 7f 20 fa 3e 27 a4 0b be
       0.5206387 -0.064043075 0.48852918 -0.13636838
000010 2b ad 23 3e 8d 34 04 3f 3c 95 07 3f 09 00 d9 be
       0.15984027 0.51642686 0.5296209 -0.4238284
000020 f5 d2 88 bc f6 d0 1e 3d c5 24 60 be 78 19 5e be
       -0.016702155 0.0387735 -0.21889026 -0.21689403
000030 a4 01 a5 3e 39 48 7e 3c da c6 85 3e 31 8b 15 3e
       0.32227814 0.015520149 0.26128274 0.14603879
000040 a5 02 e2 3e fe f1 ae 3e 21 f5 11 3e a5 e7 e5 be
       0.44142643 0.34169 0.14253666 -0.44903293
000050 3f 01 e6 3d 01 aa 1f 3f 3c 59 05 3f 0d 19 c4 3d
       0.112307064 0.6236878 0.52089286 0.095750906
000060 b5 16 b7 bb e9 6d 85 3e 84 ab cc 3c 97 ca 35 bf
       -0.0055874237 0.26060417 0.024984129 -0.7101225
000070 1c 8a ce 3e 79 64 0d be 9f 7d f2 3e 29 9e 88 3e
       0.40339744 -0.13807859 0.47361466 0.26683167

weight f4 [8, 32]
000000 32 a3 44 bd ba 87 f7 bd 6f f7 5f be ab 84 c0 3d
       -0.048007198 -0.12086435 -0.21871732 0.094003044
000010 1c 8d e9 bd 1e 0a 11 be 25 80 1d be 81 d8 c7 3e
       -0.114038676 -0.14164016 -0.15380915 0.39032367
000020 86 b5 29 3e 25 fc 1c be 4f 25 a7 bd 5c 26 37 3e
       0.16573152 -0.1533056 -0.08161413 0.17885727
000030 ed 6e 34 be c0 02 67 3d 6b 6a 26 3e e9 3d 38 bc
       -0.1762044 0.056399107 0.16251533 -0.011245229
000040 38 93 29 be a9 63 2b bd a0 01 20 3e e8 85 05 3e
       -0.16560066 -0.04184309 0.1562562 0.13039362
000050 ba c2 49 3d 52 32 0c 3e fd 6b 08 bd cf 5a 94 be
       0.04925797 0.1369107 -0.03330611 -0.2897553
000060 0d fd 98 3e 6f d8 ed be eb bd b7 3e 83 40 c1 bc
       0.29880562 -0.46454188 0.35887083 -0.023590332
000070 81 a4 14 be 29 d2 66 3d 2c 22 37 be 73 bb 48 be
       -0.14515878 0.056352768 -0.1788413 -0.19602756
000080 ac e1 b1 3e cb 94 02 be f3 95 c5 be 1d 53 54 3d
       0.34742486 -0.12752073 -0.38590965 0.051837076
000090 89 5b 93 bd 1c 5d a7 3d ee 98 9e be 66 79 9d 3e
       -0.07195193 0.08172056 -0.3097605 0.30756682
0000a0 f8 90 b5 be e0 b1 48 be e0 77 25 bf 51 b4 0e be
       -0.35462165 -0.19599104 -0.6463604 -0.13935973
0000b0 86 b8 b2 bd bb d2 7f 3d 90 e6 1c bd 0e 12 32 be
       -0.08726601 0.062456828 -0.03830582 -0.173897
0000c0 03 ad 69 be 42 de 4f bd a6 39 21 3e bc da 93 3d
       -0.22819905 -0.05074907 0.15744647 0.07219455
0000d0 ce 0a b3 3c 84 66 9e 3d 0c 08 9f 3d 7d 32 b9 3d
       0.021855738 0.07734397 0.07765207 0.09042833
0000e0 06 3f df 3d 8f 19 72 be 20 c8 36 3e fb 88 27 be
       0.10900693 -0.23642562 0.17849779 -0.16360848
0000f0 9d 05 fd bc d4 69 57 3c 27 34 1b be e1 df c7 bd
       -0.030886466 0.01314779 -0.15156613 -0.097594984
000100 a7 c6 0c be 9e 2e ee be d4 09 8f 3d 9c 83 0e bf
       -0.13747655 -0.4651994 0.069842964 -0.5566957
000110 5c 2e ad bd 1d bc 13 bf 3a 3d 87 be 73 08 43 bc
       -0.08456108 -0.57708913 -0.264139 -0.01190387
000120 90 e7 8e bd 32 96 ec be 4b 36 a6 bf 06 5e 53 3d
       -0.06977761 -0.4620834 -1.2985319 0.05160334
000130 fa 00 9c bd 3d 5c 9c be c4 cf 8c bd 6e cf 38 bf
       -0.07617374 -0.30539122 -0.06875566 -0.7219151
000140 bd 0f 00 3e 1f d5 04 bf b5 67 a8 bd 62 f2 4b 3e
       0.12506004 -0.51887697 -0.082229055 0.1991668
000150 36 e6 b5 be db 86 92 bd 18 2c 5d bf 11 49 63 be
       -0.355272 -0.07154628 -0.86395407 -0.22195841
000160 c2 64 88 be f1 1d 20 3e aa f6 1d bc 7c dd 9e bf
       -0.26639372 0.15636422 -0.009641329 -1.2411342
000170 c0 03 2e 3e f0 10 4f be e9 4d fb 3c 69 4d 16 3e
       0.16993618 -0.20221305 0.030676799 0.14677967
000180 9f a9 db 3e d7 be 7a bf df 8f 43 3e ab 0c 02 bf
       0.42902848 -0.9794745 0.19097851 -0.5080058
000190 c2 48 47 be 8d c5 9d be b0 3b 4c 3d 36 06 6d bf
       -0.19461349 -0.30814782 0.04986161 -0.925876
0001a0 07 07 02 bf 75 52 e6 3d 9c 7c 5c bf 2a 6f ba 3e
       -0.5079197 0.11246196 -0.8612764 0.36412936
0001b0 03 7c ff bc 58 08 9f be 3a a9 b5 bd b7 dd 6f bf
       -0.031187063 -0.31061053 -0.08870168 -0.93697685
0001c0 30 34 53 be d1 7d 4f 3c 25 2e c8 be 85 f9 fc be
       -0.20625377 0.012664274 -0.39097705 -0.49409118
0001d0 8e 6f b8 be d2 71 11 3e 54 e2 8c bf ba 0a f6 bd
       -0.3602261 0.14203575 -1.100657 -0.12013765
0001e0 10 28 b2 be 63 9d e7 3b c9 25 e3 bd ab 0f 6f bf
       -0.3479619 0.0070683225 -0.11091191 -0.9338328
0001f0 f9 fd 67 be d7 e4 0c 3e 15 1d 53 bd a8 32 91 be
       -0.22655477 0.1375917 -0.051541407 -0.2835896
000200 03 d6 aa be fe 76 bc 3e 07 5c b4 3d de 40 8c be
       -0.33366403 0.36809534 0.08806615 -0.2739324
000210 ac 7a 11 3d f2 b0 bc 3c a3 10 8b be 1a ef 04 bc
       0.03551738 0.023033593 -0.2716113 -0.008113647
000220 39 18 06 be e1 7e 8d 3e 9a 02 93 be db 18 f8 3d
       -0.13095178 0.27635863 -0.28712922 0.12114116
000230 c0 4f e7 bd 4f 43 80 be 32 8f 3e be 2a ef 07 3d
       -0.11294508 -0.25051352 -0.18609312 0.03318707
000240 93 b5 b9 3e 63 45 c0 bd c4 15 f2 3d ad f7 0b bf
       0.36271343 -0.093882345 0.11820558 -0.546748
000250 d1 a3 0a 3d 72 35 b9 be 38 f4 fd 3c 7a b3 30 3e
       0.033847634 -0.36173588 0.031000242 0.17255965
000260 9c 83 9b 3d 7f 3f fb be 60 1a e5 3c f0 7d 9c be
       0.07593462 -0.4907188 0.027966678 -0.30564833
000270 5e 28 49 bd 76 92 1a be 48 b2 31 3e a0 4a 82 3d
       -0.049110763 -0.15094933 0.17353165 0.0636189
000280 10 3b ab be c8 33 50 3f 31 9e a2 3c b7 86 76 bc
       -0.334435 0.8132901 0.019850822 -0.015046767
000290 ed 0c e8 3d 33 a5 6d 3d ab 44 22 bc 11 a7 22 be
       0.113305904 0.058018874 -0.009904067 -0.15884043
0002a0 0b 36 62 bc 00 10 ea bd a9 7b 9e 3d 23 47 25 be
       -0.01380683 -0.11428833 0.0773843 -0.16140418
0002b0 de 9b 85 3e 2d fe 9d 3d e2 65 23 bd fd f1 4f 3d
       0.2609548 0.07714496 -0.039892085 0.050767887
0002c0 36 db 8c be 6b e5 60 be 19 89 9b bd 0b fa d0 3c
       -0.27510995 -0.21962516 -0.07594509 0.025509855
0002d0 dc 6f 73 3c e2 15 2f bd 7c d4 20 3c a0 52 03 be
       0.014858212 -0.04274548 0.009816285 -0.12824488
0002e0 11 f0 96 be 44 0b 27 3e 19 0e e2 bd 63 56 02 3e
       -0.2948003 0.16312891 -0.11037845 0.12728266
0002f0 50 94 71 bd ef 86 06 be 9f 3f 85 3b b4 ec 77 be
       -0.058979332 -0.1313741 0.004066422 -0.24211389
000300 25 34 4e bd 16 00 97 bf a9 c7 08 3e 87 cb ee bc
       -0.050342698 -1.1796901 0.13357414 -0.029149784
000310 2e c5 dc ba 09 e1 47 3e ff a3 e5 3c e5 10 66 bf
       -0.0016843432 0.19519438 0.028032301 -0.8986953
000320 13 6a 06 3e 52 c6 c5 be 03 8e 00 bf c7 2b 9d be
       0.13126402 -0.3862787 -0.5021669 -0.30697462
000330 a3 0f 1e be 06 69 54 be bf be 95 3b 34 91 2d bd
       -0.15435652 -0.20743188 0.004569858 -0.042374805
000340 43 ee 86 be ee 89 41 3e 0c 8c 9c be ae 20 0a bf
       -0.26353654 0.18900272 -0.30575597 -0.53956115
000350 06 ae 07 3e 95 84 5a bd 58 3a d1 3d 35 3c 65 bd
       0.13249978 -0.053349096 0.10216206 -0.05596562
000360 13 f0 e3 bd 42 47 83 3d 1f 12 15 be 31 c4 0c bf
       -0.11129775 0.06410076 -0.14557694 -0.54986864
000370 1d ba 9a be 27 05 98 bc 62 b8 1b bd 25 1b a8 be
       -0.30220118 -0.018557144 -0.038017638 -0.3283321
000380 7e 2c 04 3d e2 4b 94 bf c0 04 42 3e 81 15 8f bd
       0.032268994 -1.1585658 0.18947124 -0.069865234
000390 9b cc b6 be 3d 8a a6 3d 65 63 0f 3e d8 78 3a be
       -0.35702977 0.081318356 0.1400276 -0.1821016
0003a0 a6 e8 f2 bd 71 83 a8 bd e5 91 8b 3e f8 41 1f be
       -0.118607804 -0.082281955 0.27259746 -0.15552509
0003b0 99 b1 b6 be 7c 26 2f bc 7f 16 dc be 00 fb 68 bd
       -0.3568237 -0.010690328 -0.42985913 -0.056879997
0003c0 1e ee 42 be a2 ea 8e bc f9 d9 9e be 10 06 b1 bd
       -0.19036147 -0.017445866 -0.31025675 -0.086437345
0003d0 70 67 ba be 04 63 9f 3e 66 dc 0b 3e 82 a3 f9 3d
       -0.36407042 0.3113023 0.13658294 0.1218939
0003e0 f6 ca 04 3d ef e9 9b 3e 33 fb 75 be a3 e0 e3 3e
       0.03242012 0.30451915 -0.24021606 0.44507322
0003f0 a6 04 4e bf 9b c5 7d be 10 4a 31 3d cb b0 47 bf
       -0.8047584 -0.24782412 0.043283522 -0.7800414

bias f4 [8]
000000 8a 59 bc be ef 9f 87 be 0c 6a b9 be b6 91 63 be
       -0.36787063 -0.26489207 -0.3621372 -0.22223553
000010 bc 61 b0 bd 82 3a 36 3e c0 fd 5b 3e 05 a1 01 3f
       -0.08612391 0.17795756 0.21483517 0.5063632
