runthroughs/run_1/baseline_model_save.pth (torch, 16000 bytes, 6 tensors)

weight f4 [64, 10]
000000 6a 87 b0 bb e2 05 d8 bb 20 52 cf be 45 46 9d be
       -0.0053872364 -0.006592498 -0.40492344 -0.30717674
000010 86 65 a5 be be 90 9c be 55 35 5e bd 06 dc f2 bd
       -0.3230402 -0.3057918 -0.05425008 -0.118583724
000020 e3 f9 f7 3d ab 2b a0 3b 9f 22 97 be 16 d3 a4 be
       0.12108209 0.004888018 -0.295186 -0.32192296
000030 29 52 2d 3d 9e 9a 15 3d 11 00 07 3e 88 8e be 3e
       0.042314682 0.036524408 0.13183619 0.37218118
000040 92 40 91 3e 43 3d ba bd fc f7 0c 3f fc f0 a7 be
       0.28369576 -0.09093716 0.55065894 -0.32801044
000050 db 12 97 be 18 74 da bd db ee 36 be 8e 23 45 3e
       -0.29506573 -0.106666744 -0.17864554 0.19251844
000060 49 ae 9d be 97 65 c4 3c ee a8 b2 bd a5 c7 ac be
       -0.30797032 0.023974223 -0.08723627 -0.33746067
000070 0c 24 ac 3b f5 03 d4 3d 99 2d c2 3d 95 1e ed 3d
       0.0052533206 0.10352317 0.09481353 0.11578099
000080 97 3f a0 3d 1e 67 a1 be 95 f8 ce bd 14 4e 22 bf
       0.07824629 -0.31523985 -0.10106007 -0.6340039
000090 8f ec 86 be 26 ce 28 be 69 b8 89 bd 01 ba 39 3e
       -0.26352355 -0.1648489 -0.067246266 0.18137361
0000a0 90 f1 d0 bd bd 9f 88 bd 6e 02 65 3e d8 1d 5f 3d
       -0.102023244 -0.06671093 0.22364208 0.05447182
0000b0 18 68 90 3e 16 7a 3e 3d d6 50 ae 3c 7c fe 4d be
       0.28204417 0.04650315 0.02127878 -0.2011661
0000c0 d2 be 3a 3e 92 c6 99 be 19 93 3c bd 11 73 ae be
       0.18236855 -0.3003431 -0.04603872 -0.34072164
0000d0 e7 56 fb 3d 21 5c ab 3e e0 5c 28 bf 73 8e 20 be
       0.12272435 0.33468726 -0.65766716 -0.1567934
0000e0 08 21 98 3e 8c 94 92 bd eb 9c 73 bd a0 d3 1b 3d
       0.297127 -0.07157239 -0.05947582 0.03804362
0000f0 cf 34 60 3d 9e 0e 16 3e 65 03 cb be 52 fd 87 bd
       0.054737862 0.14654014 -0.39651027 -0.06640114
000100 3b 83 ec bc f7 06 30 3e 82 0f 0b 3f c8 b0 e5 3e
       -0.02887117 0.17190157 0.5432054 0.44861436
000110 24 29 8a 3d 24 77 81 be 0a 9e 65 be 98 58 33 bb
       0.06746128 -0.2528621 -0.22423568 -0.0027366038
000120 6d dd c5 be 89 1d 6e 3e 1e d8 65 3e 5d ec 06 bf
       -0.38645497 0.23253454 0.22445723 -0.5270441
000130 e3 61 0f be 88 6d e8 bd 1b af 9f 3d 2f 8a 8c be
       -0.14002185 -0.113490164 0.077970706 -0.27449176
000140 2b f3 29 3e 82 79 51 be 27 8f e0 3d 13 3d d9 3d
       0.16596667 -0.20456508 0.10964804 0.10607352
000150 c5 9d 9a 3d af 46 4a 3e 65 9c e8 bd c3 a9 d0 bd
       0.075496234 0.19753526 -0.11357955 -0.101886295
000160 cb cf c1 3e 07 cb 4e 3e a9 59 8a be 68 1a 3d be
       0.37853846 0.20194636 -0.2702153 -0.18467104
000170 38 aa 52 3e 40 7e c9 bd b9 31 19 be 33 ff 54 3d
       0.20572746 -0.098385334 -0.14960374 0.05200119
000180 75 c2 9d be a2 f5 3e 3d 96 2c 80 be a9 05 1e be
       -0.3081242 0.046620972 -0.25034016 -0.15431847
000190 37 66 e6 bc 8a 10 a2 bd c4 aa 46 be 3f 6f 9e bd
       -0.028124912 -0.07913311 -0.1940108 -0.07736062
0001a0 db 50 4a 3c 2d 71 08 3f eb 86 03 3e 1d 5e 66 be
       0.012348379 0.5329769 0.12844436 -0.22496839
0001b0 dc 6e 72 be 8d c2 56 be 02 1f c4 3d 18 05 a1 3d
       -0.23675102 -0.20972653 0.09576227 0.078623
0001c0 51 60 a4 3e 26 17 8b ba 5f ad 2f 3e 41 c4 0d 3f
       0.32104734 -0.0010611757 0.1715598 0.55377585
0001d0 5c e0 a2 be 9c d5 98 bd 52 2d df be 85 0b 15 be
       -0.31811798 -0.07462618 -0.43589264 -0.14555176
0001e0 2b ce b5 be 8d d6 4c be 03 d9 9e be dd c3 64 3e
       -0.35508856 -0.2000372 -0.31024942 0.22340341
0001f0 0a ee 85 be fa 1d 11 3e f4 69 c5 3d 91 93 16 bb
       -0.26158172 0.14171591 0.096393496 -0.002297614
000200 8e 98 10 3e 9b 73 bd bc 49 68 bc 3d de 79 81 3e
       0.14120695 -0.023126414 0.09199578 0.2528829
000210 84 15 44 3e 25 3a c6 3e 05 e6 4f 3e e2 f2 5d 3c
       0.19148833 0.38716236 0.20302589 0.013546677
000220 9e 97 c5 be 6a 2c 36 bd 83 1f d8 3d 66 5f 05 be
       -0.38592237 -0.04447595 0.105528854 -0.13024673
000230 4f ed 82 be 22 26 59 be 06 4b ab be 49 cb 43 be
       -0.25571677 -0.21205953 -0.33455676 -0.19120516
000240 a9 9e 84 be 90 70 10 3f 39 0a 90 bd 74 b4 87 be
       -0.25902298 0.56421757 -0.070332 -0.26504862
000250 25 8b aa bd bf 90 91 be 9a 9d 5b be dc 76 1f be
       -0.08327321 -0.28430745 -0.21446839 -0.15572685
000260 7f d9 da be a3 5e be be be 97 8b be 62 ac 34 bf
       -0.4274406 -0.37181577 -0.27264208 -0.70575535
000270 2f ae 2b be c6 de 8d bb 4f 5e b8 bd 50 bc 41 3e
       -0.16765665 -0.004329535 -0.09002363 0.18919492
000280 0b 04 ab be a5 9c 1d be fe f9 b7 3e 62 56 75 bd
       -0.33401522 -0.15391786 0.35932916 -0.059896834
000290 a6 e5 59 3e 1c 30 06 be 4f 1e 8f be e3 bb 91 3e
       0.2127901 -0.1310429 -0.2795281 0.2846366
0002a0 78 94 87 be e2 99 4d 3e e0 14 92 3e 06 f4 c9 bd
       -0.2648046 0.20078233 0.2853155 -0.09860997
0002b0 b2 a0 0d be f0 21 5a be be 00 06 3c fe 65 18 3d
       -0.13830832 -0.21302009 0.008178888 0.037206642
0002c0 ed 51 c1 3d ab 7d 6b 3e 9c a3 fe bd ca 39 b5 3d
       0.09439454 0.22997157 -0.1243355 0.08848913
0002d0 d0 97 e3 bd 5c a0 92 bd e5 1b ed 3e 42 e7 9b 3d
       -0.1111294 -0.071594924 0.46310344 0.07612468
0002e0 f5 80 80 bd 3d fb 1a bc 73 46 ae be 32 a3 c3 be
       -0.062745966 -0.009459314 -0.34038123 -0.38210446
0002f0 0d 2d 15 be 04 d0 b2 3e 65 67 9c be a3 fc 33 3c
       -0.14567967 0.34924328 -0.30547634 0.010985526
000300 b6 1f 02 bd 38 2e 61 3e c3 57 30 be bb b6 97 be
       -0.031768523 0.21990287 -0.17220978 -0.296316
000310 6d 90 58 be 8f aa 5a 3e 83 ec 0b bd 12 91 50 3e
       -0.21148844 0.21354125 -0.034161102 0.2036784
000320 71 ed 94 3c 05 38 d6 bd dd 84 45 be 30 e9 9c be
       0.018179627 -0.10459904 -0.19288965 -0.30646658
000330 ed 3b 98 be 8d b4 7a bd 8d 2f 0f be 89 fd b9 be
       -0.2973322 -0.061207343 -0.13982983 -0.36326244
000340 56 27 2d bf 98 63 79 bf d6 6e 9b 3e 33 40 1a bf
       -0.67638147 -0.97417593 0.30358 -0.6025421
000350 48 83 42 be 99 9b 4b 3e 9f 32 58 3e 28 ae b9 bb
       -0.18995392 0.19883575 0.2111306 -0.005666513
000360 b1 32 f5 bd 0a fc ed 3d 38 db c7 bd 02 aa 30 bd
       -0.11972559 0.11620338 -0.097586095 -0.043130882
000370 6f ae 2b be 11 e9 6a be b7 ca 08 be 09 fe e3 3c
       -0.1676576 -0.2294047 -0.1335858 0.027831094
000380 ce 32 98 bd b7 d8 fa 3e 4c 33 3d 3e a1 d3 93 be
       -0.07431565 0.48993465 0.184766 -0.28872398
000390 8d 63 9d 3d e1 7e 18 bf 26 12 0e be 63 c6 84 bd
       0.076850034 -0.595686 -0.1387411 -0.06483152
0003a0 d1 8f d8 3c 6c 34 08 3e 7b 96 a1 3c da c1 cf 3c
       0.026435765 0.13301247 0.019725075 0.02536099
0003b0 71 ab 8b 3e 8e dc b5 be f3 ae 6e 3e 42 30 cf be
       0.27279237 -0.35519832 0.23308925 -0.40466505
0003c0 97 bc ab 3d 86 ef 98 bd 6c 12 51 be 9c b2 cf 3d
       0.0838558 -0.074675605 -0.20417184 0.10141489
0003d0 e1 05 5e 3e e9 55 bc bd 97 5a 5e bd cf b8 b1 be
       0.2168193 -0.091960736 -0.054285612 -0.3471131
0003e0 a8 b8 06 be 5c 6a 92 3e 8b fe bc be ef 26 6c be
       -0.13156378 0.2859677 -0.3691295 -0.23061727
0003f0 c1 7d 90 be 7b 28 5a 3e 11 0a bc 3c 22 60 fe 3e
       -0.28220943 0.21304505 0.022954019 0.4968272

bias f4 [64]
000000 1f 3c 98 be bb 53 37 be 0f 04 bf 3e 0e 8a 89 3e
       -0.2973337 -0.17903034 0.37307784 0.2686314
000010 8f b9 d2 3d 86 57 41 be cf ae 00 bf 9e 39 88 be
       0.10289299 -0.18881044 -0.50266737 -0.26606458
000020 fa c3 a5 3e 9d 37 b6 3e 9c cf 6a be f8 03 18 3e
       0.3237608 0.35589305 -0.22930759 0.14845264
000030 0b d9 06 be b7 81 b2 be 77 ac f8 3e 25 b7 2e bf
       -0.13168733 -0.3486459 0.4856908 -0.68248206
000040 ef 36 5f be 9e 90 8d bc 89 8d b0 be c5 8b a8 be
       -0.21798299 -0.017280873 -0.34482983 -0.32919136
000050 c7 6c 9b be a6 fe c3 be b4 3d 8e bd 21 22 20 3e
       -0.30356428 -0.3828022 -0.06945363 0.15638019
000060 c8 c0 95 be 10 2f f6 3e 13 8d 1f be dd f7 68 be
       -0.29248643 0.4808278 -0.1558116 -0.22750802
000070 4c d3 1d be 6b 85 61 3e a6 85 1a 3d 52 82 6b 3d
       -0.15412635 0.22023551 0.037725113 0.05749733
000080 73 de 11 bd 1f a3 e2 be 27 b3 46 be b6 12 bf bd
       -0.035612535 -0.44265077 -0.19404279 -0.09329741
000090 17 7b 02 be 8c 51 d2 3d 8a 9f e1 be 7c a9 72 be
       -0.12742268 0.1026946 -0.4406703 -0.23697466
0000a0 fd 42 06 3d 28 30 bc 3d b6 a4 e2 3d 3f bc d4 be
       0.03277873 0.091888726 0.11066572 -0.4154987
0000b0 7b b0 59 3e 68 ec 1b 3e 95 15 b4 be 1e f2 3a be
       0.21258728 0.152269 -0.35172716 -0.18256423
0000c0 d0 82 64 3e de 56 eb be c8 26 56 be bf 74 98 be
       0.22315526 -0.45964712 -0.20913231 -0.2977657
0000d0 6a 4b 06 bf 04 fc 0b be 05 28 f1 be 53 6d 19 3e
       -0.5245882 -0.13670355 -0.47100845 0.1498311
0000e0 6f 29 2c be c6 99 74 be 4a 91 69 be 62 a9 b0 3e
       -0.1681268 -0.23886785 -0.2280933 0.3450423
0000f0 1d b3 0f bf 29 36 dd bd 72 94 28 be f1 e1 a6 be
       -0.5613268 -0.10801346 -0.16462877 -0.32594255

weight f4 [32, 64]
000000 41 b3 0f be c9 7d 16 bd 20 74 97 3e 6d cc c8 bd
       -0.14033224 -0.03674105 0.29580784 -0.09804616
000010 d6 1f a0 bd 32 6a fe 3d a0 70 f7 bc 44 cc 81 3e
       -0.07818572 0.12422599 -0.030205071 0.25351155
000020 b0 53 07 3e a3 57 eb bc 6d 46 ad 3d 60 d1 1c be
       0.13215518 -0.028728312 0.08460698 -0.15314245
000030 49 bf 2f 3d 7c 76 05 be 56 ad 80 3e ac 60 8e 3e
       0.042907033 -0.1303348 0.25132245 0.2780813
000040 ef 04 1b 3e ea e0 13 be 56 75 37 3d 69 11 a0 3e
       0.15138601 -0.14441267 0.044789635 0.31263283
000050 e4 79 17 bf 31 24 5d 3d c2 09 9c 3d b6 f9 51 3d
       -0.59170365 0.053989593 0.07619049 0.051263534
000060 bf 0d 8a 3b 02 84 f1 3d 32 bd 9a 3d eb 2d 61 be
       0.0042130644 0.117927566 0.075556174 -0.21990173
000070 c2 80 31 be 9d 1a 40 3d 93 03 ce 3d 66 1e 80 be
       -0.17334273 0.04690038 0.100592755 -0.25023192
000080 0d 42 d9 3d 59 88 81 3d 52 ae 7e 3e 1e b5 b3 bd
       0.10608301 0.063248344 0.24871185 -0.0877478
000090 b8 98 f2 3c ed 71 9d be 24 95 23 be 63 df 82 bd
       0.029613838 -0.3075098 -0.15974861 -0.06390264
0000a0 5e e8 6f 3e e1 b7 7e 3d ee ee c8 3d c3 7c a1 3d
       0.23428485 0.06218708 0.09811197 0.078851245
0000b0 42 4c ea 3c 33 b7 f8 3d fd 21 54 bd c3 a3 ce bb
       0.028600816 0.121443175 -0.051790226 -0.006306143
0000c0 15 db 36 3d 50 e8 d8 3d 61 24 94 3d d8 c2 ed 3c
       0.044642527 0.10591185 0.07233501 0.029023573
0000d0 83 7d 4c 3d f9 01 06 3d bc 2a 02 be 2d fa 9c 3d
       0.049924385 0.032716725 -0.12711614 0.07664905
0000e0 76 04 c4 be f3 eb cc bd 6b 40 c7 3c 63 f4 ce bb
       -0.38284653 -0.10005941 0.024322709 -0.0063157543
0000f0 b1 5c 8e bd 01 df 39 bd a6 e2 a1 bc 92 a1 ce 3d
       -0.06951273 -0.04537869 -0.019761395 0.10089411
000100 30 0e c8 3c a2 18 58 be 98 5f 01 3e 06 d2 d9 bd
       0.024420828 -0.21103147 0.12634122 -0.10635762
000110 d2 ae bb 3d 6d cc 9a 3e 32 dd ff bc 02 2f 94 3d
       0.09164204 0.3023409 -0.031233404 0.072355285
000120 8a 8a 53 be ae 2c 4b be 88 61 9f bd 7b ce 8d bf
       -0.20658317 -0.19841263 -0.077822745 -1.1078638
000130 5a 97 65 bc 0f a0 93 bd 42 00 bc 3d 5b 3d 21 3e
       -0.014013136 -0.07208263 0.09179737 0.15746062
000140 d6 8a 28 3e 47 59 89 bb e2 8d 3b bd cb 74 54 3e
       0.16459212 -0.004191551 -0.045789607 0.20747678
000150 e6 25 ce be 5f 54 ef 3d 5c d8 ab be d1 9d 40 3e
       -0.4026329 0.116860144 -0.33563507 0.18810202
000160 c6 b2 1c 3e cf 97 fe bd b0 c4 57 3e 2c 1b 33 bd
       0.15302572 -0.12431299 0.21071124 -0.043727085
000170 aa e8 b2 3d 51 45 2a 3e bd 8f 82 3e 5f 41 c2 3d
       0.087357834 0.16628005 0.2550029 0.09485125
000180 b3 a6 22 3e 32 8b 1d be 60 6c 08 be 22 e0 d8 3d
       0.15883903 -0.1538513 -0.13322592 0.10589625
000190 09 5d 90 3d 6e 41 51 bf ce db b9 3d f5 3c 21 bd
       0.07048995 -0.8174046 0.090751275 -0.039364774
0001a0 49 78 da 3d 17 c9 fc bd 65 b2 c8 3c 08 ad 1b 3e
       0.10667474 -0.12343042 0.024499128 0.15202725
0001b0 7f 79 41 3e 98 b0 90 3d 11 b2 d2 bd 35 40 1a 3d
       0.18894003 0.070649326 -0.1028787 0.03765889
0001c0 3d b7 6e 3e 72 fd 5b bd 5d 09 2f 3e 5c f5 34 3e
       0.23312087 -0.0537085 0.17093416 0.17671722
0001d0 28 3c 43 3e d6 19 43 3e 64 1a 9f bd 51 2b eb 3d
       0.19065917 0.19052824 -0.077687055 0.11482871
0001e0 b8 64 99 3d 7e 18 96 3d 75 5b 57 be 32 db dc 3d
       0.07489914 0.0732889 -0.21030982 0.10783996
0001f0 45 6d b6 3e 23 74 a6 3d a4 9e 82 be 5f f1 94 3d
       0.3563024 0.0812762 -0.25511658 0.072726004
000200 06 d7 82 3d 9a 16 99 3d 38 f4 2b 3e ec 79 ab 3d
       0.06388669 0.07475014 0.16792381 0.08372864
000210 f1 0e 30 3e 17 f9 f9 3d f2 a7 f7 3d 6f 53 d0 bd
       0.171932 0.12205713 0.1209258 -0.10172164
000220 d3 f9 a3 3d 20 fd 14 3e 6f fe 0c bd 02 88 4d 3d
       0.080066346 0.14549685 -0.034422334 0.050178535
000230 f5 3a 95 3c 25 93 af bd 50 69 b5 3d 86 52 32 3e
       0.01821659 -0.085729875 0.088579774 0.17414293
000240 de 51 b8 3d 19 e2 97 3d b9 c8 35 3e a5 e3 f2 3d
       0.0899999 0.074161716 0.17752351 0.11859826
000250 06 19 3b 3e 85 ab d1 3e dd 16 59 3d 44 d1 f0 3d
       0.18271264 0.40951172 0.05300032 0.11758664
000260 09 89 0d 3e e0 42 1d 3c e2 d3 e6 bd 77 86 56 bd
       0.13821806 0.009598464 -0.11270882 -0.05237433
000270 b7 2c 88 be 8a 6f 1c 3e be 49 68 bd d5 e9 0b be
       -0.26596615 0.15276924 -0.05671095 -0.13663419
000280 f7 2e 34 be 73 b7 fe bc 94 13 a2 bd df b9 94 3d
       -0.1759604 -0.031093335 -0.079138905 0.072620146
000290 c2 67 8f 3d bc 87 e3 3c 70 b8 3f bd 0d d6 6f 3e
       0.07002212 0.027774684 -0.046806753 0.23421498
0002a0 6b 7f 08 be 59 ac 93 3d 32 e9 46 be a4 ae 40 3e
       -0.13329856 0.07210607 -0.19424894 0.1881662
0002b0 50 b4 fb 3d 04 d5 95 bc 48 5c 11 be 73 b6 b9 bd
       0.12290251 -0.01829005 -0.14195359 -0.090680026
0002c0 0d 4d e0 3c 93 dc e9 3d db cc 0a bd d9 69 04 3e
       0.02738049 0.11419024 -0.03388677 0.12931003
0002d0 1b 5d b1 3c 41 77 6c 3d 49 4e af bd 10 38 29 bd
       0.021650841 0.057730917 -0.085598536 -0.04131323
0002e0 0d f9 cc bd 19 ae 8b be b8 f3 b6 bd b7 a4 46 be
       -0.1000844 -0.27281263 -0.089332044 -0.19398771
0002f0 74 a0 4e 3e ed 99 e3 3a 97 f3 16 3e 8c 28 cb bd
       0.20178396 0.0017364599 0.1474136 -0.09919843
000300 8f b4 86 3d 2a 21 10 bd b7 75 11 be b3 a0 c7 bd
       0.065774076 -0.035187878 -0.14205061 -0.09747448
000310 ea a3 86 bd 55 21 e5 bd 33 94 43 3d 38 0a 13 3c
       -0.06574233 -0.11187998 0.047748756 0.008974604
000320 7f 8a d6 bc fb 2d aa 3c f2 b1 c7 3d 69 32 26 3d
       -0.026189087 0.020773878 0.09750737 0.04057542
000330 d0 60 f3 bd fd 5b 07 be 8d 83 1a 3d b9 bd 89 3a
       -0.118837 -0.13218684 0.037723113 0.0010508812
000340 e1 d2 55 3c 95 84 13 be 71 4c 16 be de 30 03 3d
       0.013050766 -0.14406045 -0.14677598 0.032029025
000350 16 7d 87 3d 55 95 23 be 60 e4 d5 3c 17 c6 d9 bd
       0.06615655 -0.15974934 0.026109874 -0.10633486
000360 00 be 5d 3d ec 51 37 bb ba c9 d1 3d 5f 74 07 be
       0.054136276 -0.0027972413 0.102435544 -0.13227986
000370 0f 41 12 be cb af d9 3c 63 b9 6d 3d f5 33 c3 3c
       -0.1428263 0.026573082 0.058038127 0.023828486
000380 be c4 dc 3c 2c c1 ff bd bd f9 63 3d 97 15 05 be
       0.026949283 -0.124880165 0.05565809 -0.12996517
000390 cd 83 86 bc 2d cb 09 be 52 a9 89 bd db 92 fb bc
       -0.01642027 -0.13456412 -0.067217484 -0.030709675
0003a0 94 af 5e bd de 2c 9b bc ed 57 fd bd b1 52 0b be
       -0.054366663 -0.018942293 -0.12370286 -0.13605763
0003b0 e7 38 9f 3b 4a ae ba bd 31 a3 a5 bd c0 35 92 bd
       0.004859078 -0.09115274 -0.08087767 -0.07139158
0003c0 c8 fb e8 bd f0 79 fd bd 70 a9 24 3d f9 73 29 3d
       -0.113761485 -0.12376773 0.04020065 0.041370366
0003d0 12 a8 cf 3c b1 72 f2 bd 31 d7 98 3c dd 05 68 bc
       0.025348697 -0.11838282 0.018657299 -0.014161554
0003e0 21 b2 eb bd 6d e5 0b 3c fd 2f c8 3d c0 e7 13 be
       -0.11508585 0.008538586 0.09774778 -0.14443874
0003f0 3c a9 27 be 72 24 09 bd 12 c6 c0 3d ad d8 a8 bd
       -0.16373152 -0.033482023 0.09412779 -0.082444526

bias f4 [32]
000000 e9 53 82 3e ed 30 67 3e 01 de 29 3e 5b b9 1c be
       0.25454643 0.22577257 0.16588594 -0.15305082
000010 9a 70 af 3e 1a 14 58 3d ae 14 9d 3d 5d 6c 3f 3d
       0.34265596 0.052753545 0.0766996 0.046734203
000020 2d a7 c7 bd af 1d f5 3d 83 be 9c 3c 84 5e 39 bd
       -0.09748683 0.11968552 0.019133812 -0.045256153
000030 ca 1c da 3d 02 a2 74 3e c2 7f 17 3e b3 34 a8 3e
       0.10650022 0.23889926 0.1479483 0.32852706
000040 50 cc ad 3d 7d 1b 4b be 8a a5 c6 3d bc 88 ff 3c
       0.08486235 -0.19834705 0.09699543 0.03119313
000050 af 1b 93 bc 77 56 b4 3d de b2 e3 bd 52 7d e1 3d
       -0.017957537 0.08805554 -0.111181006 0.11010231
000060 b3 bd c3 3d e8 bc 8e 3d 80 d7 ee 3d ee d7 fb 3d
       0.09557667 0.06969625 0.11662197 0.12297045
000070 52 52 02 3e 23 96 04 3d c0 d3 0e 3c 07 26 a5 bd
       0.12726715 0.032369744 0.008717477 -0.08063894

weight f4 [8, 32]
000000 20 33 48 be 6c 20 45 be ab 60 15 be 8d fe f3 3d
       -0.19550753 -0.19250649 -0.14587657 0.11913786
000010 27 67 70 be 89 21 23 3e ab 78 cc 3e 60 33 b3 be
       -0.2347685 0.15930761 0.39935812 -0.35000134
000020 3b f4 f1 bd 40 6e ba bb 1a 5a 3f 3e b7 b5 27 3e
       -0.118141614 -0.0056894124 0.18686715 0.16377912
000030 ef 88 38 be 7d 70 e8 3d 85 d0 79 3d cd 1f 6f 3d
       -0.18020986 0.113495804 0.060989875 0.058379937
000040 ee 6e ec 3d b1 94 06 3e 60 53 3b 3c fc 0d 4a 3e
       0.11544596 0.13142659 0.011433452 0.19731897
000050 75 85 11 be 8c 25 1e 3e d5 38 d2 bc 0b 1f 60 bd
       -0.14211066 0.1544401 -0.025661865 -0.054717105
000060 33 24 b1 be fd 3c 8f be d1 d7 0c be 27 fa 25 be
       -0.3459793 -0.27976218 -0.13754202 -0.16208707
000070 ba ab 58 3c ac 67 0b 3e 1f 96 13 3e 76 c0 42 3e
       0.013224537 0.13613766 0.14412735 0.1901873
000080 b8 ec ba bb 08 58 e6 bd 76 cc c4 bd 5c e8 0e bd
       -0.0057044886 -0.112472594 -0.0960931 -0.034889564
000090 23 02 8e bb f0 c1 4e 3c 22 ab 16 3e 78 b8 a5 be
       -0.004333751 0.0126194805 0.1471372 -0.323673
0000a0 ce 7a 24 3e ef 02 50 3e 0b 4a 41 3e 50 16 45 3e
       0.16062471 0.20313619 0.18875901 0.19246793
0000b0 c9 90 46 be 65 fc ff 3d c3 65 6d bd 6d 25 d8 3b
       -0.19391169 0.12499312 -0.057958376 0.0065962584
0000c0 20 f7 3b 3d 5b 1f 17 be d7 83 b7 be 03 ee d4 3d
       0.045889974 -0.14758055 -0.35842773 0.1039696
0000d0 3b 33 32 be d1 4e 6a 3d ac 45 d8 bd f1 11 db 3d
       -0.17402355 0.05720407 -0.10560164 0.106967814
0000e0 29 43 5e be 55 52 9f be f9 44 09 be e1 01 41 be
       -0.21705307 -0.31117502 -0.13405217 -0.18848373
0000f0 14 95 b4 3c 78 c0 89 3e 17 8a 27 bc 6e 9b 23 3e
       0.022043742 0.26904655 -0.010225794 0.1597726
000100 b7 15 02 be d0 a7 2f bf fc ca 57 3d 14 88 a4 3d
       -0.12703596 -0.68615437 0.052683815 0.08033767
000110 54 38 47 be 91 76 17 bc b8 b1 b4 be 75 71 8f bd
       -0.19455081 -0.009244577 -0.3529184 -0.07004062
000120 c3 a4 e5 3e db 08 13 bd a1 86 a0 bd a7 b9 18 be
       0.44852266 -0.035897117 -0.078381784 -0.14914571
000130 8c 2b 08 be 82 5f 13 3d e2 42 e5 be 10 85 09 be
       -0.13297862 0.035979755 -0.4477759 -0.13429666
000140 5e 24 f7 be 41 2e 9d 3d b7 1f 8a 3d d9 7a ad be
       -0.48269933 0.07674838 0.067443304 -0.33882788
000150 6b 8f a4 bd aa 8f 8c 3c 0b d7 40 3d 51 e4 9e be
       -0.08035167 0.017158348 0.04708008 -0.31033567
000160 39 fb bf bc 8c 7e f1 bc 74 0b 2b 3e 2c 42 cd 3e
       -0.023435222 -0.029479288 0.16703588 0.40089548
000170 3c 98 d6 be 76 94 9f 3e 51 ac a4 bd 26 1b 19 be
       -0.4191302 0.31167954 -0.08040679 -0.14951763
000180 f8 11 79 3e 66 0e 2a bf 9c 9a a0 bc 53 7c 87 3d
       0.24323261 -0.6642822 -0.019604973 0.0661551
000190 39 d0 bd bd 4d c2 f3 3d 86 00 78 be fe bd 3d bf
       -0.09268231 0.11902294 -0.2421895 -0.7411803
0001a0 71 e1 3b 3e c4 cb 81 be 59 7d 3e 3e db 73 01 be
       0.18347718 -0.25350773 0.18602504 -0.12641852
0001b0 55 ca 1a 3e 76 ce a2 bd 55 0a 61 3d a1 6b d8 3b
       0.15116246 -0.079495355 0.054941494 0.0066046272
0001c0 d3 bc 27 bf 7a 6f 0a 3d 87 ae 50 bd cc b0 db be
       -0.655225 0.03379772 -0.050947692 -0.42908323
0001d0 cb 87 7d be 4b 76 a5 be c3 ad 1f bc 06 cc 0c bf
       -0.24758832 -0.32316813 -0.009746018 -0.54998815
0001e0 8d 13 6e 3e 61 25 a4 bd e2 40 9e 3b ab c5 17 3e
       0.23249646 -0.08014942 0.004829512 0.14821498
0001f0 8a 93 4f be 6d 4e de be 9c 31 a3 be e6 84 59 be
       -0.20271125 -0.4341921 -0.31873786 -0.21242103
000200 87 50 69 3e a8 67 ee bd 2e cf a3 3d 4a 46 da bd
       0.22784625 -0.116408646 0.07998501 -0.10657938
000210 0d 06 d5 bd 24 9d 65 be 46 4b 80 be 94 bc 4c 3e
       -0.10401545 -0.22423226 -0.2505743 0.19993812
000220 7f f2 05 3f e0 bd 62 3d 87 a7 29 be a3 45 23 be
       0.52323145 0.05535686 -0.16567813 -0.15944533
000230 fa 46 05 3d 35 af f8 bc a5 51 e3 bd 5b 14 0d be
       0.03253839 -0.030356983 -0.11099557 -0.13777296
000240 4f 78 ba 3d 77 60 94 3d 8e fa cf 3e 02 ca b1 3c
       0.09104978 0.07244962 0.40620846 0.02170277
000250 2b 5d a0 be df 3c fb 3d 4f 67 1b bd 07 c3 43 3e
       -0.31321082 0.122674696 -0.03794032 0.19117366
000260 8a b2 87 3d 34 cf a8 be 5d 2e 98 3e 50 8f ef bd
       0.066258505 -0.32970583 0.29722872 -0.116972566
000270 4b 29 da be 1f 4e bd 3e d0 4d f2 3c 85 bf 1c be
       -0.4260963 0.36973664 0.02957812 -0.15307434
000280 37 76 2c bd 37 3d 30 be 30 2b c9 3d 43 75 a2 3d
       -0.042104926 -0.17210852 0.098226905 0.07932522
000290 3e 9a ae bc 59 e1 04 be 9f 01 52 be eb 0d ab be
       -0.021313783 -0.12976588 -0.20508431 -0.33409056
0002a0 72 bd 3a be 93 00 37 3b e5 6d 0e be 61 be c1 be
       -0.1823633 0.0027923926 -0.13909109 -0.3784056
0002b0 df 6e 32 3e 5c 88 d3 3e bf e0 bf 3d 82 fc f0 bd
       0.17425106 0.4131497 0.09369039 -0.11766912
0002c0 a1 6c 82 3e de 05 72 3d 4f b8 8d bc c6 a1 0d 3e
       0.25473502 0.059087627 -0.0172998 0.13831243
0002d0 b6 98 89 bd f6 de 9e 3d b7 f3 78 bd e5 1c 87 bc
       -0.067185804 0.0775737 -0.0607793 -0.01649327
0002e0 a0 35 37 3f 13 49 d2 3c 05 21 6a bd d2 7e 3d 3e
       0.715662 0.02566961 -0.057160396 0.1850541
0002f0 4e 06 e2 3d ba 22 b3 3d 14 8f fa bc 3e 0b 08 be
       0.11036359 0.08746858 -0.030585803 -0.13285539
000300 d9 aa 9f bd 63 e7 0e 3e 95 51 ab 3d 86 eb 15 be
       -0.077962585 0.13955455 0.0836517 -0.14640626
000310 18 e6 85 3d 56 36 41 3e 0b 0d 08 3e 44 96 47 bc
       0.065380275 0.18868384 0.13286225 -0.012181822
000320 08 90 ea bd e5 e5 20 bd 44 88 26 3e ff 94 b3 be
       -0.11453253 -0.039281745 0.16262919 -0.35074612
000330 ef 5b ad 3e db ed 8e be a4 11 0b 3e ea a6 8a be
       0.33859202 -0.27915844 0.13580948 -0.2708047
000340 5d 13 ca bc da a1 35 3c 39 da 97 bd 86 9e 6a 3d
       -0.024667436 0.011085952 -0.074146695 0.057280086
000350 e1 00 40 3e aa 01 0a be 35 79 50 bd b2 4a ae 3d
       0.18750335 -0.13477197 -0.050896842 0.08510341
000360 da d4 80 be b5 19 8b 3d cb 3b d3 3e 32 a7 49 3e
       -0.25162393 0.067920126 0.41256556 0.19692686
000370 1b bb 49 bc e2 ef f2 bd e1 33 0d be 81 91 39 3e
       -0.012312676 -0.1186216 -0.13789321 0.18121912
000380 b0 1d 81 3e f3 8a 19 3e aa c8 4c 3e b6 90 f1 3d
       0.25217962 0.14994411 0.19998422 0.117951795
000390 4b 47 8c 3e 10 10 b2 3d b8 f3 fc 3d c1 f8 0b be
       0.27398142 0.0869447 0.12351173 -0.13669111
0003a0 21 26 99 be bb d6 10 bf 04 73 77 3e 35 0c 16 be
       -0.29911903 -0.5657765 0.24164969 -0.14653094
0003b0 81 33 a1 3d 3d 10 bf be 2c 43 f0 3d 64 a7 1d 3e
       0.07871152 -0.37317076 0.11731562 0.15395886
0003c0 4c 1c 0c 3e 04 38 24 be 2e 40 cd bd 5f f9 35 3b
       0.1368267 -0.16036993 -0.10022007 0.0027767045
0003d0 f3 ee ba 3d 4e b9 de be e1 b9 02 3d 79 85 ac bd
       0.09127607 -0.4350075 0.03191555 -0.084238954
0003e0 2c 3a c0 be f6 1c b4 3d aa 7e 89 be 50 d6 43 be
       -0.37544382 0.08794586 -0.2685445 -0.19124722
0003f0 31 6a 82 bd 7b e1 3b bf 53 46 44 3d 5e 87 f8 bc
       -0.06367911 -0.7339093 0.04791863 -0.030337986

bias f4 [8]
000000 49 ca 97 be cc a7 44 bd cd ac 0d be 17 6d 9f 3c
       -0.2964652 -0.048011586 -0.1383545 0.019461198
000010 5b ed a9 bd f0 c4 8e 3d af 61 36 3e c9 9d a8 3e
       -0.08297225 0.069711566 0.17810701 0.3293288
