runthroughs/run_1/full_input_aug_model_save_k_means_centers.pth (torch, 47132 bytes, 6 tensors)

weight f4 [64, 130]
000000 cd ca 89 bd 21 d3 77 3c b6 22 a0 3d a6 b9 90 3c
       -0.06728134 0.015126021 0.078191206 0.01766665
000010 e7 93 91 3d 6e 3d 99 bd 69 9a ac 3d ec 65 19 3b
       0.07108288 -0.0748242 0.08427889 0.0023406697
000020 34 bb 45 bd 6d 8c 8a 3d 2f 4c e9 3c d3 ab f1 bc
       -0.048274234 0.06765065 0.02847871 -0.029500877
000030 b0 9f d9 bb 1c 14 0d 3c 14 ed 37 bd 8f a7 81 bd
       -0.0066413507 0.0086107515 -0.04490383 -0.063307874
000040 23 81 88 bd cd ae 92 bb 41 ac 83 3d 36 66 56 3d
       -0.06665256 -0.0044764043 0.06429339 0.05234357
000050 d9 c4 a6 3d 05 39 af bc 6b 35 fe bc be 21 a3 bd
       0.081430145 -0.021389494 -0.031031331 -0.0796542
000060 32 8f 95 bd 44 a5 9e 3c 40 3c 8e bd fb 08 6e bc
       -0.07302703 0.019365914 -0.069450855 -0.014528508
000070 b6 a9 1c 3c 76 5f 1d 3d af 53 da bc 6b 2f a1 bd
       0.009561947 0.038421117 -0.026651232 -0.078703724
000080 35 2c 8c bd 78 e6 b3 bc 72 f5 4b 3d ba 70 cc bc
       -0.06844369 -0.021960482 0.04979462 -0.024956096
000090 50 4b 01 3d 3b cd a5 bd 40 00 91 3a 41 17 60 3d
       0.031565964 -0.08095785 0.0011062697 0.054709677
0000a0 4c 1a 3c bc b6 6d 0e 3d 0b b4 ab 3a ed f1 91 bd
       -0.011480879 0.034772597 0.0013099922 -0.07126222
0000b0 b9 47 a1 3c d3 61 87 bb da 89 ae 3d cc 8b 89 bc
       0.01968752 -0.0041315346 0.08522387 -0.016790293
0000c0 02 b4 69 3d a3 95 33 3d 1e fe af bd 53 1a 1c bd
       0.057056434 0.043843877 -0.08593391 -0.038111042
0000d0 8a 06 83 bd 3b cb 05 3d 6e 3a a7 bc 9b f6 8c bd
       -0.063977316 0.03266452 -0.020413604 -0.06882974
0000e0 4f 01 90 3d fe 2b 92 3d 4b 3f 35 bd 57 ea 85 bd
       0.070314996 0.07137297 -0.044249814 -0.065388374
0000f0 00 d7 81 3d 30 57 87 bd c4 82 6c 3d c6 cb e9 3c
       0.06339836 -0.066084266 0.057741895 0.02853955
000100 97 19 8d 3d eb 23 3a bd 94 f4 df bb e5 81 51 3c
       0.068896465 -0.04544441 -0.006834576 0.012787317
000110 e4 d6 2a bc 9c fc 3b bd 0c 4e 2a bd 6d 88 f2 bb
       -0.0104272105 -0.045895204 -0.041578338 -0.007401517
000120 0e ca 78 3d ad 9c 6e bd 5c f5 ea bc 67 5b 9a bd
       0.06073957 -0.058254886 -0.02868145 -0.07536965
000130 d8 4b a9 bc e1 44 15 bd 9f 9d 73 3c 92 8c 83 ba
       -0.020666048 -0.03644264 0.014869123 -0.00100364
000140 eb a1 52 3d 95 84 3e bc 56 7a 3c 3d ce 39 a7 bd
       0.05142395 -0.01162829 0.046015106 -0.08165322
000150 01 3b ed bc b7 5f 4a bd bf 00 97 3d 1f 2b 48 bc
       -0.0289588 -0.049407687 0.07373189 -0.012217312
000160 87 e1 e1 3c 0e 31 c4 3c 6a f4 a8 bd e6 e3 40 bd
       0.02757336 0.023949172 -0.08249743 -0.04709234
000170 a9 13 a8 3d bd 41 6f bd ab fa a5 bd c6 a5 1b bd
       0.08206875 -0.058412302 -0.08104452 -0.03799989
000180 15 d2 98 3d 9d 84 82 3d 98 5f 70 3d 6a 92 29 3d
       0.07461945 0.0637295 0.058684915 0.041399397
000190 e5 f1 48 3d 80 78 a2 bd 6a 34 0c bc 63 35 fa 3c
       0.049058814 -0.0793314 -0.008557418 0.030543035
0001a0 4d c3 9c 3c f3 7b 38 3d f7 32 d3 3c 1d dc 0a bd
       0.019136095 0.045040082 0.025781138 -0.033901323
0001b0 76 38 db bc 7c c5 9c bd b9 ac 87 3d c3 af b3 3c
       -0.026760321 -0.07654855 0.06624741 0.021934396
0001c0 a1 11 c2 bc 94 7b 60 3d ae 25 2a bc 84 f2 ec bc
       -0.023690047 0.054805353 -0.01038496 -0.028924234
0001d0 44 fa 8e 3d 4d 9c cb bc 78 b1 a8 bd 1c 57 a5 3d
       0.06981328 -0.024854803 -0.082369745 0.080732554
0001e0 2f f8 8e bd cd 9b 93 bc 7b 57 36 3b 16 3e 81 bd
       -0.06980931 -0.018018628 0.0027823139 -0.0631067
0001f0 36 83 12 39 99 ff 51 bd 84 1a 7a bd e0 9c 64 3d
       0.00013972525 -0.051269148 -0.061060444 0.05581367
000200 89 89 20 bc 42 34 28 bc 1a 81 90 3d 58 a7 9c bc
       -0.009798416 -0.0102663655 0.07055874 -0.019122764
000210 41 76 93 3d 7a ba b9 3c ad 3d 75 bd 9a 77 0f 3d
       0.072002895 0.022671927 -0.05987327 0.03502617
000220 ae 04 1b bd c0 00 8e 3d 4c f9 ae 3d bd db 7d bd
       -0.03784626 0.06933737 0.08543643 -0.061977137
000230 dd 1f 8f 3c 39 1d 96 bd 38 e0 ae bc cc cb 4c bd
       0.017471248 -0.073297925 -0.02134715 -0.049999043
000240 f8 e2 68 bd 7b 64 9e bd e3 2b 88 3d 21 27 1c bd
       -0.05685708 -0.07734009 0.06648996 -0.038123254
000250 8b 29 b9 3c ad 2a b2 3c 87 24 8e bd 33 fa 63 3c
       0.022602817 0.021748865 -0.06940561 0.013914633
000260 d3 7a b4 3c 4a 78 f2 3c 1e 0a b3 bd e6 5c af 3d
       0.022031223 0.029598374 -0.08742164 0.08562641
000270 7a 8f 85 bd 74 07 98 bd ec cc 7f bd 07 75 1d bd
       -0.065215066 -0.074232966 -0.062451288 -0.038441684
000280 ad 48 7d 3d a5 7e aa bd 42 0d ad 3d d5 bb a5 3d
       0.061836887 -0.08324937 0.08449794 0.08092467
000290 95 5d 86 bd 7a 3a 24 3c b0 90 7e bd 02 f5 73 3d
       -0.06560818 0.0100237075 -0.062149704 0.05955983
0002a0 10 f7 8d bd a4 80 2e bc ab 2f bd bb f2 48 90 bc
       -0.06931889 -0.0106507875 -0.0057735047 -0.017612908
0002b0 d8 2b 89 3c 6f db 36 3c b1 17 d5 3c 77 42 67 3c
       0.01674454 0.0111607155 0.026012274 0.014114968
0002c0 da f4 20 3d e6 72 85 3b df 63 37 3d 3a 8d 63 3d
       0.03929601 0.004072535 0.04477298 0.055554606
0002d0 8e 90 70 bc 70 46 8c 3c 96 aa 50 3d 2f 20 6b bc
       -0.014682902 0.017123431 0.050943933 -0.014350935
0002e0 e8 e5 19 bd de 78 c1 3a a9 c0 5c 3c 5e 78 2a bd
       -0.03757277 0.0014760753 0.013473668 -0.041618697
0002f0 67 ca 80 bd ba d8 05 bc 82 40 6e 3d f8 5c b1 bd
       -0.06288605 -0.008169347 0.05816699 -0.086603105
000300 e7 f0 14 3d f1 51 09 bd 32 57 f0 3b c0 6e a4 3d
       0.036362555 -0.03352541 0.0073346132 0.080289364
000310 58 ff 64 bd c4 e5 2d 3d d7 13 53 bd 65 29 90 3c
       -0.055907577 0.04245545 -0.051532593 0.017597863
000320 da 7d 2b bd 36 c4 a3 3d 6d 27 d1 bc d3 07 ca bc
       -0.04186807 0.07996409 -0.025531495 -0.024661934
000330 2e 22 d9 ba 9b 06 a4 3d e0 f7 a0 bd 54 63 86 bd
       -0.0016565972 0.080090724 -0.078597784 -0.06561914
000340 6c 41 05 3d d6 d9 9e 3d 01 a6 a4 bd 7c 76 b1 bd
       0.032533094 0.07756393 -0.08039475 -0.08665177
000350 9f 9d 4c 3d 83 bf e2 bc 82 cf 86 bc 42 41 19 bb
       0.049955007 -0.02767921 -0.01645637 -0.0023384844
000360 37 bd 9b 3b df 44 c2 3c 99 35 5f bc 73 15 4e 3c
       0.004752781 0.02371448 -0.0136236185 0.012578356
000370 b1 14 5b 3d 19 0e 72 3d 6b 2e 03 bc e3 06 8b bd
       0.05348653 0.059095476 -0.008006672 -0.06788423
000380 bc 31 3a 3c b7 2e 96 bc 02 f6 65 3d 5f d1 45 bd
       0.011364397 -0.018332822 0.056142814 -0.048295375
000390 8a 6d 36 bc e7 17 5c 3d 0d 49 86 3d 7a 30 86 3d
       -0.011134515 0.053733733 0.06556902 0.06552215
0003a0 a3 f4 3e 3d 6c 9c a6 3d 6f 0a 40 3b 04 85 da 3c
       0.046620023 0.08135304 0.0029303094 0.026674755
0003b0 cf 3b 43 3c c3 4e c2 bc 49 cc f0 bb 9b 3e 8f bc
       0.011916115 -0.023719197 -0.0073485714 -0.017485907
0003c0 56 f1 a4 bd 0e 95 5e bc b5 de 1b bd 50 33 7e bd
       -0.08053844 -0.013585342 -0.038054187 -0.062060654
0003d0 73 44 c5 3c b8 f2 3e 3d 7f 3b 11 bd e8 85 03 ba
       0.02408049 0.046618193 -0.03545713 -0.0005017207
0003e0 fa 80 dd bc 34 d6 48 bd ad bd 3e 3c c7 01 12 3d
       -0.02703904 -0.049032405 0.011641902 0.035646226
0003f0 d2 6d c3 bc c4 1b 62 bc 19 08 8a bc 3f 50 8b 3d
       -0.023856077 -0.013800565 -0.016849564 0.06802415

bias f4 [64]
000000 3a a7 4e bd 7e 8f 3f bd 46 bb 82 3d de b7 17 bd
       -0.05045245 -0.046767704 0.06383376 -0.037040584
000010 97 45 15 3d 3e f2 54 bc 37 6c 54 3d f0 61 61 bd
       0.03644332 -0.012997208 0.051861014 -0.05502504
000020 92 6e 1d b9 64 2a 10 bd d8 5c 3c bd 7d c4 a4 bd
       -0.00015013877 -0.035196677 -0.04598698 -0.0804529
000030 80 f5 5f bc 49 e3 6b 3d 01 71 36 3c 56 e9 92 3d
       -0.013669372 0.057589803 0.011135341 0.071734115
000040 a9 94 c7 bc 3e 15 7e bd 0d 29 0f 3c 4a 3a 4f bd
       -0.024362879 -0.062031977 0.008737815 -0.0505927
000050 59 c8 66 bd 06 f3 5b 3d 7a fd 4e bc 73 76 0e 3d
       -0.05634341 0.053698562 -0.012633676 0.03478093
000060 4c 3d 8a 3d 81 c6 f4 bc c6 09 61 bd b3 db 1f 3d
       0.06749973 -0.02987981 -0.05494096 0.03902788
000070 02 da 66 bd d2 d6 a6 bd 72 dc b2 bd 8e c9 37 3c
       -0.056360252 -0.081464425 -0.08733453 0.011217488
000080 6b 87 af 3d d0 00 12 3d 7f c2 82 3b 98 46 9b 3c
       0.08570751 0.035645306 0.003990471 0.01895456
000090 ee ba 70 bd 86 3e 46 bc c0 ec c1 3c 3b 35 98 b9
       -0.05877202 -0.012099868 0.023672462 -0.0002903136
0000a0 83 bd 5f bd 1e 73 21 bd fa 45 5a 3d 06 41 64 bc
       -0.05462409 -0.039416425 0.05328939 -0.013931518
0000b0 48 c5 a8 3a 49 50 a5 3c 77 b3 45 3c ea 24 ae bd
       0.0012876177 0.020179885 0.0120667135 -0.085031345
0000c0 b2 5a c1 3c 6a c8 bf 3c 44 a1 14 3d fd 6f 87 3c
       0.023602817 0.023410995 0.036286607 0.016532892
0000d0 cc cd 7f bd 22 e1 b0 3d 6f 62 1e 3d 1a 24 a5 3d
       -0.062452123 0.08636691 0.038668092 0.080635265
0000e0 4b 2c 92 3c 85 ee 90 bd e5 6f 9c 3d c1 91 71 bd
       0.017843386 -0.07076744 0.0763853 -0.058976892
0000f0 1f b3 a6 bd 09 37 8c bd 97 78 98 ba 15 3b 3d bd
       -0.081396334 -0.068464346 -0.0011632618 -0.046198923

weight f4 [32, 64]
000000 e6 b9 b4 3d d6 fb a8 3d 58 ba 94 bd 58 f8 2d bd
       0.0882452 0.08251159 -0.07262105 -0.042473167
000010 9a 40 8b bd 66 6a aa 3d e8 f8 87 bc 88 4d bb 3c
       -0.06799431 0.08321075 -0.01659818 0.022864118
000020 84 2f 18 bd ac f2 4f bd c6 a4 dd 3d ea eb a4 bd
       -0.03715469 -0.05076854 0.10822444 -0.080528095
000030 82 da ba 3d 80 da c2 3d 36 44 93 3d 60 d1 a8 bd
       0.09123708 0.09514332 0.071907446 -0.0824306
000040 34 dd fc bd 28 a7 a4 bd 06 14 d9 bd 98 f4 fd bc
       -0.12346879 -0.08039695 -0.10599522 -0.03100042
000050 0e 1d f7 3d a0 1e 2d 3d c6 53 92 bd b8 b5 cd 3c
       0.120660886 0.042265534 -0.07144885 0.025111064
000060 4c 8d 42 3d a8 b1 7c 3d ba 18 8f 3d d8 cf 21 3d
       0.047498032 0.061692864 0.06987138 0.039504856
000070 c0 96 f6 3b 6e 3d db bd 48 54 78 bd 00 2c f2 3a
       0.007525295 -0.10705076 -0.060627252 0.0018476248
000080 04 58 40 bd ca cb c7 bd 10 11 77 3d f8 4f d8 bd
       -0.04695894 -0.097556666 0.060319006 -0.10562128
000090 f2 6b c3 bd 08 5c 28 3d dc 19 b3 bd 50 a7 ce bc
       -0.09542073 0.041103393 -0.08745167 -0.025226265
0000a0 f0 4a c3 bc c4 81 15 3d 5a 45 96 3d e8 77 bd 3c
       -0.023839444 0.036500707 0.073374465 0.023128465
0000b0 c2 35 ed 3d 2c de 32 bd 00 70 db b8 98 24 ec bc
       0.11582519 -0.04366891 -0.000104635954 -0.028826043
0000c0 30 35 9b 3d f4 fd 9e 3d 24 a8 3f bd 10 e9 17 3c
       0.07578504 0.077632815 -0.04679121 0.009271875
0000d0 0a 10 f7 3d 08 be 9f bc 72 a2 dd 3d 82 ee e1 3d
       0.12063606 -0.019499794 0.108219996 0.1103182
0000e0 ce d3 b0 bd e0 64 cc bd 26 ea a9 3d 8c 3f c6 bd
       -0.086341485 -0.09980178 0.082966134 -0.09680089
0000f0 9c 97 04 bd 14 8e cf bd 00 61 68 bb 62 b6 d3 3d
       -0.03237115 -0.10134521 -0.0035458207 0.10337521
000100 50 f5 08 bc 44 61 61 bd 7c 9c b1 3d 3a 0f 8b bd
       -0.008359268 -0.0550244 0.08672425 -0.067900136
000110 7a d2 d4 bd 8c 10 c5 bd c4 9b 5d 3d 94 cf 00 bd
       -0.10391708 -0.09622297 0.054103628 -0.031447962
000120 7c 24 26 bd e8 19 ba 3d b0 45 4e bc 70 a5 91 3c
       -0.040562138 0.090869725 -0.012589857 0.017779082
000130 18 9a a1 bc ac 79 25 3d 6c 77 9a bd c0 89 e6 3c
       -0.019726798 0.04039924 -0.07542309 0.028141856
000140 92 17 e1 3d 80 2e 5f 3c c0 54 69 3d 60 48 e6 bc
       0.10990824 0.013621926 0.05696559 -0.028110683
000150 ba 0f d3 3d 0e df 96 bd a0 2b 6f 3c 38 38 39 3d
       0.10305734 -0.07366763 0.014597803 0.04521963
000160 90 cc 49 3d ba 34 85 bd e2 9d cf 3d b4 92 19 bd
       0.04926735 -0.065041974 0.10137536 -0.037493423
000170 36 db 92 bd 28 45 dd 3c 52 3b cc 3d 3c e5 81 bd
       -0.071707174 0.027010515 0.09972252 -0.06342551
000180 c0 15 42 bb d6 4e 93 bd 14 ed 44 3d fe ed c2 bd
       -0.0029615015 -0.07192771 0.048077658 -0.0951805
000190 e4 98 d2 3d 4e ca cd 3d f8 3f c2 bc 66 09 82 bd
       0.10283068 0.10048352 -0.023712143 -0.06349449
0001a0 b0 76 06 bc 42 fd d3 bd c2 ca a2 bd b4 8b 87 bd
       -0.008207008 -0.103510395 -0.07948829 -0.06618443
0001b0 70 8d 15 3c 98 dd ad 3d c4 60 0e bd d8 f1 c2 3c
       0.00912796 0.08489531 -0.03476025 0.02379696
0001c0 ba a5 e0 bd 74 98 5d bd be c8 cf bd 10 ce 36 3c
       -0.1096911 -0.05410047 -0.101457104 0.011157528
0001d0 a4 20 59 bd be 8a 82 3d e8 ef 89 bc ae ea bb bd
       -0.053009644 0.06374119 -0.016838029 -0.09175621
0001e0 ac 7a 38 bd 36 18 8b bd 48 4d 00 3d e0 42 9b bc
       -0.045038864 -0.06791727 0.0313237 -0.018952787
0001f0 0e 2d db bd 80 bc e6 bd 20 5f af 3d 90 94 01 bc
       -0.10701953 -0.11266422 0.085630655 -0.007908955
000200 f4 87 94 bd d0 99 11 3c 9c 01 a6 bd 80 bd eb 3b
       -0.072524935 0.008886769 -0.08105776 0.007194221
000210 f8 5f 53 3d 9c 07 e4 3d ca 55 b3 3d fa 41 cb bd
       0.051605195 0.11134264 0.08756597 -0.099246934
000220 68 c1 73 bd 42 bc 9c bd 58 35 df bc 92 6f ef 3d
       -0.05951062 -0.07653095 -0.027247116 0.11691202
000230 54 a7 18 3d c6 9f fa bd 2c cc 57 bd 04 ff 07 3d
       0.03726895 -0.122375056 -0.052684948 0.033202186
000240 b0 1a 75 bd 30 26 d9 3c 08 7d c8 bd 54 32 c6 bd
       -0.059839904 0.026507467 -0.09789473 -0.09677568
000250 70 50 97 bd 00 71 6b bb 78 a5 bc bc 8c ad ac bd
       -0.07388389 -0.0035925508 -0.02302812 -0.08431539
000260 c0 91 37 3d 98 a2 7a bd 22 d8 9f 3d b8 bc d0 bd
       0.044816732 -0.061190218 0.07804896 -0.10192245
000270 84 b2 bb bd 62 4a d3 3d 66 5c b8 bd ee 47 cc bd
       -0.091649085 0.10316922 -0.090019986 -0.09974657
000280 a6 4b e4 bd 8c c5 ec 3d dc 27 ea bd 80 e1 cf bc
       -0.11147241 0.115611166 -0.11433384 -0.025376081
000290 e8 c6 e4 3c f0 cc 41 bd 7c 39 c1 bd 90 3b 74 bc
       0.027926877 -0.047314584 -0.094347924 -0.014906779
0002a0 f2 c4 e5 bd 6a 7a bc 3d 0e d5 d2 bd 26 7f fc 3d
       -0.11219205 0.09203036 -0.10294543 0.12328939
0002b0 70 6f 2d bd 8e 3b 8c bd e0 19 5c bd ca 10 92 bd
       -0.042342603 -0.06847297 -0.053735614 -0.071321085
0002c0 86 66 80 bd 3c 75 48 bd 5e 1d a6 bd f0 02 8b bd
       -0.06269555 -0.04893993 -0.0811107 -0.0678767
0002d0 10 78 48 bd 46 d5 a2 bd 20 f8 6c 3c 24 43 c2 bd
       -0.048942626 -0.07950835 0.0144634545 -0.09485462
0002e0 30 ba c3 3d e8 03 a0 bd a8 3f 8a bd 20 e3 9f 3d
       0.09556997 -0.07813245 -0.06750423 0.078069925
0002f0 90 7d 3a 3c b8 62 e8 3c fe ad d5 bd 9a 2b ae 3d
       0.0113824755 0.028367385 -0.10433577 0.0850441
000300 0a 3f db bd 54 3d 06 bd 98 31 be bd 70 8c 4c 3d
       -0.10705383 -0.03277333 -0.09286803 0.04993862
000310 f4 52 e3 3d 10 78 f6 bd 60 1e ff bd e0 8a f9 3c
       0.110998064 -0.12034619 -0.124569654 0.030461729
000320 ec 16 5c bd ac 6a 56 bd 40 a9 84 3c 6c 27 48 bd
       -0.053732798 -0.052347824 0.016193986 -0.04886572
000330 a0 d7 a6 bb 60 3b b1 bc c4 37 d6 bd 30 30 ab bd
       -0.0050916225 -0.021634758 -0.10459855 -0.083588004
000340 b8 e0 86 bc f0 50 18 bc 78 0b ab bc 68 59 bf bd
       -0.016464576 -0.009296641 -0.020879492 -0.09343225
000350 00 a4 ec bc 80 61 5f 3b 98 af 5b bd a0 ea b5 bb
       -0.028886795 0.0034085214 -0.053634256 -0.005551651
000360 00 33 fe bc 6a ad a5 3d a8 43 9e bc 0c ac 9e bd
       -0.031030178 0.08089717 -0.01931937 -0.07747659
000370 0c 8f bd 3d b8 29 88 bc 36 3e e0 bd 8c 40 7a 3d
       0.092558 -0.016621456 -0.10949366 0.061096713
000380 e4 be e0 3d f8 b6 ad bd c4 10 4a 3d 40 8a ed 3b
       0.109739095 -0.08482164 0.049332395 0.0072491467
000390 2a 41 f9 3d 08 bd 29 3d 94 bb 04 3d c8 b6 96 3c
       0.12170632 0.04144004 0.03240545 0.018397704
0003a0 1c 49 a1 bd 18 98 93 bd 5a 2f 81 3d 20 b2 e1 bb
       -0.07875273 -0.07206744 0.0630786 -0.006887689
0003b0 b0 82 fb 3c 66 c7 96 3d f4 b9 a7 bd a8 9e 46 3d
       0.030701965 0.07362251 -0.081897646 0.04849115
0003c0 24 d5 30 bd b8 81 fc bd c8 76 e8 bd 7c a0 d9 3d
       -0.043172017 -0.123294294 -0.11350781 0.10626313
0003d0 7c 3a 8c 3d f4 34 9f bd 48 5c 65 3d bc 3c f6 3d
       0.068470925 -0.07773772 0.05599621 0.12023303
0003e0 d0 69 e0 bc b0 23 6d 3d 10 46 0e bc a8 e8 64 bd
       -0.027394205 0.057895362 -0.008683696 -0.05588594
0003f0 e6 aa 8e bd 6e dc a0 bd b8 2f 91 3d b6 64 ac 3d
       -0.0696619 -0.078545436 0.0708918 0.084176466

bias f4 [32]
000000 10 f9 f8 bd fc 18 8d 3d 40 4b 28 3d 28 38 81 bd
       -0.1215688 0.06889531 0.04108739 -0.06309539
000010 7a 81 ba 3d fc 6e f5 3d 86 bd c0 bd d4 2f 3d 3d
       0.09106727 0.11984059 -0.09411149 0.04618819
000020 3a d3 a4 3d 7c f7 db bd a0 23 e6 bb aa 80 eb bd
       0.08048101 -0.10740563 -0.00702329 -0.1149915
000030 40 ba 94 3b ac 92 f3 bd 40 71 8e 3d 80 a3 c0 3b
       0.0045388043 -0.1189321 0.069551945 0.0058788657
000040 d0 82 27 3c 0a 89 c8 bd a6 9d da bd 90 dc 6d bc
       0.010224059 -0.09791763 -0.106746 -0.014517918
000050 00 98 a6 38 00 f9 ba 3b 90 f7 c8 bd 20 c5 87 3d
       7.943809e-05 0.0057059526 -0.09812844 0.066293955
000060 b0 38 10 bc 00 6f 57 bb b0 f9 a1 bd 0e a2 e0 bd
       -0.008802578 -0.0032872558 -0.07908952 -0.109684095
000070 40 d0 1e bc c8 04 a4 bc b8 be e3 3c 30 b9 9c 3d
       -0.009693205 -0.020021811 0.027800903 0.07652509

weight f4 [8, 32]
000000 ff 16 8e bd be 3d 09 3e cd c9 08 3e de 39 1e 3e
       -0.0693798 0.13402459 0.13358231 0.15451762
000010 07 b3 cd 3d cf af 1b 3c 5f bf ff bc 73 e0 81 3d
       0.100439124 0.009502365 -0.031219183 0.063416384
000020 e6 bb 92 bc fa 84 ba bd e5 c8 e1 bc 85 3e 55 3d
       -0.017911863 -0.091073945 -0.027561614 0.052061576
000030 ae a3 7b bd 85 90 f7 3c fb fb 2f bc 36 a0 04 be
       -0.061435394 0.03022028 -0.010741229 -0.1295174
000040 4a e1 b1 3d 98 9f 20 3e 5e 35 1e be 22 6e 01 3e
       0.086855486 0.1568588 -0.15450045 0.12639669
000050 79 6f 07 be 80 5f ad 3d 0a b5 16 be 12 6e 30 3d
       -0.13226117 0.08465481 -0.14717498 0.04307372
000060 96 ae 2d bd cd 16 c4 bd d1 b5 16 be b9 3d 14 be
       -0.042402826 -0.095746614 -0.14717795 -0.1447667
000070 26 c8 1c 3e 04 d4 c3 bc 43 3e 8c bd 08 f9 32 3e
       0.15310726 -0.023904808 -0.06847813 0.1747781
000080 df 50 e6 3d a2 4f 21 3d b8 f3 a0 3d 0e de 13 bd
       0.11245894 0.039382584 0.07858986 -0.03610044
000090 da 42 d9 3d 5b 46 57 3d bf 47 be bd 0a f6 ff bc
       0.10608454 0.05255733 -0.09291028 -0.03124525
0000a0 db 0b 0d 3d 37 78 f9 bd 65 25 83 bd 56 23 56 bc
       0.034435134 -0.12181132 -0.06403617 -0.013069948
0000b0 ad 81 9a bd a4 07 e4 3d cc ff 0b be 97 b4 0d 3e
       -0.07544265 0.1113427 -0.13671798 0.13838421
0000c0 4e e2 d1 bc 8f 5d d7 bc 94 5a 2f 3e d4 37 a6 bd
       -0.025620606 -0.02628973 0.17124397 -0.08116117
0000d0 f5 29 c9 bd 74 94 0d be ba aa 8e 3c cc a4 64 bd
       -0.09822456 -0.13826162 0.017415393 -0.055821225
0000e0 2a 46 c9 3a 05 46 26 3e f6 26 9d bd 4b a1 55 3d
       0.0015355994 0.16237648 -0.07673447 0.052155774
0000f0 09 4d 06 be 3a 7f 29 be 15 bd 06 be b5 67 25 3e
       -0.13115324 -0.1655244 -0.13158067 0.16152842
000100 7f 19 d5 bd c1 88 83 3d 0a d6 ff 3c 37 01 78 3d
       -0.104052536 0.06422568 0.031229991 0.060548034
000110 ab 22 b5 bd ff 70 31 be bd f3 16 be 93 8a 41 3d
       -0.08844503 -0.17328261 -0.14741416 0.047251295
000120 4b 7d 78 bd da 1b 72 bc fd 52 88 bd 2f 51 2e 3e
       -0.060666364 -0.014777148 -0.06656454 0.17023157
000130 4e ac ce 3d b4 d9 52 ba c7 93 08 be 4c fb ab b9
       0.10091458 -0.00080433046 -0.13337623 -0.00032802892
000140 16 08 f0 bd 4a c9 21 be ea 7f 08 bd 8d de 4c bd
       -0.11720292 -0.15799442 -0.033325113 -0.05001693
000150 44 a8 81 bd a8 db 91 3d 37 31 6b 3d 1f 9f b7 bd
       -0.06330922 0.07121974 0.05741998 -0.08965897
000160 c7 6f f2 3c e3 c8 95 bd e4 d0 28 3e 3d 2f f9 3d
       0.029594315 -0.07313707 0.16485935 0.12167213
000170 0c 6d 68 bd 02 06 07 3e 5a b8 3e 3d a0 66 0e 3c
       -0.05674462 0.13185886 0.04656253 0.00869146
000180 53 61 ff 3d 7a bd 75 3d 2d 61 97 bd 28 30 fd 3d
       0.12469735 0.059995152 -0.07391582 0.12362701
000190 e3 35 69 bd 77 e6 1d ba 22 2a 0c bd 9a 77 e5 bc
       -0.056936156 -0.00060234166 -0.03421987 -0.028011132
0001a0 cf 47 3f bd 26 37 0c be 36 32 2b bd 27 77 27 bd
       -0.04669934 -0.13692912 -0.04179593 -0.040885117
0001b0 73 af 98 bb 97 43 14 3d 8e 58 0a 3e 9b ed 98 3d
       -0.004659587 0.03619727 0.13510343 0.07467195
0001c0 56 9a 8b 3d 63 5e f0 bd ed 25 55 bc 3e eb cd bd
       0.068165466 -0.11736753 -0.0130095305 -0.100546345
0001d0 ab 53 b3 3b 03 f4 d8 bc 85 19 f9 bd 3d ce d1 3b
       0.0054726205 -0.026483541 -0.121630706 0.0064027593
0001e0 31 55 03 3e d1 19 03 3e fc 45 02 3e 1c a0 1d bc
       0.12825467 0.12802817 0.1272201 -0.009620693
0001f0 5f 2d 00 3e 80 bd e8 3d 6c 12 2c be 6b a0 54 bd
       0.12517308 0.11364269 -0.16803902 -0.0519108
000200 a0 a2 14 be c7 f7 31 3e 38 be b6 bd f6 c3 8c 3d
       -0.14515162 0.17379676 -0.08923 0.06873314
000210 3c 3f 03 3e 2e f1 99 3a 84 50 a3 3d f4 04 fe bd
       0.12817091 0.0011744851 0.079743415 -0.124032885
000220 e1 77 02 3d 9c d0 82 3d 1d 11 4c 3d 01 c6 65 bd
       0.031852607 0.06387445 0.049821008 -0.056097034
000230 a2 b2 5f bc 0a a2 17 3c 17 d1 d7 3d 69 ed 26 be
       -0.013653429 0.009254942 0.105379276 -0.16301502
000240 8f e8 fb 3d 9e ce f4 3d 75 f0 27 3e de c9 af bc
       0.123002164 0.119534716 0.16400321 -0.021458562
000250 ff 51 88 3d 4a 01 fb bd 57 55 2d be d4 f6 09 be
       0.066562645 -0.12256105 -0.16927086 -0.13473064
000260 c9 fd aa bd e7 a5 04 3e 18 3a df bd b9 44 e3 3d
       -0.08349187 0.12953912 -0.108997524 0.11097092
000270 99 7e 00 be f0 54 24 3e 1d 31 e9 bd 2c 81 8a bd
       -0.12548293 0.16048026 -0.11386321 -0.06762919
000280 64 11 a0 bd ef 01 80 3d 49 7c f8 3d ee 33 fc bc
       -0.07815817 0.06250369 0.121330805 -0.03078648
000290 2c 6d ac 3d 97 bc 6d 3c 5d 31 74 3c 19 cd 2a 3d
       0.084192604 0.014510295 0.014904347 0.041699503
0002a0 52 bb 03 be da 64 a2 bd 21 e3 31 3e 08 9e 33 3e
       -0.12864426 -0.07929392 0.17371799 0.17540753
0002b0 0b 31 2b 3d c7 dc 22 3e 69 15 a9 bc a4 9d 15 be
       0.041794818 0.15904532 -0.020640092 -0.14610916
0002c0 3f c1 2d be 07 1b ed 3d 20 7c 6f 3d b8 2a 62 bd
       -0.16968249 0.11577421 0.058467984 -0.05521652
0002d0 d7 5d ba bd 8f 74 9c 3d 6f 32 ab 3d 05 f6 e1 3d
       -0.0909993 0.07639419 0.08359229 0.110332526
0002e0 71 c4 5f 3d 61 89 f2 3d ae f4 0d be 23 3d 43 3a
       0.0546307 0.11842609 -0.13862869 0.000744777
0002f0 98 0f 08 bd 83 78 b2 bd 23 44 80 bd 3e 41 a0 bd
       -0.033217996 -0.08714392 -0.06262996 -0.07824944
000300 fe 93 9a 3d 50 14 f7 bd 6c 6c aa 3d 9e 81 a5 3d
       0.075477585 -0.12064421 0.08321461 0.08081363
000310 15 3d 88 3d d9 9d 16 bd 2e 23 2d be 9c f7 e3 3d
       0.066522755 -0.03677163 -0.16907951 0.11131212
000320 bb 0e 6d 39 8a 0e b3 3d 82 e3 90 bd c1 eb 78 bd
       0.00022607569 0.087430075 -0.07074644 -0.060771707
000330 e9 b7 57 3d a8 95 34 3e 54 c2 cd bb 00 d5 d1 3d
       0.052665625 0.17635214 -0.0062792692 0.10245705
000340 36 8b 27 be 8a f4 2a bd 9a 20 34 3e 8c 18 81 3d
       -0.16361699 -0.041737117 0.17590562 0.0630351
000350 1d 7b 5d bd 88 42 07 be e5 17 40 bd 78 a0 13 bc
       -0.054072488 -0.13208973 -0.046897788 -0.009010427
000360 80 70 cb 3d 37 8a 94 bd b9 31 da 3d 60 42 de bd
       0.09933567 -0.07252925 0.10654015 -0.10852504
000370 25 4c 20 3d 0a 7b 28 3c ac b5 12 be 9d 3b b6 bd
       0.039135117 0.010283241 -0.14327115 -0.08898089
000380 37 91 02 be a3 59 f2 bc aa b1 03 3e 82 29 33 be
       -0.12750708 -0.029583758 0.12860742 -0.17496303
000390 87 f4 93 3b 57 6e 1d 3e 2e c9 00 3e 71 39 e3 bd
       0.004515234 0.15374123 0.12576744 -0.110949405
0003a0 d7 d1 73 bd 7c 3c 92 3d 1d 20 f3 bc 7f eb 9c 3d
       -0.05952629 0.07140443 -0.029678399 0.07662105
0003b0 88 91 31 3d ce 6a c4 3d c7 ec 7f bd 7b 40 c1 bd
       0.04335168 0.09590684 -0.062481668 -0.09436127
0003c0 3f e1 ec 3d 36 ee b8 3d d0 e2 b1 3d 99 79 e6 3d
       0.115664 0.0902981 0.08685839 0.11253662
0003d0 2d 9f d9 bc 2e fd fe 3d 6d c4 cb bd 55 69 b8 bd
       -0.026565159 0.12450634 -0.099495746 -0.090044655
0003e0 37 b9 2d be 86 a1 0b be 5d b2 90 bd 62 4e 0f be
       -0.16965185 -0.13635835 -0.0706527 -0.13994744
0003f0 84 38 05 3e 5f 40 ce bb 03 1a 2e 3e a8 08 a1 3d
       0.1300984 -0.0062942947 0.1700211 0.07862979

bias f4 [8]
000000 83 0d 05 be 83 56 a8 bd 4f b6 28 be ec 52 91 3d
       -0.12993436 -0.08219626 -0.16475795 0.07095894
000010 e2 b9 93 3c 14 2f bf bd bc 50 47 3c 38 d4 ad bc
       0.018032972 -0.09335151 0.012165245 -0.021219358
