Example Models/single_model_save_k_means_centers_13/single_model_save.pth (torch, 16044 bytes, 6 tensors)

weight f4 [64, 10]
0.13468042 0.09324288 -0.27366957 -0.026662499 -0.24537812 -0.24748473 0.037164286 -0.18582474
0.25189835 -0.1672482 -0.06329578 0.14328693 0.091419764 0.05208295 -0.009634032 -0.063526906
-0.1468172 0.30743042 0.23995975 -0.15539707 0.18976946 0.103319064 -0.2128333 -0.14965168
-0.0013970615 -0.18505616 -0.19799697 -0.006314861 -0.27512786 -0.20759474 0.05029444 -0.032723468
0.1515497 0.22614105 0.2020331 -0.14147916 0.036953595 -0.10503916 0.07665321 -0.2899286
0.25736246 0.20753306 -0.06737127 -0.1358727 0.26311192 0.1742603 0.30681548 -0.18675798
-0.2221088 -0.28430983 -0.047673307 0.0016138209 0.25773314 -0.16391572 -0.2834269 0.013288746
0.055743847 0.08705042 -0.12493209 -0.2480506 -0.29475528 0.3141328 -0.082287185 -0.05933749
0.17204857 -0.16790237 -0.28958705 -0.30809546 -0.016945798 0.099783584 0.14921363 -0.1422301
0.023127964 0.0141944615 0.19273658 -0.19026227 0.23300746 -0.07143372 0.13591531 -0.26133153
-0.112789266 -0.1748002 -0.15298453 -0.24481542 0.07256453 0.30891374 0.23813647 -0.19758822
-0.031574454 -0.08432178 -0.13813172 -0.13848136 0.08411776 -0.13676964 -0.22144276 0.04227566
0.30056253 -0.01058374 0.30551285 -0.20215645 0.26561898 -0.007408384 0.22559632 0.042718187
0.08022782 -0.2657198 -0.057727214 -0.0037912538 -0.05086725 0.206265 -0.11820851 -0.12711899
-0.22943707 0.10446767 0.26082948 0.056028575 -0.19416422 0.12003035 0.042255227 0.20052521
-0.00028306892 0.29502198 0.27361423 -0.20137416 0.2408298 -0.10681673 -0.30890068 0.2953237
-0.17013209 0.050297003 0.2906237 -0.15198433 0.22732471 0.07531255 0.0023221907 0.121989176
-0.14461434 -0.13496412 -0.26757926 0.2608761 -0.13326621 0.24775803 0.041319508 -0.020233605
0.27779007 0.1582139 0.17383112 -0.044252355 0.13219926 -0.30374753 -0.0075789266 -0.0010960109
-0.26311713 -0.05794103 0.105414055 0.21345685 0.027971877 -0.12014261 -0.14974591 -0.20442545
-0.11796838 -0.15328787 -0.2405807 0.061944067 -0.2035819 -0.007188948 0.22743964 -0.21034901
0.19838023 -0.2559365 -0.2677043 0.30447134 -0.15505716 0.26991594 0.28374028 0.08730371
-0.15769759 0.081717506 0.06581057 0.06585343 0.039388426 0.3107227 0.04358843 0.1569544
-0.117802665 -0.10381162 0.26233518 -0.026651153 0.13159776 -0.13916115 0.06108378 -0.2454773
0.044202596 0.048728794 -0.026702195 0.12750033 0.16963908 0.22474158 -0.28859887 -0.024692213
0.18276326 0.21016498 -0.24781749 -8.7947774e-05 -0.016283832 -0.052574523 0.1355176 0.13234831
-0.28737924 0.05059813 -0.17033029 0.16313419 -0.007234524 0.054936934 -0.04417157 0.2519721
-0.2621523 0.13743979 0.3077457 -0.12492266 0.08135003 -0.15613654 -0.1527145 -0.17259443
0.15630916 0.20395578 -0.04179845 -0.03846194 -0.22824754 0.17071454 0.14386393 -0.014298694
-0.19870538 0.15864429 -0.20648082 0.2059537 -0.2515414 0.11100449 -0.21384469 0.037159007
0.30572793 0.22232296 -0.23622783 -0.075377196 0.052474096 -0.10553189 -0.058230396 0.23894154
-0.2366197 -0.24787863 -0.25962132 -0.005753888 -0.054091573 0.08216681 -0.17318898 -0.16337036
00000000: aae9 093e 20f6 be3d 6b1e 8cbe 506b dabc
00000010: 6744 7bbe a36c 7dbe 9439 183d d748 3ebe
00000020: d2f8 803e 1d43 2bbe 38a1 81bd cfb9 123e
00000030: 493a bb3d ee54 553d 0fd8 1dbc 651a 82bd
00000040: 4057 16be 8567 9d3e 02b8 753e 6920 1fbe
00000050: ed52 423e f298 d33d f9f0 59be 4a3e 19be
00000060: 9b1d b7ba 5d7f 3dbe b8bf 4abe e5ec cebb
00000070: 8fdd 8cbe b793 54be 8b01 4e3d 0b09 06bd
00000080: d82f 1b3e 8591 673e c4e1 4e3e eadf 10be
00000090: a75c 173d c51e d7bd 5cfc 9c3d 8571 94be
000000a0: 03c5 833e 8c83 543e f3f9 89bd 3722 0bbe
000000b0: 9bb6 863e 4b71 323e eb16 9d3e 7c3d 3fbe
000000c0: 7d70 63be 0f91 91be 1645 43bd d886 d33a
000000d0: 99f5 833e 86d9 27be 551d 91be 0ab9 593c
000000e0: a953 643d 7e47 b23d 65dc ffbd fa00 7ebe
000000f0: 2aea 96be 04d6 a03e 2f86 a8bd de0b 73bd
00000100: 802d 303e 99ee 2bbe c144 94be b0be 9dbe
00000110: ead1 8abc 565b cc3d 75cb 183e c4a4 11be
00000120: db76 bd3c e38f 683c bd5c 453e 1dd4 42be
00000130: 8299 6e3e d84b 92bd 622d 0b3e 3fcd 85be
00000140: 0ffe e6bd d3fe 32be faa7 1cbe e5b0 7abe
00000150: b69c 943d f129 9e3e 0cda 733e 9154 4abe
00000160: 3754 01bd e6b0 acbd 6772 0dbe 0fce 0dbe
00000170: ef45 ac3d 570d 0cbe e4c1 62be 3e29 2d3d
00000180: 55e3 993e 6c67 2dbc 2e6c 9c3e 1a02 4fbe
00000190: 36ff 873e 07c2 f2bb b902 673e 44f9 2e3d
000001a0: 7c4e a43d 6d0c 88be 5f73 6cbd af76 78bb
000001b0: 2d5a 50bd 2237 533e 4e17 f2bd 7b2b 02be
000001c0: 8df1 6abe 25f3 d53d 718b 853e 387e 653d
000001d0: fcd2 46be 79d2 f53d d113 2d3d 7b56 4d3e
000001e0: de68 94b9 1f0d 973e 2a17 8c3e 0735 4ebe
000001f0: 169c 763e bbc2 dabd 3b28 9ebe ab34 973e
00000200: 1b37 2ebe 3b04 4e3d a1cc 943e c8a1 1bbe
00000210: cfc7 683e 773d 9a3d e52f 183b 76d5 f93d
00000220: c815 14be 0934 0abe 2600 89be 8d91 853e
00000230: f076 08be 48b4 7d3e a53e 293d f2c0 a5bc
00000240: 803a 8e3e d302 223e c900 323e f541 35bd
00000250: 3e5f 073e cc84 9bbe a558 f8bb 06a8 8fba
00000260: 4ab7 86be 9353 6dbd 53e3 d73d 6f94 5a3e
00000270: 4725 e53c 540d f6bd fe56 19be e854 51be
00000280: 6899 f1bd 7ff7 1cbe c95a 76be 10b9 7d3d
00000290: c677 50be 4491 ebbb f0e5 683e bb65 57be
000002a0: 3024 4b3e 1c0a 83be 8a10 89be abe3 9b3e
000002b0: 4ec7 1ebe 6c32 8a3e 6846 913e 4acc b23d
000002c0: 7a7b 21be 825b a73d b1c7 863d 2ade 863d
000002d0: c255 213d 0c17 9f3e c889 323d a7b8 203e
000002e0: 8642 f1bd 309b d4bd cc50 863e 8553 dabc
000002f0: 90c1 063e 4380 0ebe fc32 7a3d 675e 7bbe
00000300: c80d 353d d897 473d 90be dabc 728f 023e
00000310: deb5 2d3e a822 663e 3bc3 93be 5347 cabc
00000320: 4b26 3b3e 7d35 573e dec3 7dbe 9a70 b8b8
00000330: ac65 85bc 6258 57bd 20c5 0a3e 5186 073e
00000340: 5f23 93be fc3f 4f3d 106b 2ebe a60c 273e
00000350: 960f edbb 8d05 613d 40ed 34bd 7d02 813e
00000360: d438 86be 04bd 0c3e d890 9d3e 74d7 ffbd
00000370: d89a a63d 42e2 1fbe 3161 1cbe 98bc 30be
00000380: 820f 203e c9d9 503e da34 2bbd 448a 1dbd
00000390: b9b9 69be cbcf 2e3e 1151 133e 1245 6abc
000003a0: 6c79 4bbe a673 223e b56f 53be 87e5 523e
000003b0: 09ca 80be 5256 e33d 1afa 5abe 0b34 183d
000003c0: 5f88 9c3e a1a8 633e b5e5 71be 5c5f 9abd
000003d0: 14ef 563d 1b21 d8bd ff82 6ebd 17ad 743e
000003e0: 6f4c 72be e5d3 7dbe 16ed 84be 1c8b bcbb
000003f0: 208f 5dbd 1347 a83d 7458 31be 8f4a 27be

bias f4 [64]
-0.0071795993 -0.15249081 0.28280234 0.013978983 -0.1948972 -0.04384809 0.01755084 0.106643476
-0.04814332 0.05354485 -0.29793134 -0.09567266 0.17475042 0.12982844 0.30921447 0.25259528
0.164103 -0.15352477 0.28532472 0.21686906 -0.11334428 -0.14646214 -0.15706016 -0.20073695
0.12673485 -0.16447918 0.27953896 0.07106926 0.005316071 0.099488266 0.1780421 -0.052486874
-0.24460408 -0.30887443 0.29406017 0.2958712 -0.11856291 0.2784633 0.12521769 -0.2749468
-0.04872966 -0.28557536 0.13721545 0.11257884 0.15052111 -0.01272634 0.045795493 -0.18983166
-0.2619888 -0.11153421 0.115368515 -0.0584533 -0.06525845 -0.17259718 -0.15788238 -0.16554877
-0.06523579 0.2953994 -0.08091896 -0.04183837 -0.16615456 -0.19238886 -0.3096953 -0.20147692
00000000: d842 ebbb 8d26 1cbe 78cb 903e 1b08 653c
00000010: 2293 47be 0e9a 33bd c7c6 8f3c e567 da3d
00000020: ee31 45bd d851 5b3d 758a 98be 07f0 c3bd
00000030: c6f1 323e bff1 043e 5c51 9e3e 2b54 813e
00000040: 9e0a 283e 9935 1dbe 1516 923e ec12 5e3e
00000050: 0c21 e8bd 2cfa 15be 61d4 20be fd8d 4dbe
00000060: c8c6 013e 3b6d 28be bb1f 8f3e c38c 913d
00000070: 7032 ae3b 81c0 cb3d ab50 363e 7afc 56bd
00000080: 7e79 7abe ca24 9ebe 0e8f 963e 6e7c 973e
00000090: 1cd1 f2bd be92 8e3e 1139 003e d4c5 8cbe
000000a0: c198 47bd ef36 92be 3582 0c3e bc8f e63d
000000b0: 3522 1a3e 2482 50bc 0e94 3b3d 3b63 42be
000000c0: 6523 86be 0c6c e4bd 5446 ec3d ba6c 6fbd
000000d0: 39a6 85bd 51bd 30be ebab 21be 9e85 29be
000000e0: 589a 85bd 973e 973e d7b8 a5bd b65e 2bbd
000000f0: 6c24 2abe 9601 45be 6290 9ebe f74f 4ebe

weight f4 [32, 64]
-0.036019787 -0.028918743 -0.08605297 -0.009676471 0.10540742 -0.09654094 0.07802148 -0.096187174
0.02265428 0.0012160689 -0.10062125 -0.06402226 -0.059371576 -0.09516777 0.009119526 -0.099449396
0.116411716 0.0071130544 -0.09527646 -0.049981818 0.10916506 -0.005132973 0.057420522 0.08586465
-0.06384429 0.107274234 -0.06602554 -0.1042141 0.07576507 -0.09499584 -0.0849106 -0.095170245
0.043573737 -0.0063333064 0.10766065 -0.054881617 0.006033957 0.06463541 -0.020411432 -0.008761644
-0.079508185 0.07405527 0.046886355 -0.02139756 -0.052824646 0.083237514 -0.10961616 0.052475646
0.087254524 -0.041930273 0.04965885 0.033512294 0.017226145 -0.0537183 -0.018191189 -0.018588617
0.04816249 -0.12384625 -0.006206304 0.03944181 0.037633672 -0.06796312 -0.044656664 0.074212015
0.029174745 0.12425429 -0.04485795 0.06931594 -0.017112061 0.0198244 -0.0027912706 -0.118614286
0.050689206 0.034402817 -0.108905435 -0.0042979866 0.023384362 0.10058996 0.123505756 -0.022168487
-0.022083536 -0.02797842 -0.09202461 0.06112501 0.12238279 0.10745266 -0.10892823 -0.11545071
-0.08128466 -0.022451505 -0.032337636 -0.11746721 -0.10900541 -0.09895642 -0.03599766 0.0020306855
0.12008029 -0.11792722 0.07652973 -0.051019177 0.12367523 -0.104553774 -0.11061333 -0.018463612
0.051709577 -0.1022706 -0.029228434 -0.09810692 0.07146259 -0.059436724 -0.060462654 -0.1078587
0.03783621 0.11484678 0.031929582 0.0488856 0.09772119 -0.008431375 -0.0006226003 0.10682818
-0.04194638 -0.11458042 0.016058236 0.053208232 0.041256577 0.09288834 0.104481176 0.00020676851
0.07351759 -0.105500296 0.013417661 0.0734306 0.07665709 -0.117243454 0.10945219 0.0042062253
0.012746096 0.0073810965 0.0018961579 -0.07510717 0.108973786 0.03913994 -0.0878043 -0.09579907
0.07006283 0.09843248 0.022461012 0.109415665 -0.010306522 -0.049078584 0.057511985 -0.0009574592
0.015238896 0.009841189 0.09422015 0.058391616 0.06573577 0.014056206 -0.03672725 -0.087038755
-0.015936345 -0.11082986 -0.07047528 -0.030569464 0.093264356 -0.12415752 0.07335803 -0.07645288
-0.115994245 -0.08442797 -0.08438821 0.121087074 0.09110832 0.118758395 -0.06748977 -0.11985493
-0.029880792 0.09869474 0.06449616 -0.09930876 -0.035678744 0.0035817772 0.121030465 -0.08599864
0.08476068 0.07350828 -0.067331284 -0.09315087 -0.074765846 0.08265564 -0.12165448 0.08480573
0.114699855 -0.11729884 -0.018750757 0.08455001 -0.031589746 0.053404048 -0.001148656 -0.056562364
0.09047571 0.019206136 -0.018514007 0.042400286 -0.06631929 -0.023890004 -0.07445985 -0.07186797
-0.07206173 -0.008427918 -0.091503575 -0.014229581 -0.039906174 -0.026045933 -0.058631554 -0.076971844
0.115426555 0.047835007 0.10531229 -0.007037908 0.09209098 0.0019642413 0.002945155 -0.11591941
0.043298602 0.068735585 -0.030127108 -0.11081341 -0.08736494 0.086610585 -0.03620708 0.06344256
0.023256242 0.10717937 -0.0042895824 0.02840428 -0.08692865 -0.08390629 0.09326489 -0.081195846
0.0032113642 -0.11896266 -0.0473274 -0.016294464 0.07551485 0.07729021 0.043051004 -0.03020072
0.053806037 0.032103077 0.04005748 0.01809062 -0.00815773 0.1171637 0.08722305 -0.008655474
00000000: 7c89 13bd 00e7 ecbc 8a3c b0bd 108a 1ebc
00000010: d8df d73d 42b7 c5bd bac9 9f3d c8fd c4bd
00000020: 7895 b93c 8064 9f3a 8412 cebd 1a1e 83bd
00000030: 9c2f 73bd 52e7 c2bd 106a 153c 20ac cbbd
00000040: 4469 ee3d a014 e93b 4e20 c3bd bcb9 4cbd
00000050: ee91 df3d 8032 a8bb c831 6b3d ced9 af3d
00000060: ccc0 82bd 98b2 db3d 6638 87bd 346e d5bd
00000070: b82a 9b3d 2e8d c2bd 9ce5 adbd 9ee8 c2bd
00000080: 607a 323d a087 cfbb 307d dc3d 8ccb 60bd
00000090: 80b8 c53b 925f 843d e035 a7bc 008d 0fbc
000000a0: 30d5 a2bd 4aaa 973d e80b 403d f049 afbc
000000b0: a85e 58bd 6e78 aa3d 707e e0bd b4f0 563d
000000c0: 80b2 b23d 14bf 2bbd 1467 4b3d 3044 093d
000000d0: d81d 8d3c b807 5cbd b005 95bc 2847 98bc
000000e0: 0846 453d 1aa3 fdbd 405e cbbb bc8d 213d
000000f0: c425 1a3d 4030 8bbd e8e9 36bd 78fc 973d
00000100: e0ff ee3c 0879 fe3d f8bc 37bd 84f5 8d3d
00000110: 982e 8cbc c866 a23c c0ed 36bb 0cec f2bd
00000120: 7c9f 4f3d f8e9 0c3d d009 dfbd 20d6 8cbb
00000130: 9090 bf3c 1c02 ce3d 96f0 fc3d b09a b5bc
00000140: 88e8 b4bc 0033 e5bc 6677 bcbd 385e 7a3d
00000150: d4a3 fa3d 2410 dc3d c415 dfbd 6c71 ecbd
00000160: 9278 a6bd 38ec b7bc 7874 04bd a692 f0bd
00000170: 3a3e dfbd aaa9 cabd 4872 13bd 4015 053b
00000180: a8ec f53d d483 f1bd 9ebb 9c3d 7cf9 50bd
00000190: 7049 fd3d 4a20 d6bd 3e89 e2bd 0041 97bc
000001a0: 6ccd 533d 4073 d1bd 7870 efbc 48ec c8bd
000001b0: fa5a 923d ec73 73bd b0a7 77bd 06e5 dcbd
000001c0: 24fa 1a3d ca34 eb3d 98c8 023d 443c 483d
000001d0: 0c22 c83d c023 0abc 0036 23ba bcc8 da3d
000001e0: f8cf 2bbd 24a9 eabd 908c 833c e0f0 593d
000001f0: a8fc 283d 3e3c be3d 3afa d53d 00d0 5839
00000200: 6490 963d 8a10 d8bd c0d5 5b3c c862 963d
00000210: 64fe 9c3d 561d f0bd 7828 e03d 60d4 893b
00000220: 00d5 503c 20dd f13b 8088 f83a cad1 99bd
00000230: a62d df3d 3451 203d bed2 b3bd 4e32 c4bd
00000240: 1a7d 8f3d f896 c93d 2800 b83c 5215 e03d
00000250: b0dc 28bc a006 49bd b091 6b3d 00fe 7aba
00000260: 90ac 793c f03c 213c 7ef6 c03d 0c2c 6f3d
00000270: 7aa0 863d 004c 663c 506f 16bd 6041 b2bd
00000280: f08c 82bc c4fa e2bd 5855 90bd d06c fabc
00000290: 6201 bf3d 4c46 febd bc3c 963d 5493 9cbd
000002a0: 648e edbd 92e8 acbd bad3 acbd 80fc f73d
000002b0: 0097 ba3d 9a37 f33d 1438 8abd 8076 f5bd
000002c0: 90c8 f4bc 7820 ca3d 9016 843d 6462 cbbd
000002d0: e023 12bd 40bc 6a3b d2de f73d 0e20 b0bd
000002e0: 0297 ad3d 828b 963d fce4 89bd e2c5 bebd
000002f0: d61e 99bd 5c47 a93d fc25 f9bd a0ae ad3d
00000300: c2e7 ea3d 603a f0bd 309b 99bc 8e28 ad3d
00000310: 4064 01bd 34be 5a3d 808e 96ba f0ad 67bd
00000320: 544b b93d 3056 9d3c b0aa 97bc ecab 2d3d
00000330: 68d2 87bd f8b4 c3bc 687e 98bd 842f 93bd
00000340: 1a95 93bd 4015 0abc 3a66 bbbd 3023 69bc
00000350: a874 23bd 485e d5bc a427 70bd 6aa3 9dbd
00000360: c264 ec3d a4ee 433d f8ad d73d 409e e6bb
00000370: 329a bc3d 80ba 003b 8003 413b 2867 edbd
00000380: e059 313d 3ec5 8c3d 20cd f6bc 24f2 e2bd
00000390: 64ec b2bd e460 b13d e04d 14bd 2cee 813d
000003a0: e083 be3c dc80 db3d a08f 8cbb 18b0 e83c
000003b0: a607 b2bd 10d7 abbd aa01 bf3d 024a a6bd
000003c0: c075 523b b2a2 f3bd 60da 41bd f87b 85bc
000003d0: 88a7 9a3d 544a 9e3d 4056 303d 8067 f7bc
000003e0: b863 5c3d 847e 033d 5013 243d c832 943c
000003f0: 00a8 05bc 86f3 ef3d 00a2 b23d b0cf 0dbc

bias f4 [32]
0.05518605 -0.061620414 0.025888816 0.04328561 0.106876165 0.046569437 0.0071742237 -0.07579517
0.05176522 0.019025162 0.10393298 0.11281437 0.079840735 0.016408443 -0.07664758 0.11814064
-0.099591106 -0.010479093 -0.05285725 0.08003609 0.1035966 -0.08392486 0.042685375 0.09900099
-0.08551043 -0.057758406 -0.10260479 -0.04243344 -0.0561952 0.087227136 0.014151037 -0.05860746
00000000: c40a 623d b065 7cbd c814 d43c 404c 313d
00000010: e4e1 da3d 98bf 3e3d c015 eb3b 803a 9bbd
00000020: c407 543d a8da 9b3c d0da d43d 380b e73d
00000030: 8a83 a33d 006b 863c 68f9 9cbd b8f3 f13d
00000040: 6cf6 cbbd 80b0 2bbc d880 58bd f6e9 a33d
00000050: 742a d43d cce0 abbd dcd6 2e3d 08c1 ca3d
00000060: 1820 afbd 1494 6cbd 7622 d2bd b0ce 2dbd
00000070: f02c 66bd 24a4 b23d c0d9 673c 600e 70bd

weight f4 [8, 32]
-0.13014552 0.032883223 0.031792905 -0.094484426 0.044422716 -0.12153029 -0.17053267 -0.106098115
-0.161017 0.11224112 0.16912024 0.14735134 -0.092511274 -0.0027850638 -0.09897555 -0.06333873
0.04992703 0.1488404 0.06105755 0.021343585 -0.035925806 0.074593954 -0.023324993 -0.14651316
0.013994587 0.15019444 0.123732105 -0.014849915 -0.112982504 -0.069275446 -0.006253981 -0.07155578
-0.07951014 0.10106567 -0.16103351 -0.019732142 0.13826473 0.061610263 -0.017536292 0.1319087
-0.10259997 0.017917152 0.17427722 0.004313435 -0.16391407 -0.13251917 -0.15515156 -0.09254986
0.05684491 -0.08211058 0.008093628 -0.17355856 -0.0343343 0.06891303 0.07432192 0.14870875
0.08151107 -0.13226864 0.107157856 -0.12600376 -0.029365921 0.09122652 0.14350605 0.025241895
0.071415916 0.09838166 0.17419642 0.13185161 -0.06528972 0.055393264 -0.15969825 -0.046604402
0.05691302 0.10239581 0.11037885 0.02036207 -0.026728457 0.12804824 0.13359407 -0.06628751
0.025061822 -0.030232629 0.0849621 -0.11535902 -0.1084144 -0.034424767 0.14620836 0.03611597
0.058213037 0.06716438 0.16770889 -0.08532672 -0.010187779 0.07126121 0.015704822 0.14499329
-0.15651564 -0.03539821 -0.114856 0.040683825 0.07558023 -0.10174816 0.15405792 0.01902966
-0.16170582 -0.1702306 0.05746786 0.045142688 -0.11221097 0.06321311 0.11485275 0.13223995
-0.024469765 -0.0574361 0.063682556 -0.098707914 -0.16062538 -0.0421899 0.021214973 0.053370427
0.13818225 -0.025179075 -0.11026964 0.002938689 0.049201112 0.16433737 0.11919217 -0.1608325
0.034913734 0.09541469 -0.05943319 0.08280699 -0.01295632 -0.07314105 -0.07596019 0.10106692
0.1467691 0.15554883 0.02875945 -0.00526157 0.10820961 0.1397854 -0.01281576 -0.051032353
-0.11015167 0.07702389 -0.15362492 0.06231363 -0.14963816 0.16646937 -0.16727138 -0.105371356
-0.025049474 -0.045637723 -0.028840035 -0.09616284 -0.028957056 -0.118320026 -0.17022642 -0.16960052
0.14061074 0.04299027 0.16042458 0.0217746 -0.058499087 -0.025497958 -0.16760437 0.16112758
0.11481109 -0.07611744 0.046003748 0.1134417 -0.081790574 -0.10721893 -0.117187016 -0.17275009
0.17310937 0.0030875937 -0.023539752 0.015752722 -0.13142626 0.13426527 -0.17126079 0.13774888
-0.11181544 0.07644456 -0.00038697128 -0.17007147 0.14673075 0.10439273 0.046212334 0.08171924
-0.16437376 0.044824228 0.06871384 0.11677895 -0.17401774 -0.0024856315 0.13639525 -0.13060737
-0.11303447 0.16118665 0.037368197 -0.036661625 -0.097639054 0.028813398 0.024780491 0.1444618
-0.03691575 0.074332096 0.0906223 0.058826864 -0.11559913 0.06487862 -0.027334401 -0.11942556
-0.06372549 -0.047794946 -0.033095285 -0.013750135 0.1407804 0.08153512 0.058040615 0.08465844
0.15316729 -0.12233868 -0.034093533 -0.13122296 -0.08843728 0.073744215 0.1460625 0.061367728
-0.04085534 -0.08181795 -0.11818393 0.042591307 -0.1422104 0.14167954 -0.008392934 0.018200696
-0.09056806 -0.073903486 0.05828382 0.033331327 0.08823053 0.11518371 -0.11833434 0.16059022
0.010527292 -0.14694966 0.100344375 -0.099691585 0.13590348 -0.08490893 -0.076040946 0.0732068
00000000: de44 05be 8fb0 063d 4739 023d 0d81 c1bd
00000010: 98f4 353d dfe4 f8bd 1ea0 2ebe f849 d9bd
00000020: a4e1 24be acde e53d db2d 2d3e 45e3 163e
00000030: 8d76 bdbd 9e85 36bb b1b3 cabd bcb7 81bd
00000040: 4980 4c3d 9e69 183e 7b17 7a3d bed8 ae3c
00000050: f026 13bd b7c4 983d 0e14 bfbc 8c07 16be
00000060: 8d49 653c 92cc 193e 4267 fd3d 0f4d 73bc
00000070: 5f63 e7bd 49e0 8dbd 32ee ccbb d68b 92bd
00000080: 36d6 a2bd 85fb ce3d f8e5 24be 4da5 a1bc
00000090: 4595 0d3e 0b5b 7c3d 45a8 8fbc 1313 073e
000000a0: ef1f d2bd fec6 923c ba75 323e b757 8d3b
000000b0: 17d9 27be 1bb3 07be 0de0 1ebe c88a bdbd
000000c0: 35d6 683d 9729 a8bd 239b 043c 56b9 31be
000000d0: 1fa2 0cbd 4622 8d3d 1736 983d 1b47 183e
000000e0: 47ef a63d 6e71 07be 9475 db3d 2107 01be
000000f0: cd90 f0bc f8d4 ba3d 40f3 123e 17c8 ce3c
00000100: 8242 923d 537c c93d 8c60 323e 1c04 073e
00000110: 9eb6 85bd 0ce4 623d f087 23be 42e4 3ebd
00000120: a01d 693d e5b4 d13d 4e0e e23d 5bce a63c
00000130: a3f5 dabc 141f 033e e2cc 083e bfc1 87bd
00000140: 734e cd3c 6baa f7bc 9c00 ae3d 5a41 ecbd
00000150: 5e08 debd fc00 0dbd a5b7 153e 57ee 133d
00000160: cb70 6e3d 7a8d 893d e1bb 2b3e c6bf aebd
00000170: a4ea 26bc 66f1 913d 66a7 803c 1f79 143e
00000180: a345 20be b7fd 10bd 9f39 ebbd 15a4 263d
00000190: cfc9 9a3d 5761 d0bd 5cc1 1d3e 17e4 9b3c
000001a0: 3696 25be ee50 2ebe 6b63 6b3d 8ae7 383d
000001b0: ddce e5bd e075 813d eb37 eb3d e969 073e
000001c0: d174 c8bc 1e42 6bbd 006c 823d 6027 cabd
000001d0: fb7a 24be 51cf 2cbd 06cb ad3c f39a 5a3d
000001e0: a67f 0d3e 5944 cebc 0dd5 e1bd 0597 403b
000001f0: 1b87 493d 0e48 283e 061b f43d 46b1 24be
00000200: b401 0f3d c768 c33d 3770 73bd b696 a93d
00000210: bf46 54bc faca 95bd 0491 9bbd 2cfc ce3d
00000220: a44a 163e 3148 1f3e f098 eb3c 4069 acbb
00000230: 009d dd3d e723 0f3e 32f9 51bc 4d07 51bd
00000240: 3397 e1bd b4be 9d3d da4f 1dbe 943c 7f3d
00000250: bf3a 19be f276 2a3e 3049 2bbe f0cc d7bd
00000260: 8e34 cdbc 9fee 3abd f041 ecbc 06f1 c4bd
00000270: 5937 edbc c551 f2bd d64f 2ebe c2ab 2dbe
00000280: 43fc 0f3e 9116 303d 5746 243e a560 b23c
00000290: bd9c 6fbd 18e1 d0bc 7ba0 2bbe a1fe 243e
000002a0: 1422 eb3d 76e3 9bbd 6d6e 3c3d 1f54 e83d
000002b0: d181 a7bd 9995 dbbd bfff efbd 66e5 30be
000002c0: 9543 313e 3a59 4a3b 70d6 c0bc da0b 813c
000002d0: 9b94 06be d67c 093e fd5e 2fbe 0b0e 0d3e
000002e0: 7eff e4bd f78e 9c3d 68e2 cab9 3727 2ebe
000002f0: 9640 163e dbcb d53d 2549 3d3d 6b5c a73d
00000300: 9851 28be 9c99 373d d7b9 8c3d cd29 ef3d
00000310: b531 32be fae5 22bb 32ab 0b3e f0bd 05be
00000320: 9e7e e7bd 1d0e 253e 650f 193d 802a 16bd
00000330: fcf6 c7bd 130a ec3c 7500 cb3c cbed 133e
00000340: f834 17bd 6d3b 983d 2f98 b93d 70f4 703d
00000350: 3dbf ecbd 15df 843d 65ec dfbc 6395 f4bd
00000360: 8282 82bd a2c4 43bd ec8e 07bd 3f48 61bc
00000370: bd28 103e e3fb a63d ffbb 6d3d 6761 ad3d
00000380: e3d7 1c3e b48c fabd a9a5 0bbd 505f 06be
00000390: 9b1e b5bd 3507 973d 6891 153e ba5c 7b3d
000003a0: ee57 27bd 2b90 a7bd 6b0a f2bd 3974 2e3d
000003b0: 9a9f 11be 7114 113e 8482 09bc a019 953c
000003c0: bf7b b9bd b65a 97bd 04bb 6e3d 6e86 083d
000003d0: 35b2 b43d 70e5 eb3d 4659 f2bd c371 243e
000003e0: aa7a 2c3c f979 16be 5a81 cd3d 1a2b ccbd
000003f0: 482a 0b3e bce4 adbd 5bbb 9bbd 72ed 953d

bias f4 [8]
0.16873817 -0.12905617 0.074636504 -0.13998993 0.14555831 -0.0057071466 0.09994783 -0.10764398
00000000: b3c9 2c3e 4d27 04be 06db 983d 8559 0fbe
00000010: 3d0d 153e 0403 bbbb 73b1 cc3d 7274 dcbd
