runthroughs/3_models_successful_run/aug_model_save_k_means_centers.pth (torch, 16174 bytes, 6 tensors)

weight f4 [64, 10]
0	0xbe5c742c	-0.21528691
1	0xbded980e	-0.11601268
2	0x3cbf63e0	0.023363054
3	0xba635833	-0.00086725055
4	0x3e9818eb	0.2970651
5	0x3ed1c7f6	0.4097287
6	0x3a1bfea3	0.00059507246
7	0x3d5c68eb	0.053810995
8	0x3cc79c68	0.024366572
9	0xbe4569b8	-0.1927861
10	0xbdc23a38	-0.094837606
11	0xbe6486cf	-0.2231705
12	0xbeec213e	-0.46119112
13	0xbe4b6877	-0.19864069
14	0xbefcb170	-0.49354124
15	0xbf6dde3d	-0.92917234
16	0x3e9f994b	0.3117164
17	0xbe0115d1	-0.12605979
18	0x3e9da1d0	0.30787516
19	0xbe4c88cc	-0.19974059
20	0x3e6c9c40	0.2310648
21	0x3e94296b	0.2893785
22	0x3e694c3c	0.22782987
23	0x3e491818	0.19638097
24	0xbdee25ef	-0.11628329
25	0xbe9585dd	-0.29203692
26	0xbdf15ea9	-0.11785633
27	0x3ddbb473	0.10727777
28	0xbe32bee4	-0.17455631
29	0x3cea1fa1	0.028579535
30	0x3e6b0280	0.22950172
31	0x3cf6f899	0.030147837
32	0xbdc86cc4	-0.097863704
33	0x3e24b3b6	0.1608418
34	0x3ce67551	0.028132113
35	0x3e194117	0.14966236
36	0xbee31d49	-0.4435828
37	0xbecec0af	-0.4038138
38	0x3daa6d03	0.083215736
39	0xbc87f3e4	-0.016595788
40	0x3e5eae6c	0.21746224
41	0x3e6f04ea	0.23341718
42	0x3e8a1166	0.269664
43	0xbd93d5ef	-0.07218539
44	0x3dc822ea	0.09772284
45	0xbf30a551	-0.6900225
46	0xbe897f01	-0.2685471
47	0x3ea6dabd	0.3258876
48	0xbe944a7c	-0.28963077
49	0x3e4fc935	0.20291598
50	0x3e9c272b	0.30498633
51	0x3d05889e	0.03260099
52	0xbd805220	-0.06265664
53	0x3bf39433	0.007433438
54	0x3cf278ba	0.029598583
55	0xbddb736c	-0.10715374
56	0x3e9036ad	0.28166714
57	0xbf054290	-0.5205469
58	0xbe0806a8	-0.13283789
59	0x3eb5a3d4	0.35476553
60	0xbe0a3c48	-0.13499558
61	0xbd5103f5	-0.051029164
62	0x3eb7f365	0.35927883
63	0xbe43bf67	-0.19115983
64	0xbcc38288	-0.023865953
65	0xbec861af	-0.39137027
66	0x3e81a55d	0.25321475
67	0x3e826203	0.25465402
68	0x3e8b39cf	0.27192542
69	0xbeaeabb2	-0.34115368
70	0xbe3d54ee	-0.1848943
71	0xbe4eb98a	-0.20187965
72	0x3e0c685e	0.13711688
73	0xbec34352	-0.381373
74	0x3da50211	0.08057035
75	0xbedf5fcf	-0.43627784
76	0x3ede9dfa	0.43479902
77	0x3e3950f7	0.18097292
78	0x3d96f916	0.07371728
79	0xbdabfd02	-0.08397867
80	0xbec28b44	-0.37996876
81	0xbe2e92a7	-0.17048131
82	0xbef07db5	-0.46970907
83	0xbe8006d8	-0.2500522
84	0xbe716fae	-0.23577759
85	0xbf0db3e5	-0.5535262
86	0xbd4c0b26	-0.04981532
87	0x3d3ce1b4	0.046113685
88	0xbe1c3972	-0.15256289
89	0x3e8891d6	0.26673764
90	0xbe67d39f	-0.22639321
91	0xbd40c227	-0.047060158
92	0xbe8f8779	-0.28033045
93	0x3ef029a5	0.46906772
94	0x3e89d144	0.2691747
95	0x3e5ee8d0	0.21768498
96	0x3e1b0ac6	0.15140828
97	0x3d737c5a	0.059444763
98	0xbeb0f0b1	-0.34558633
99	0xbe531140	-0.20612049
100	0x3e9e5e61	0.3093138
101	0x3c6caa96	0.014444968
102	0x3e605ba5	0.2190996
103	0x3e5a3d5a	0.21312466
104	0x3deef2c6	0.11667399
105	0x3e3c575c	0.183927
106	0x3e962487	0.29324743
107	0x3e87f8c2	0.26556975
108	0xbe5dff02	-0.21679309
109	0xbde573c1	-0.11203719
110	0xbda1e2ae	-0.07904564
111	0x3e278c77	0.16362177
112	0xbe7e7159	-0.24847926
113	0xbbbdf1c7	-0.0057966444
114	0x3d4cba8c	0.049982592
115	0xbdd04431	-0.101692565
116	0xbd262f91	-0.040572707
117	0x3ea91576	0.33024186
118	0xbe2dfa0a	-0.16989914
119	0xbe18b706	-0.14913568
120	0xbd308c8c	-0.043102786
121	0x3e97ad5d	0.29624453
122	0x3dd66790	0.10468972
123	0x3e9c0c7c	0.30478275
124	0x3dabe22b	0.083927475
125	0x3ec55622	0.38542277
126	0xbcad1b69	-0.021131234
127	0x3e91fc02	0.2851258
128	0xbdd38871	-0.103287585
129	0x3e5b55ac	0.214194
130	0x3eb3e2d3	0.3513399
131	0xbf05bde3	-0.5224287
132	0xbda31d64	-0.0796459
133	0xbcc2ca4b	-0.023778101
134	0x3e6d9c37	0.23204122
135	0x3c144359	0.00904926
136	0xbddc0bd6	-0.10744445
137	0x3d8d0762	0.06886174
138	0x3bbfd615	0.005854378
139	0xbdd42f2a	-0.10360558
140	0xbee70032	-0.45117337
141	0xbdbbc35c	-0.09168121
142	0x3bf4c636	0.0074699176
143	0x3ea25fea	0.31713802
144	0x3e81d59a	0.25358278
145	0xbf059261	-0.5217648
146	0xbe318161	-0.1733451
147	0x3cdbd97c	0.026837103
148	0xbd0fe631	-0.035131637
149	0xbc16e3ec	-0.009209614
150	0x3ea3580d	0.31903115
151	0x3e6d90b4	0.23199731
152	0xbccd8ac5	-0.025090585
153	0xbe355bd4	-0.17710811
154	0x3bf0223a	0.007328299
155	0xbf53cfc4	-0.827389
156	0xbe9889ba	-0.29792577
157	0x3e885b48	0.26632142
158	0xbe60d7d3	-0.2195733
159	0x3c48be46	0.012252396
160	0x3d592da3	0.05302204
161	0x3bf796e0	0.0075558275
162	0xbe7fa7a2	-0.2496629
163	0xbd9d7183	-0.07687666
164	0xbdb3fd36	-0.087885305
165	0x3dd1311e	0.102144465
166	0x3eadbe8e	0.33934444
167	0x3f5c21f4	0.8598931
168	0xbe37a9dd	-0.17935891
169	0xbe067c9a	-0.13133469
170	0xbe17da53	-0.14829378
171	0xbe19a45f	-0.15004109
172	0xbf164281	-0.58695227
173	0xbe6d1db8	-0.23155868
174	0xbef9e434	-0.48806918
175	0xbf8a29a6	-1.079396
176	0x3e847726	0.25872153
177	0xbe1b8a00	-0.15189362
178	0x3ea5ecdb	0.3240727
179	0xbe42db03	-0.19028859
180	0xbe80fc48	-0.25192475
181	0xbd94a428	-0.07257873
182	0x3d9b7ed1	0.07592548
183	0xbed11808	-0.40838647
184	0xbc20c479	-0.009812468
185	0x3d1ffa63	0.039057147
186	0x3e1b8391	0.15186907
187	0x3e00ecb9	0.12590303
188	0xbf2a6d2d	-0.6657284
189	0x3f59b9bb	0.8504903
190	0xbda5171a	-0.08061047
191	0x3dc38052	0.095459595
192	0x3e224963	0.15848307
193	0x3f09a784	0.53771234
194	0x3d6cfc74	0.057857946
195	0xbcb26eba	-0.021781314
196	0xbc91869b	-0.01776438
197	0x3da91653	0.08256211
198	0x3e6d71ad	0.23187895
199	0xbdcd47c2	-0.10023452
200	0x3e2ccb74	0.16874486
201	0x3e5234c9	0.20527948
202	0xbdf080ad	-0.11743293
203	0xbe908079	-0.28223017
204	0xbe363b0b	-0.1779596
205	0x3e88b761	0.26702407
206	0x3ee6f8f8	0.45111823
207	0xbbb83fee	-0.0056228554
208	0x3e3857ce	0.18002245
209	0xbd7e7aea	-0.06212894
210	0x3e165bd0	0.14683461
211	0xbcb77845	-0.022396216
212	0x3d30828b	0.043093245
213	0xbf14f5a1	-0.581873
214	0xbe83b642	-0.2572499
215	0xbf6f16e1	-0.93394285
216	0xbec50542	-0.38480574
217	0x3e7cedbb	0.24700062
218	0xbf162566	-0.58650815
219	0x3ed5e873	0.41778907
220	0xbe06cde5	-0.1316448
221	0xbe1d5b9b	-0.15366976
222	0x3eed5e7e	0.46361154
223	0xbda202ab	-0.07910665
224	0x3de8ddc4	0.113704234
225	0x3ead1d88	0.33811593
226	0xbd926916	-0.0714895
227	0x3dda4d48	0.106592715
228	0x3e11fffa	0.14257804
229	0x3cba8958	0.022770569
230	0xbecadf19	-0.39623335
231	0xbd35a10a	-0.044343032
232	0xbe423c04	-0.18968207
233	0xbcea10e7	-0.028572513
234	0x3de3b3b4	0.1111826
235	0xbe615b64	-0.22007519
236	0x3e2dcc46	0.16972455
237	0x3d04809c	0.032349214
238	0xbd907ba8	-0.070548356
239	0x3dfc673a	0.123243764
240	0x3c2ce91e	0.010553626
241	0xbc534e58	-0.012897097
242	0xbe03fab8	-0.1288861
243	0x3e89515f	0.26819894
244	0xbde94ef2	-0.11392011
245	0x3edc15d7	0.42985412
246	0x3e204972	0.15653017
247	0xbd971843	-0.073776744
248	0x3ea5600c	0.3229984
249	0x3e64586e	0.22299358
250	0xbe13f319	-0.14448203
251	0xbe8d8bc8	-0.27645707
252	0xba6dd987	-0.00090732466
253	0x3cb29ff6	0.021804791
254	0xbd4bd19a	-0.04976044
255	0xbe02f3c2	-0.12788299

bias f4 [64]
0	0xbf13cf6b	-0.5773837
1	0x3edb4e90	0.42833376
2	0xbefd7d61	-0.4950972
3	0x3da37ca3	0.07982757
4	0xbf87793f	-1.0583876
5	0x3c690a2e	0.014223618
6	0xbf64ce6d	-0.8937748
7	0xbf634862	-0.8878232
8	0xbf51cd17	-0.8195357
9	0xbf657bab	-0.8964183
10	0xbf4e43be	-0.80572116
11	0xbf8ed4c6	-1.1158683
12	0xbf950fe2	-1.1645472
13	0xbf49ce4a	-0.788304
14	0xbf43410d	-0.76271135
15	0x3da8c650	0.0824095
16	0xbea5b6a1	-0.32365897
17	0xbf232e94	-0.6374295
18	0xbf32bef9	-0.6982265
19	0xbcb7a2c5	-0.022416482
20	0xbf4c3be6	-0.797789
21	0x3e8ceabe	0.27522844
22	0xbe64ebfd	-0.22355647
23	0xbf1c8a01	-0.6114808
24	0xbed8d441	-0.42349437
25	0x3eae9450	0.34097528
26	0xbebf5cef	-0.3737559
27	0xbf5389bf	-0.8263206
28	0x3db43215	0.08798615
29	0xbe9478b6	-0.28998345
30	0xbd99dae9	-0.07512457
31	0xbe921582	-0.28532034
32	0x3ea58b35	0.3233277
33	0xbee20f17	-0.44152138
34	0xbf0c84d0	-0.54890156
35	0xbe98c8f6	-0.2984082
36	0xbf75d5ce	-0.96029365
37	0xbe869d5c	-0.2629193
38	0x3eea9260	0.458148
39	0xbec6f28d	-0.38856927
40	0x3d447452	0.047962494
41	0xbecc0b3f	-0.3985233
42	0xbf095714	-0.53648496
43	0xbd8516af	-0.06498467
44	0x3daf7d82	0.085688606
45	0x3d4b3b51	0.049617115
46	0xbf7a3fbd	-0.97753507
47	0xbf0b0953	-0.543111
48	0x3eaa6333	0.33278808
49	0xbf4fee97	-0.81223434
50	0xbed9c69e	-0.42534345
51	0xbf2b20d0	-0.6684694
52	0xbf063861	-0.5242978
53	0xbeae0bc1	-0.33993343
54	0xbed61e46	-0.41819972
55	0xbe694957	-0.22781883
56	0xbef44dd5	-0.4771563
57	0x3f10fbc0	0.5663414
58	0xbf224525	-0.63386756
59	0xbdcc7c34	-0.09984627
60	0x3d4c78d7	0.04991993
61	0xbec10d9a	-0.3770569
62	0xbf0e7ed9	-0.55662304
63	0xbe9b9d11	-0.3039327

weight f4 [32, 64]
0	0xbcbdd3bf	-0.023172257
1	0x3df6da69	0.12053377
2	0xbe992d60	-0.2991743
3	0xbe3223fd	-0.17396541
4	0xbe48ffbb	-0.19628803
5	0x3eac7854	0.33685553
6	0x3f015d17	0.5053267
7	0x3e01f0eb	0.12689559
8	0x3e0a0591	0.13478686
9	0x3ebfb57b	0.37443146
10	0x3de8416f	0.113406055
11	0x3e2df290	0.16987062
12	0xbf0a397e	-0.53993976
13	0xbe4b3d2f	-0.19847558
14	0xbdd46ea3	-0.10372665
15	0xbdc575d7	-0.09641617
16	0x3e75538d	0.23957653
17	0xbdf5c5e7	-0.120006375
18	0x3ec1fda5	0.37888828
19	0xbeda4cb5	-0.42636648
20	0x3eb9968d	0.36247674
21	0xbcfadfd7	-0.030624313
22	0x3cb38689	0.021914737
23	0xbdbdaf15	-0.0926191
24	0xbe535f96	-0.20641932
25	0xbda153bb	-0.078772984
26	0x3dedbcee	0.11608301
27	0x3a97a30a	0.0011568975
28	0xbdda5f16	-0.106626675
29	0xbe91d070	-0.28479338
30	0x3cd131c2	0.025536422
31	0xbf808ced	-1.0043007
32	0x3dc91be9	0.098197766
33	0xbd51c501	-0.05121327
34	0x3e493f0d	0.19652958
35	0x3ef501f0	0.4785304
36	0xbe0493fe	-0.1294708
37	0x3f108c49	0.5646406
38	0xbe97b2f1	-0.2962871
39	0xbe90af66	-0.28258818
40	0xbbe642c3	-0.0070270016
41	0x3e4cf95f	0.20017003
42	0xbe7157b1	-0.23568608
43	0xbe36dd69	-0.17857899
44	0x3db5da47	0.08879524
45	0xbe308ed5	-0.17241986
46	0xbdca4c3c	-0.09877822
47	0xbdc182b6	-0.09448759
48	0x3e37e560	0.17958593
49	0x3eb3acad	0.3509268
50	0x3d543487	0.051807906
51	0xbe9efef4	-0.3105389
52	0x3f03cc0a	0.51483214
53	0xbeaa0ec8	-0.33214402
54	0xbea8d678	-0.32976127
55	0x3e1d966b	0.15389411
56	0xbe2eb759	-0.17062129
57	0xbde7ee9f	-0.1132481
58	0x3e238a3e	0.15970704
59	0x3e0e49c5	0.13895328
60	0xbd359c1e	-0.044338338
61	0xbd8aab2d	-0.067709304
62	0x3db4736a	0.08811076
63	0xbb7743b8	-0.0037729573
64	0xbd873c18	-0.06603259
65	0x3e4b0e57	0.19829689
66	0xbef023fd	-0.46902457
67	0xbe738db4	-0.23784524
68	0x3a3ff627	0.00073227513
69	0xbed038c1	-0.406683
70	0x3e9e1a38	0.30879378
71	0x3f0b6870	0.54456234
72	0xbda11b99	-0.07866592
73	0xbeb17823	-0.3466197
74	0x3ea211b6	0.31654137
75	0xbe702d6d	-0.23454829
76	0xbd71cfb1	-0.05903596
77	0x3e342c68	0.17595065
78	0x3e90cafb	0.28279862
79	0xbe9239bb	-0.2855967
80	0xbebb9a58	-0.36641192
81	0x3ca36958	0.019947693
82	0xbf430f41	-0.7619515
83	0xbcb3a3b8	-0.021928653
84	0xbd0b8110	-0.03405863
85	0xbf1fd625	-0.62436134
86	0xbefbfa01	-0.49214175
87	0xbd90492b	-0.07045206
88	0xbe6115ba	-0.21980944
89	0x3e8ccf04	0.2750169
90	0x3c51dd1c	0.012809064
91	0x3db96329	0.090521164
92	0x3d8494ee	0.064737186
93	0xbda2a90d	-0.079424
94	0xbf035c65	-0.5131286
95	0xbf805250	-1.002512
96	0x3cd32372	0.025773738
97	0xbf3382e2	-0.70121586
98	0xbe964a02	-0.29353338
99	0xbe33b067	-0.17547761
100	0xbf17e9fe	-0.5934142
101	0x3ed92007	0.42407247
102	0x3dc4eebe	0.09615849
103	0x3ea26f33	0.31725463
104	0x3c64e77e	0.013971208
105	0xbef4a875	-0.47784773
106	0xbf6e92a1	-0.9319249
107	0xbdf5932f	-0.11990964
108	0xbdf207a8	-0.118178666
109	0x3dab6cfb	0.08370396
110	0x3ae5b276	0.0017524499
111	0xbefc2b01	-0.4925156
112	0x3ea6ce55	0.32579294
113	0xbd51d4fb	-0.051228505
114	0xbea8db65	-0.32979885
115	0x3e48c52e	0.19606468
116	0xbf2a16f1	-0.66441256
117	0xbe10706e	-0.14105389
118	0xbf777e53	-0.9667713
119	0xbefa2cea	-0.48862392
120	0xbf8eba9e	-1.1150701
121	0xbe8ca4b5	-0.27469411
122	0xbd31dd5e	-0.043424003
123	0xbe94c9d1	-0.29060224
124	0xbd97f783	-0.07420256
125	0xbe698366	-0.22804031
126	0x3e4edbe3	0.20201068
127	0xbe37524e	-0.1790249
128	0xbe8a6e09	-0.27037075
129	0xbe8c78f7	-0.2743604
130	0x3ed7b809	0.42132595
131	0x3e21829f	0.15772484
132	0xbe270654	-0.16311008
133	0xbe01ae58	-0.12664163
134	0x3c9f2939	0.019428836
135	0x3e674f29	0.22588791
136	0x3d796042	0.060882814
137	0xbeb51a6d	-0.35371724
138	0xbebe7c2e	-0.37204117
139	0xbf02133e	-0.5081061
140	0xbedf7160	-0.43641186
141	0xbc984abc	-0.018590324
142	0x3ead6d3b	0.338724
143	0xbf2b5fee	-0.6694325
144	0xbf80537f	-1.0025481
145	0x3e983b0b	0.29732546
146	0x3eb8f620	0.36125278
147	0xbe82dbc6	-0.255583
148	0x3eaa22ac	0.33229578
149	0xbf6ca783	-0.924431
150	0xbcf2b00b	-0.02962496
151	0x3c1cb954	0.00956567
152	0xbc8224d0	-0.015886694
153	0x3d773125	0.060349602
154	0x3e905a2c	0.28193796
155	0xbcd389a1	-0.025822463
156	0x3d37c4a3	0.04486526
157	0xbeb2d9ec	-0.34931886
158	0x3e1a41bc	0.15064138
159	0x3e09ba86	0.1345006
160	0x3dc84f21	0.09780718
161	0xbecdfad6	-0.40230435
162	0xbe0fb2c0	-0.14033031
163	0xbd87a648	-0.066235125
164	0xbe35cb42	-0.17753318
165	0x3cfe1cba	0.031019557
166	0x3e59bc88	0.21263325
167	0x3e731590	0.23738694
168	0x3e21db74	0.15806371
169	0x3cc6b71b	0.024257233
170	0x3e46ac43	0.1940165
171	0xbf80bf44	-1.005837
172	0xbd83dff6	-0.064392015
173	0x3e64b078	0.22332942
174	0xbeafa390	-0.34304476
175	0xbe3cdcba	-0.18443576
176	0x3e5890a1	0.21148922
177	0xbf7a1bd3	-0.97698706
178	0xbee5e6b2	-0.4490257
179	0x3cb5599d	0.022137458
180	0x3d69a1fe	0.057039253
181	0xbd03dc3f	-0.032192465
182	0xbecdad99	-0.40171507
183	0xbe8b99b8	-0.27265716
184	0xbee97260	-0.45595074
185	0x3decf03c	0.115692586
186	0xbf14f1ef	-0.5818166
187	0x3ddc70fb	0.10763737
188	0xbd8f0c9f	-0.06984829
189	0x3de59029	0.11209137
190	0xbec8dc8c	-0.39230764
191	0x3e5536c8	0.20821679
192	0x3e071deb	0.13195007
193	0x3d14f863	0.036369693
194	0xbe0d81e6	-0.13819084
195	0xbe9b3399	-0.30312803
196	0xbcab2fc2	-0.020896796
197	0xbe8185ca	-0.25297385
198	0xbdd7ad7b	-0.10531136
199	0x3d4b7152	0.049668618
200	0x3ea0a543	0.31376085
201	0xbf083bc4	-0.53216195
202	0x3d54ea5a	0.051981308
203	0xbd973063	-0.07382276
204	0xbda9b073	-0.08285608
205	0x3ddc0849	0.10743768
206	0x3eb7eb89	0.35921887
207	0x3da17009	0.07882697
208	0x3e1bfcda	0.15233174
209	0xbc916642	-0.017748956
210	0x3d8da678	0.06916517
211	0xbdf10f48	-0.11770493
212	0xbd8e52a6	-0.06949358
213	0x3e46fafb	0.19431679
214	0x3ea3bf05	0.31981674
215	0x3d800f75	0.06252948
216	0xbe84c430	-0.2593093
217	0xbd0f872f	-0.03504103
218	0xbb5758c6	-0.003285931
219	0x3eb01624	0.34391892
220	0xbdf997c7	-0.12187152
221	0xbdfe54ce	-0.12418519
222	0x3b32ced2	0.002728392
223	0x3ebacf96	0.364865
224	0x3b2c2878	0.0026269238
225	0x3dc6b145	0.0970178
226	0xbe5e04a3	-0.21681456
227	0x3e4ff87e	0.20309636
228	0x3f6c7d7f	0.9237899
229	0xbe14cf7b	-0.14532273
230	0xbedc9ed9	-0.4308994
231	0xbe2e578f	-0.17025588
232	0x3d507092	0.050888605
233	0xbe5ea30a	-0.21741882
234	0x3ef55064	0.47912896
235	0xbe7af301	-0.24506761
236	0xbf8b6b07	-1.0892037
237	0xbfb48771	-1.4103833
238	0x3d95832c	0.0730041
239	0xbe939f35	-0.28832403
240	0x3e0e46fb	0.13894264
241	0xbdb4724d	-0.08810864
242	0x3e9407dd	0.2891225
243	0xbcd8e818	-0.026477858
244	0xbf1a6a51	-0.60318476
245	0x3eaad39c	0.3336457
246	0xbb84102e	-0.004030249
247	0x3e8fd74b	0.28093943
248	0x3d8cf8da	0.06883402
249	0xbeb66836	-0.35626382
250	0xbe061614	-0.1309436
251	0xbefa88e9	-0.4893258
252	0x3c4947ba	0.012285167
253	0x3ad0f480	0.0015942007
254	0xbfa021ec	-1.2510352
255	0x3ea395f6	0.3195035

bias f4 [32]
0	0xbdf147ab	-0.11781248
1	0xbe6582d4	-0.22413188
2	0x3ebe2220	0.3713541
3	0xbec19bc0	-0.3781414
4	0x3efcfadc	0.4941014
5	0xbd7f8f52	-0.06239254
6	0xbc9af4f1	-0.018915625
7	0x3ecaa745	0.39580742
8	0x3ea98d3d	0.3311557
9	0xbe8559c2	-0.26045042
10	0x3e64685b	0.22305433
11	0xbe4a1743	-0.19735436
12	0xbc3e8bc5	-0.011630003
13	0x3e60836c	0.21925133
14	0x3e788348	0.2426883
15	0x3e0412d1	0.12897803
16	0x3c438be6	0.01193521
17	0x3c8fa845	0.017536292
18	0xbd935012	-0.071930066
19	0x3ec71f0b	0.3889087
20	0xbc1ff1ae	-0.009762211
21	0xbf0a566d	-0.54038125
22	0x3c2fc320	0.010727674
23	0x3f06c5e1	0.5264569
24	0x3e1fd394	0.15608054
25	0xbec15a92	-0.37764412
26	0x3ebe9be7	0.3722832
27	0x3e9538f9	0.2914503
28	0x3ce38171	0.027771683
29	0x3eb47832	0.35247952
30	0x3e1564c7	0.14589225
31	0xbe77bdf9	-0.24193563

weight f4 [8, 32]
0	0x3e378467	0.17921601
1	0xbc9f1cbd	-0.019422883
2	0x3e1055be	0.14095208
3	0x3eb509dc	0.35359085
4	0xbdc59eaa	-0.096494034
5	0x3df8abcc	0.12142143
6	0xbca6c3f7	-0.020357115
7	0xbe652f8a	-0.22381416
8	0xbe3e170f	-0.18563484
9	0x3ea605db	0.32426342
10	0xbe92ee4f	-0.2869744
11	0xbe08aa36	-0.1334618
12	0xbca2c4ba	-0.019869197
13	0xbe0f058c	-0.1396696
14	0x3e1f8d63	0.15581279
15	0x3ccf2932	0.025288198
16	0x3d227bdf	0.039668914
17	0xbef97129	-0.48719147
18	0xbd4ed694	-0.050497606
19	0xbe228043	-0.1586924
20	0x3e7765c1	0.2415991
21	0x3e0204fc	0.12697214
22	0x3e724a12	0.23661068
23	0x3e1f2a27	0.15543424
24	0xbabec628	-0.0014554905
25	0x3db42180	0.08795452
26	0x3d011ca0	0.03152144
27	0xbed5f8ed	-0.41791478
28	0x3e0596e1	0.13045837
29	0xbe5f5ea2	-0.21813443
30	0x3dcbf6e6	0.099592015
31	0x3d5eecc5	0.05442502
32	0xbdb5a49c	-0.08869287
33	0xbe8d0452	-0.2754236
34	0x3eb63587	0.35587713
35	0x3eb761fa	0.35816938
36	0xbe667128	-0.22504103
37	0xbc9de78d	-0.019275451
38	0xbc0794b2	-0.008275198
39	0x3d007d4b	0.03136949
40	0xbed7098a	-0.41999465
41	0x3b8417b8	0.004031148
42	0xbd6bec0d	-0.057598162
43	0xbee55af0	-0.44795942
44	0xbdf9d289	-0.121983595
45	0xbe0dd7d3	-0.13851862
46	0xbe04a34f	-0.12952922
47	0x3bfe372b	0.0077580414
48	0xbd6849d5	-0.056711037
49	0xbeb3e8f9	-0.35138682
50	0xbe55cbe5	-0.20878561
51	0xbda1334d	-0.07871113
52	0x3e03bc0d	0.12864704
53	0xbd79f4a1	-0.061024312
54	0x3e181db1	0.14855076
55	0x3d6df16a	0.05809156
56	0xbc7a3512	-0.015271442
57	0x3d91b5b7	0.071147375
58	0xbbb13cdb	-0.005408866
59	0xbeef5e52	-0.46751648
60	0xbce2bdaf	-0.027678339
61	0xbe4ffa15	-0.20310242
62	0x3e1e8eed	0.1548421
63	0x3e32a53d	0.17445846
64	0xbef492fc	-0.4776839
65	0xbe450859	-0.19241466
66	0xbee19544	-0.44059193
67	0x3e77bb4a	0.24192539
68	0x3ceb9fef	0.028762786
69	0xbe2c88ee	-0.1684911
70	0xbdb99b8e	-0.09062873
71	0xbecd0829	-0.40045288
72	0xbea54323	-0.32277784
73	0xbe974005	-0.2954103
74	0xbea9f48e	-0.33194393
75	0xbe15e699	-0.14638747
76	0x3e10f37f	0.14155386
77	0x3ea93ab1	0.3305259
78	0xbe705d02	-0.2347298
79	0xbf0926a7	-0.53574604
80	0xbc0936d6	-0.00837489
81	0xbe2570a8	-0.16156256
82	0x3dc8d76b	0.09806713
83	0xbdd208cf	-0.10255586
84	0xbe3121c8	-0.17298043
85	0x3f04a6b4	0.5181687
86	0x3c979d7c	0.018507712
87	0xbdbb5d72	-0.09148683
88	0xbf517a10	-0.8182688
89	0xbda06197	-0.07831114
90	0xbf0d00f8	-0.55079603
91	0x3e6c514b	0.23077886
92	0x3e26075d	0.16213746
93	0xbd074987	-0.033029106
94	0xbf26e2e3	-0.6518995
95	0x3d5dcb51	0.054148976
96	0xbe78760a	-0.24263778
97	0xbd6814b8	-0.056660384
98	0x3e7ab85d	0.24484392
99	0xbf624f82	-0.8840257
100	0x3e2e1896	0.17001566
101	0xbf170bba	-0.5900227
102	0xbef81865	-0.48456112
103	0xbe7280cd	-0.23681946
104	0xbd33546d	-0.043781687
105	0x3e072e8d	0.13201351
106	0xbf1a2c60	-0.6022396
107	0xbdfa3992	-0.12218012
108	0x3e0bb604	0.13643652
109	0x3e6a9a4e	0.22910425
110	0x3e4a0df2	0.19731882
111	0xbf1b815c	-0.6074426
112	0xbdb0459a	-0.086070254
113	0xbee57237	-0.44813702
114	0x3d0007fc	0.031257614
115	0xbec1fe1e	-0.3788919
116	0xbe772598	-0.24135435
117	0xbe2047b9	-0.1565236
118	0xbebbb215	-0.36659303
119	0xbc42c42b	-0.01188759
120	0xbf8e0bd2	-1.1097357
121	0x3c5676e6	0.013089871
122	0xbd5bd32f	-0.053668197
123	0x3e0c3d56	0.13695273
124	0x3d8fb2b9	0.070165105
125	0x3e7eedac	0.24895352
126	0xbf69a409	-0.9126592
127	0x3d2f3f57	0.042785015
128	0xbe9cc757	-0.30620834
129	0x3e5c5077	0.2151507
130	0xbf02d264	-0.5110228
131	0x3e63ef0e	0.22259161
132	0x3e6def3c	0.23235792
133	0x3e27a1f9	0.16370381
134	0x3da40dee	0.080104694
135	0x3d0c8345	0.034304876
136	0xbe3fee21	-0.18743183
137	0x3ea91829	0.33026245
138	0x3e4104d3	0.18849497
139	0xbd963b2f	-0.07335507
140	0x3d58193e	0.052758448
141	0x3bb5731d	0.005537404
142	0xbed2c3fe	-0.41165155
143	0xbd42535a	-0.04744277
144	0xbe133f1a	-0.1437954
145	0x3ec35f76	0.38158768
146	0xbe058f98	-0.13043058
147	0xbdc04679	-0.093884416
148	0xbdf864f2	-0.12128629
149	0xbd5b6202	-0.053560264
150	0x3d88daa8	0.0668233
151	0xbe8661ed	-0.26246586
152	0xbc614a9c	-0.013750698
153	0x3e2a1ffa	0.1661376
154	0xbee72da9	-0.45152023
155	0x3d03853a	0.032109477
156	0x3cfc8f73	0.03083012
157	0x3dce86e6	0.100843236
158	0x3d463afc	0.048396096
159	0x3cdd0009	0.026977556
160	0xbdff8763	-0.12476995
161	0xbde3e9f0	-0.111286044
162	0xbe1b74e9	-0.15181316
163	0xbe929641	-0.2863026
164	0xbe2c759b	-0.16841738
165	0xbe8b74f7	-0.27237675
166	0x3d2fde94	0.042936876
167	0x3d2a30f9	0.04155061
168	0xbd3fb924	-0.046807423
169	0xbeb2752d	-0.34855023
170	0x3df1544a	0.11783655
171	0xbe910e66	-0.28331298
172	0xbdf63dea	-0.12023528
173	0x3ef76fae	0.48327392
174	0x3d97d672	0.07413949
175	0x3d0d09bd	0.034433115
176	0x3c3f37cd	0.011671019
177	0xbe8b792a	-0.27240878
178	0xbe29ff81	-0.16601373
179	0x3c96f705	0.018428335
180	0xbe19eb8c	-0.1503126
181	0x3e678dfc	0.22612756
182	0x3d4b3088	0.04960683
183	0xbd243fe8	-0.04010001
184	0x3d410cf5	0.047131497
185	0xbe2365a0	-0.15956736
186	0x3c2e3a19	0.010633969
187	0x3c7de86c	0.015497308
188	0xbd381d66	-0.04494991
189	0x3d06da78	0.03292319
190	0xbe72b802	-0.23703006
191	0x3e0266c8	0.1273452
192	0xbdc9c735	-0.09852449
193	0xbee45c18	-0.44601512
194	0x3ceadbd8	0.028669283
195	0xbf28cdf4	-0.6593926
196	0xbcdb77d0	-0.02679053
197	0xbe59fa44	-0.21286875
198	0xbc195e84	-0.009360913
199	0x3b932066	0.004489946
200	0x3e3a6dbe	0.18205926
201	0xbeed317d	-0.4632682
202	0x3dd7f06c	0.10543904
203	0xbebda07c	-0.37036502
204	0xbc26ece3	-0.010188314
205	0xbeaf82bf	-0.3427944
206	0x3c1ee13f	0.009697258
207	0x3db6b0e4	0.08920458
208	0xbe4584ce	-0.19288942
209	0xbe00dce3	-0.12584262
210	0xbe0088fa	-0.12552252
211	0xbeb7d590	-0.35905123
212	0xbeb40054	-0.351565
213	0xbef6e3fb	-0.4822081
214	0x3d837e69	0.06420595
215	0xbd0e885f	-0.034798022
216	0x3caba444	0.020952351
217	0xbef726a8	-0.4827168
218	0x3cf37df5	0.029723147
219	0xbdb418f5	-0.08793823
220	0x3def884e	0.1169592
221	0x3e88df1f	0.26732728
222	0x3d7a78bb	0.061150294
223	0xbd90c0e4	-0.07068041
224	0xbe3370a8	-0.17523444
225	0xbea64407	-0.32473776
226	0x3de099a9	0.10966808
227	0xbf10d493	-0.5657436
228	0x3d741c1b	0.059597116
229	0xbe08db04	-0.13364798
230	0xbee4e9f2	-0.44709736
231	0x3e231478	0.15925777
232	0x3e1d54a7	0.15364324
233	0x3e1cc29f	0.15308617
234	0xbdd2b396	-0.102881595
235	0xbdca94bd	-0.09891651
236	0x3cadceac	0.021216713
237	0xbedddfdf	-0.43334863
238	0xbe934d6e	-0.28770012
239	0x3c95d198	0.018288419
240	0xbdae7969	-0.08519251
241	0xbe4728a0	-0.19449091
242	0xbe38f64e	-0.18062708
243	0xbf378974	-0.7169411
244	0xbebde5cc	-0.37089384
245	0xbe41b0d0	-0.18915105
246	0xbea7246c	-0.32644975
247	0x3eb06ce7	0.34458086
248	0x3db46577	0.088084154
249	0xbe8bc0ff	-0.27295682
250	0x3cc1142d	0.02356919
251	0xbd17c362	-0.037051566
252	0x3c608a46	0.013704842
253	0xbe4bffbd	-0.19921775
254	0xbd8d50d9	-0.06900186
255	0xbf282163	-0.65675944

bias f4 [8]
0	0xbe8dba06	-0.27680987
1	0xbe56db1b	-0.2098202
2	0xbebf4b61	-0.37362197
3	0xbe16edab	-0.147391
4	0xbdb90676	-0.090344355
5	0x3de044dc	0.10950634
6	0x3e40bc01	0.18821718
7	0x3ebdf348	0.3709967
