models_save/aug_model_save_k_means_centers_10/aug_model_save.pth (torch, 15950 bytes, 6 tensors)

weight f4 [64, 10]
00000000: 182e d8bd d4d1 8ebe a47c dd3d 2d13 bbbe
00000010: ef12 82be d462 cdbe fb31 c93e a741 babd
00000020: 07aa 153f f0ba 2f3e 24dc 5a3e dd8c 6c3d
00000030: 6462 033f bf1c 5cbe 81e0 4b3c 1ab0 23bf
00000040: 17dd cdbd 9f28 df3e 0a08 65be e07b 273c
00000050: caaa 00bf 5b45 7cbe 8b55 333e 9515 293e
00000060: 9de8 2a3e d228 c6be cdea acbe fd3c 5c3e
00000070: 0687 40be 1b7a 843d 4983 de3d 8b10 2f3e
00000080: ff4f 86be 4d62 7dbe 2d07 213d f458 603e
00000090: cbcc 94be f954 1abf a082 b3bc e4de cb3d
000000a0: bf7e 123e 5894 adbe 052d d6be 8fcc 82bc
000000b0: 66d9 343e f841 2cbe 217e d9bd e369 29be
000000c0: 0573 f5bd fcd3 123d 3ac9 e7bd aee4 3cbd
000000d0: fe9e 2cbf 3ee9 fabd 7224 9fbe 32e6 7bbf
000000e0: 5e6f 1c3e 3cb6 45be f0ff 313e d18c 853e
000000f0: f46a 5f3d 09e7 32bc d746 70be f821 163e
00000100: f8cc a6be e6a3 8e3d 1fa2 9c3c 01d7 8ebe
00000110: b314 d43e f111 c8bd 2389 293e 5fb6 af3e
00000120: dccc 4b3e 310f 3e3e 8b00 993e 688d e3bd
00000130: 8485 b4be 58c9 313e 9877 cdbe 3f89 af3c
00000140: d103 bbbe 5f0e 3ebe b242 a2be 8452 ec3d
00000150: 3dc0 d53c 0a7a 493f 7d4c fe3d 7c2b b8be
00000160: 8987 14bb c6b9 db3e 7ab3 2a3e 29e1 e23e
00000170: 5b1e 193d 2c05 3bbe 7ae6 93bc 09e8 99bf
00000180: 3978 d1be 1b4b a33e b9d3 42be 8b21 5f3e
00000190: 04fd b93d b93e 96bc 6efc 973e e048 e43c
000001a0: 0dda 0a3e 4127 2f3f 066e 5cbe fc0e 9fbd
000001b0: 83d1 89bd 04c9 42be 0b03 ad3d 0e62 ad3d
000001c0: 5bd4 9fbe a5d1 c1be 4d7f 60be 397a 95be
000001d0: 9f48 f53d 38bb b5be de90 a73d fb65 86be
000001e0: 1584 4a3d 2b4b 6ebe ac14 93be c4db f0be
000001f0: 78de f3be ee32 5cbe e749 4a3e 9e5e ebbe
00000200: a4f2 2cbf d3ff 523f c8c4 0dbd b56f 2a3e
00000210: bf16 05be 23f6 28be fc45 72bb 9658 873e
00000220: 54ca 913e 2f5a 5d3e 9fd3 7e3d af13 f13e
00000230: 8fc3 e0be 9263 9dbe a250 8cbe 9499 cbbe
00000240: 0021 28be 14e9 0e3e d02d e83d 56b3 89bd
00000250: cea3 f93e 982a cebd b209 143d 5e11 c93d
00000260: 62e6 a5be 98b9 ccbd 8d03 fcbd 8aea 723d
00000270: 0e9d e63e 98e5 793f 7955 e6bd 2e21 243e
00000280: bf81 603e ec1b c83e c926 063e 491e 84bb
00000290: 37ca a6be d835 c8bd 3ee5 8abe 6386 83bd
000002a0: 474f 8f3e 1458 293e 9dce b2be cbab d2be
000002b0: 8d0e c1bc 1561 1c3d f7df 3f3d 32fb 013f
000002c0: 96d2 183f f247 8cbe 3d87 343f 9f75 3d3e
000002d0: 8aa8 b73c 5bb7 06be f65f 823e 706e 1bbf
000002e0: 596e 23bd ae3c 6dbc dba2 993e e060 683d
000002f0: a0d5 7d3e bcfe 5abd acd9 833d b014 7b3e
00000300: c18b 1f3e f1fc 5d3e 6321 edbe 3dc9 413d
00000310: bd65 a73c 2c0b 64be 2642 e3bd 138c 9dbd
00000320: 596c c8be bad3 9fbe 9623 00bd 8fcd b7be
00000330: b0d1 1cbe 8d11 363e d70a 0abe e05a 8b3e
00000340: 5127 1ebe 97b0 c4be 5d63 8abe f4be 193d
00000350: 93c5 6cbd 195d 4b3e 04e3 373e 454f e53e
00000360: 728a dd3e f6c7 16bd 2e1f ffbe 8a06 07bf
00000370: 97d9 f0bd cb08 44be 653b 9bbd 7f67 dbbe
00000380: 54f6 afbe b335 9e3e 8adf 4cbe 777d bebe
00000390: 53c8 64bf 9389 a53f d547 f6be 83de bcbe
000003a0: 1fc1 afbe db8d 683e 56ea 85bd 75e6 e63d
000003b0: 34f8 b6be eed7 47be 82aa 31bd 52e3 97bd
000003c0: 81d7 50be a96c 82be b6d4 1abf 306f c1be
000003d0: 28e6 d3be f0db 7bbf 1265 613e d602 a1be
000003e0: 399a 913e 254f 8e3e 5af4 34be 6808 37be
000003f0: ee3a 1cbf d69a 9ebe b1a9 88be 8e13 53bf
-0.10555667 -0.2789446 0.10814789 -0.36538067 -0.2540507 -0.40114462 0.39295945 -0.090945534
0.58462566 0.17161155 0.2137304 0.057751525 0.5132201 -0.21495341 0.012443663 -0.63940585
-0.10051935 0.4358568 -0.22366348 0.010222405 -0.50260603 -0.24635832 0.17513101 0.16512139
0.16690297 -0.38703018 -0.3377289 0.2150764 -0.18801507 0.06468602 0.108648844 0.17096154
-0.26232907 -0.2474453 0.039313484 0.21908933 -0.29062495 -0.6028591 -0.021912873 0.099546224
0.14306162 -0.3390224 -0.41831222 -0.015966682 0.17661056 -0.1682204 -0.1061976 -0.16544299
-0.11984829 0.035846695 -0.11317678 -0.046116523 -0.674301 -0.12251519 -0.31082493 -0.98398125
0.15276858 -0.19307798 0.17382789 0.26083997 0.054545358 -0.010919341 -0.23464523 0.14661396
-0.32578254 0.06964855 0.019120274 -0.2789841 0.41422042 -0.09769047 0.1655622 0.34318826
0.19902366 0.18560483 0.29883227 -0.111109555 -0.35258114 0.17361963 -0.40130305 0.021427749
-0.3652635 -0.1856017 -0.3169151 0.11539176 0.026092643 0.7870184 0.12416933 -0.35970676
-0.0022663793 0.4291517 0.16670027 0.4431241 0.037382465 -0.18263692 -0.018054236 -1.2023937
-0.40912035 0.31893238 -0.19026078 0.2179014 0.09081462 -0.018340455 0.29684776 0.02786678
0.13559742 0.6841927 -0.21526346 -0.0776653 -0.06729414 -0.19021994 0.08447846 0.08465968
-0.31216702 -0.3785526 -0.21923561 -0.2919481 0.11976742 -0.354944 0.08181928 -0.2624968
0.04944237 -0.23270862 -0.2872671 -0.47042668 -0.47630668 -0.21503803 0.19754754 -0.45970625
-0.6755774 0.82421607 -0.034611493 0.16644175 -0.12996958 -0.16500144 -0.0036967983 0.26434773
0.28474677 0.21616434 0.062213536 0.4708533 -0.438992 -0.3074003 -0.27405268 -0.39765608
-0.16418839 0.139561 0.11336863 -0.06723659 0.48757786 -0.10066718 0.03614206 0.09817766
-0.3240233 -0.09996337 -0.12305365 0.059305705 0.45041698 0.9761596 -0.11246771 0.16028282
0.21924494 0.39083803 0.13100733 -0.0040319306 -0.32576153 -0.09775895 -0.27128023 -0.064221166
0.2799017 0.16537505 -0.34923258 -0.41146693 -0.023566509 0.038178522 0.04684445 0.5077392
0.5969633 -0.2739864 0.7051886 0.185019 0.022419233 -0.13155882 0.25463837 -0.6071539
-0.039900158 -0.014479799 0.3000706 0.056733012 0.24788523 -0.05346559 0.06438002 0.2451961
0.15580656 0.2167852 -0.46314535 0.047311056 0.020434255 -0.22269887 -0.11096601 -0.07692733
-0.39145163 -0.31216222 -0.031283937 -0.35899016 -0.15314364 0.17780133 -0.13480698 0.2721777
-0.15444686 -0.38415977 -0.27028933 0.037535623 -0.05780561 0.19859733 0.17957693 0.4478704
0.43269688 -0.03681179 -0.49828476 -0.5274435 -0.11760252 -0.19143979 -0.07579688 -0.428524
-0.3436762 0.30900344 -0.20007148 -0.37205097 -0.8936817 1.2932609 -0.48101678 -0.36888513
-0.34327027 0.22710364 -0.06538837 0.11274425 -0.3573624 -0.19515964 -0.0433755 -0.07416405
-0.20394708 -0.25473526 -0.6048082 -0.37780142 -0.41386533 -0.98382473 0.22011212 -0.31447476
0.28437975 0.27794757 -0.17671338 -0.178743 -0.6102742 -0.30977505 -0.26691964 -0.82451713

bias f4 [64]
00000000: 6b35 1cbf 6141 a1bf f9bc 83bf 8ed5 cfbe
00000010: 3f82 0ebf c581 2a3e 8e89 d1be fe5a e5be
00000020: df6a 113f 233e 68bf 78ce 883e 2d8b 6ebd
00000030: da70 eebe 9efe 38bf fe13 dabe 84ee 61be
00000040: 2f32 32be f386 b1be d993 8cbf 1d5f 7bbf
00000050: c2e4 27bf 6cc1 4dbe 01c0 23bf 0689 94be
00000060: 240c 55bf 4113 e7be 875c 6abd 21b7 aebe
00000070: fbc3 2fbe b605 c9be 93b7 99be 6cb7 0abf
00000080: 7173 e6be 9005 37bf 1c6b 4e3e fd6f 6bbf
00000090: d05f 7ebf 7817 d9bd f998 6dbf f6c9 87bf
000000a0: d6fb 97bd 798a ac3e 0c1b efbe 54a4 88bd
000000b0: d58c 20bf 83fc 94be 031c 0fbf 806d 8bbe
000000c0: fa00 bebe 53bc 54be 3ad5 3e3d dba2 08bf
000000d0: 2df3 26be df4e 9ebe 3d79 5ebe 6cb9 3ebf
000000e0: ee2f 49bf 9179 28bf 3d75 53bf fd30 6c3d
000000f0: c92c 6dbf 3b98 41bf 88e6 eb3d cf8a 2bbf
-0.6101901 -1.2598077 -1.0292045 -0.40592617 -0.5566749 0.16651066 -0.40925258 -0.44795984
0.568037 -0.90719813 0.26720023 -0.058238197 -0.46570474 -0.72263515 -0.42593378 -0.22063643
-0.17401956 -0.3467327 -1.098262 -0.98192006 -0.6558343 -0.20093316 -0.6396485 -0.2901079
-0.8322165 -0.45131877 -0.057217147 -0.3412409 -0.17164604 -0.3926217 -0.3002287 -0.5418613
-0.4500995 -0.7149286 0.20158046 -0.91967756 -0.9936495 -0.106001794 -0.9281154 -1.0608509
-0.07421081 0.33699396 -0.46700323 -0.06671968 -0.6271489 -0.290989 -0.5590212 -0.2723198
-0.3711012 -0.20774965 0.046590067 -0.533735 -0.16303702 -0.3091955 -0.21725936 -0.7450168
-0.7858876 -0.65810496 -0.82600766 0.057663906 -0.9264646 -0.7562291 0.1151858 -0.6700868

weight f4 [32, 64]
00000000: fa9b d53c af9c 1bbe a288 703e 8a43 cbbd
00000010: 82fd d9be a2c3 763e 902c e6bc 6ff5 46be
00000020: e260 1abd de86 343e 106e c33e e820 52be
00000030: 2884 ea3e ac2e 8a3d fe51 8fbe 6e9e 80bd
00000040: af0f 2abe 95cb 48bb a5f6 ac3e e94e 1dbf
00000050: 7195 af3c b154 adbe f78e a43e 4505 82be
00000060: 2aea fdbe 1397 cabe 9993 a9bd 34a2 1a3e
00000070: 98af a0be 270e 333e ff3e 2e3e f7dc 9fbe
00000080: 9fe3 f13d 6a5b cfbe 0140 81bd 0d98 51be
00000090: ac2a dbbe 3586 2a3e 2095 ee3d 1d38 923d
000000a0: 0f73 e23d d2a6 903d 38e2 80be 1407 4a3e
000000b0: 5ebb bfbd cf0d 80bd 5f78 503e 53fe 983d
000000c0: 5b81 cbbc 55a9 55be 4063 763d ad42 5b3d
000000d0: cba3 df3e 08cf d8ba 4627 d6bb 3aa9 00bf
000000e0: 6d62 e4bd 1920 e33d 1b10 14be 2cf5 763c
000000f0: ca44 6bbe 0264 a73e e1a4 efbd 5f7d 4fbe
00000100: 3f5c d3be 25c3 5fbe ee84 2bbe 8fb3 183e
00000110: 311f fabd d2e8 a33c daa9 7f3c d4eb 603d
00000120: 9c2c 9cbe 0f05 e1bd c7e6 31bd 0655 2d3d
00000130: 2e1b 123f 7c7a 56be aeb2 0e3e dfc7 efbd
00000140: cbab b53d 1bbe 6abd 6e64 15be b1a4 76bd
00000150: 45bd f23e 5f60 8abd 795e 543f 8db3 10bf
00000160: 0b25 163e da5c 093c 53dd 84bb 102b f43d
00000170: 8336 563e 131d 033f 2e28 603d 50c8 883e
00000180: af26 043e 26cc d9be 1dda a8be 6086 9abe
00000190: 81f2 9c3d 5061 7c3e cc59 9dbd a364 e5bd
000001a0: 9353 7d3e 1a66 953d 33d7 00bd 67da 0bbf
000001b0: e983 17bf a6c8 57bf 077e babe 9bcc 95bd
000001c0: 5269 44be 3ec4 923e 788b 26bd e392 02bf
000001d0: f73b 02bd df98 dbbd 945d 9f3e 5518 c93d
000001e0: e2d1 0ebe 7838 fe3d 42ce a2be b74c d13d
000001f0: dc2e 00be 8671 b2be eb7d 9fbb 806b da3e
00000200: b3af aa3d 39d1 e4bc a356 0c3e 38f6 81bd
00000210: 3e0c 03bf 4af6 553e 4ea5 dbbd 3c8c 6b3e
00000220: 65f9 1bbf 6222 593d d497 1f3d bef3 813e
00000230: c235 23be 9500 3abe b8f2 bebe 696d 9fbd
00000240: c2ca 573e 7fdf 26bf c31c 693d 1a60 44be
00000250: 4ff8 c43d b02d 123e 396d 643f 2959 c3be
00000260: 6f08 9dbe 804e 423d 408b 8c3d 89ae 323b
00000270: 38ea da3c 96ab a83e 779b 0e3e 673d 963e
00000280: 2d95 163e dc1b b43e b1b7 f0be 069e b6bd
00000290: 17f5 efbd c2fb a73c 3c2d 5dbe 6424 0e3f
000002a0: 3b96 293e 50c4 143e 83c5 05be 23fc 30be
000002b0: 771e fabd 58fc e7be 7a28 a2bd 984e ddbc
000002c0: aeb4 4abe 020a a63e aaf2 9f3e 89f9 4a3c
000002d0: ac0a 323e a9f7 413b e004 1bbe 1d53 893e
000002e0: ea7b 1ebf a7c0 bdbe f004 98be c1ce f9be
000002f0: ebf5 49bc 252c 4abe 74e6 e23e 94c5 073d
00000300: bb3d 0dbf d843 7abf af51 02be a236 a8be
00000310: bdaa 543e 8697 173e 5fb4 71bd 464a 603e
00000320: e15d 073e 22fd 50bf 71f1 6ebe ec2c 14be
00000330: 32c3 e1be 48a1 f23d cb6c 4ebc 65b5 9b3d
00000340: 7a46 b13e 959a 13be 507b ed3e f50e b63d
00000350: f3d7 fabe 9a04 6a3e c220 873d 97d8 613e
00000360: 0f85 863d 835e a1bd 206b 1cbf 7fa0 b8be
00000370: 4721 563e c029 443d 3832 8a3e 4f15 a43d
00000380: 73cf aa3e e341 c3bd dff7 8abc afb7 1d3e
00000390: 5abb 703d 67a2 79bd 6b85 9d3c 4982 e53d
000003a0: dbea 4fbf 4e03 76bf f704 e53d c11b 2bbf
000003b0: be3b 57bc 3ded 87be 27dd e13d f299 c03d
000003c0: d14f 523e 3cf7 943d 0c81 edbd 9699 a0bd
000003d0: 7f31 19bf 30dc c43b bfcb e7bc 752e 52be
000003e0: 50a5 f53e 9db1 4bbe 90d0 cb3d 823e 063f
000003f0: 83f5 943d 3454 933d 4be7 843d 61f8 d93d
0.026075352 -0.15196489 0.23489621 -0.099249914 -0.42576224 0.24098065 -0.02809742 -0.19429563
-0.03769005 0.17629573 0.3816991 -0.20520365 0.45803952 0.06747183 -0.27992243 -0.06280218
-0.16607545 -0.0030638922 0.33781925 -0.6144853 0.021433564 -0.33853677 0.32140324 -0.25394645
-0.49592716 -0.39568385 -0.08280105 0.15100938 -0.31383967 0.17485867 0.17016219 -0.3122327
0.118109934 -0.4049943 -0.06311036 -0.20468159 -0.42805994 0.16652758 0.11649537 0.07139609
0.11057102 0.070630684 -0.2517259 0.19729263 -0.09361909 -0.06252634 0.20358418 0.074703835
-0.024841955 -0.20865376 0.060153246 0.053530384 0.43679652 -0.0016541192 -0.0065354435 -0.5025822
-0.11151586 0.110901065 -0.14459269 0.015073102 -0.2297546 0.32693487 -0.1170137 -0.20262669
-0.41281316 -0.21851785 -0.16749927 0.14912246 -0.122129805 0.020008478 0.015604461 0.054912403
-0.30502784 -0.10987293 -0.043432977 0.042317413 0.5707272 -0.20945162 0.13935348 -0.11708044
0.088706575 -0.057310205 -0.14589092 -0.060215656 0.47410026 -0.067566626 0.82956654 -0.5652397
0.14662568 0.008383954 -0.004054704 0.11922276 0.20919232 0.5121624 0.05472582 0.26715326
0.12905382 -0.42538565 -0.32978907 -0.30180645 0.076634414 0.24646497 -0.07683143 -0.112008356
0.24738912 0.07294865 -0.03145523 -0.5463013 -0.59185654 -0.8429054 -0.36424276 -0.07314416
-0.19180802 0.28665346 -0.04066035 -0.5100538 -0.03179547 -0.10722517 0.31126082 0.09819094
-0.13947251 0.12413114 -0.31797987 0.1021971 -0.12517875 -0.34852237 -0.0048673055 0.4266014
0.08334293 -0.027931796 0.13704924 -0.063457906 -0.51190555 0.20894733 -0.10724889 0.23002714
-0.6092742 0.053011306 0.038963154 0.25381273 -0.15938476 -0.18164285 -0.37294555 -0.0778454
0.2107344 -0.6518478 0.056912195 -0.19177285 0.096176736 0.14275241 0.8922916 -0.3815396
-0.30670497 0.047438145 0.06862497 0.0027264676 0.026723012 0.3294341 0.13926493 0.2934372
0.14705344 0.35177505 -0.47015145 -0.08916859 -0.11716669 0.02050579 -0.21599287 0.5552428
0.16561215 0.14528012 -0.13063626 -0.17283683 -0.12212842 -0.4530971 -0.079178765 -0.027015015
-0.19795486 0.3242951 0.31239825 0.012388595 0.17386883 0.002959708 -0.15138578 0.26821223
-0.6190783 -0.37061045 -0.29691267 -0.48790553 -0.012326698 -0.19743402 0.44316447 0.03314741
-0.5517232 -0.9775977 -0.12726472 -0.32854182 0.20768256 0.14803895 -0.059009906 0.21903333
0.13219406 -0.8163625 -0.2333429 -0.14470261 -0.44094235 0.11847168 -0.01259918 0.07602958
0.34624082 -0.14414437 0.46383142 0.088895716 -0.4899288 0.22853318 0.06598045 0.22055279
0.06568348 -0.07879355 -0.6110096 -0.3605995 0.20911132 0.04789138 0.2699144 0.08011877
0.33361396 -0.09534051 -0.016963897 0.15402101 0.058772422 -0.060945895 0.019228658 0.112064905
-0.81217736 -0.9609879 0.111825876 -0.66839224 -0.013136802 -0.26548186 0.110285096 0.09404363
0.2053826 0.07273719 -0.11596879 -0.07841794 -0.5984115 0.0060076937 -0.028295396 -0.20525534
0.47977686 -0.19891973 0.099518895 0.5243913 0.0727339 0.07193795 0.06489428 0.10643078

bias f4 [32]
00000000: abac af3e 806f 62bd 2783 61bd 127a 6f3d
00000010: 92d1 e63e b66d 1b3f 1cdf c33e 2f0e 69be
00000020: 7dc2 923c 95cc 153f 0fa3 e43e 6d1a 81bd
00000030: 93aa b3bd a47d 75be e2f9 e5bd d874 073e
00000040: 8365 5ebe 3137 e83e 642b 95be 58e8 873e
00000050: 2045 113c b95b 73be 33cf 93be 59f9 36bd
00000060: 09a9 d43e 7887 efbd b137 833d 213a b3be
00000070: 3597 c13e 124b 03bd 7ffc 18bf bb78 523e
0.34311423 -0.055282116 -0.055056717 0.058466025 0.45081764 0.6071428 0.38256156 -0.22759317
0.017915005 0.5851529 0.44655654 -0.063038684 -0.08772769 -0.2397371 -0.11229302 0.13228166
-0.21718411 0.45354608 -0.29134667 0.26544452 0.008866578 -0.23765458 -0.28869018 -0.04467139
0.41535214 -0.116957605 0.06407107 -0.35005286 0.37810674 -0.032054015 -0.5976028 0.20553868

weight f4 [8, 32]
00000000: 5642 2ebe d030 f63d e463 683e d539 263e
00000010: bae9 c8bc f063 6cbe a8bd b5bd 2595 d93d
00000020: 9c7f abbd c688 033e c0bc f3be 9912 d3bd
00000030: 6281 61be c967 b0be a9f8 0bbd c6d6 0c3e
00000040: af77 8dbe a923 debd 55d8 533d 0345 2ebe
00000050: ba1e 713d 73de a53d 1d40 1d3e 003f 403e
00000060: 470d ba3c aad3 943e b6cd a1bc 3f56 43bc
00000070: a175 0abe e4de df3d d180 763d bfa4 603e
00000080: 7053 553d 41a0 1c3d f6cd 6d3e f1c5 3c3e
00000090: 6d62 d0bd ffbf 5bbe 03aa a8bd 2e1f 9ebe
000000a0: d955 26bd f226 503e 8722 a9be 643c 073e
000000b0: f39d b7bb 20d5 14be a5f8 443e ac22 f83d
000000c0: ab52 eabc 1d1e 4bbe 2187 803e d2f3 12be
000000d0: 8c2a f7bd 4cae c63d d96c 823d f7ba 923d
000000e0: 2579 06be f1ac 263d 9465 6cbd 4288 953e
000000f0: c86d 413d da67 85bd a223 fcbd 3d1c 543c
00000100: 61fa c0be 29fe 02be e27f c2bd 2604 063e
00000110: 0d14 dabe 055b 05bf a003 d8bd 85e2 1cbe
00000120: 8844 86be 2f78 5bbe 5111 0c3e eb43 e03d
00000130: 6516 dbbc 2024 06bf 05b2 52be 3a23 28bf
00000140: 207e 8dbd 7ed4 0abc d0cc e9be ce5b 6c3d
00000150: 6582 e03c bcce c5bd 847f 0abf 620a a7bd
00000160: 6e2e 85bd 417b d1bd 8e57 85bf b0df 863e
00000170: 8a0c aabd 1208 093e 0abe 10bf 2d82 2f3e
00000180: cb4a 03bf 6814 1fbe 8a62 2cbe e7d7 28bc
00000190: 7e25 80be 7eee 333d a916 8ebd 767a b2bd
000001a0: fd61 27bf b1dd 093e b143 e53d b2f0 c9bd
000001b0: 4010 ed3c 6884 b83e 748a 0ebf 6da8 f63d
000001c0: 3323 babe 943f c5be 423b cf3e bc0f cabd
000001d0: 2062 853a b0cb 37bf 0f33 68be 6a5d c4be
000001e0: 7e22 9c3e 1b26 943d b87c b1bf bb80 bebe
000001f0: a656 173e 0e0a 89be ec98 d0be 9f17 ad3d
00000200: 4889 d03c d8e1 02be bdac e23b 0ecf 6dbe
00000210: a1fd c0be f1e8 9bbd cc01 adbd 2832 93be
00000220: 8bf0 c53d 7e30 1bbf 8a4b 143e 7660 1ebe
00000230: 4690 53be 525c ecbe 9a5f 5b3e d6be 18be
00000240: e45b c8bc b337 babe 8f01 6f3e 47c1 d23d
00000250: 8531 46be 4f85 f9bc 1c7d 8b3d 3d5b ab3d
00000260: fc15 5e3d e119 37bf 1fd1 c63c c032 273e
00000270: 638e 793b be08 5c3e 2864 1ebe a50a f5bd
00000280: cf16 143d 04ea d0bd 27b7 653c cd62 cbbe
00000290: 053e a93d 32c2 88bd 8932 a73e 1a1d 383e
000002a0: c4ff ddbd b96d 3b3c fae4 3abd 2abf 8dbd
000002b0: b306 bdbb 71bb 2cbe f1e0 58be 7b2d fabc
000002c0: 0318 203e 0f39 833d a361 08bf f36b 443d
000002d0: 3e48 a2bd c280 7ebd 612a 9abe c4e3 3d3b
000002e0: 9274 3cbe 6a74 b1bd e7ce cf3d a212 91be
000002f0: 5061 313e 154e 92bd 0730 0cbd 5aa2 c83c
00000300: 2222 1abc 487f f9be 9ded 25be 7f3a 52be
00000310: 0345 c13d 7421 5c3c b11f bdbe a1ec 803e
00000320: 6a30 833e 1543 383b 8f8b b6bb be64 39be
00000330: db77 c53c f7a6 073f 7004 5d3d cca2 493e
00000340: 78c7 a8be 1e6e dd3d df47 85be f1ed d1bc
00000350: 0ee1 5fbe 823d 5abe 2d65 2bbe fbe8 4fbd
00000360: 2f36 6b3d 57eb a13d bb4c 963c 778e 2dbf
00000370: e632 883c 0a9d b5bd 88c7 9dbe 50b7 c7bc
00000380: a52c 32bd f95c 88be 9c7c 04bf 6feb 523d
00000390: 308f f9bd c49d 473e ae2f 0abf 08ad 1c3e
000003a0: 1d94 57be 5b5b 663e 709a 07be 12eb 3dbe
000003b0: 3a2f 173b 62c4 6dbe 7da8 24be c1d8 763d
000003c0: 35bd d93d 5ec4 ab3d 9f12 8bbd febc c33d
000003d0: c9d6 c3bd ab3e 923e 2794 56bd d4a8 ccbe
000003e0: 07b9 723e 8f68 143e 9456 a03c cd49 81bf
000003f0: 49e8 eebe a953 eebe f3ee 7abe a22e 833e
-0.17017493 0.12021029 0.22694355 0.16232999 -0.024525512 -0.23084998 -0.08874065 0.1062415
-0.08373949 0.12845144 -0.47604942 -0.103062816 -0.22022012 -0.34454182 -0.034172688 0.13753805
-0.27630374 -0.108466454 0.051719982 -0.17018513 0.058867194 0.080990694 0.15356489 0.18774033
0.02271141 0.29067737 -0.019751411 -0.011922418 -0.13521434 0.10931185 0.060181443 0.21937846
0.052081525 0.038238768 0.23223099 0.18434884 -0.10175023 -0.2145996 -0.08235552 -0.30883163
-0.040609214 0.20327356 -0.33034155 0.13206631 -0.005603546 -0.14534426 0.19235475 0.12115988
-0.028603872 -0.19835706 0.25103095 -0.14350823 -0.12068662 0.09701213 0.06368417 0.07164567
-0.1313215 0.040692274 -0.05771406 0.2920552 0.047223836 -0.06513949 -0.12311484 0.012946186
-0.37691024 -0.12792267 -0.09497048 0.1308752 -0.42593423 -0.5209201 -0.105475664 -0.15320785
-0.2622416 -0.21432565 0.1367848 0.10950454 -0.026744077 -0.5239887 -0.20575722 -0.6567875
-0.06908822 -0.008473514 -0.45664072 0.05770474 0.027405927 -0.09658572 -0.54100823 -0.08156277
-0.065029964 -0.10228587 -1.0417345 0.26342535 -0.08303173 0.13381985 -0.56539977 0.17139502
-0.51286 -0.15535128 -0.16834465 -0.010305381 -0.25028604 0.043928616 -0.06937916 -0.08714764
-0.65383893 0.13463475 0.11194552 -0.09860362 0.028938413 0.36038518 -0.5568001 0.120438434
-0.3635498 -0.3852507 0.40474898 -0.09866282 0.0010176338 -0.7179518 -0.22675727 -0.3835252
0.30495065 0.072338305 -1.3866186 -0.3720759 0.14779148 -0.26765484 -0.4074167 0.08451771
0.025456086 -0.12781465 0.0069175647 -0.23223516 -0.37693503 -0.076127894 -0.08447608 -0.28749204
0.096650206 -0.6062087 0.14481941 -0.15466484 -0.20660505 -0.46164185 0.21423188 -0.14916548
-0.02445788 -0.3637062 0.23340438 0.10290771 -0.19354828 -0.030459074 0.06810972 0.08367012
0.054220185 -0.71523863 0.024269639 0.16327953 0.0038079254 0.2148771 -0.15467894 -0.11964921
0.036154564 -0.10200885 0.014020718 -0.39723817 0.082637824 -0.06677665 0.32655743 0.17979851
-0.10839799 0.011439734 -0.045628525 -0.06921227 -0.005768621 -0.16868378 -0.21179558 -0.030539265
0.1563416 0.064073674 -0.5327398 0.04795451 -0.07923935 -0.06213451 -0.30110458 0.002897487
-0.18403843 -0.08664782 0.10146885 -0.28334528 0.17322278 -0.07143799 -0.03422549 0.024491478
-0.009407552 -0.4872992 -0.16203924 -0.20530127 0.09436991 0.01343571 -0.3693824 0.25180534
0.25622874 0.0028116156 -0.005570836 -0.18104836 0.024105003 0.52989143 0.05395931 0.19691008
-0.32964683 0.10812019 -0.26031396 -0.025626155 -0.21863195 -0.21312526 -0.16737814 -0.050759297
0.05742472 0.07906216 0.018347135 -0.6779551 0.016625833 -0.088678434 -0.30816293 -0.024379402
-0.043499608 -0.26633433 -0.5175264 0.05149406 -0.12185514 0.19493777 -0.53979003 0.15300381
-0.21052594 0.22495787 -0.13242507 -0.18546703 0.002306892 -0.23219445 -0.16079898 0.060265306
0.106317915 0.083870634 -0.06790661 0.09557532 -0.095624514 0.28563437 -0.052387383 -0.39972556
0.23703395 0.14493011 0.019572534 -1.0100647 -0.46661595 -0.46548203 -0.24505214 0.25621516

bias f4 [8]
00000000: 2e27 bdbe 66f8 2cbe 5c12 c3be 730d e1bc
00000010: 6cb8 a63d acda 87bc a93d 5b3e 8c77 173f
-0.36943954 -0.16891631 -0.38099945 -0.027472233 0.081406444 -0.016583763 0.2141024 0.5916679
