runthroughs/run_3/aug_model_save_k_means_centers.pth (torch, 16174 bytes, 6 tensors)

weight f4 [64, 10]
0	0x3d651952	0.05593235
1	0x3d0f2f60	0.03495729
2	0x3eaffe81	0.3437386
3	0x3dc685c5	0.09693483
4	0x3e5dd8dc	0.21664757
5	0x3f4c21b7	0.79738945
6	0xbdf9c749	-0.12196214
7	0x3ddc2477	0.107491426
8	0xbd394d35	-0.045239646
9	0xbe3b2e61	-0.18279411
10	0xbd60ff39	-0.0549309
11	0xbe059536	-0.130452
12	0xbeae1685	-0.34001556
13	0xbf156c7a	-0.5836865
14	0xbed4d6fa	-0.41570264
15	0xbeb4b4f6	-0.35294312
16	0x3da4e714	0.08051887
17	0xbed6c3e8	-0.4194634
18	0xbef41bec	-0.47677553
19	0x3f0f60db	0.56007165
20	0x3e455661	0.19271232
21	0x3dbe998f	0.09306633
22	0xbe85874d	-0.2607979
23	0xbe3af6f8	-0.18258274
24	0xbeab58e5	-0.3346626
25	0xbe9dc418	-0.3081367
26	0xbdcd1ecc	-0.1001564
27	0x3e021cdd	0.12706323
28	0x3ee6fb0d	0.45113412
29	0x3ed4cbec	0.4156183
30	0xbe14c1ad	-0.14527006
31	0x3ca33590	0.019923002
32	0xbe207816	-0.15670809
33	0x3b870e20	0.004121557
34	0xbc5a3e84	-0.013320569
35	0xbe49feab	-0.19726054
36	0xbd488990	-0.048959315
37	0x3e222568	0.15834582
38	0x3e0ae4fd	0.13563915
39	0x3bcdb25e	0.0062773665
40	0x3c705341	0.014668287
41	0xbe0fd4ff	-0.14046095
42	0x3f165f7b	0.5873944
43	0xbec42d4c	-0.3831581
44	0xbcdf7889	-0.027279155
45	0xbe487137	-0.19574438
46	0x3e17b851	0.14816405
47	0x3c651fa5	0.013984595
48	0x3e07c058	0.13256967
49	0x3e184685	0.14870651
50	0x3cfa0e23	0.030524319
51	0x3e113f48	0.14184296
52	0x3e0c35a0	0.13692331
53	0x3e01ee06	0.12688455
54	0x3dfdfaa3	0.12401321
55	0xbf5cc3db	-0.8623635
56	0xbe8e0afb	-0.27742752
57	0x3e61901d	0.22027631
58	0xbeac91f9	-0.33705118
59	0x3e02afcf	0.12762378
60	0xbe092103	-0.13391499
61	0xbe3033df	-0.17207287
62	0xbe34dd2e	-0.17662498
63	0xbeb1bb7f	-0.3471336
64	0xbeb2b8db	-0.3490666
65	0x3f050d52	0.5197345
66	0xbdfe34b9	-0.124124
67	0xbeb839e2	-0.3598166
68	0xbf11c139	-0.5693546
69	0x3f24d7a4	0.6439154
70	0x3e2dd626	0.16976222
71	0x3ca00c1b	0.019537022
72	0xbe342453	-0.17591982
73	0xbe857d88	-0.26072335
74	0xbd99d780	-0.075118065
75	0xbc9e502b	-0.019325336
76	0xbd41b212	-0.04728896
77	0xbf41702c	-0.75561786
78	0xbcb2fa7c	-0.021847956
79	0xbe5c6d36	-0.21526036
80	0xbe03b8b6	-0.1286343
81	0xbdaa920b	-0.08328637
82	0xbe2403e7	-0.16017114
83	0xbf11798c	-0.5682609
84	0xbef0e8ad	-0.47052518
85	0xbf1518e8	-0.5824113
86	0xbe05e51c	-0.1307568
87	0x3e6c4458	0.23072946
88	0xbe5f744b	-0.21821706
89	0xbedb7647	-0.42863676
90	0xbdffcaa9	-0.12489826
91	0xbe241505	-0.16023643
92	0xbf3dee11	-0.74191386
93	0x3e3f9b48	0.18711579
94	0xbf339743	-0.7015268
95	0xbf4bf8ef	-0.7967672
96	0x3e43db57	0.1912664
97	0xbe72aa82	-0.23697856
98	0x3e4039ef	0.187721
99	0x3dee9c61	0.11650921
100	0x3ea0414c	0.31299818
101	0x3e079851	0.13241698
102	0x3e83e1a7	0.25758097
103	0x3dd824d8	0.105539024
104	0x3e7979e0	0.24362898
105	0x3e057a30	0.13034892
106	0xbe6a6874	-0.22891408
107	0x3e82fbe4	0.25582802
108	0xbe9295aa	-0.2862981
109	0x3da47119	0.08029384
110	0xbec0ba52	-0.3764215
111	0xbeaa4c12	-0.33261162
112	0xbe49e4ae	-0.1971614
113	0xbe0c1ca3	-0.13682799
114	0xbe588fc1	-0.21148588
115	0x3f334673	0.7002937
116	0x3e8156de	0.25261587
117	0xbedb9ba4	-0.42892182
118	0xbdf32d9e	-0.11873935
119	0x3f3958d4	0.72401166
120	0xbd1cea22	-0.038309224
121	0x3ef51eb4	0.47874987
122	0x3e09e948	0.13467896
123	0x3eb40138	0.3515718
124	0x3dc70352	0.0971743
125	0xbd6af221	-0.05735982
126	0xbe7700ec	-0.24121445
127	0x3e763163	0.24042277
128	0xbdb1422f	-0.08655202
129	0xbe5ea1ab	-0.21741359
130	0x3e01561f	0.12630509
131	0xbde0cb4d	-0.109762765
132	0x3e433501	0.19063188
133	0x3cf6a15d	0.03010624
134	0xbe2628b8	-0.1622647
135	0x3c2a6afe	0.0104014855
136	0x3e0f1d4a	0.13976017
137	0xbe19384b	-0.1496288
138	0xbe8e0906	-0.2774126
139	0xbe1c52c2	-0.15265945
140	0x3dd9fa52	0.10643448
141	0x3ec63acc	0.38716733
142	0x3df21e9f	0.11822247
143	0xbefa933f	-0.48940465
144	0xbe1b546d	-0.15168925
145	0xbe8aa381	-0.2707787
146	0x397eec71	0.00024311409
147	0xbe47bf00	-0.19506454
148	0xbc09c012	-0.00840761
149	0xbe736753	-0.23769884
150	0x3d0b53ae	0.03401535
151	0xbca93927	-0.020657135
152	0xbe51e5b0	-0.20497775
153	0xbd8dcf1f	-0.06924271
154	0xbdc8d648	-0.09806496
155	0x3de78df3	0.113063715
156	0x3e98b5e3	0.2982627
157	0x3f227841	0.6346474
158	0xbd9a1e99	-0.07525367
159	0x3dbebbb3	0.093131445
160	0xbe40d61a	-0.18831673
161	0x3dfa2293	0.12213626
162	0xbeb4e125	-0.35328022
163	0x3edb41b7	0.42823574
164	0x3df4dc48	0.11956078
165	0x3f14dce0	0.5814953
166	0x3d88d6dd	0.06681607
167	0x3d2f4756	0.04279264
168	0x3ea3ceae	0.31993622
169	0xbe23e687	-0.16005908
170	0xbe342657	-0.1759275
171	0xbe6e0abb	-0.23246281
172	0xbec70bfd	-0.38876334
173	0xbe58cf32	-0.21172789
174	0xbe9191e6	-0.28431624
175	0xbe67d2e7	-0.22639047
176	0xbd61c48d	-0.055119086
177	0xbe98ddf5	-0.2985684
178	0x3e3c96ea	0.18416944
179	0xbddbe8a1	-0.1073773
180	0x3e270b18	0.16312826
181	0xbe950f49	-0.29113224
182	0xbd446e06	-0.04795649
183	0xbe957ea2	-0.29198176
184	0xbe0b18f2	-0.13583735
185	0xbf1c696c	-0.6109836
186	0x3e735fb8	0.23766983
187	0x3dbc3674	0.091900736
188	0x3e819c79	0.25314692
189	0xbb0a8906	-0.0021138801
190	0xbdb51eb0	-0.08843744
191	0xbe44f996	-0.19235834
192	0x3e3d75e7	0.18502007
193	0x3cf65bfe	0.030073162
194	0xbe1a186a	-0.15048376
195	0x3ea6b4a3	0.3255969
196	0x3ea6e68e	0.32597774
197	0xbddb872e	-0.10719143
198	0x3ef57505	0.4794084
199	0x3ec4eabd	0.3846034
200	0xbebe27c5	-0.37139717
201	0xbe8d3a31	-0.2758346
202	0xbe6f4efe	-0.23369977
203	0x3e643210	0.22284722
204	0x3e137586	0.144003
205	0x3eeaca4b	0.45857462
206	0x3ea1a30d	0.3156971
207	0xbe9af3d2	-0.30264145
208	0x3eb9313c	0.36170375
209	0x3e8644b2	0.26224285
210	0x3d543f10	0.051817954
211	0xbe98ebaf	-0.29867312
212	0xbe9acbad	-0.30233517
213	0xbe7f9b99	-0.249617
214	0x3de53f47	0.1119371
215	0xbe0fec47	-0.14054976
216	0xbe6fdeb8	-0.23424804
217	0x3e3a6718	0.1820339
218	0x3e5f9f47	0.21838103
219	0x3e0dcecd	0.1384842
220	0x3d5d32f1	0.05400366
221	0x3dcfe815	0.10151688
222	0xbf155456	-0.5833181
223	0x3ebbd045	0.36682335
224	0x3e21da54	0.15805942
225	0xbd9cf4c2	-0.07663871
226	0x3e83ad02	0.25717932
227	0xbd9656db	-0.07340785
228	0xbe499f81	-0.19689752
229	0xbe09afec	-0.13446015
230	0xbd861be2	-0.06548287
231	0xbc60d2da	-0.013722146
232	0xbc8ab2a0	-0.016930878
233	0xba377eb9	-0.0006999779
234	0x3de5f7be	0.11228894
235	0xbda59fd6	-0.08087127
236	0x3e3a6122	0.18201116
237	0x3ec99282	0.3936959
238	0xbbcf4f6f	-0.006326608
239	0x3da75049	0.0816961
240	0xbe948f48	-0.29015565
241	0x3cbc6680	0.022998095
242	0xbdc494e5	-0.09598712
243	0x3e8aab9b	0.2708405
244	0x3e8bd355	0.2730967
245	0x3d300c95	0.04298075
246	0x3ed40935	0.41413274
247	0xbe2279f7	-0.15866838
248	0xbebfa954	-0.37433875
249	0xbee1ac6c	-0.4407686
250	0x3e3233ba	0.17402545
251	0x3ed947bd	0.42437544
252	0xbe26eca7	-0.16301213
253	0xbe43a1de	-0.19104716
254	0xbe64c0c4	-0.22339159
255	0x3dedb094	0.11605945

bias f4 [64]
0	0x3df7289d	0.12068293
1	0xbe771d63	-0.24132304
2	0xbf3dc70e	-0.7413186
3	0xbf155efa	-0.5834805
4	0xbfa7d8fc	-1.3113093
5	0xbf3bef92	-0.7341243
6	0x3dc12535	0.09430925
7	0xbe828e6d	-0.25499287
8	0xbf15dfe0	-0.5854473
9	0xbe97c696	-0.29643697
10	0xbf2e8b2c	-0.6818111
11	0xbec43987	-0.3832514
12	0xbf048ed0	-0.51780415
13	0x3d856816	0.065139934
14	0xbde940a7	-0.113892846
15	0xbe5cb553	-0.21553545
16	0xbf00790b	-0.50184697
17	0xbe8bef0a	-0.2733081
18	0xbe992b68	-0.2991593
19	0xbeeea0a2	-0.46606928
20	0x3ed99c32	0.4250198
21	0xbeadd4b6	-0.33951348
22	0xbe8e073d	-0.27739897
23	0xbf27395f	-0.65321916
24	0xbe6f99fb	-0.23398583
25	0xbed0db35	-0.40792242
26	0xbd958252	-0.07300247
27	0xbf566429	-0.8374658
28	0xbef2264d	-0.47294846
29	0xbca7173b	-0.02039682
30	0xbe3397ea	-0.1753842
31	0xbf24626f	-0.642127
32	0xbf44de5e	-0.76901805
33	0xbf2ed93f	-0.6830024
34	0x3d997656	0.07493274
35	0xbe60233f	-0.21888445
36	0xbe2c4c47	-0.16825972
37	0x3e07a5e5	0.13246877
38	0x3da52865	0.08064345
39	0xbf13903c	-0.5764196
40	0x3ea4cf4f	0.32189414
41	0xbcc39b54	-0.023877777
42	0xbe832a75	-0.2561833
43	0xbee614e5	-0.44937816
44	0xbf301d03	-0.6879427
45	0xbf33af86	-0.701897
46	0x3e2b7e24	0.16747338
47	0xbf1f3d90	-0.6220331
48	0xbed765bf	-0.42069814
49	0xbf63ad98	-0.8893676
50	0xbef3ca00	-0.4761505
51	0xbc52ecaa	-0.012873808
52	0xbed9ea09	-0.42561367
53	0xbe4113a6	-0.18855152
54	0xbf178255	-0.59183246
55	0x3f0acf8c	0.5422294
56	0xbe386b65	-0.18009718
57	0xbf1794c7	-0.5921139
58	0xbf048365	-0.5176299
59	0xbf08c1a9	-0.534205
60	0xbe34dbd6	-0.17661986
61	0xbe40b345	-0.18818386
62	0x3ddc432e	0.10755001
63	0xbf1a32b3	-0.6023361

weight f4 [32, 64]
0	0xbed87758	-0.42278552
1	0xbf210950	-0.62904835
2	0xbdf0e36c	-0.11762127
3	0x3e10a670	0.14125991
4	0xbf1ef4f1	-0.620925
5	0xbeb87327	-0.36025354
6	0xbe8504f5	-0.25980344
7	0xbe193d33	-0.14964752
8	0xbf39299d	-0.7232912
9	0x3d9c87f9	0.07643122
10	0x3ef900d6	0.4863345
11	0xbee049c2	-0.43806273
12	0x3e49bd4d	0.19701119
13	0xbf0ebcab	-0.55756634
14	0xbf8cd4cd	-1.1002442
15	0xbd967c6a	-0.07347949
16	0x3cdfdc27	0.027326657
17	0xbe6bbfc3	-0.2302237
18	0x3e903897	0.28168175
19	0xbeb5ea89	-0.355305
20	0x3e6968e4	0.22793919
21	0x3ea37ac9	0.31929615
22	0xbe94cf4d	-0.29064408
23	0x3c241fb2	0.010017322
24	0x3b8bddb0	0.0042683706
25	0xbf159d04	-0.5844271
26	0x3e220be5	0.1582485
27	0xbdd4d323	-0.10391834
28	0x3e93170f	0.2872853
29	0x3ec8d12a	0.3922208
30	0x3de34c66	0.11098556
31	0xbf00cc05	-0.5031131
32	0x3e842888	0.25812173
33	0xbf2b452d	-0.6690243
34	0x3d27514e	0.040849023
35	0x3b4408f6	0.0029912568
36	0x3d3d5e8a	0.046232738
37	0xbd19787b	-0.037468415
38	0x3da0225c	0.078190535
39	0x3dae949f	0.08524441
40	0xbf5428cf	-0.8287477
41	0x3e4b9e71	0.1988466
42	0x3d56d353	0.05244763
43	0xbd4f2b73	-0.050578546
44	0xbf220734	-0.6329224
45	0xbd9f38f8	-0.07774538
46	0x3dc82370	0.09772384
47	0x3e8c54d2	0.27408463
48	0x3d567a49	0.052362714
49	0xbd9e05a5	-0.0771592
50	0xbe1489f7	-0.14505754
51	0xbeda051c	-0.42582023
52	0xbe542eee	-0.20721027
53	0xbeec95b8	-0.46207976
54	0xbea92121	-0.33033088
55	0xbf170bbb	-0.59002274
56	0xbe8fc509	-0.28080013
57	0xbbd93b5d	-0.006629391
58	0xbe20f94f	-0.15720104
59	0x3df44486	0.11927132
60	0xbe6534dc	-0.22383446
61	0xbf3134ea	-0.69221365
62	0xbeba3f52	-0.36376435
63	0x3e158879	0.14602841
64	0xbe93110a	-0.28723937
65	0xbf0402f4	-0.51567006
66	0x3eac4190	0.3364377
67	0xbd9f4b78	-0.077780664
68	0x3edb7774	0.42864573
69	0x3eb8a102	0.3606034
70	0xbed14a4c	-0.40876997
71	0xbe45dfdc	-0.19323677
72	0xbdecfdaf	-0.11571824
73	0xbd855270	-0.06509864
74	0xbceea3fd	-0.02913093
75	0xbe28652c	-0.16444844
76	0xbe7ea88c	-0.24868983
77	0xbd61c091	-0.055115286
78	0xbec6d64c	-0.3883537
79	0x3e5742fc	0.21021646
80	0x3e6a5c5a	0.22886792
81	0xbf0217b3	-0.5081741
82	0xbdc1775f	-0.09446596
83	0xbe0cd7a1	-0.13754131
84	0x3e0c3bf4	0.13694745
85	0xbf975d2b	-1.1825308
86	0x3e91c23b	0.284685
87	0x3e34168b	0.17586724
88	0x3daed0b6	0.08535902
89	0x3d892a0b	0.06697472
90	0x3e056085	0.130251
91	0xbf3f0b6a	-0.7462679
92	0xbe06f89d	-0.13180776
93	0xbe66b702	-0.2253075
94	0xbf23c0ec	-0.6396625
95	0xbeefd7df	-0.46844384
96	0xbeef5659	-0.46745566
97	0xbc459772	-0.012060033
98	0x3de35f71	0.111021884
99	0xbe9f992a	-0.31171542
100	0xbd8eb04f	-0.06967222
101	0xbd929ac0	-0.071584225
102	0x3d7ee91b	0.062234025
103	0x3e6c9b7f	0.23106192
104	0x3c99572d	0.018718326
105	0x3d9cb14d	0.07651005
106	0xbe47ae17	-0.19500004
107	0xbe121250	-0.14264798
108	0x3ea7e92a	0.32795078
109	0xbd5c2b3a	-0.05375216
110	0x3df64ed5	0.12026755
111	0x3e1b4837	0.15164267
112	0xbec2b51d	-0.38028803
113	0xbf35b543	-0.7097971
114	0x3ebfd3ce	0.37466282
115	0x3e05fa3b	0.13083737
116	0xbf18e6ea	-0.59727347
117	0xbd9f90cc	-0.0779129
118	0xbd226472	-0.039646573
119	0x3d7d3674	0.06181951
120	0x3e2fc269	0.17164005
121	0x3da833e8	0.08213025
122	0xbeaba54d	-0.33524552
123	0xbe822ea4	-0.2542621
124	0x3e83f017	0.25769112
125	0xbed7a277	-0.42116138
126	0x3dcdce9b	0.100491725
127	0xbf16a93b	-0.58851975
128	0xbb4b1874	-0.0030989917
129	0xbd3c6224	-0.04599203
130	0xbec4826a	-0.38380748
131	0x3c8e7200	0.017388344
132	0x3edbee59	0.42955282
133	0xbeecfc48	-0.46286225
134	0x3de23e81	0.11047078
135	0x3d834242	0.06409122
136	0xbf0883f9	-0.53326374
137	0x3d04894e	0.032357506
138	0xbde70369	-0.11279947
139	0xbe18ecdc	-0.14934105
140	0xbdc186e4	-0.094495565
141	0x3e4ffdbd	0.20311637
142	0xbec23bd9	-0.37936285
143	0x3e9dbcef	0.30808207
144	0xbdc50cee	-0.09621607
145	0x3d9bcea5	0.07607774
146	0xbeab27b1	-0.3342872
147	0xbe6270ad	-0.22113295
148	0x3dab9dc1	0.083796985
149	0x3d4f514b	0.050614636
150	0xbd28bc32	-0.041195102
151	0xbd5df1ab	-0.05418555
152	0x3e5f475f	0.2180457
153	0xbd99bf7c	-0.07507226
154	0x3e400d65	0.1875511
155	0x3d225746	0.03963401
156	0x3e86965e	0.26286596
157	0xbe976e00	-0.2957611
158	0x3df244fd	0.11829565
159	0xbcd8357b	-0.026392689
160	0x3e30b170	0.17255187
161	0xbe9c3338	-0.30507827
162	0xbc1268ea	-0.008936146
163	0xbcbd4aed	-0.023107016
164	0xbe779aa8	-0.2418009
165	0x3eb261b1	0.34840158
166	0xbe367df8	-0.17821491
167	0x3d32f7e8	0.043693453
168	0x3d3a1ebd	0.04543947
169	0x3eb1ea87	0.34749243
170	0x3ebe9836	0.37225503
171	0x3dd8d3e8	0.10587293
172	0xbea672cd	-0.3250946
173	0xbda1d68f	-0.07902252
174	0x3e10a15e	0.14124057
175	0xbc937bb8	-0.01800333
176	0x3e76dd1b	0.24107783
177	0x3f0fa1eb	0.5610644
178	0x3ded7a16	0.11595552
179	0x3c881a11	0.016613992
180	0xbe8002fa	-0.2500227
181	0xbecf327c	-0.40468204
182	0xbe3bbb54	-0.18333179
183	0xbdb6b478	-0.089211404
184	0x3e0899cd	0.1333992
185	0x3a17da73	0.00057927443
186	0x3e5e591d	0.21713682
187	0x3dbb1237	0.091343336
188	0xbe6c31e8	-0.23065913
189	0x3e860bf2	0.2618099
190	0x3e52dee0	0.20592833
191	0x3ee7d916	0.4528281
192	0x3d888692	0.06666292
193	0x3e70e1cf	0.23523639
194	0x3cc61ba6	0.024183106
195	0xbcd1f2ac	-0.02562841
196	0x3e8427bb	0.25811562
197	0x3e8bbf34	0.27294314
198	0x3eb87aae	0.36031097
199	0xbd8f0ff7	-0.06985467
200	0xbf0f61b5	-0.56008464
201	0x3e73b16d	0.23798151
202	0x3e3048f8	0.17215335
203	0xbeba5c8f	-0.36398742
204	0x3cfa0454	0.030519642
205	0x3e3b2d56	0.18279013
206	0xbd5d4d67	-0.054028895
207	0xbe7cef5a	-0.2470068
208	0x3e9c9020	0.3057871
209	0x3e4bfc12	0.19920376
210	0x3ea82794	0.32842696
211	0xbd8b0387	-0.06787782
212	0xbe08d564	-0.13362652
213	0x3e7dd4c0	0.24788189
214	0xbe2c5e26	-0.1683279
215	0x3e5dbff7	0.2165526
216	0x3e315637	0.17318045
217	0xbdda5606	-0.10660939
218	0xbea7012b	-0.3261808
219	0xbea71588	-0.32633615
220	0x3e141be1	0.1446376
221	0x3e296e05	0.16545875
222	0x3da91c3d	0.08257339
223	0x3eb5505b	0.3541287
224	0x3e2cae44	0.16863352
225	0xbe42d5a8	-0.19026816
226	0x3efd5e13	0.49485835
227	0xbdabc8f9	-0.08387942
228	0x3e6df23f	0.23236941
229	0xbd9b0deb	-0.07571014
230	0x3dec9986	0.1155272
231	0xbefc34d6	-0.4925906
232	0xbf0a2820	-0.53967476
233	0x3dbafc65	0.09130172
234	0xbf179c53	-0.59222907
235	0x3d6ad425	0.057331223
236	0xbe97ad3f	-0.29624364
237	0xbe7f147b	-0.24910156
238	0xbc9b23f4	-0.018938042
239	0x3eb3461c	0.35014427
240	0xbdc6b393	-0.0970222
241	0x3e3e3cd2	0.18577889
242	0xbd049ddc	-0.03237711
243	0xbdaae967	-0.08345299
244	0xbe8c40d1	-0.273932
245	0xbd588734	-0.052863315
246	0x3c774566	0.0150922295
247	0x3e8efe60	0.27928448
248	0x3d932177	0.07184117
249	0x3dec76d8	0.11546105
250	0xbef082d5	-0.46974817
251	0x3e8bdb62	0.27315813
252	0x3e204a13	0.15653257
253	0xbd2b0082	-0.04174853
254	0xbe38a84f	-0.18032955
255	0xbda59ee8	-0.080869496

bias f4 [32]
0	0x3d9783e2	0.073982015
1	0xbe5c5199	-0.21515502
2	0x3f0040ea	0.5009905
3	0xbd0ccf9e	-0.034377687
4	0x3e307ced	0.17235155
5	0x3e83eca7	0.2576649
6	0x3f3ec7ce	0.7452363
7	0xbe90f805	-0.28314224
8	0xbea621b0	-0.32447577
9	0xbe1095fb	-0.14119713
10	0xbd851bdb	-0.06499454
11	0x3d869c56	0.065727875
12	0x3e6a163e	0.22860047
13	0x3e0cc712	0.13747814
14	0xbd51e482	-0.051243313
15	0x3e31e92a	0.17374101
16	0x3e97897b	0.29597077
17	0x3da4e936	0.08052294
18	0xbe52f6b9	-0.2060193
19	0xbebd433d	-0.3696536
20	0x3df541fd	0.11975477
21	0x3ee48101	0.44629672
22	0x3e824e25	0.25450245
23	0xbd9be6eb	-0.076124035
24	0xbe220130	-0.15820765
25	0x3ecee4b9	0.40408877
26	0x3e79ca9f	0.243937
27	0x3eda1b7c	0.42599094
28	0x3ed1d0a5	0.40979496
29	0x3db6ebbc	0.089316815
30	0x3e083746	0.13302335
31	0x3dee3745	0.116316356

weight f4 [8, 32]
0	0x3e5aba21	0.21360065
1	0x3d2a3852	0.041557617
2	0xbe7f867b	-0.24953644
3	0x3de837fe	0.11338805
4	0xbe106a36	-0.14103016
5	0xbe34ae72	-0.1764467
6	0xbdd2c707	-0.10291868
7	0x3e436ec5	0.19085224
8	0x3df64f0b	0.12026795
9	0x3ca52f6f	0.02016422
10	0x3d482de3	0.048871886
11	0x3e00caa2	0.12577298
12	0xbde74bc4	-0.11293748
13	0xbc409ecc	-0.01175661
14	0x3e40e789	0.18838324
15	0x3826bdfd	3.9754425e-05
16	0xbe246060	-0.16052389
17	0xbdd3f047	-0.10348564
18	0x3e204558	0.15651453
19	0x3ccfef4f	0.025382666
20	0x3e30d584	0.1726895
21	0x3e3433da	0.17597905
22	0x3c6db66e	0.014508827
23	0xbec08eea	-0.37609035
24	0x3c8e278d	0.017352844
25	0xbe2d4a03	-0.16922764
26	0x3d1644c9	0.036686692
27	0x3dfeaff1	0.12435902
28	0xbdf760d3	-0.12079015
29	0xbdb36571	-0.08759583
30	0xbd6abb44	-0.057307497
31	0x3e69bd66	0.22826156
32	0x3ad0e815	0.0015938306
33	0xbe285288	-0.16437733
34	0xbeb821d3	-0.35963306
35	0x3ce93951	0.028469713
36	0xbdef0312	-0.116705075
37	0x3d8f1aee	0.06987558
38	0xbde3a386	-0.11115174
39	0x3e3f6f2b	0.18694751
40	0xbdc93a9d	-0.09825633
41	0xbe0bcd7b	-0.13652603
42	0xbdc14b0e	-0.09438144
43	0xbdcf26a9	-0.10114796
44	0xbdd4447c	-0.10364625
45	0x3d93b1b4	0.072116286
46	0xbd66a9ed	-0.056314398
47	0xbd884c92	-0.0665523
48	0xbe22118a	-0.15827003
49	0xbd886485	-0.066597976
50	0x3e1c284d	0.15249749
51	0x3e1465b2	0.14491919
52	0x3e085d45	0.1331683
53	0x3d6ab93f	0.05730557
54	0x3d38804c	0.04504423
55	0x3d91c3a8	0.071173966
56	0x3dcc1245	0.09964422
57	0xbd42c505	-0.047551174
58	0x3e7f4458	0.24928415
59	0x3def8b97	0.116965465
60	0xbc67aeae	-0.014140768
61	0xbe82ebb3	-0.2557045
62	0xbd940dd3	-0.07229199
63	0x3ed0edaa	0.40806323
64	0xbea26a28	-0.31721616
65	0xbf24a5f5	-0.6431573
66	0xbd885e73	-0.0665864
67	0xbf04b4ad	-0.5183819
68	0xbd59faa7	-0.053217556
69	0xbebad47f	-0.36490247
70	0xbea5d3d2	-0.3238817
71	0x3d6df10f	0.05809122
72	0x3e801dd2	0.2502275
73	0x3dfb9997	0.12285154
74	0x3db3465f	0.087536566
75	0x3e865d0b	0.2624286
76	0xbd40148b	-0.04689459
77	0xbf056e35	-0.5212129
78	0xb992e3b1	-0.00028016933
79	0xbf4edd2f	-0.8080625
80	0x3dfe5d3e	0.12420128
81	0x3e0437f6	0.12911972
82	0xbe55f8ab	-0.2089564
83	0x3dcf34a5	0.10117463
84	0xbdc48a49	-0.09596688
85	0xbe16dd5c	-0.1473288
86	0xbf7208ca	-0.9454466
87	0xbe9e4629	-0.30912903
88	0xc053a6cc	-3.3070555
89	0x3d6d6f16	0.057967268
90	0xbda03cd4	-0.07824102
91	0xbc4df7ff	-0.012571334
92	0xbe463922	-0.19357732
93	0xbf4b3f86	-0.79393804
94	0xbc39681e	-0.011316327
95	0x3ed08853	0.40729007
96	0xbd4b1010	-0.049575865
97	0xbdcca3e0	-0.09992194
98	0x3dd1f706	0.10252194
99	0xbed3c26f	-0.4135928
100	0xbea90e99	-0.3301895
101	0xbe95c7aa	-0.29253894
102	0xbbaf2538	-0.005345013
103	0xbe684085	-0.22680862
104	0xbeb27943	-0.3485814
105	0x3deafe6a	0.11474307
106	0xbdcdd53f	-0.10050439
107	0x3d087419	0.033313844
108	0xbcecbacb	-0.028897664
109	0xbed4cdbd	-0.41563216
110	0xbdcbf5d6	-0.09958999
111	0xbf85b203	-1.044495
112	0xbe21fde4	-0.15819508
113	0xbeabbff2	-0.3354488
114	0xbee8f1c1	-0.45496944
115	0xbe819736	-0.25310677
116	0xbe77c6a0	-0.24196863
117	0x3e26d23f	0.1629114
118	0xbf726aba	-0.946941
119	0xbe2ef057	-0.1708387
120	0xbf3ca421	-0.7368794
121	0xbdd99ba0	-0.10625386
122	0x3ebc28ae	0.36749786
123	0xbf2060e5	-0.6264785
124	0xbeb5ac9a	-0.35483247
125	0x3e63904e	0.22223017
126	0xbebdf514	-0.37101042
127	0xbea0646a	-0.3132661
128	0x3ee2568d	0.44206658
129	0xbe3aa928	-0.1822859
130	0x3dc70957	0.09718578
131	0xbe3f959e	-0.18709418
132	0xbbdc0dc1	-0.006715507
133	0x3d20e65b	0.039282184
134	0xbef9ea0a	-0.4881137
135	0xbde58563	-0.11207082
136	0x3db95070	0.09048545
137	0xbce12b89	-0.02748658
138	0xbd8736e8	-0.066022694
139	0x3db5b9e4	0.088733464
140	0xbdf63c4e	-0.12023221
141	0xbdffa06a	-0.124817684
142	0xbdbeab6b	-0.09310039
143	0x3d63996a	0.05556623
144	0x3eda6462	0.4265471
145	0x3e56411c	0.20923275
146	0xbdc9887a	-0.09840484
147	0xbeec9e54	-0.46214545
148	0x3dc9e0ad	0.09857307
149	0xbeb3f9f5	-0.3515164
150	0x3c15fef2	0.009155022
151	0x3dd8b081	0.105805404
152	0xbec5f9cb	-0.3866714
153	0x3d78f7bd	0.060783137
154	0xbef87fd3	-0.48535022
155	0x3e3fc4f1	0.18727471
156	0x3d622749	0.055213246
157	0xbe972a87	-0.29524633
158	0x3e49b8ea	0.19699445
159	0x3e465b0b	0.19370668
160	0xbee1e91f	-0.4412317
161	0xbcdba605	-0.026812563
162	0x3d0f7288	0.035021335
163	0xbdb6a774	-0.08918658
164	0x3dbbdbb0	0.091727614
165	0x3dad5560	0.084635496
166	0xbd3bdef0	-0.045866907
167	0xbe4fb7dd	-0.20284982
168	0x3e1a179e	0.15048072
169	0xbe33a347	-0.17542754
170	0xbe057981	-0.13034631
171	0x3ddea999	0.10872192
172	0x3e756e05	0.2396775
173	0x3e033610	0.12813592
174	0xbdebf202	-0.11520769
175	0x3cfa07f5	0.030521372
176	0xbe81b5f1	-0.25334123
177	0x3d98a9db	0.07454272
178	0xbdbd6ae4	-0.092489034
179	0xbddab8cd	-0.10679779
180	0x3dde9507	0.108682685
181	0xbb22cc61	-0.0024841058
182	0x3d062479	0.032749627
183	0xbc9ede50	-0.019393116
184	0x3df5250f	0.11969959
185	0x3ede94c0	0.43472862
186	0xbe591a98	-0.21201551
187	0xbd113b17	-0.035456743
188	0xbdc30279	-0.09521956
189	0x3bfb0c06	0.0076613454
190	0xbbcdd285	-0.0062811994
191	0xbe738937	-0.23782812
192	0xbe5d2df8	-0.21599567
193	0xbed4c5b7	-0.41557094
194	0x3dee3f97	0.116332226
195	0xbd8a9a11	-0.06767667
196	0x3c4573f1	0.012051568
197	0x3e715ecd	0.2357132
198	0x3d96ca61	0.073628195
199	0xbedf290f	-0.43586013
200	0xbe84b406	-0.25918597
201	0xbe0bb9fe	-0.13645169
202	0xbe76d2ac	-0.24103802
203	0x3e52739a	0.20551911
204	0xbe8f241b	-0.27957234
205	0xbbfa2cf4	-0.0076347534
206	0xbd7a3367	-0.061084177
207	0x3cfe3cdd	0.031034881
208	0xbeba90e7	-0.36438677
209	0xbe8b4969	-0.27204445
210	0xbe32f0f6	-0.17474732
211	0xbe7dd439	-0.24787988
212	0xbda2851c	-0.07935545
213	0xbda00e3e	-0.078152165
214	0x3df137b4	0.11778203
215	0xbdefaa98	-0.1170246
216	0xbe098d28	-0.13432753
217	0xbe1d55af	-0.15364717
218	0x3ea271f2	0.31727558
219	0xbef8d989	-0.48603466
220	0x3cf77433	0.030206775
221	0x3e853b59	0.2602184
222	0x3db18215	0.08667389
223	0xbf3a26e9	-0.7271562
224	0xbc7d3319	-0.015454077
225	0xbe830e34	-0.25596774
226	0x3e3a9f17	0.1822475
227	0xbd466cbb	-0.048443537
228	0xbeca3141	-0.39490703
229	0x3da99f8b	0.082823835
230	0x3ccedc6b	0.025251588
231	0x3e3307f1	0.17483498
232	0xbeacf0f5	-0.33777586
233	0xbe02f2c2	-0.12787917
234	0xbd85de83	-0.06536581
235	0x3dcc1fd8	0.09967011
236	0xbed3aef4	-0.41344416
237	0x3db8c134	0.090212256
238	0xbe9f4c83	-0.3111306
239	0xbda235c9	-0.07920415
240	0xbe840290	-0.25783205
241	0xbf1089fc	-0.5646055
242	0x3d94cb84	0.0726538
243	0x3c915d75	0.01774476
244	0xbef193f2	-0.47183186
245	0x3e86d03f	0.26330754
246	0x3e25e660	0.16201162
247	0x3db1e4b9	0.086862035
248	0x3e0ea63c	0.13930601
249	0xbe7a3052	-0.24432495
250	0xb972155d	-0.00023086877
251	0xbf35f1d2	-0.71072114
252	0xbf23abd2	-0.6393405
253	0x3e40c142	0.18823722
254	0x3d86506a	0.065583065
255	0xbf8f7919	-1.1208831

bias f4 [8]
0	0xbefbe99a	-0.4920166
1	0xbe04a48b	-0.12953393
2	0xbeae0555	-0.33988443
3	0x3d10558f	0.035237845
4	0xbd9a4b87	-0.07533937
5	0x3d09f236	0.033678256
6	0x3dfc9608	0.12333304
7	0x3f1993fd	0.5999144
