runthroughs/run_3/baseline_model_save.pth (torch, 16000 bytes, 6 tensors)

weight f4 [64, 10]
000000 2f d5 74 3c e2 7e c4 3b 17 f0 cc be 25 aa 93 be
       0.014943405 0.005996571 -0.40026924 -0.28840747
000010 20 03 b5 be 7d d5 b1 be bf ad 37 3e f1 53 e0 bd
       -0.35353947 -0.3473319 0.17937373 -0.109535106
000020 48 cd 97 3e 1f 58 b7 bd c2 7a b9 bd 7f 8e fe bd
       0.29648805 -0.08952355 -0.09056617 -0.12429523
000030 93 a9 89 3d a8 3e 97 3e 67 fc 89 be da 8c 92 3e
       0.06721797 0.2953999 -0.2695038 0.28623086
000040 26 5c 68 3d 19 9c 74 bd c7 33 b5 3e ac 45 89 be
       0.056728505 -0.05971918 0.35391065 -0.26810968
000050 54 4e 85 be 57 61 4c be f3 99 dc be b3 2b c6 3d
       -0.26036322 -0.19959007 -0.43086204 0.09676304
000060 20 26 cd be 0b e0 e1 3c 3b b6 3e be 4d 92 a6 be
       -0.4006815 0.027572652 -0.18624203 -0.32533494
000070 51 60 19 3c be 95 70 3e 6d 8a c6 3d 25 f4 39 3e
       0.0093613425 0.23494622 0.09694371 0.1815954
000080 f9 cf 97 bd 32 3f fa bd 04 68 a7 bc 3f 43 58 bf
       -0.074127145 -0.12219085 -0.02043534 -0.8447761
000090 ce 77 96 be 76 10 3a 3e e9 e8 38 be 87 c4 a3 bc
       -0.2938828 0.18170342 -0.18057598 -0.019991172
0000a0 29 8a ec bd 05 7d d9 bd ac 23 6a 3e 2e ad 40 3e
       -0.115497895 -0.10619549 0.2286517 0.18816063
0000b0 dd 9a 78 3e cc eb 94 bb 80 a2 04 bc 57 47 88 be
       0.24277826 -0.0045447107 -0.008095384 -0.26616928
0000c0 19 02 2f 3e 8b f2 48 bd b4 6a 60 bd 60 c0 9d be
       0.17090644 -0.049059432 -0.05478926 -0.30810833
0000d0 7b 1e 72 3e e8 99 86 3e d3 33 2e bf c3 94 f1 bd
       0.2364444 0.26289296 -0.6804783 -0.11795952
0000e0 83 7f 4b 3e 49 3a 8f bc 46 9f 98 3b 36 fc 3f 3d
       0.1987286 -0.017483847 0.0046576587 0.046871386
0000f0 2b 8f de 3c 7d dc 99 3c bd 97 b3 bd 81 ae 3e bd
       0.027167877 0.018781895 -0.08769176 -0.04655314
000100 39 ca 1e bc 2b 1b 83 3e 31 1e 22 3f cc 82 8e bd
       -0.009691768 0.25606665 0.6332732 -0.06958541
000110 19 54 ef bd c7 74 02 bf 99 71 90 bd 61 eb 43 bd
       -0.11685962 -0.5095944 -0.07052917 -0.047831897
000120 b4 0a e9 be 37 ff 93 3e 15 2b 86 3e 3c 8a c8 be
       -0.45515978 0.2890565 0.26204744 -0.39167964
000130 d0 8b de 3e 4a ed 0a 3e 17 2b 22 3d 71 df 68 be
       0.43466043 0.13567081 0.039591875 -0.22741486
000140 1e bc e5 3c 79 e8 d8 bd 06 20 40 3e cb 21 0e 3e
       0.028043803 -0.10591216 0.18762216 0.13880078
000150 22 80 8b 3a e0 3f c0 3e b2 37 97 be 10 be 23 be
       0.0010643045 0.37548733 -0.2953468 -0.15990472
000160 08 60 9f 3d 88 2e 7c 3e 22 5a ff be aa 50 e5 be
       0.077819884 0.24627125 -0.49873453 -0.44788104
000170 ae ee 48 3d b2 ae 64 be fe b3 15 be 55 44 41 3e
       0.049055748 -0.22332266 -0.14619443 0.18873723
000180 dc 5f ea bc 50 0e 0e be d5 05 01 3e 1c aa a6 be
       -0.028610162 -0.13872647 0.12599881 -0.32551658
000190 03 bc 9a bd 04 55 47 be 97 81 5f be 47 5d d6 3b
       -0.07555392 -0.19466025 -0.21826778 0.0065418812
0001a0 64 b4 00 be 57 0e 11 3f 0b 87 31 3e d2 dc 4d be
       -0.12568814 0.56662506 0.17336671 -0.20103768
0001b0 55 51 f3 bd 95 29 04 3f de 5b b6 3d 00 4e 12 3d
       -0.11880747 0.5162595 0.08904241 0.035718918
0001c0 66 a1 b8 3e 51 7e 7e 3c 2a cb 78 3d ec 48 bc 3e
       0.36060637 0.015533046 0.060740627 0.36774385
0001d0 d9 6c 95 be 8a ca 5f bd 32 a4 73 be 3f 06 90 be
       -0.29184607 -0.054636516 -0.23793104 -0.28129765
0001e0 67 e1 b6 be 26 e7 8e be a9 1e aa bd b9 17 ee bc
       -0.35718843 -0.27910727 -0.08306629 -0.029064046
0001f0 c0 ba c4 bc 73 76 3e 3e 23 89 1f 3e a8 a1 00 bd
       -0.02401483 0.18599872 0.15579657 -0.031404167
000200 9d 72 c6 3e 8b 23 4e 3e 99 3c e3 3d 76 6e 2b 3e
       0.38759318 0.20130746 0.110955425 0.16741356
000210 1f 83 5a 3e 8e 7e 07 3f dc dc 03 3e b0 8f ef bd
       0.21339081 0.5292748 0.1287722 -0.11697328
000220 c1 20 dd be 8c e8 95 bd 58 9d 3e 3e 18 eb 79 3b
       -0.43189052 -0.073197454 0.1861471 0.0038134512
000230 f8 f2 83 be af dd c9 bd e0 a2 c4 be c6 74 63 bd
       -0.25771308 -0.09856736 -0.38405514 -0.055531286
000240 00 fc 0c bd 58 61 d3 3e ad 1e 06 3e 50 c2 1d be
       -0.034420013 0.41285205 0.1309764 -0.15406156
000250 cf 10 2a 3e b5 8a 50 be 69 de 57 bc b3 5d f7 bd
       0.16607974 -0.20365413 -0.013175585 -0.120784186
000260 e8 15 ce be 70 4f a6 3e f5 f2 51 bf b0 c9 1b bf
       -0.40251088 0.3248248 -0.8201135 -0.60854626
000270 5c 21 26 3e b7 c5 d3 bd 4a 1b 8a 3d d9 53 47 3d
       0.16223663 -0.103404455 0.06743486 0.048663948
000280 0f f4 c4 be 4a 5d ac be a8 b0 00 3e ef 7f a6 be
       -0.38467452 -0.33664924 0.12567389 -0.3251948
000290 f4 fa df bc 1b 5b 5c 3e ca 36 a9 be 77 d8 99 3e
       -0.027341343 0.21519129 -0.33049613 0.30047962
0002a0 00 8b d6 bd 24 d5 a9 be f7 07 b6 3e 83 4b 34 be
       -0.10475731 -0.33170426 0.35552952 -0.1760693
0002b0 9a ca 70 bb 38 d5 26 be 41 8b 4e 3e af 5e 54 3d
       -0.0036741854 -0.16292274 0.20170309 0.05184811
0002c0 93 dd da 3d 07 bb 36 3d c2 d4 14 be 6d 12 90 bd
       0.10686793 0.044611957 -0.14534286 -0.070347644
0002d0 37 82 9d be 20 d9 4e 3e 65 a3 69 3e 38 a8 6e 3e
       -0.3076341 0.20200014 0.22816236 0.23306358
0002e0 e1 68 75 bc 46 ca 0f 3d c2 33 66 bd a8 b3 53 be
       -0.014978618 0.035105012 -0.056201704 -0.20674002
0002f0 26 a3 0c be 0b c6 0a 3d c3 dd 7e be 49 e2 15 be
       -0.13734111 0.033880275 -0.24889283 -0.14637102
000300 91 1c ef bd 18 86 1d 3e 37 04 12 be 3d f7 d4 be
       -0.116753705 0.15383184 -0.1425942 -0.41594878
000310 e7 a1 bf bd 00 43 6e 3e 90 93 08 bd f6 d1 a7 3e
       -0.09357052 0.23267746 -0.03334385 0.32777375
000320 27 38 3a 3d 10 3d a3 bc f9 9d c2 3d fd ff 1e be
       0.045463707 -0.019926578 0.09502787 -0.1552734
000330 e0 19 8c bc 67 e0 38 bc a6 24 b9 bc 4d 63 88 3d
       -0.017102182 -0.01128397 -0.022600483 0.06659565
000340 96 70 95 be 89 da 18 bf aa 22 a7 3e ff 33 d7 be
       -0.2918746 -0.5970846 0.32643634 -0.42031857
000350 d0 d1 27 be fe 79 8a 3e fe c7 2c 3d ba 19 ec 3c
       -0.16388631 0.27046198 0.042182915 0.028820861
000360 f6 5d e0 bd fa 51 04 3e 6d 05 98 bd ab 96 cc bd
       -0.109554216 0.12921897 -0.0742291 -0.09989675
000370 95 66 c7 be c2 d1 2e be 13 a6 d6 bd af 9d 40 3e
       -0.3894545 -0.17072204 -0.10480895 0.18810152
000380 67 32 8b 3e 35 c1 d3 3e 1f ce cb 3e 36 9d 6b be
       0.2718689 0.41358343 0.39805695 -0.2300919
000390 29 76 fc 3d bc 9f 02 be 6c 75 7c bd c7 16 2d 3e
       0.12327225 -0.12756246 -0.06163542 0.1690322
0003a0 d9 cb 2d be 3f cb 7e 3e 14 4a 1c bc bb 29 d4 3d
       -0.16972293 0.2488222 -0.009539146 0.10359522
0003b0 d4 9c 25 bd 75 e7 25 be ff 23 d7 3e 5c 56 c3 be
       -0.040432766 -0.16201575 0.4201965 -0.38151824
0003c0 4c fa 09 be 48 e1 14 be d6 b8 87 bd 62 76 bb be
       -0.13474387 -0.14539063 -0.066270515 -0.36613756
0003d0 9d 15 d0 bd 3c 13 7f 3e d4 2e 11 be 93 85 80 be
       -0.101603724 0.24909681 -0.1417802 -0.2510191
0003e0 fd cd 59 bf bc 83 0b 3f 0c c5 c0 be 21 0b 7e be
       -0.8507994 0.54497886 -0.37650335 -0.24808933
0003f0 69 ac 58 be 14 26 5f 3e 9e 9f b0 3d e0 cf 0a 3f
       -0.2115952 0.2179187 0.086241946 0.5422344

bias f4 [64]
000000 68 09 60 be 34 04 b4 3e 3e 83 87 bc 25 5f 57 be
       -0.21878588 0.35159457 -0.016542073 -0.21032389
000010 b2 2d 6a 3e ce 7d 71 be 85 10 2e bf 17 71 02 bf
       0.22868994 -0.23583147 -0.67993957 -0.5095381
000020 9c 24 d5 3d d9 62 1d 3e 23 7f 1c bd 85 2f 92 3b
       0.10407373 0.15369739 -0.038207185 0.004461231
000030 f5 ef db be f2 c1 46 be c1 33 2d 3f cd 6b e8 be
       -0.4295651 -0.19409922 0.67657095 -0.45394745
000040 69 32 f6 bd 22 df 7d 3e 20 79 6f be 5c 77 95 be
       -0.12021334 0.2479215 -0.2338605 -0.29192626
000050 f6 af 19 3d b6 3d 9a be 5c 2a d7 be 95 9b 0f be
       0.037521325 -0.30125207 -0.42024505 -0.14024194
000060 41 13 e2 bd e4 00 16 3f e3 86 64 3d 79 67 e0 bc
       -0.11038829 0.5859511 0.0557927 -0.02739309
000070 96 52 77 be 95 50 05 3e 72 7c 93 3c aa 8b 94 bc
       -0.24152598 0.13019021 0.018003676 -0.018133003
000080 15 cd da 3d 4d 86 d6 be 48 c9 8d be f7 83 ec be
       0.106836475 -0.41899338 -0.27692628 -0.4619443
000090 a8 94 aa be 9a f0 60 3d 38 93 68 be b4 6d c9 be
       -0.3331654 0.054916956 -0.2271241 -0.3934151
0000a0 c7 c2 32 be f6 82 23 be cb 47 af be d4 1a e4 be
       -0.17457114 -0.15967926 -0.3423446 -0.44551718
0000b0 b1 4e 98 3e 49 34 9e 3d c9 52 83 be e3 e0 ed bc
       0.29747537 0.07724816 -0.25649098 -0.029037898
0000c0 fc 9f 18 3f b0 65 b7 be 2f b4 21 be c8 f6 39 be
       0.59619117 -0.3581977 -0.15791391 -0.18160546
0000d0 fe 9b ba be f2 41 40 3d 3f d1 0f bf 44 98 82 bd
       -0.36447138 0.04693789 -0.5617866 -0.063766986
0000e0 ba 79 00 bf a8 ea a6 bc c6 68 5f be 60 0a 57 3e
       -0.5018574 -0.020375565 -0.21817312 0.21000051
0000f0 90 b8 cb be df 04 a6 3d 9e cb 06 bd 55 27 f5 be
       -0.39789248 0.08106398 -0.03290903 -0.4788157

weight f4 [32, 64]
000000 39 f7 2e be 9f 4c 85 3c aa bc 48 3e a6 38 cb bd
       -0.17086495 0.016271887 0.1960322 -0.09922914
000010 96 a8 19 be 64 06 a6 3d 4c b1 86 bc d3 13 a5 3d
       -0.15005717 0.08106688 -0.016441964 0.08060422
000020 d7 2c ba bc 23 c0 5b 3d 17 45 60 3e 5b f5 c4 3c
       -0.02272646 0.053650033 0.21901356 0.024042776
000030 c3 e9 7f bc 4c e8 71 bd 12 88 8a 3e 7d b9 bd 3c
       -0.015619698 -0.059059426 0.27056938 0.023159737
000040 0e 38 4b 3e ec 4c b5 3d fb ad be bd ea 18 b4 3e
       0.19845602 0.08852562 -0.09310528 0.35175258
000050 bf ae 9d bd 6b 00 25 bd 21 0e bf bd 67 93 43 3c
       -0.07699346 -0.0402836 -0.09328867 0.011936999
000060 39 19 02 bc 7f d6 3b 3e 89 96 52 be 80 6a ea bd
       -0.007940584 0.18343543 -0.20565237 -0.114460945
000070 60 d2 1a be e8 8f 39 bc d8 ed 96 3d 8d c2 00 bf
       -0.15119314 -0.011325814 0.07369584 -0.5029686
000080 1d fa 09 3c b6 58 aa bc b3 d8 5c 3e 8a 85 e5 3d
       0.008421448 -0.020794254 0.21567039 0.11207111
000090 42 f3 9b 3d d3 e6 a1 be fe e2 04 bd bb cd 01 be
       0.07614757 -0.31621417 -0.03244304 -0.12676136
0000a0 b8 6a 5c 3e 51 05 03 3d 16 8c d3 3c c6 38 8c bd
       0.21525085 0.031987492 0.025823634 -0.06846766
0000b0 84 a6 0e be 99 83 6d 3e aa 5d 8a bd 34 1d 66 3d
       -0.13930708 0.23194732 -0.06756146 0.056180194
0000c0 ad 6e 74 3d 02 4c bf 3d 46 0a 43 bc e3 3e 91 3d
       0.05967586 0.09340669 -0.011904305 0.07092073
0000d0 ad 99 97 3e 30 d0 bd 37 c3 91 8d bd 93 ab ef 3d
       0.29609433 2.26275e-05 -0.069125675 0.11702647
0000e0 20 2e 67 be 3a 74 e8 bd a7 f0 9b bb b0 d6 13 be
       -0.22576189 -0.113502935 -0.0047589126 -0.14437366
0000f0 37 ba 2b be ba 40 23 bd e5 e9 ff 3d 2f f2 b1 bd
       -0.16770254 -0.03985665 0.12495784 -0.08688771
000100 24 cd 0c 3d f5 9e b7 bd 9a 92 7d 3e 19 be 05 be
       0.034375325 -0.089658655 0.24762955 -0.13060798
000110 d2 d3 ed 3b 87 f2 98 3c c7 84 79 3c f5 8a db 3d
       0.007257917 0.018670334 0.0152294105 0.10719863
000120 88 fb 82 bb 77 0e 41 be df bd 86 be f2 ea 18 bf
       -0.00399727 -0.18853174 -0.26316735 -0.597335
000130 d5 bb 10 be bc 38 80 bd ba 4e 06 3e c6 e3 ea 3e
       -0.14134152 -0.06260821 0.1311597 0.45876902
000140 e6 1c f0 3d 73 41 77 3b 1e 88 9b 3d c3 16 b1 3d
       0.11724262 0.003772822 0.07594322 0.086469196
000150 39 90 99 be 67 3d 4f bc 7e 26 a0 be 56 ff 83 3d
       -0.29992846 -0.012648917 -0.31279367 0.06445186
000160 38 5a 41 bd 8b 56 58 be 71 9c 20 3e 6a 92 10 bd
       -0.04720518 -0.21126764 0.15684678 -0.03529588
000170 a4 07 87 3d 4f 43 01 3e 6a ff 93 3e 54 67 4e bc
       0.06593254 0.12623332 0.28905803 -0.0125978775
000180 e3 0f 18 3e 12 2a 3f be 9c 23 03 be 5b f6 e5 bd
       0.1484981 -0.18668392 -0.12806553 -0.11228629
000190 28 ae 7a 3e bd d3 45 bf da ca ad 3d 42 81 51 be
       0.24480498 -0.7727621 0.084859565 -0.20459464
0001a0 2f 56 03 3e 6f 0f 00 3e 7b 33 0e bc 74 85 16 3e
       0.12825845 0.12505887 -0.008679266 0.14699346
0001b0 90 f8 e9 3c 34 ef 41 3e bb af 47 3d 50 56 09 bd
       0.028560907 0.18938905 0.048751574 -0.03352958
0001c0 ee e9 d2 3e f9 d4 13 bd 10 ac 4e bd 0f 45 02 3e
       0.411941 -0.03609178 -0.05045706 0.12721656
0001d0 7b 0c f5 3c 01 d1 7f 3e 9a fa b7 3d e8 b3 f4 ba
       0.029913178 0.24982072 0.08983345 -0.0018669339
0001e0 de 03 9e bd 12 10 f3 3b 23 f1 f3 bd f4 ad 85 3d
       -0.07715581 0.007417687 -0.119112276 0.065273196
0001f0 fd 9f 84 3e 0e dc e9 3d bc 82 36 bd 1d 69 c8 3d
       0.2590331 0.11418925 -0.04455827 0.09785674
000200 de 9a 8a be 3a d2 03 3e 0c 6c ba bd 9f 23 f3 3c
       -0.2707128 0.12873164 -0.091026396 0.029680071
000210 d6 a5 12 3e 84 40 25 3e d7 1c b3 be a1 10 ac 3d
       0.14321074 0.16137892 -0.3498294 0.08401609
000220 99 e4 a3 bd 97 e0 53 3d cb 46 f7 bc e1 9b c9 3d
       -0.08002586 0.051727857 -0.030185124 0.09844185
000230 ed d0 8d bc 5f 7c 99 be 04 d5 17 3d 2a d9 d3 bd
       -0.017311538 -0.299777 0.037068382 -0.10344155
000240 00 c5 38 bd 3e b2 2c 3e 49 9f 27 3e 78 5b 5c be
       -0.04510975 0.16864869 0.16369356 -0.21519268
000250 c5 53 e8 3d f8 1b 9c 3e 62 bc 3e be 72 b9 5f 3c
       0.11344103 0.30490088 -0.1862655 0.013655053
000260 9c 0d 83 3e 91 97 93 bc 6f 0f 9d bd 77 8a f4 3d
       0.2559632 -0.018016608 -0.07668959 0.119404726
000270 cc a1 c8 bd 42 5e 45 be 9b b3 1d 3d dc cf d9 bd
       -0.09796485 -0.19274238 0.038501363 -0.10635349
000280 d6 4e 3d be f9 fc 34 bd 01 73 51 be ab db e6 bd
       -0.18487105 -0.044186566 -0.20454027 -0.11272367
000290 52 e9 85 bd d4 da 4f 3d 59 5f 20 bf a9 d9 ec 3c
       -0.06538643 0.0507458 -0.6264549 0.028912382
0002a0 73 17 dc bd a9 b6 88 be 68 e8 55 bd 1c b3 ce bd
       -0.1074666 -0.2670186 -0.052223593 -0.10092756
0002b0 20 d2 88 3d 61 71 60 3d d5 59 60 3e 04 19 51 bb
       0.06680703 0.054795627 0.21909268 -0.003190578
0002c0 96 05 cc 3d 8e 76 51 3e 57 da 97 3c 9e 03 14 3e
       0.09962003 0.20455381 0.01853673 0.14454505
0002d0 24 d8 3d 3e 01 0e 0a 3e 76 55 57 3d e2 c4 81 3d
       0.18539482 0.13481905 0.052571736 0.063363805
0002e0 4e c1 06 be c1 a2 5b be 56 cb 21 bc 70 b0 21 3c
       -0.13159677 -0.21448804 -0.009875139 0.009868726
0002f0 5a d8 90 3e be bc cb 3c 13 20 4c 3e be a0 1d 3e
       0.28290063 0.024870273 0.1993411 0.1539335
000300 f9 38 26 3e 61 21 0f 3e 72 dc 03 be 9d e0 37 bf
       0.16232671 0.13977577 -0.12877062 -0.7182711
000310 42 32 72 3e 05 a8 e6 bd 59 de 4c 3d 44 84 fa 3d
       0.23651984 -0.11262516 0.050016735 0.12232259
000320 c7 3b 44 bc c7 b0 99 3d fb a0 2b 3d 9d ed d3 3d
       -0.011977143 0.07504421 0.04190157 0.103480555
000330 44 0f b8 3d 82 f6 c4 3d 9f 34 25 3e d7 e9 7f bc
       0.08987287 0.0961733 0.16133355 -0.015619717
000340 b3 16 25 3e 0d 39 ae bc eb e1 b1 3c 97 72 fa 3d
       0.1612194 -0.021267438 0.021714171 0.122288875
000350 5e dd 49 bd 7b 79 8b 3c 6c e6 fb 3d 5b fe fb 3c
       -0.049283378 0.0170257 0.12299809 0.030760935
000360 f4 28 c2 3e 19 09 75 3e c9 47 14 3e 3a 68 17 bd
       0.3792187 0.23929252 0.14480509 -0.036964633
000370 3c e0 51 3e f2 57 1e 3e 0c d7 89 3c a4 42 60 bd
       0.20495695 0.15463236 0.016826175 -0.054751053
000380 e3 ee 52 3e 0f f7 6d be af 60 f7 3d 0f 2e 28 3d
       0.2059894 -0.23238777 0.12078988 0.04105955
000390 20 05 35 bd 11 62 12 be 32 b9 4d be 13 42 0f 3e
       -0.04419434 -0.14295222 -0.20090178 0.13990049
0003a0 7f 74 6b bd 53 f4 e4 3a e5 83 42 be e6 12 a3 3d
       -0.057484146 0.0017467834 -0.18995626 0.07962589
0003b0 7b 27 19 be 04 39 1a be 79 3a 41 bd 73 6c 02 3e
       -0.14956467 -0.15060812 -0.047174904 0.12736683
0003c0 c6 35 55 be 9b 36 8f be 91 57 22 3e 35 0c 58 be
       -0.20821294 -0.27971348 0.15853716 -0.21098407
0003d0 59 87 09 be f5 f6 3c be 73 37 19 3d 2a 27 ad bd
       -0.13430537 -0.18453582 0.037406396 -0.084547356
0003e0 58 ab b9 be 3c 13 0c 3d bd d3 95 3e b7 9c 69 be
       -0.36263537 0.03419803 0.29263106 -0.22813688
0003f0 77 34 d0 3d ea c5 c8 3d 9f 4a 6c 3e b3 e1 d4 bd
       0.10166257 0.09803374 0.2307534 -0.10394611

bias f4 [32]
000000 ba f2 71 3e 7e 89 47 3e e1 8a 79 3e 8f 19 36 bc
       0.23627749 0.19486043 0.24369384 -0.011114492
000010 44 99 da 3e 99 0f ee bc 15 c7 0d 3c 8b 2b bd bd
       0.42695057 -0.029060172 0.008653422 -0.09236821
000020 0b 49 a5 3d ea d8 7f 3e 66 b7 89 3d 10 d4 ba 3d
       0.080705725 0.2498509 0.067244336 0.09122479
000030 93 42 2d 3d 0f ad 5f 3e a5 67 69 3d d3 29 c4 3e
       0.04229982 0.2184336 0.05698361 0.3831316
000040 28 31 24 3e db 0e 40 3d 66 ff 85 bc 9b 74 39 3d
       0.16034377 0.046889167 -0.016357135 0.04527722
000050 9e 83 a7 3d 91 31 fb 3c 3f ef 1e be ea f1 20 3e
       0.08179401 0.030663284 -0.15520953 0.15717283
000060 c5 17 35 3e 1e 42 8f 3d 6c 68 a2 3d 51 37 3e be
       0.17684849 0.06995033 0.07930073 -0.18575789
000070 51 34 73 be 86 6a 5b bd e3 7d 06 3c f4 96 47 be
       -0.23750426 -0.053568386 0.008208725 -0.19491178

weight f4 [8, 32]
000000 d9 44 da bd e3 68 0f be a7 80 32 be 6a 60 7d 3e
       -0.10657663 -0.14004855 -0.1743189 0.2474381
000010 c6 f4 64 be ec e6 96 3e 3f a6 ac 3d bb 38 9c 3e
       -0.22358999 0.29473054 0.084301464 0.30512032
000020 e9 8e 66 be 35 0e c5 bd db 74 2d 3e 06 5a 8a 3e
       -0.22515453 -0.096218504 0.16939108 0.27021807
000030 f6 5d 02 be 65 f0 a5 3d 5c db 41 3e df 6f db bd
       -0.12731156 0.08102492 0.18931335 -0.10714697
000040 2b 36 f2 3d ae 54 2d 3e ac 13 1a be b9 f8 25 3e
       0.11826738 0.16926834 -0.15046567 0.16208161
000050 3a 46 cd bd 7b 68 63 3e 30 5d be 3c 7b a9 33 3d
       -0.1002316 0.22207825 0.023237795 0.0438628
000060 ea 30 ae be c8 3a 01 be 93 0a 1c 3d fa a6 84 bd
       -0.34021693 -0.1262008 0.03809602 -0.06477161
000070 1e 56 82 3d 44 e5 26 bd 07 da d0 3d 01 fc 8a 3e
       0.06364082 -0.04074599 0.101978354 0.2714539
000080 c8 f9 f5 bc 58 cb b5 bc 85 74 30 be 2a 4d 62 3b
       -0.030026332 -0.022191688 -0.17231949 0.0034530857
000090 96 b3 03 be 9e 01 b9 3c e5 09 15 bd b3 d9 db 3e
       -0.12861475 0.022583779 -0.03638639 0.4293953
0000a0 75 2e 7c bc bd 76 55 3e 9a 39 11 3e f2 11 aa 3e
       -0.015391936 0.20846076 0.1418213 0.33216816
0000b0 16 39 c1 bd a7 52 b9 3d 8f 59 b2 3c 0e 39 6f 3d
       -0.094347164 0.09048968 0.02177122 0.05840402
0000c0 1d 5e fd 3d b4 43 14 3d e6 50 86 3d 9b b8 af 3d
       0.12371466 0.03619738 0.06558399 0.085801326
0000d0 7c c3 8c bd ee 3d d2 3c f0 77 9f be c0 59 44 3e
       -0.06873223 0.025664296 -0.31146193 0.19174862
0000e0 86 8a 9b be aa e2 f4 be 78 52 24 bd d7 e6 df bd
       -0.30379122 -0.4782918 -0.04011771 -0.10932701
0000f0 84 a4 0c be d8 0d 45 3c ef 3b f1 3c 38 58 db 3d
       -0.13734633 0.012027226 0.029447524 0.10710186
000100 ed 63 3e bb 96 bc e6 be 74 76 36 3c 53 c1 c5 3d
       -0.002905126 -0.45065755 0.01113664 0.09656014
000110 60 70 60 be 85 e0 a3 be 19 c7 ba bd 42 95 9b 3e
       -0.21917868 -0.32007232 -0.09120006 0.30387312
000120 77 17 97 3d 47 b0 22 be d3 d5 12 3d f1 d5 81 bd
       0.073775224 -0.15887557 0.03584845 -0.06339634
000130 76 c3 d0 be aa f7 ef 3d c8 5e aa be d2 7e c5 be
       -0.40774125 0.1171716 -0.33275437 -0.3857332
000140 45 2a 0d bf e6 4c 38 3e 9e 0b b6 3e f4 1f ab be
       -0.55142623 0.17998084 0.35555738 -0.33422816
000150 35 dd ab be 09 f4 f9 bc da da 60 be da c0 db be
       -0.33567205 -0.030511873 -0.21958485 -0.42920572
000160 9e 25 80 bd 34 bf 8a bd 18 4b 8d 3e 4d 99 92 be
       -0.06257175 -0.0677475 0.27596354 -0.28632584
000170 71 31 05 bf 75 55 8d 3e b0 9c 35 be 46 37 95 bd
       -0.52028567 0.2760426 -0.17735553 -0.07285933
000180 f2 b1 a3 3e 55 7e 16 bf 78 fd 47 bd bc b2 db 3d
       0.319717 -0.5878652 -0.04882571 0.1072745
000190 b8 5f cb bd ce ed 39 3e f8 5b a1 bd ac 6d 80 be
       -0.09930366 0.18157122 -0.0787887 -0.25083673
0001a0 a6 4a d2 3c 3a 05 8a be ce 7d 3f 3d e7 1a 3d bf
       0.02567036 -0.26957113 0.046750836 -0.73869175
0001b0 f4 24 e7 3d 19 cb 3e 3d 06 88 44 3d e9 bb 32 3e
       0.11286345 0.046580408 0.047981285 0.17454495
0001c0 07 2d 38 bf a6 36 eb bd c4 51 a9 be 98 9f c6 be
       -0.71943706 -0.11485033 -0.33070195 -0.38793635
0001d0 1f 3f a9 be 26 b9 8c be c1 a2 d6 be 36 f5 14 bf
       -0.3305597 -0.27485007 -0.41921046 -0.5818666
0001e0 42 f0 00 be b7 75 0c be 5f a6 c0 be 60 7e b4 3e
       -0.12591651 -0.1371678 -0.3762693 0.35252666
0001f0 0a bd dc be 3e 49 5a 3e 35 ae 97 be 8f fd d0 bd
       -0.43112975 0.21317002 -0.29625097 -0.102046125
000200 eb 9a 72 3e ab 6c 0c be 52 18 33 3e e8 ae 9b be
       0.23691909 -0.13713329 0.17489746 -0.3040688
000210 71 e5 27 be 32 87 82 be 31 a1 cc bd e6 32 8a 3d
       -0.16396119 -0.2549377 -0.09991682 0.06747989
000220 fd aa 44 3e a8 3f bd 3d 1d 21 0e be 0b db c0 bd
       0.19205852 0.09240657 -0.13879819 -0.09416779
000230 a8 f3 49 3e 41 a3 d2 bd 20 c1 85 be cd 43 0c be
       0.19721854 -0.102850445 -0.26123905 -0.13697739
000240 62 80 e7 3d 07 5c 37 3e 54 d0 fe 3e 07 7d 16 3d
       0.11303784 0.179062 0.49768317 0.03674033
000250 75 b1 a8 be 91 69 a1 3d 0b 6e 17 be 0a 2f 68 3d
       -0.3294789 0.07881463 -0.14788072 0.056685485
000260 35 42 b4 bc 50 3f 5d bd 4f 8d ee 3e ba eb 87 be
       -0.022004226 -0.054015458 0.46592185 -0.26547033
000270 6c 39 8d be 00 85 ae 3d b1 ee d0 3d 80 29 9d bd
       -0.27582872 0.085214615 0.10201777 -0.07673931
000280 4b 1c 11 3d e1 8d 80 be 65 92 81 3d 34 d9 98 3d
       0.035427373 -0.25108245 0.06326751 0.07463303
000290 1d 67 a9 3d 8b 59 42 be df 13 f4 3c 54 59 14 bf
       0.082716204 -0.1897947 0.029794632 -0.57948804
0002a0 8d 44 17 bc 14 2b d6 bc ac aa 09 be 2e 5c ad be
       -0.009232652 -0.026143588 -0.13444012 -0.3385939
0002b0 7f 00 37 3d 3a 4e e4 3e a3 0d b4 3d 77 47 13 be
       0.044678207 0.44590932 0.087916635 -0.1438273
0002c0 97 68 59 3e 2c 2d ad 3d 07 72 9f 3d 7e 3c 4d 3e
       0.21231304 0.084558815 0.07785421 0.20042607
0002d0 af c8 54 3b 4b b2 81 3d 77 51 8d be 6d 1a af bc
       0.003246825 0.06332835 -0.27601215 -0.021374905
0002e0 11 b0 aa 3e 9d 0a 01 be 7a b3 66 be 67 84 20 be
       0.33337453 -0.12601705 -0.22529402 -0.15675507
0002f0 ac 7c 39 3e ce 84 b6 3e 5a d5 ea bc c5 3c 70 bd
       0.18113965 0.35648197 -0.028666187 -0.058651704
000300 b5 9a 2f be c5 9f 72 3d d1 ad 0c 3e 43 ad 17 be
       -0.1714886 0.0592344 0.1373818 -0.14812188
000310 29 31 4f 3e 49 2d 2e 3e a1 d3 ef 3d de bd 15 bf
       0.20233597 0.17009462 0.11710287 -0.5849284
000320 55 7e df 3d 59 57 b1 3c 04 9b 42 3e f3 4d 5a bf
       0.10912768 0.021648096 0.19004446 -0.8527519
000330 19 60 8b 3e 34 b5 a4 be 6e bc d3 3d 71 19 a3 bd
       0.27221754 -0.32169497 0.103386745 -0.07963837
000340 68 df 98 bb da 28 25 bd c5 c1 76 be 48 b6 0e 3b
       -0.004665304 -0.040322162 -0.24097355 0.0021776129
000350 8a c6 97 3e 73 e7 b6 bd 31 9a 7a be 97 0f 3f 3c
       0.2964366 -0.08930864 -0.24472882 0.011661432
000360 ff d0 9f 3d 44 20 bb 3d 69 c5 c6 3d 81 3f 0a 3f
       0.07803535 0.091370136 0.09705622 0.5400315
000370 bc 31 1a bd e4 bc 2c 3e bd d3 50 be b8 ed 45 ba
       -0.037645087 0.16868931 -0.20393272 -0.00075503765
000380 cd f8 3e 3e 7a 5f 2d 3e 66 e9 56 3e 0d a3 1c 3e
       0.18649597 0.16930953 0.20987472 0.15296574
000390 30 8a 33 3e 6c 63 f3 3d ee e9 c9 bc 9e 93 c0 be
       0.17533183 0.118841976 -0.02464768 -0.37612623
0003a0 f4 4b 2a 3e 83 57 e3 be fd 84 85 3e 6a 6a ab be
       0.16630536 -0.44402704 0.26078025 -0.33479625
0003b0 3f f0 cf 3d 86 96 d0 be dc f2 84 3d 0b 2d a8 3d
       0.10153245 -0.4073984 0.06491634 0.08211716
0003c0 cd 2a d3 3d 74 50 20 bf f5 3e 78 bf 93 f7 f4 3c
       0.10310898 -0.6262276 -0.96971065 0.029903209
0003d0 41 4c 7e bd 5a 78 d9 be 2d b2 98 3e 09 62 10 bc
       -0.06208444 -0.42474633 0.29823437 -0.008812436
0003e0 d7 09 c7 3d b6 ba 5e 3d 75 a8 f6 bd 66 f1 61 be
       0.09718674 0.05437728 -0.120438494 -0.22064742
0003f0 e3 72 34 bd 08 87 fb be 73 bf 7e 3d fa d5 b8 bd
       -0.044054877 -0.49126458 0.0621943 -0.09025188

bias f4 [8]
000000 49 61 ad be 26 54 e8 bd e1 6f e5 bd 4e f3 15 3e
       -0.33863285 -0.11344175 -0.1120298 0.14643595
000010 09 81 04 be 05 3a a8 3d 18 fc 3e 3e 30 bb be 3e
       -0.12939848 0.08214191 0.18650854 0.37252188
