models_save/full_input_aug_model_save_k_means_centers_1/full_input_aug_model_save.pth (torch, 46844 bytes, 6 tensors)

weight f4 [64, 130]
0	0xbd5ebae6	-0.05437746
1	0xbd765843	-0.060142767
2	0xbd6dc5f6	-0.05805012
3	0xbda7ec5a	-0.08199377
4	0xbc74624d	-0.014916015
5	0xbd8df477	-0.069313936
6	0xbcadb218	-0.021203086
7	0x3d8d2a46	0.06892829
8	0x3c799784	0.015233878
9	0xbd8f8ad5	-0.07008902
10	0x3d814e5e	0.063137755
11	0xbdaf9a7c	-0.085743874
12	0x3c84ac61	0.016195478
13	0x3d508b00	0.05091381
14	0xbcc705f7	-0.024294836
15	0xbd16461c	-0.036687955
16	0xbd1ee1ce	-0.038789563
17	0xbd3556ee	-0.044272356
18	0xbd589298	-0.052874178
19	0xbc857fcb	-0.016296288
20	0x3d8da57e	0.06916331
21	0xbc5d1d69	-0.013495781
22	0x3db2c2d0	0.08728564
23	0xbce6528c	-0.028115533
24	0x3ca12026	0.01966865
25	0x3dacc08c	0.08435163
26	0xba4b02f3	-0.0007744275
27	0xbbba30db	-0.0056820936
28	0x3db05132	0.08609237
29	0xbda77618	-0.081768215
30	0xbc2420f4	-0.010017622
31	0xbd653ced	-0.055966306
32	0x3b9650be	0.004587262
33	0x3cdc155f	0.02686566
34	0x3cd382b6	0.025819164
35	0x3d1c9fbf	0.038238283
36	0x3b652b1c	0.0034968322
37	0xbda3a84c	-0.079910845
38	0xbda501a7	-0.08056956
39	0x3d992c2d	0.07479129
40	0xbc5e56f5	-0.013570537
41	0x3c99e67a	0.018786658
42	0xbdb32264	-0.08746794
43	0xbdb004bf	-0.08594655
44	0x3d51514e	0.05110293
45	0x3dab2735	0.083570875
46	0xbd934cf3	-0.07192411
47	0xbd4ec3c9	-0.050479684
48	0x3d02aaf5	0.03190132
49	0xbc22db9c	-0.009940054
50	0x3c947915	0.018124143
51	0xbcff918b	-0.03119733
52	0xbda6a5e0	-0.08137107
53	0x3dafc3dd	0.0858228
54	0xbcc3b0be	-0.023887988
55	0xbd1b623e	-0.037935488
56	0xbd785d2b	-0.060635727
57	0xbdb0c0b3	-0.086305045
58	0x3daff1ff	0.08591079
59	0x3c887893	0.016659057
60	0x3d64a209	0.05581859
61	0xbcbfa76f	-0.023395268
62	0x3d61acf9	0.0550966
63	0x3d527e3f	0.05138993
64	0xba6916d1	-0.00088916445
65	0x3db1a532	0.08674087
66	0x3d39a3a4	0.045322075
67	0x3c40b34f	0.0117615005
68	0xbcf194ef	-0.029489962
69	0x3c011b2f	0.007880016
70	0xbba66768	-0.005078245
71	0x3d91a6ab	0.071118675
72	0xbd845bc1	-0.06462813
73	0x3c8f1299	0.017464923
74	0x3d0260b7	0.031830516
75	0x3d95305b	0.07284614
76	0xbd7c21db	-0.061555725
77	0xbda2417d	-0.07922647
78	0x3d89b2ec	0.0672358
79	0xbd7a73d8	-0.061145633
80	0xbda6d6b5	-0.08146421
81	0xbdac1cad	-0.08403907
82	0xbdaf9474	-0.08573237
83	0xbd023746	-0.031790994
84	0xbda2d73b	-0.07951208
85	0x3cf59b52	0.029981289
86	0xbd63b68f	-0.055594023
87	0xbcc4e840	-0.024036527
88	0xbdaba76f	-0.08381545
89	0x3d7600cc	0.060059354
90	0xbd359c1f	-0.04433834
91	0x3d71b12a	0.059006847
92	0x3d112939	0.035439704
93	0xbd896c37	-0.067100935
94	0x3ca7f7cf	0.020503907
95	0xbd9ee9a3	-0.077594064
96	0x3d8e5d8d	0.06951437
97	0x3d57f8fd	0.052727688
98	0x3d64d8bc	0.055870757
99	0x3da16f72	0.07882585
100	0xbd035b45	-0.032069463
101	0xbd92065e	-0.07130121
102	0x3d63d8b8	0.0556266
103	0x3d2681be	0.040651076
104	0xbd2d653e	-0.04233288
105	0xbd71335f	-0.058886882
106	0x3d82fb41	0.06395579
107	0x3b3e5cad	0.0029046938
108	0x3d8d6add	0.06905148
109	0xbbd9460d	-0.006630665
110	0xbd6f3caa	-0.058407463
111	0xbdb2b900	-0.08726692
112	0x3d32d281	0.043657783
113	0xbc6bc1bd	-0.0143894525
114	0x3d7aeccd	0.061260987
115	0x3c250347	0.010071582
116	0xbd3699ad	-0.04458015
117	0x3cacd8ea	0.021099526
118	0xbcc1673d	-0.023608798
119	0xbd7ccd8a	-0.061719455
120	0x3db03ca6	0.08605318
121	0xbcf1ed25	-0.029532025
122	0xbd81be32	-0.06335105
123	0xbd5aac22	-0.053386815
124	0x3c8e22fd	0.017350668
125	0x3c66a616	0.014077684
126	0x3d3bcbde	0.04584872
127	0x3bca2a94	0.0061696265
128	0xbd565be0	-0.052333713
129	0x3db19396	0.08670728
130	0xbd858413	-0.06519332
131	0xbcc2bfb4	-0.023773052
132	0x3bf90727	0.0075997296
133	0x3daa3905	0.08311657
134	0x3da1bb6d	0.07897077
135	0x3d97d253	0.07413163
136	0x3d8616d2	0.065473214
137	0x3b8a68cb	0.004223918
138	0x3daa551d	0.08317015
139	0xbd26da23	-0.040735375
140	0x3d883594	0.06650844
141	0x3ce18f1c	0.02753406
142	0xbda5ac72	-0.08089532
143	0xbd593ef3	-0.05303855
144	0x3d44ad45	0.048016805
145	0xbd154bf9	-0.036449406
146	0xbda13822	-0.078720346
147	0x3d807f33	0.06274261
148	0x3d637bfe	0.05553817
149	0x3d84f65a	0.064923
150	0xbd2fab1e	-0.0428878
151	0x3b377d1f	0.0027998162
152	0xbd1d6890	-0.038429797
153	0xbd8e6627	-0.06953078
154	0xbcc4ba1e	-0.024014529
155	0x3d9dcd68	0.07705194
156	0x3b126752	0.0022339416
157	0xbd2e4106	-0.04254248
158	0xbcdc8597	-0.02691917
159	0xbda994e8	-0.08280355
160	0xbd846c33	-0.0646595
161	0xbc3e28c1	-0.011606396
162	0x3ce627ca	0.028095145
163	0x3c021da7	0.00794164
164	0xbd8d2e89	-0.068936415
165	0x3c2c6a4b	0.010523389
166	0x3d8dc061	0.06921459
167	0xbc962bee	-0.018331494
168	0x3d606663	0.054785144
169	0x3a40d88b	0.0007356486
170	0xbd902e73	-0.070401095
171	0x3d6322cc	0.055453107
172	0x3bb44b5a	0.0055021467
173	0xbda04a99	-0.078267284
174	0x3b974ea7	0.0046175304
175	0xbd771735	-0.060324866
176	0xbda022b4	-0.07819119
177	0x3cab982c	0.020946585
178	0xbcaed063	-0.0213396
179	0xbd43fdae	-0.04784935
180	0x3db19455	0.0867087
181	0x3d54518d	0.051835585
182	0xbd8df27c	-0.06931016
183	0xbd84715b	-0.06466933
184	0x3d94a129	0.07257301
185	0xbc551d37	-0.013007454
186	0xbc80a22c	-0.01570233
187	0xbcbd7d82	-0.023131136
188	0xba9000da	-0.0010986582
189	0x3da1ec4e	0.079064
190	0x3d71c82d	0.059028793
191	0x3d96d187	0.07364183
192	0x3d191c6f	0.037380632
193	0xbdabc1e6	-0.083865926
194	0x3d9bf94f	0.07615911
195	0xbd981975	-0.074267305
196	0xbd4ddd62	-0.050259955
197	0x3c719521	0.014745028
198	0x3cecfdb2	0.028929565
199	0x3d87ffad	0.06640563
200	0x3bc7ce06	0.006097558
201	0x3d995cfb	0.07488438
202	0x3d2e1c40	0.04250741
203	0x3dadb475	0.08481685
204	0xbcbf2a2b	-0.023335537
205	0x3d9dc794	0.07704082
206	0xbcb4411d	-0.022003705
207	0xbcc48202	-0.023987774
208	0x3c705039	0.014667564
209	0x3cddd69a	0.027079869
210	0xbc6b8bd7	-0.014376602
211	0xbd0bbdd0	-0.034116566
212	0xbd58303c	-0.052780375
213	0xbb287685	-0.0025705409
214	0xbd3e7b1c	-0.046504125
215	0xbd11936f	-0.035540994
216	0xbc921760	-0.017833412
217	0x3d5ee04b	0.05441312
218	0x3d62b7cb	0.05535106
219	0xbce0fef1	-0.027465316
220	0x3d707f25	0.058715004
221	0x3da8902c	0.082306236
222	0xbd2dbc42	-0.042415865
223	0xbd75ed2c	-0.060040638
224	0xba9ed2a7	-0.0012117223
225	0xbd956a62	-0.072956815
226	0xbd6694b9	-0.056294177
227	0x3d0f608f	0.035004195
228	0x3c4f05ad	0.012635631
229	0x3d229d2f	0.039700683
230	0xbca005ab	-0.019533953
231	0x3d31baf6	0.04339119
232	0x3d9807c5	0.07423357
233	0x3cba6419	0.022752808
234	0x3d91b341	0.07114268
235	0xbd47ae8f	-0.048750456
236	0x3d957ecb	0.072995745
237	0xbc2b20f5	-0.010444869
238	0x3da45c61	0.080254324
239	0x3b29fb3b	0.0025937099
240	0xbdb36dfe	-0.08761214
241	0x3c3db06c	0.011577707
242	0x3d831f13	0.06402411
243	0xbda224dd	-0.07917187
244	0x3d659e37	0.05605909
245	0xbb74e30d	-0.0037366778
246	0xbd2e7aee	-0.042597704
247	0xbccd2d83	-0.025046116
248	0xbc5b02da	-0.013367379
249	0x3d32dd47	0.043668058
250	0xbb56b7db	-0.0032763395
251	0xbd10fdd7	-0.03539833
252	0xba475dc2	-0.00076052186
253	0x3d7f8dd1	0.062391106
254	0x3cf479d4	0.029843248
255	0xbd26fae8	-0.040766627

bias f4 [64]
0	0x3d1a4b0d	0.03766923
1	0x3d6c3a4d	0.057672787
2	0x3c99d7ce	0.018779662
3	0xbc9ab94c	-0.018887185
4	0x3d31d119	0.0434123
5	0x3cc5b6aa	0.024134953
6	0xbb234868	-0.0024914984
7	0xbcd9d267	-0.026589585
8	0xbd983a5b	-0.074330054
9	0x3cb38056	0.021911781
10	0x3cb143af	0.02163872
11	0xbda5ba9f	-0.08092236
12	0xbd086c62	-0.033306487
13	0xbc5e10cb	-0.013553808
14	0x3ca3efcb	0.020011803
15	0x3da511ed	0.0806006
16	0x3d16a4b3	0.036778163
17	0x3d8bd778	0.06828207
18	0x3c8c4e6b	0.017127236
19	0xbda3a409	-0.079902716
20	0xbd60f8e1	-0.05492485
21	0xbbdcfcdf	-0.006744012
22	0xbd3c1ebd	-0.04592775
23	0xbdad1eb4	-0.08453122
24	0x3d5990ae	0.053116493
25	0x3bfc6de5	0.00770353
26	0xbd94f560	-0.07273364
27	0xbd099230	-0.03358668
28	0xbc1e3329	-0.009655752
29	0x3da1bac4	0.07896951
30	0x3d87c690	0.0662967
31	0x3dac045c	0.08399269
32	0xbd779869	-0.060448084
33	0xbd809a23	-0.06279399
34	0xbd838e60	-0.0642364
35	0x3d48d634	0.049032405
36	0xbc53a437	-0.01291757
37	0xbd90beb1	-0.070676215
38	0xbc575bdd	-0.0131444605
39	0x3d9b3068	0.07577592
40	0x3c060790	0.008180514
41	0xbbd5398c	-0.0065071043
42	0x3d665b62	0.056239493
43	0xbda2af16	-0.07943551
44	0x3c73932f	0.014866634
45	0xbc6cf316	-0.014462253
46	0xbd2d7465	-0.04234733
47	0xba821c8f	-0.0009926724
48	0xbdb377c2	-0.08763076
49	0x3d930ef8	0.071805894
50	0xbc03bb30	-0.008040234
51	0xbd943c84	-0.07238105
52	0xbdab673c	-0.083693
53	0x3ca91b14	0.020642795
54	0x3d9497a1	0.072554834
55	0x3cc49d59	0.02400081
56	0xbd798812	-0.060920782
57	0x3d034815	0.032051165
58	0xbcd926eb	-0.026507815
59	0x3c9a5be4	0.018842645
60	0xbda459f6	-0.08024971
61	0x3c929944	0.017895348
62	0xbcab72a8	-0.020928696
63	0x3d54edbf	0.051984545

weight f4 [32, 64]
0	0x3df0af08	0.117521346
1	0x3d6706e0	0.05640304
2	0x3d82496c	0.0636166
3	0xbde51bbe	-0.11186932
4	0x3d4f1250	0.050554574
5	0x3d440e1c	0.04786502
6	0x3dd0fe62	0.1020477
7	0xbbc08da0	-0.005876258
8	0x3db5fdda	0.08886309
9	0xbdc5e0c8	-0.09662014
10	0x3db733ee	0.08945452
11	0xbcb62f00	-0.022239208
12	0xbdf3380c	-0.118759245
13	0xbd2dd020	-0.04243481
14	0x3dac1d10	0.08403981
15	0x3c426c40	0.011866629
16	0xbdff0426	-0.12451963
17	0xbcdba7d0	-0.026813418
18	0xbdc824ca	-0.09772642
19	0xbd427ae4	-0.04748048
20	0xbc392cb0	-0.011302158
21	0xbd261818	-0.04055032
22	0xbc647490	-0.013943806
23	0xbda56b64	-0.08077124
24	0x3c69a660	0.014260858
25	0x3dfc6e58	0.12325734
26	0xbd254d74	-0.04035707
27	0xbd349a30	-0.044092357
28	0xbd1e4bc8	-0.03864649
29	0xbdde9f4e	-0.10870229
30	0x3cdd3a08	0.02700521
31	0xbd0a9350	-0.033831894
32	0xbb2aad80	-0.0026043355
33	0xbd902338	-0.070379674
34	0x3d7ec688	0.062201053
35	0xbde6917e	-0.11258219
36	0x3c84c440	0.01620686
37	0xbc0ca840	-0.008585036
38	0xbd90ffb0	-0.070800185
39	0xbd8c45c2	-0.06849243
40	0xbd9b02a6	-0.075688645
41	0xbcbf3708	-0.02334167
42	0x3d127434	0.03575535
43	0x3ddfbe18	0.109249294
44	0x3dc1d726	0.094648644
45	0x3d490cc4	0.04908444
46	0x3cc30110	0.023804218
47	0xbc7beaf0	-0.015375838
48	0xbcd85898	-0.026409432
49	0x3d6678f4	0.056267694
50	0x3c98de18	0.01866059
51	0x3c807cb0	0.015684456
52	0x3dfa93fe	0.122352585
53	0xbd9b6ce0	-0.07589126
54	0xbdf648ea	-0.12025626
55	0xbdffe3fc	-0.124946564
56	0x3dabe7a0	0.08393788
57	0xbdb3e0d2	-0.087831154
58	0x3dc5f874	0.09666529
59	0x3c85be60	0.01632613
60	0xbdb88d58	-0.09011334
61	0x3c3d0f20	0.011539251
62	0x3d748394	0.059695795
63	0x3aeeb980	0.0018213242
64	0xbdfb0642	-0.12257053
65	0xbcdc5af8	-0.026898846
66	0x3dc8c85a	0.09803839
67	0xbcd9daa0	-0.026593506
68	0xbdffc35e	-0.12488435
69	0x3dba6e58	0.09103078
70	0xbd3be5cc	-0.04587345
71	0x3d0d48f8	0.034493417
72	0xbd9e6560	-0.077341795
73	0xbd918df4	-0.071071535
74	0x3cd62c90	0.026144296
75	0xbde91b76	-0.11382191
76	0x3df57382	0.11984922
77	0xbd10ddc8	-0.035367757
78	0xbd79ed30	-0.061017215
79	0xbd16b6ac	-0.036795303
80	0x3d5e09c4	0.054208532
81	0xbde339fc	-0.11095044
82	0xbdc6e97e	-0.09712504
83	0x3d8af56a	0.0678509
84	0x3de60198	0.11230773
85	0x3ba1a340	0.004932791
86	0x3dfea866	0.12434463
87	0xbd8cd9b2	-0.068774596
88	0x3d35d508	0.044392616
89	0xbcb01d08	-0.021498218
90	0x3d9d3af4	0.0767726
91	0xbdb51e0a	-0.0884362
92	0x3ce98cb8	0.028509483
93	0x3df51fd4	0.11968961
94	0xbdb749d4	-0.089496285
95	0x3dfd046a	0.123543575
96	0xbdf0e83c	-0.11763045
97	0xbde23868	-0.11045915
98	0x3c484df0	0.012225613
99	0x3dbfb46e	0.09360586
100	0xbdcb0d44	-0.099146396
101	0xbdb356ee	-0.08756815
102	0xbde31e30	-0.11089742
103	0x3da2193e	0.07914971
104	0x3bda3540	0.00665918
105	0xbdc56c36	-0.0963978
106	0xbd0d0088	-0.034424335
107	0xbdab4c3c	-0.0836415
108	0x3daedb16	0.08537881
109	0xbd9fb746	-0.077986285
110	0x3dfae1a0	0.12250066
111	0xbaed1000	-0.0018086433
112	0xbdc378c2	-0.09544517
113	0x3cca65c8	0.024706736
114	0xbd24dc98	-0.040249437
115	0x3cd610b0	0.026131004
116	0x3dd630aa	0.10458501
117	0xbd4c85c0	-0.04993224
118	0x3c98fe50	0.018675953
119	0xbbb47380	-0.0055069327
120	0x3d1372d4	0.03599818
121	0xbd9734c4	-0.07383111
122	0x3dba1bd4	0.09087339
123	0x3da2bfc0	0.0794673
124	0xbdc468b4	-0.09590283
125	0x3d9b8454	0.07593599
126	0x3d0c7638	0.03429243
127	0x3daa20d6	0.08307044
128	0xbd903fd6	-0.07043426
129	0xbddaa79c	-0.106765
130	0x3db7a526	0.089670464
131	0xbdf179f4	-0.11790839
132	0xbd9ba672	-0.07600106
133	0xbdcb2282	-0.09918691
134	0xbdf7d73e	-0.12101601
135	0xbdf39052	-0.11892761
136	0x3d9c4312	0.0762998
137	0x3b42a900	0.0029702783
138	0xbd58f028	-0.052963406
139	0x3cfb2570	0.0306575
140	0x3d1dcd10	0.03852564
141	0x3ce7aff0	0.028282136
142	0xbdd3c480	-0.10340214
143	0x3ca152e8	0.019692853
144	0x3d1df474	0.038563207
145	0xbdbe6062	-0.09295727
146	0x3de904ae	0.11377846
147	0xbc310f10	-0.010806814
148	0xbc1cde20	-0.009574443
149	0x3d15da28	0.036585003
150	0xbd9e500e	-0.07730113
151	0x3d9e1dee	0.077205524
152	0xbde44fae	-0.1114801
153	0x3d630624	0.055425778
154	0xbdff8678	-0.1247682
155	0xbde0d08e	-0.10977279
156	0x3d33e058	0.043915123
157	0x3daeda90	0.08537781
158	0xbd96ba6a	-0.073597744
159	0x3dd244de	0.102670416
160	0xbd9c3f16	-0.0762922
161	0xbd58b10c	-0.05290322
162	0xbd0ef1f8	-0.034898728
163	0xbdbc186c	-0.091843456
164	0x3df7f910	0.12108052
165	0xbb786f80	-0.0037908256
166	0x3dbe3f80	0.092894554
167	0x3cd934d0	0.02651444
168	0x3dcc2116	0.09967248
169	0x3dc2bca4	0.095086366
170	0x3d7a60a8	0.061127335
171	0xbdc1532a	-0.094396904
172	0xbdbce480	-0.092232704
173	0x3c7d8590	0.015473738
174	0x3d726e44	0.05918719
175	0xbded5292	-0.11588015
176	0xbdf259e4	-0.118335515
177	0x3dee8250	0.11645949
178	0x3d119770	0.035544813
179	0x3dc952c4	0.098302394
180	0x3d1a2804	0.037635818
181	0x3d8eb5fe	0.06968306
182	0x3dc71504	0.09720805
183	0x3dccbeb4	0.09997311
184	0x3da1452a	0.0787452
185	0xbd762f18	-0.060103506
186	0xbc881f18	-0.01661639
187	0x3d763e34	0.060117915
188	0xbbd09c40	-0.0063662827
189	0xbb858740	-0.004074961
190	0xbbd1a8e0	-0.0063983053
191	0x3dc87c10	0.09789288
192	0x3c328d00	0.010897875
193	0xbb889c80	-0.004169047
194	0x3b2d7380	0.0026466548
195	0xbdf8b2e2	-0.12143494
196	0x3d855874	0.06511012
197	0xbd40e354	-0.047091797
198	0xbdf7272e	-0.1206802
199	0xbc0eebc0	-0.008723199
200	0xbde5e0d2	-0.11224522
201	0xbd860e8a	-0.06545742
202	0xbc6fc830	-0.014635131
203	0xbc918810	-0.017765075
204	0xbdc53a32	-0.096302405
205	0xbdc740bc	-0.09729144
206	0x3d56064c	0.0522521
207	0x3da09342	0.07840587
208	0xbdb350b4	-0.08755627
209	0x3dd84038	0.10559124
210	0xbc0fb290	-0.0087706
211	0x3d8c4810	0.06849682
212	0xbd8e7ec8	-0.06957775
213	0xbd7c05cc	-0.061528966
214	0xbd1394d0	-0.03603059
215	0xbd9b01fe	-0.07568739
216	0xbd361e14	-0.04446228
217	0xbd56fec8	-0.052489072
218	0xbc668450	-0.014069632
219	0xbd8ef804	-0.06980899
220	0xbd7a5d80	-0.061124325
221	0xbd8240b4	-0.063599974
222	0xbd42fd90	-0.047605097
223	0xbd52c8b0	-0.05146092
224	0xbde54fea	-0.11196883
225	0xbd7f4b1c	-0.06232749
226	0x3dd40116	0.103517696
227	0x3de4753e	0.11155175
228	0x3d300534	0.042973712
229	0x3c3fe440	0.011712134
230	0xbcf87b60	-0.030332267
231	0xbddfdc90	-0.10930741
232	0xbc677ab0	-0.014128372
233	0xbd994488	-0.074837744
234	0xbda6aa3a	-0.08137937
235	0xbc8a0c80	-0.016851664
236	0x3d02fc54	0.03197892
237	0xbc0487d0	-0.008089021
238	0xbc0e87d0	-0.008699372
239	0x3dbe8a68	0.09303743
240	0xbdfa2d28	-0.12215644
241	0x3dd13c94	0.102166325
242	0x3d95a254	0.07306352
243	0xbce74b68	-0.028234199
244	0x3ca44520	0.020052493
245	0xbd24c834	-0.04022999
246	0x3c68b950	0.014204338
247	0x3c92c388	0.017915502
248	0x3ca7d548	0.020487443
249	0x3d134238	0.035951823
250	0xbdec6ddc	-0.115443915
251	0xbd8b9cf0	-0.06817043
252	0x3da3c8ce	0.07997285
253	0xbdc0fdd0	-0.09423411
254	0x3d3497e4	0.044090167
255	0xbb90ce80	-0.004419148

bias f4 [32]
0	0x3dd70492	0.104989186
1	0x3df74068	0.120728314
2	0xbd14e3ac	-0.036349937
3	0xbd450f78	-0.048110455
4	0x3c848950	0.016178757
5	0xbcbba698	-0.022906587
6	0xbdfd858a	-0.12378986
7	0xbdbc2316	-0.091863796
8	0xbdfabdaa	-0.12243207
9	0x3d4fa368	0.050692946
10	0x3da040a8	0.07824832
11	0xbdf345bc	-0.11878535
12	0x3c9b9750	0.01899305
13	0xbc3896e0	-0.01126644
14	0x3dd96f20	0.106168985
15	0x3bdb6360	0.006695196
16	0x3db75064	0.0895088
17	0xbda0b396	-0.07846753
18	0x3d1798b8	0.03701088
19	0xbda40f32	-0.08010711
20	0xbb2dec00	-0.0026538372
21	0x3ce5df20	0.028060496
22	0xbd7430d0	-0.059616864
23	0xbdc725f4	-0.09724036
24	0x3db29934	0.087206274
25	0x3d9a1654	0.0752379
26	0x3dd955fc	0.10612103
27	0x3d89e45a	0.06733008
28	0xbda04930	-0.078264594
29	0xbdbc2f4e	-0.0918871
30	0xbc7b7d20	-0.015349656
31	0x3de63622	0.11240794

weight f4 [8, 32]
0	0xbdbdf4fb	-0.09275242
1	0x3d9f9f89	0.07794101
2	0x3dab517b	0.083651505
3	0xbdd51495	-0.10404316
4	0xbdf4d901	-0.11955453
5	0xbdaa7ba0	-0.08324361
6	0x3e284d3b	0.16435711
7	0xbe1d6e5e	-0.15374133
8	0xbc9efc7e	-0.019407507
9	0x3e051382	0.12995723
10	0x3e06ffc6	0.13183507
11	0x3e124d12	0.14287212
12	0xbd485a7f	-0.04891443
13	0xbe1dbf0b	-0.15404908
14	0x3e180d85	0.14848907
15	0xbe2be270	-0.16785598
16	0xbc385f1d	-0.0112531455
17	0xbe32cc6d	-0.17460795
18	0xbe2e7751	-0.17037703
19	0xbe232bf5	-0.15934737
20	0x3dc04a55	0.09389178
21	0x3d7e8e1f	0.062147256
22	0x3e06a086	0.13147172
23	0xbd2ad8cf	-0.04171067
24	0x3d86d242	0.06583072
25	0x3e1d5e8f	0.15368102
26	0xbe085dce	-0.13317034
27	0xbc91a95d	-0.017780954
28	0x3e273238	0.1632775
29	0x3e091563	0.13387065
30	0x3d0d4c7d	0.034496773
31	0x3db77a16	0.08958833
32	0x3d8a869f	0.06763958
33	0x3dd9d8e2	0.1063707
34	0x3df3a857	0.11897343
35	0x3bdc2b4e	0.0067190295
36	0x3d3fe7e1	0.046851996
37	0x3d3932b7	0.04521438
38	0x3e2bd014	0.16778594
39	0xbceb01e2	-0.028687421
40	0xbd2756f5	-0.040854413
41	0x3e25ffc2	0.16210845
42	0x3e0472bf	0.12934397
43	0xbe08eef5	-0.13372405
44	0x3e13f9e9	0.14450802
45	0xbe219c30	-0.15782237
46	0xbdbe5296	-0.09293096
47	0x3cf444cf	0.029817967
48	0xbe05807b	-0.13037293
49	0xbda8f3cf	-0.08249628
50	0xbe09ffbd	-0.13476463
51	0xbddef0a4	-0.10885742
52	0xbe34ff40	-0.17675495
53	0xbc85dcde	-0.01634067
54	0xbdb7b962	-0.08970906
55	0x3deef28c	0.11667356
56	0xbdf72c74	-0.12069026
57	0xbdf72349	-0.12067277
58	0xbd9a9d65	-0.07549552
59	0xbe0b194a	-0.13583866
60	0xbd8884ee	-0.06665979
61	0xbded3fa8	-0.11584407
62	0xbd48b5ac	-0.04900138
63	0xbcd26b4e	-0.025685932
64	0xbd58a2e4	-0.05288972
65	0xbd028950	-0.031869233
66	0xbd9c0145	-0.0761743
67	0x3c4dc67b	0.012559528
68	0xbe2b94aa	-0.1675593
69	0xbe0baf7d	-0.13641162
70	0xbe13a82f	-0.14419626
71	0x3c52454c	0.0128339045
72	0xbd3f46e7	-0.046698477
73	0xbe0681ca	-0.13135448
74	0xbdf5f7a9	-0.12010128
75	0xbda52b0a	-0.0806485
76	0x3b290109	0.002578797
77	0xbe021560	-0.12703466
78	0xbd41bc1d	-0.04729854
79	0x3d7b6952	0.06137974
80	0xbe0b6f02	-0.13616565
81	0xbadd4708	-0.0016882131
82	0x3e1bf700	0.15230942
83	0x3e0d8cdc	0.13823265
84	0x3b85d0ac	0.0040837135
85	0x3d91d039	0.071197934
86	0xbd09829a	-0.033571817
87	0xbe2cff21	-0.16894199
88	0xbd588ace	-0.05286675
89	0xbd24f0f8	-0.04026887
90	0xbcc03f84	-0.023467787
91	0x3d5895f7	0.052877393
92	0x3d41a763	0.047278773
93	0xbd963992	-0.073351994
94	0x3e033c20	0.12815905
95	0x3d45dda9	0.048307095
96	0x3e05ff38	0.1308564
97	0x3dbee5dd	0.09321187
98	0xbb006308	-0.0019590277
99	0x3de3e87f	0.111283295
100	0x3d877e81	0.066159256
101	0xbc629f04	-0.013831858
102	0x3ca3b70f	0.01998475
103	0xbd40a22e	-0.047029667
104	0xbd67c4ab	-0.05658404
105	0x3d66c594	0.05634077
106	0xbd251508	-0.04030326
107	0xbd3a5b0f	-0.045496996
108	0x3e15145f	0.14558552
109	0x3e015f3f	0.1263399
110	0x3d3fcf65	0.046828646
111	0x3dbae256	0.091252014
112	0xbd3021ca	-0.043000974
113	0x3d784059	0.06060824
114	0xbd8c25de	-0.0684316
115	0x3d4fd5ad	0.050740886
116	0xbcec3173	-0.028832173
117	0xbcfa3f63	-0.030547803
118	0x3e2da7b5	0.16958506
119	0x3d89d8fe	0.06730841
120	0xbcec8d8d	-0.02887609
121	0xbdeb82aa	-0.114995316
122	0x3e30fa22	0.17282918
123	0xbcb77876	-0.022396307
124	0x3d046f4b	0.0323327
125	0xbe066854	-0.13125736
126	0xbd825294	-0.06363407
127	0x3d63e2a1	0.055636052
128	0xbdc46408	-0.09589392
129	0x3dbf57e2	0.09342934
130	0x3dbb1044	0.09133962
131	0xbe307038	-0.17230308
132	0x3e2f52bc	0.17121404
133	0xbe18292a	-0.14859453
134	0xbe21ebf7	-0.1581267
135	0x3dbfc5af	0.09363877
136	0x3daa60c1	0.083192356
137	0xbb010c62	-0.0019691219
138	0x3df56330	0.11981809
139	0x3dc063aa	0.093940094
140	0x3c4fb77d	0.012678024
141	0xbda0fb8d	-0.078604795
142	0xbe1fe075	-0.15612967
143	0xbe125a68	-0.142923
144	0x3e276fd4	0.16351253
145	0xbd06297b	-0.032754403
146	0x3e14d603	0.14534764
147	0xbdb75025	-0.08950833
148	0xbc8ec555	-0.01742808
149	0xbe19351d	-0.14961667
150	0xbd26ea60	-0.04075086
151	0x3e042822	0.12905934
152	0xbded2ee2	-0.11581208
153	0x3e10c717	0.14138447
154	0x3daf7270	0.08566749
155	0xbe099e0e	-0.134392
156	0x3d8da973	0.069170855
157	0xbc3d9e9d	-0.011573461
158	0x3d8670f7	0.06564515
159	0xbd85e99c	-0.06538698
160	0x3d886782	0.066603675
161	0x3d82323b	0.06357237
162	0x3dd5312f	0.10409772
163	0xbd998389	-0.074957915
164	0x3d44e3d4	0.048068836
165	0xbddf3cfa	-0.10900302
166	0xbdd6d12a	-0.10489114
167	0xbe2cdfbf	-0.16882227
168	0x3dde4134	0.1085228
169	0xbc7c73e1	-0.015408487
170	0xbdd8df27	-0.10589438
171	0xbdaf9ebe	-0.085751995
172	0xbc8ea808	-0.017414108
173	0x3dcd6d77	0.100306444
174	0x3d66cafe	0.056345932
175	0x3d64cb6c	0.05585806
176	0x3dd5340f	0.1041032
177	0x3d0ae357	0.033908214
178	0xbdfbac22	-0.12288691
179	0xbe2eb1c3	-0.17059998
180	0xbd23cba7	-0.03998914
181	0x3e156625	0.14589746
182	0xbde2e675	-0.110791124
183	0x3e27e1c2	0.16394714
184	0xbc4d6cc5	-0.01253814
185	0xbe1b8658	-0.15187967
186	0x3dde54bd	0.10856006
187	0xbe0c2af2	-0.13688257
188	0xbe2993ee	-0.16560337
189	0xbd645cf0	-0.055752695
190	0xbcdff61e	-0.027339038
191	0x3dcece1c	0.10097906
192	0xbdea3c22	-0.11437251
193	0xbdb293de	-0.0871961
194	0x3e161423	0.14656119
195	0x3d714d28	0.058911473
196	0x3d1de0f1	0.0385446
197	0xbd67318b	-0.056443732
198	0x3dc7e368	0.09760171
199	0xbde9cba1	-0.11415792
200	0x3dc03992	0.09385981
201	0x3e196949	0.1498157
202	0xbe204449	-0.15651049
203	0x3dcd6b30	0.1003021
204	0x3ce4a532	0.027910803
205	0x3d0ce086	0.03439381
206	0xbcd6c516	-0.026217025
207	0x3e02166b	0.12703864
208	0xbdf9c9c9	-0.121966906
209	0x3e16b2d8	0.14716661
210	0xbe284669	-0.1643311
211	0xbd19b404	-0.037525192
212	0xbdf6e134	-0.12054673
213	0x3d5227b0	0.05130738
214	0x3d25ca3a	0.04047606
215	0x3e1ba7d8	0.15200746
216	0xbd0d33e5	-0.03447332
217	0xbb348f92	-0.0027551395
218	0x3dd8fb9d	0.105948664
219	0xbd90451d	-0.07044432
220	0xbd076fa2	-0.033065446
221	0xbe1c8652	-0.15285614
222	0x3d63e7de	0.055641048
223	0x3de80bee	0.113304004
224	0x3e1c0253	0.15235262
225	0xbe22c845	-0.1589671
226	0x3d18fa72	0.03734822
227	0x3ca56dff	0.020194052
228	0x3d04bed2	0.032408543
229	0x3d075b1b	0.03304587
230	0xbe0a6913	-0.13516645
231	0x3e006c98	0.12541425
232	0xbe224995	-0.15848382
233	0x3d4de790	0.050269663
234	0x3e33bb9f	0.1755204
235	0x3e162630	0.14663005
236	0xbe32c75c	-0.17458862
237	0x3e108c16	0.14115939
238	0xbe3236ce	-0.17403719
239	0x3d0895e1	0.03334606
240	0x3e2099de	0.15683696
241	0x3bb8080d	0.005616194
242	0x3d95da7f	0.073170654
243	0xbe196b91	-0.1498244
244	0xbc201b44	-0.009772126
245	0xbcfb13f6	-0.030649167
246	0x3dc8c731	0.09803618
247	0x3e1012b3	0.14069633
248	0xbe215f04	-0.15758902
249	0x3d857db0	0.065181136
250	0x3e0e1a57	0.13877235
251	0xbc9544a0	-0.0182212
252	0x3dba6d8b	0.09102925
253	0xbd4440bb	-0.047913294
254	0xbd5afe6e	-0.0534653
255	0x3dc62b36	0.096762106

bias f4 [8]
0	0xbd7f0e8c	-0.062269732
1	0xbdcda260	-0.10040736
2	0x3e1cd48b	0.15315454
3	0xbd4bac5a	-0.049724914
4	0x3ddcc4b4	0.10779706
5	0xbe2c8a20	-0.16849566
6	0xbe24ac2d	-0.16081305
7	0xbe10b1f7	-0.14130388
