runthroughs/run_2/baseline_model_save.pth (torch, 16000 bytes, 6 tensors)

weight f4 [64, 10]
0	0xbcba9c30	-0.022779554
1	0xbcf2293f	-0.029560683
2	0xbe8bcc0c	-0.27304113
3	0xbe7db2fe	-0.24775311
4	0xbeb2ff31	-0.3496032
5	0xbee68d69	-0.45029762
6	0x3df5f28e	0.12009154
7	0xbd85fe71	-0.065426715
8	0x3e38ab13	0.1803401
9	0xbda04f0d	-0.07827578
10	0xbe61202b	-0.21984927
11	0xbe9a4630	-0.30131674
12	0x3d4cd1a3	0.050004613
13	0x3d83588a	0.06413372
14	0x3d8675fb	0.06565472
15	0x3eb37548	0.35050416
16	0x3d739d04	0.059475914
17	0xbd6e07c0	-0.05811286
18	0x3f495213	0.7864086
19	0xbec90c51	-0.3926721
20	0xbe901091	-0.2813764
21	0xbe27f420	-0.1640172
22	0xbe300172	-0.17188051
23	0x3e4391f0	0.1909864
24	0xbeafc6f0	-0.34331465
25	0x3e4d66e8	0.20058787
26	0xbe1fae8a	-0.15593925
27	0xbef4b206	-0.4779207
28	0xbd4caf5e	-0.04997193
29	0x3dce52be	0.100743756
30	0x3e09e139	0.13464822
31	0x3e674703	0.22585683
32	0x3d95878a	0.07301243
33	0xbe68ab8f	-0.22721694
34	0x3cd6bb1b	0.026212266
35	0xbebc9210	-0.36830187
36	0xbe98339c	-0.29726875
37	0xbebb3175	-0.3656117
38	0x3e3f43b4	0.1867817
39	0x3e500d38	0.20317543
40	0xbe4f0056	-0.20214972
41	0xbe12be8f	-0.14330505
42	0x3eab00b5	0.33398977
43	0xbdb6d247	-0.08926826
44	0x3e97368b	0.295338
45	0xbd2940ea	-0.041321672
46	0x3e96b5fa	0.29435712
47	0xbe090f0e	-0.13384649
48	0x3e9e7636	0.30949563
49	0xbe4aeba9	-0.1981646
50	0x3c0e4820	0.008684188
51	0xbe6e4bca	-0.23271099
52	0x3d1faf17	0.038985338
53	0x3e8d374a	0.27581245
54	0xbf3b265f	-0.73105425
55	0xbe987e15	-0.29783693
56	0x3e3bda47	0.18344985
57	0xbdbe6d1a	-0.09298153
58	0x3d2b8e33	0.04188366
59	0x3ccad0b8	0.024757728
60	0xbcf7282c	-0.030170523
61	0x3e30ed30	0.1727798
62	0xbf008e13	-0.5021679
63	0xbc1cf5c1	-0.009580077
64	0xbda113f1	-0.07865132
65	0x3ec9a4af	0.39383456
66	0x3eff454f	0.49857566
67	0x3ed820d9	0.4221256
68	0x3e3b3fd7	0.18286072
69	0xbe66a761	-0.22524787
70	0xbe3fc15d	-0.18726106
71	0xbd40980e	-0.04702001
72	0xbe300448	-0.17189133
73	0x3e20eb26	0.15714702
74	0x3e7e46dd	0.2483172
75	0xbf0a17d6	-0.5394262
76	0xbd7bc70e	-0.06146913
77	0xbd3471a3	-0.044053685
78	0x3e3771f1	0.17914559
79	0xbec2483b	-0.37945732
80	0x3dba4ee0	0.090970755
81	0xbdce1ab2	-0.100636855
82	0x3e6c8c9b	0.23100512
83	0x3e7676fd	0.24068828
84	0x3c69715b	0.014248217
85	0x3eac5044	0.33654988
86	0xbe297102	-0.16547015
87	0xbb892d53	-0.0041863113
88	0x3e6de72a	0.23232713
89	0x3e0f9686	0.14022264
90	0xbec0b108	-0.37635064
91	0xbe7479d2	-0.23874596
92	0x3de25b61	0.110525854
93	0xbdf234cd	-0.11826477
94	0xbe087ca8	-0.13328803
95	0x3e2ee5fa	0.17079917
96	0xbd55b348	-0.05217293
97	0xbd1b7854	-0.03795655
98	0xbd944512	-0.072397366
99	0xbd955938	-0.07292408
100	0xbd290d36	-0.041272365
101	0xbd9f8089	-0.07788188
102	0xbded45ad	-0.11585555
103	0x3df06b7a	0.117392495
104	0xbd50dc85	-0.050991554
105	0x3f266c40	0.65008926
106	0x3d75659b	0.05991135
107	0xbe4dda0f	-0.20102714
108	0xbe2fbe2e	-0.17162392
109	0xbd192e0d	-0.037397433
110	0x3dc22ae4	0.09480837
111	0xbbc8d76b	-0.0061291954
112	0x3e87a984	0.26496518
113	0xbc9444f7	-0.018099291
114	0x3ccff0c8	0.025383368
115	0x3e8a5b67	0.2702286
116	0xbeb94cc1	-0.3619137
117	0xbe492b01	-0.19645311
118	0xbeebdacf	-0.46065375
119	0xbe68c878	-0.22732723
120	0xbebe730f	-0.37197158
121	0xbe3e8ede	-0.18609187
122	0xbe90eacf	-0.28304145
123	0x3e7e9f6e	0.24865505
124	0xbe6008cf	-0.2187836
125	0x3e3bde08	0.18346417
126	0x3e5d0511	0.21583964
127	0x3d61b754	0.055106476
128	0x3df59168	0.11990625
129	0xbd4609aa	-0.04834906
130	0x3da5d8af	0.0809797
131	0x3ea9654d	0.330851
132	0x3e581dfe	0.21105191
133	0x3ed41594	0.41422713
134	0x3e3cabd4	0.18424922
135	0x3dd5d7c3	0.10441544
136	0xbee8bac8	-0.45455003
137	0xbdeeb692	-0.11655916
138	0x3cc78729	0.024356442
139	0xbe61d887	-0.22055255
140	0xbe4bbc95	-0.19896157
141	0xbe594824	-0.21218926
142	0xbedc6fe4	-0.43054116
143	0xbe4f1c9e	-0.2022576
144	0xbe88bd85	-0.26707092
145	0x3e8989d1	0.26862958
146	0x3d947be4	0.07250193
147	0xbe888f04	-0.26671612
148	0x3c9e9916	0.019360106
149	0xbe9cc5d0	-0.3061967
150	0xbe35a4fd	-0.1773872
151	0xbe22791e	-0.15866515
152	0xbef283a5	-0.47366062
153	0xbec5bfec	-0.38622987
154	0xbeab3aab	-0.33443198
155	0xbf59b941	-0.850483
156	0xbd837917	-0.064195804
157	0xbdc87fdd	-0.09790013
158	0xbc573340	-0.013134778
159	0x3d8d8a99	0.06911201
160	0xbe920c8c	-0.28525198
161	0xbe5eed64	-0.21770245
162	0x3eac90aa	0.3370412
163	0xbe26dca6	-0.16295108
164	0x3db78e3d	0.08962677
165	0xbdc8da59	-0.098072715
166	0xbe70128a	-0.23444572
167	0x3e398fed	0.1812131
168	0xbea63af5	-0.32466856
169	0x3c90bec8	0.017669097
170	0x3e960ce8	0.29306722
171	0xbda86160	-0.08221698
172	0xbd4f416c	-0.0505995
173	0xbe83affa	-0.25720197
174	0x3d077ca4	0.03307785
175	0xbcfa360a	-0.030543346
176	0x3dca946e	0.09891592
177	0x3e66293c	0.22476667
178	0xbd975e86	-0.07391076
179	0x3db6ae8f	0.08920013
180	0x3d5aeb12	0.053446837
181	0xbe1a199e	-0.15048835
182	0x3ede57da	0.434264
183	0xbd6db8ba	-0.058037497
184	0xbbc3a8d3	-0.005971053
185	0x3a97d3d5	0.0011583517
186	0xbeb67125	-0.35633197
187	0xbf0820a3	-0.531748
188	0xbe33c6c3	-0.1755629
189	0x3e902b8e	0.2815823
190	0xbeb8f5d0	-0.3612504
191	0xbd5495e7	-0.05190077
192	0xbb38bda8	-0.0028189216
193	0x3e8f247c	0.27957523
194	0x3de0331b	0.109472476
195	0xbecda767	-0.4016678
196	0xbea95eda	-0.33080178
197	0x3e6c849c	0.23097461
198	0xbe4812a2	-0.19538358
199	0x3dba8c33	0.09108772
200	0xbd6d94b5	-0.058003146
201	0xbe0e2d5b	-0.13884489
202	0xbe25ef3e	-0.16204545
203	0xbe88903b	-0.2667254
204	0xbe8f5b2c	-0.27999246
205	0x3d5036c6	0.050833486
206	0xbeb63769	-0.3558915
207	0xbe8c1860	-0.27362347
208	0xbf137507	-0.57600445
209	0xbf816c99	-1.0111266
210	0x3e966063	0.29370412
211	0xbf088fde	-0.53344524
212	0xbe11a8ae	-0.14224502
213	0x3e1e1864	0.15438992
214	0x3e2ea456	0.17054877
215	0x3d900183	0.07031538
216	0xbde33761	-0.11094547
217	0x3d4b1745	0.04958274
218	0xbe2a98cd	-0.16659851
219	0xbdeb1368	-0.11478311
220	0xbe5f53b2	-0.21809271
221	0xbe399175	-0.18121894
222	0xbe23ea53	-0.16007356
223	0x3d7c1632	0.061544605
224	0xbde18721	-0.11012102
225	0x3f21704c	0.63061976
226	0x3e473ea8	0.19457495
227	0xbe896a14	-0.26838744
228	0xbd938186	-0.07202439
229	0xbf2e266c	-0.6802738
230	0xbe81d790	-0.25359774
231	0xbdbe34d7	-0.09287422
232	0xbd0b96bd	-0.034079302
233	0x3e583801	0.21115114
234	0x3d55a3d4	0.05215819
235	0x3e4bd6a9	0.19906105
236	0x3e67578c	0.2259199
237	0xbea93d34	-0.33054507
238	0x3e883207	0.26600668
239	0xbed1187c	-0.40838993
240	0x3d3e9fe7	0.046539214
241	0xbbe62051	-0.0070228954
242	0xbe8f4d6b	-0.27988753
243	0x3da53199	0.080661006
244	0x3e9db9c4	0.3080579
245	0xbdfff757	-0.12498348
246	0xbe02f5b1	-0.12789036
247	0xbe719b68	-0.23594439
248	0xbd4ce769	-0.050025377
249	0x3e55fe70	0.20897841
250	0xbecf0cf2	-0.40439564
251	0xbe4d080c	-0.20022601
252	0xbea52dea	-0.32261592
253	0x3e46bb60	0.19407415
254	0x3d62927b	0.055315476
255	0x3f054214	0.5205395

bias f4 [64]
0	0xbf0c0502	-0.5469514
1	0x3da24238	0.079227865
2	0x3e8cb829	0.27484253
3	0x3d9a0a99	0.075215526
4	0x3e7ed7b6	0.24886975
5	0xbeb32fc2	-0.34997374
6	0xbf220508	-0.6328893
7	0xbf04ae58	-0.5182853
8	0x3e8225dd	0.25419512
9	0x3e2d7a08	0.16941082
10	0xbeec88d5	-0.46198145
11	0xbb7096cb	-0.0036710973
12	0xbddefacd	-0.1088768
13	0xbea37358	-0.31923938
14	0x3f0d81b2	0.55276024
15	0xbf06eeaa	-0.5270792
16	0xbd9505d1	-0.072765
17	0xbbd2cce6	-0.006433117
18	0xbec9ed2e	-0.39438766
19	0xbee14e21	-0.4400492
20	0xbe8a333f	-0.26992223
21	0xbec80490	-0.3906598
22	0xbe81e22f	-0.25367877
23	0x3ceb5308	0.028726116
24	0xbecb3525	-0.39688984
25	0x3f0762ff	0.5288543
26	0xbe5f8a30	-0.21830058
27	0xbdd53cfa	-0.10412021
28	0x3e4e6bc2	0.20158294
29	0x3cf30bf9	0.029668795
30	0x3cf2359e	0.029566582
31	0x3da9b3e6	0.08286266
32	0x3d4d4894	0.050118044
33	0xbefc32cd	-0.49257508
34	0xbe9df4d5	-0.30850855
35	0xbe852e16	-0.26011723
36	0xbcbf7968	-0.02337332
37	0x3d360a7a	0.044443585
38	0xbe7f2394	-0.24915916
39	0xbd7b12b1	-0.061297122
40	0x3dad55c3	0.084636234
41	0xbdc645e8	-0.09681302
42	0xbd136774	-0.035987332
43	0xbede1855	-0.4337794
44	0x3e40025c	0.187509
45	0x3e277362	0.16352609
46	0xbe9d24d2	-0.30692154
47	0xbe341090	-0.17584443
48	0x3e9fe0cd	0.31226197
49	0xbf150fd1	-0.5822726
50	0xbe4fd428	-0.20295775
51	0xbe76207c	-0.2403583
52	0xbf1d6fe0	-0.6149883
53	0x3d7a04b3	0.061039638
54	0xbed1cf11	-0.40978292
55	0x3ddeea38	0.108845174
56	0xbe3fff70	-0.18749785
57	0xbe90c20e	-0.28273052
58	0xbe94fa86	-0.29097384
59	0x3ce5b261	0.02803916
60	0xbef46e36	-0.47740334
61	0x3e503959	0.20334376
62	0xbeb5936a	-0.3546403
63	0xbef90120	-0.4863367

weight f4 [32, 64]
0	0xbe8c68ef	-0.27423808
1	0xbd45b16c	-0.048264906
2	0x3e8de0bf	0.2771053
3	0xbdff40d6	-0.12463538
4	0xbdb6d1d8	-0.08926743
5	0x3e1cd914	0.15317184
6	0xbcf3aeb3	-0.029746389
7	0x3e0e5ab6	0.13901791
8	0x3de77e65	0.11303405
9	0xbc83f1b0	-0.016106457
10	0xbcd0903d	-0.025459403
11	0x3c1e2f5d	0.009654847
12	0x3d5e8bf7	0.0543327
13	0xbe52d22f	-0.20587991
14	0x3e939c07	0.28829977
15	0x3dad0756	0.08448665
16	0x3d8d84e5	0.06910113
17	0xbdc95ad2	-0.09831776
18	0x3cb137d6	0.02163307
19	0x3f1d2952	0.61391175
20	0xbe4d7208	-0.2006303
21	0x3e35bbe0	0.1774745
22	0xbc0f8e05	-0.008761887
23	0x3d62c9e5	0.055368323
24	0xbd695cfd	-0.056973446
25	0x3e3d33ae	0.18476745
26	0xbc221a38	-0.009893946
27	0xbe59e18d	-0.21277447
28	0xbe30f972	-0.17282656
29	0x3ca1503f	0.019691585
30	0xbb68d7d7	-0.0035529041
31	0xbe5167b6	-0.20449719
32	0x3e3eda4e	0.18637964
33	0x3e105c73	0.14097767
34	0x3e7aa4f4	0.24476987
35	0xbd0cd1c1	-0.034379724
36	0x3d287769	0.041129503
37	0xbe835c2c	-0.2565626
38	0xbbd24cbb	-0.0064178384
39	0xbcee8219	-0.02911477
40	0x3e2b7c5f	0.16746663
41	0x3d13cedc	0.03608595
42	0x3ddd9a36	0.10820429
43	0x3d4ace1e	0.049512975
44	0x3d847bf4	0.06468955
45	0x3e036497	0.1283134
46	0x3c13193b	0.008978183
47	0x3d8ac120	0.06775117
48	0x3ce1f21a	0.027581263
49	0x3e28cba9	0.1648394
50	0x3c9ac49d	0.01889258
51	0xbd3d283c	-0.04618095
52	0x3d6c73a8	0.057727486
53	0xbda8385b	-0.08213874
54	0xbe0e5809	-0.1390077
55	0xbd0b3c74	-0.0339932
56	0xbdf4f366	-0.11960487
57	0xbd47763e	-0.04869675
58	0xbdf8f45d	-0.121559836
59	0xbdcd739a	-0.10031815
60	0xbc645d40	-0.013938248
61	0xbdf350a4	-0.11880615
62	0xbd7760f8	-0.06039521
63	0x3e959a58	0.29219317
64	0xbe2aba5e	-0.16672656
65	0xbe27c2fe	-0.16382977
66	0x3e1cb839	0.1530465
67	0x3da1acb9	0.07894272
68	0x3d20049a	0.03906689
69	0x3eacd99d	0.33759776
70	0x3dc0d066	0.09414749
71	0x3d9917cd	0.07475243
72	0xbe01b0af	-0.12665056
73	0xbe3967b3	-0.18105964
74	0xbee6e1cb	-0.4509414
75	0xbf32411c	-0.696306
76	0xbc8a28bc	-0.016865127
77	0xbdd7d090	-0.10537827
78	0x3de5a3d4	0.11212888
79	0x3c213828	0.009840049
80	0x3d8caef6	0.06869309
81	0xbd812443	-0.063057445
82	0xbe571f05	-0.21007927
83	0x3e366724	0.17812783
84	0xbe65c493	-0.22438268
85	0x3d38b59b	0.045095067
86	0xbedd1967	-0.43183443
87	0x3d3899bc	0.045068488
88	0x3e03d3af	0.1287372
89	0xbe2e074f	-0.16994976
90	0x3e4c95f4	0.19979078
91	0xbe1fc2bb	-0.15601628
92	0x3e4ee49e	0.20204398
93	0x3e31bdf7	0.17357622
94	0x3e7e27c7	0.24819861
95	0xbcbddbce	-0.0231761
96	0x3db54292	0.08850588
97	0xbe346c67	-0.17619477
98	0x3d23ccfc	0.03999041
99	0x3c21c1ce	0.009872867
100	0x3e162a60	0.14664602
101	0xbf88d7de	-1.0690877
102	0x3c76a09b	0.01505294
103	0xbd0f6f84	-0.03501846
104	0xbdf672f0	-0.12033641
105	0x3e41d3a7	0.18928395
106	0xbc00d5fa	-0.007863516
107	0x3e143152	0.14471939
108	0x3d88b25e	0.06674646
109	0x3e2e804e	0.17041132
110	0xbc809ca7	-0.015699698
111	0x3d7122ad	0.05887096
112	0x3e85698b	0.26057085
113	0xbdb690f4	-0.08914366
114	0x3dcc640c	0.0998002
115	0x3e41301e	0.18866012
116	0x3e424144	0.1897021
117	0x3e4e6588	0.20155919
118	0xbde68564	-0.11255911
119	0x3e34c204	0.17652136
120	0x3cc0470a	0.023471374
121	0xbd17e1af	-0.037080463
122	0xbe6adf70	-0.22936797
123	0x3ddf7a12	0.10911955
124	0x3e6161e9	0.22010006
125	0x3d83af2e	0.06429897
126	0xbddaf1c8	-0.10690647
127	0x3e2eaa97	0.17057262
128	0xbe4ad062	-0.19806054
129	0x3dca4c9b	0.098778926
130	0xbc9d164c	-0.019175671
131	0x3db03052	0.08602966
132	0x3e488db5	0.19585307
133	0x3d8120fb	0.06305119
134	0x3daf98ac	0.08574042
135	0x3e465748	0.19369233
136	0xbdc1ddcf	-0.09466135
137	0xbc892e0a	-0.016745586
138	0xbdf0ee4d	-0.11764202
139	0x3d841fac	0.064513534
140	0xbc95bcda	-0.018278528
141	0xbeb3d74d	-0.351252
142	0xbc1b3f0a	-0.009475479
143	0x3d93433b	0.071905576
144	0x399dfb50	0.00030132616
145	0x3c8580f8	0.016296849
146	0x3d44352f	0.047902282
147	0x3de3ad54	0.11117044
148	0x3e850785	0.259823
149	0x3ed97a1c	0.42475975
150	0xbe002c5b	-0.1251692
151	0xbd654348	-0.055972368
152	0x3dd57064	0.104218274
153	0xbe1d426b	-0.15357368
154	0xbd58477d	-0.05280255
155	0xbe845a98	-0.25850368
156	0xbf35abc2	-0.70965207
157	0xbd821513	-0.06351676
158	0xbe111758	-0.14169061
159	0xbe884298	-0.26613307
160	0xbe21930e	-0.15778753
161	0xbe16bc80	-0.14720345
162	0xbe49bac3	-0.1970015
163	0x3e1662ab	0.14686076
164	0x3d4ed22e	0.05049341
165	0x3c23a45e	0.009987919
166	0xbe096796	-0.13418421
167	0x3ca8ee0b	0.02062132
168	0xbdefa5d7	-0.11701553
169	0x3d7d115f	0.061784144
170	0xbe89e665	-0.2693359
171	0x3e55116f	0.20807432
172	0x3e07ce79	0.13262357
173	0xbd74492e	-0.059640102
174	0x3e27446d	0.16334696
175	0xbe6ffd4e	-0.23436472
176	0x3d322f9c	0.043502435
177	0x3d612ce0	0.054974437
178	0xbd166e38	-0.036726207
179	0x3e1fc343	0.1560183
180	0x3cc25f35	0.023727039
181	0xbcff0eba	-0.031134952
182	0xbdd2e6f4	-0.10297957
183	0xbd017242	-0.031603105
184	0xbe24b9ce	-0.16086504
185	0xbd62b27a	-0.05534599
186	0x3c74294b	0.014902423
187	0xbe439833	-0.19101028
188	0x3ea8c52b	0.32962927
189	0xbda95353	-0.08267846
190	0xbda050e2	-0.07827927
191	0xbcea0017	-0.028564496
192	0x3d73a91a	0.05948744
193	0xbd2c46f0	-0.04205984
194	0xbe0a8672	-0.1352785
195	0xbde46a41	-0.11153079
196	0xbd61f6cb	-0.055167
197	0xbdbac048	-0.09118706
198	0x3d6075e9	0.054799948
199	0x3c13381c	0.0089855455
200	0xbcde810a	-0.02716114
201	0x3d1a3d98	0.037656397
202	0x3dd02fe2	0.10165383
203	0x3d1d911f	0.038468476
204	0xbe07bcb5	-0.1325558
205	0xbdd28331	-0.10278929
206	0x3d40c7c1	0.0470655
207	0xbc459621	-0.012059719
208	0x3d14af4c	0.03629999
209	0xbe1d343b	-0.15351956
210	0xbdfdc31b	-0.12390729
211	0x3d0a0711	0.033698145
212	0x3d8ed4aa	0.06974156
213	0xbe28f153	-0.16498308
214	0x3d26434b	0.04059152
215	0xbdd2bd0e	-0.102899656
216	0x3d4fa3a4	0.05069317
217	0x3b959d3c	0.004565863
218	0x3dcd9d53	0.10039773
219	0xbe08f908	-0.13376248
220	0xbdfd86d0	-0.12379229
221	0x3cf59834	0.029979803
222	0x3d80592b	0.062670074
223	0x3ca735a9	0.02041133
224	0x3cf56d0f	0.02995923
225	0xbe15fd0b	-0.1464731
226	0x3d7e50f4	0.06208892
227	0xbdde581f	-0.108566515
228	0xbc1e5f0c	-0.009666216
229	0xbdd6a49a	-0.10480614
230	0xbdd0ef78	-0.10201925
231	0x3c578ca4	0.01315609
232	0xbd400b9e	-0.04688608
233	0xbd00ab34	-0.031413272
234	0xbddb956c	-0.10721859
235	0xbe08544b	-0.13313405
236	0x3c11d94e	0.008901907
237	0xbda5338a	-0.08066471
238	0xbdd7b0b5	-0.10531751
239	0xbd44c153	-0.04803593
240	0xbe1edf4d	-0.1551487
241	0xbde416af	-0.11137139
242	0x3d1a331e	0.037646405
243	0x3d110197	0.035401907
244	0x3c6097d1	0.013708071
245	0xbdd852f9	-0.10562701
246	0x3d07a0e1	0.03311241
247	0xbc7212b6	-0.014774969
248	0xbddc44b9	-0.10755295
249	0x3b29e84c	0.0025925813
250	0x3dbbfa86	0.09178643
251	0xbe14a70e	-0.14516851
252	0xbe1f3d78	-0.15550792
253	0xbd3906da	-0.04517255
254	0x3dc0c612	0.09412779
255	0xbddd17e7	-0.10795575

bias f4 [32]
0	0x3e8b8a30	0.27253866
1	0x3e0e9c1f	0.13926743
2	0x3dcdd66d	0.10050664
3	0xbe1b247a	-0.15150633
4	0x3ea7a82f	0.327455
5	0x3db489d8	0.08815354
6	0x3d764707	0.06012633
7	0x3cf31e57	0.029677553
8	0xbcf2f483	-0.029657608
9	0x3e12d1d9	0.14337863
10	0x3d8a267e	0.06745623
11	0xbd916d36	-0.071009085
12	0x3dbb906a	0.09158404
13	0x3e52ac4f	0.20573543
14	0x3e16a0f9	0.14709844
15	0x3e9cfc51	0.30661252
16	0x3dcb83f5	0.09937278
17	0xbce4a4f3	-0.027910685
18	0x3e0f7f99	0.14013518
19	0x3db7f021	0.08981348
20	0x3d547e77	0.05187842
21	0xbd287eae	-0.041136436
22	0xbe6b2ec0	-0.22967052
23	0x3e103ec0	0.14086437
24	0x3e73b60d	0.23799916
25	0x3da122d6	0.078679726
26	0x3e328ef9	0.17437352
27	0x3de34772	0.110976115
28	0xbe85417e	-0.2602653
29	0x3d129d24	0.035794392
30	0x3c8cbdec	0.017180406
31	0xbe07bf4a	-0.13256565

weight f4 [8, 32]
0	0xbe22c4c5	-0.15895374
1	0xbe427d1e	-0.18993041
2	0xbd6d2342	-0.057894953
3	0x3dcb364a	0.09922464
4	0xbe6cbfee	-0.2312009
5	0x3e39fb2e	0.18162224
6	0x3ecaab38	0.39583755
7	0xbcab277d	-0.020892853
8	0xbd81d820	-0.06340051
9	0xbc7d78a0	-0.015470654
10	0x3e193a88	0.14963734
11	0x3e3f4c43	0.18681435
12	0xbde419c2	-0.111377254
13	0x3e008909	0.12552275
14	0x3dca13d0	0.0986706
15	0x3d435d57	0.047696438
16	0x3e07b09c	0.13250965
17	0x3e3fac52	0.18718079
18	0xbbc435e9	-0.005987872
19	0x3e1f681e	0.15567061
20	0xbde584e5	-0.11206988
21	0x3e2a11ff	0.16608427
22	0x3e58588e	0.21127531
23	0xbd047b34	-0.03234406
24	0xbe8ac8bd	-0.27106276
25	0xbe75c15a	-0.23999539
26	0xbe6bda9f	-0.23032616
27	0xbe732d79	-0.23747815
28	0x3ccb78d1	0.024837883
29	0x3eaa7a1c	0.33296287
30	0x3e00bcac	0.12571973
31	0x3e600169	0.21875538
32	0x3d3e29f3	0.046426725
33	0xbd9db968	-0.07701379
34	0xbe9a46b8	-0.3013208
35	0xbdc4ed92	-0.096156254
36	0x3c12cd4a	0.008960078
37	0xbc34bf28	-0.011031903
38	0x3db86794	0.09004131
39	0x3e3dac8d	0.18522854
40	0x3df71a2b	0.12065538
41	0x3e3d5cba	0.18492404
42	0x3dc261f4	0.09491339
43	0x3e392b1d	0.18082853
44	0xbe028992	-0.12747791
45	0x3d9a2a18	0.0752756
46	0x3cd64ef7	0.0261607
47	0xbd8e34e4	-0.06943682
48	0x3d872ecf	0.06600725
49	0xbc843f7a	-0.01614355
50	0xbe986722	-0.29766184
51	0x3d6cf31e	0.057849042
52	0xbdc417cf	-0.09574854
53	0x3d3a10db	0.04542623
54	0xbe850572	-0.25980717
55	0x3e370e93	0.17876653
56	0xbe5fb87f	-0.21847723
57	0xbe995c07	-0.29953024
58	0xbe32d0bd	-0.1746244
59	0xbe05feff	-0.13085555
60	0xbd0ca562	-0.03433741
61	0x3f148753	0.5801899
62	0x3d3aed2d	0.045636345
63	0x3e2ae1e9	0.1668774
64	0xbe20eb7b	-0.15714829
65	0xbf1ff0cf	-0.6247682
66	0x3c1fa76e	0.009744508
67	0x3da8545f	0.082192175
68	0xbe898cb4	-0.2686516
69	0xbde261bf	-0.110538
70	0xbee001fd	-0.43751517
71	0x3e8722ae	0.26393646
72	0x3e2b4fd4	0.16729671
73	0xbe01c1cf	-0.12671588
74	0x3d169a12	0.036768027
75	0xbdf90529	-0.12159187
76	0xbe1d414d	-0.15356942
77	0x3dde1f8c	0.10845861
78	0xbeab1973	-0.33417854
79	0xbe1c4552	-0.15260819
80	0xbf08f9a7	-0.5350594
81	0x3e0b7d24	0.13621956
82	0x3d7f464f	0.06232291
83	0xbed7aef6	-0.42125672
84	0xbe97dbc9	-0.2965987
85	0xbd70fd79	-0.05883548
86	0xbf0b8a6f	-0.5450811
87	0xbeb103df	-0.34573266
88	0x3d8798ed	0.06620965
89	0x3b40a3da	0.0029394538
90	0x3e50942e	0.20369026
91	0x3ea5e3d0	0.3240037
92	0xbf08333c	-0.5320318
93	0x3f0ea223	0.5571615
94	0xbd13e095	-0.03610285
95	0xbe21159b	-0.15730898
96	0x3e1cdb89	0.15318121
97	0xbf1e8f96	-0.61937845
98	0x3d01f8ed	0.031731535
99	0x3d1cc4c3	0.038273584
100	0xbda28d74	-0.07937136
101	0x3d6d64ce	0.057957463
102	0x3c209cd8	0.009803019
103	0x3cb2b58e	0.021815088
104	0xbe5e39e8	-0.21701777
105	0xbe98d678	-0.29851127
106	0x3e4c0cd7	0.19926773
107	0xbec61cbf	-0.38693807
108	0x3d6696c4	0.056296125
109	0xbc5c2d86	-0.013438588
110	0x3d9d3f67	0.07678109
111	0x3ccfa118	0.02534537
112	0xbf476c13	-0.77899283
113	0xbe622fcb	-0.22088544
114	0xbe6e18cb	-0.23251645
115	0xbedc067b	-0.42973694
116	0xbeddf1e8	-0.43348622
117	0xbe90ac83	-0.28256616
118	0xbd373b52	-0.044734307
119	0xbee3e6e5	-0.44512096
120	0xbd035f9a	-0.032073595
121	0xbd1e2714	-0.038611487
122	0x3cbd6e3d	0.023123855
123	0x3e9a73a8	0.30166364
124	0xbe94dc92	-0.29074532
125	0xbed11f7d	-0.40844336
126	0xbe977187	-0.29578802
127	0xbd9db081	-0.07699681
128	0x3e713883	0.23556714
129	0xbddc337c	-0.10752007
130	0x3d1e6026	0.038665913
131	0xbd685ed2	-0.056731053
132	0xbd700acd	-0.05860405
133	0xbe86d95a	-0.263377
134	0xbecda3ab	-0.4016393
135	0x3ebc3d98	0.36765742
136	0x3ebe2591	0.37138036
137	0xbbef5ab1	-0.0073045124
138	0xbdd97c9e	-0.10619472
139	0xbe1cf1c3	-0.153266
140	0x3c2f1ef0	0.010688528
141	0xbdd6852e	-0.10474621
142	0xbea561f0	-0.32301283
143	0xbe3bebc2	-0.18351653
144	0x3dc77c79	0.09740538
145	0x3e02762e	0.12740394
146	0x3ead2f09	0.33824947
147	0x3de69832	0.11259498
148	0xbe9d3e8a	-0.30711776
149	0x3e0653ba	0.13117877
150	0xbf183097	-0.5944914
151	0x3d61f149	0.055161748
152	0x3ad250f9	0.001604586
153	0xbe9aaa0d	-0.30207863
154	0x3eb76a83	0.3582345
155	0x3d9d24b0	0.07673013
156	0xbe77385d	-0.24142595
157	0x3ed403ee	0.41409248
158	0x3c0befa8	0.008541025
159	0xbe17b254	-0.1481412
160	0xbcb01459	-0.021494078
161	0xbe3589ea	-0.17728391
162	0x3e03b125	0.12860544
163	0x3da6878a	0.08131321
164	0xbc6ad06a	-0.014331916
165	0xbe67d224	-0.22638756
166	0xbda0c79b	-0.07850572
167	0xbdb10352	-0.086432114
168	0xbe389ae8	-0.18027842
169	0x3d95d211	0.073154576
170	0xbe093b42	-0.13401511
171	0xbeb15e9e	-0.346425
172	0x3e0ec6af	0.1394298
173	0x3ecca859	0.3997219
174	0x3dd631c7	0.10458713
175	0xbdd67ab3	-0.10472622
176	0x3e8f91d3	0.28040943
177	0x3e02757a	0.12740126
178	0xbd7ab253	-0.06120522
179	0x3e207041	0.15667821
180	0xbd19972d	-0.037497688
181	0xbd745c53	-0.05965836
182	0x3d6a6543	0.057225477
183	0xbce4b3d5	-0.027917782
184	0x3ef0235b	0.46901974
185	0xbbbdbf94	-0.00579066
186	0x3da109c7	0.07863193
187	0x3e6a3ee4	0.22875553
188	0x3e43f3e8	0.19136012
189	0xbe0e4c51	-0.138963
190	0xbd0fcf35	-0.035109717
191	0xbe18e019	-0.14929236
192	0xbe1e4f8b	-0.1546003
193	0x3dcaa28f	0.09894287
194	0x3de7ab85	0.11312012
195	0xbde1223e	-0.10992859
196	0x3decd1a4	0.11563423
197	0x3e94a0d8	0.29028964
198	0x3e27b518	0.16377676
199	0xbedb595e	-0.4284162
200	0x3d88b0c2	0.06674339
201	0x3c6ba50c	0.014382612
202	0x3e3da4d1	0.18519904
203	0xbee61034	-0.44934237
204	0x3ea45388	0.3209498
205	0xbe6cd1d7	-0.23126923
206	0x3dbe742e	0.09299503
207	0xbe5f1ee1	-0.21789123
208	0xbca8a128	-0.020584658
209	0xbe7c7089	-0.24652304
210	0x3d45136f	0.048114236
211	0x3da69d73	0.081355
212	0x3e489e22	0.19591573
213	0x3cf36a05	0.02971364
214	0xbe5c3fe6	-0.2150875
215	0x3dbb911c	0.09158537
216	0xbdb058da	-0.08610697
217	0x3cf098ea	0.02936979
218	0x3ec030af	0.37537143
219	0x3e0b7bdc	0.13621467
220	0x3d1d904d	0.038467694
221	0xbf2995d3	-0.6624424
222	0xbe0959d4	-0.13413173
223	0x3d81d3d3	0.063392304
224	0x3e8d397d	0.27582923
225	0x3e1aa1f4	0.15100843
226	0x3e83c088	0.25732827
227	0x3e04fcf9	0.12987126
228	0x3e4c6cd3	0.19963388
229	0x3df7a917	0.12092798
230	0x3dc30171	0.09521759
231	0xbf1cf86d	-0.6131657
232	0x3d64bdd9	0.055845115
233	0xbf11592f	-0.5677671
234	0x3e62a68f	0.2213385
235	0xbcc7a252	-0.024369393
236	0x3dea4381	0.114386566
237	0xbecac0ee	-0.3960032
238	0x3e049a45	0.12949474
239	0x3e2c5dc4	0.16832644
240	0x3de1487f	0.11000156
241	0xbea932df	-0.33046624
242	0xbd90f90e	-0.070787534
243	0xbb976f60	-0.004621431
244	0x3e2e88be	0.1704435
245	0xbeb81ce6	-0.35959548
246	0xbe301693	-0.17196111
247	0xbd821159	-0.06350965
248	0xbdd43f69	-0.10363657
249	0x3da7f15f	0.08200335
250	0xbebb00f1	-0.36524156
251	0xbea029b2	-0.3128181
252	0xbe8184ed	-0.25296727
253	0xbf880439	-1.0626289
254	0x3bea4187	0.0071489247
255	0x3bea080c	0.0071420725

bias f4 [8]
0	0xbea8653a	-0.3288973
1	0xbdc1df2d	-0.094663955
2	0xbe163147	-0.14667235
3	0x3c68392e	0.014173789
4	0xbdcc144a	-0.09964807
5	0x3e1232ac	0.14277142
6	0x3e13beee	0.14428303
7	0x3ebb14eb	0.36539397
