models/models_save/model_save.pth (torch, 15910 bytes, 6 tensors)

weight f4 [64, 10]
0	0xbd8e13d2	-0.06937374
1	0xbe7d7054	-0.24749881
2	0x3f2ea6d5	0.68223315
3	0xbedf0b41	-0.43563274
4	0xbb0d7be6	-0.0021588742
5	0xbebd6e4c	-0.36998212
6	0xbd75b51e	-0.05998718
7	0x3d0439fe	0.03228187
8	0x3e2d8bb7	0.16947828
9	0xbb81ba65	-0.0039589875
10	0x3e17878c	0.14797801
11	0x3ccbb2a5	0.024865458
12	0x3f64a6d0	0.89317036
13	0xbd8643b5	-0.06555883
14	0x3e4c0056	0.19922003
15	0x3f12446f	0.5713567
16	0x3dc1ae82	0.09457113
17	0x3e8f8ccd	0.2803711
18	0xbe2a9942	-0.16660026
19	0xbe1874d1	-0.14888312
20	0x3d740dd0	0.059583485
21	0xbcdc7e12	-0.026915584
22	0xbea75aa4	-0.3268634
23	0xbe92a7de	-0.28643698
24	0xbe460a6d	-0.19339915
25	0xbf7e15ae	-0.9925183
26	0x3d5e28ee	0.054238252
27	0xbd580ece	-0.052748494
28	0xbeb08af8	-0.34481025
29	0xbe04f049	-0.12982287
30	0x3eca5aef	0.39522502
31	0x3ed7cbdd	0.42147723
32	0xbdd333a1	-0.10312582
33	0x3e4413e7	0.19148217
34	0xbe320320	-0.17384005
35	0xbdf7e200	-0.12103653
36	0xbd2e141a	-0.04249964
37	0xbe12149e	-0.14265677
38	0xbe1a660e	-0.15077993
39	0x3d3f0cc7	0.046643045
40	0x3ebadd8b	0.3649715
41	0x3f1b1119	0.60572964
42	0x3ec814f8	0.39078498
43	0xbec8f8e1	-0.3925238
44	0xbe11b6d6	-0.14229903
45	0x3eed8ccb	0.4639648
46	0x3e082c1c	0.13298076
47	0x3ee23459	0.44180563
48	0xbe6e59d2	-0.23276451
49	0xbe8e3a9e	-0.27779096
50	0x3e2f7476	0.1713427
51	0x3eabf937	0.33588573
52	0x3d38347e	0.044971935
53	0xbee0861b	-0.43852314
54	0xbe962a4f	-0.29329154
55	0xbe669a43	-0.22519784
56	0x3eb7648f	0.35818908
57	0xbd51f243	-0.05125643
58	0x3dbe1f8f	0.09283363
59	0xbd456567	-0.048192408
60	0xbc98db34	-0.018659212
61	0x3d6748c5	0.056465883
62	0x3ef9886e	0.487369
63	0x3e83b89f	0.25726792
64	0x3d16403d	0.036682356
65	0x3f885a14	1.065249
66	0x3e3dd211	0.18537165
67	0xbccdb519	-0.025110768
68	0xba6f6887	-0.0009132702
69	0xbe0072cd	-0.12543793
70	0xbece4818	-0.40289378
71	0xbe68e15d	-0.2274222
72	0xbebac0ea	-0.36475307
73	0x3e3da079	0.18518247
74	0x3ddd716f	0.10812651
75	0x3f08bf5f	0.5341701
76	0xbeae035e	-0.33986944
77	0xbe8f60a4	-0.28003418
78	0x3e7226bb	0.23647587
79	0x3e16adb2	0.14714697
80	0xbe4f4204	-0.20240027
81	0xbd84aeac	-0.064786285
82	0xbeb2a0c6	-0.34888285
83	0xbd668d47	-0.056287076
84	0xbe44666e	-0.19179699
85	0xbd510c52	-0.05103714
86	0xbe8d8631	-0.27641442
87	0xbbf1ac7e	-0.007375299
88	0xbd8a5560	-0.06754565
89	0x3eff98bb	0.49921212
90	0xbe95af8a	-0.29235488
91	0x3dcec226	0.100956246
92	0xbe33c0fa	-0.17554083
93	0xbe817072	-0.252811
94	0x3d6cd95e	0.057824485
95	0xbe0a15db	-0.134849
96	0xbf033d7f	-0.5126571
97	0xbcbc1847	-0.022960795
98	0x3d054eb8	0.032545775
99	0xbd93b718	-0.07212657
100	0xbd1e2c09	-0.038616214
101	0xbe27a9cb	-0.16373365
102	0xbd143a6e	-0.036188535
103	0xbe8ae6da	-0.2712925
104	0xbe82b8df	-0.2553167
105	0x3e9f50cc	0.3111633
106	0x3e900ecb	0.28136286
107	0xbe66d09e	-0.22540519
108	0xbf6f4810	-0.93469334
109	0x3f9af29c	1.2105289
110	0xbe9758c2	-0.29559904
111	0xbe0de54f	-0.13857006
112	0xbdb4918d	-0.08816824
113	0xbe242b65	-0.16032179
114	0x3df6df1a	0.12054272
115	0xbe00e878	-0.1258868
116	0xbdfaa65b	-0.12238761
117	0xbc5dbcc1	-0.013533772
118	0xbe8baa2e	-0.27278274
119	0x3c258a39	0.010103756
120	0x3d9094fc	0.070596665
121	0xbd86af8b	-0.06576451
122	0x3e7bea6d	0.24601145
123	0x3e0f9e03	0.1402512
124	0x3de4a714	0.1116468
125	0x3c2d4348	0.010575123
126	0xbee797c5	-0.45232978
127	0xbdc0f511	-0.09421743
128	0x3f065a74	0.5248177
129	0x3f065894	0.5247891
130	0x3cd3cdeb	0.025855025
131	0xbcc774f6	-0.024347764
132	0xbea7733b	-0.327051
133	0x3c80b06b	0.015709123
134	0xbcb320da	-0.02186625
135	0x3f01fd49	0.5077711
136	0xbee6aeed	-0.45055333
137	0xbee0a990	-0.43879366
138	0xbe2dc3f7	-0.16969286
139	0xbdbeb754	-0.09312311
140	0xbd8481ce	-0.06470071
141	0x3d1f632a	0.03891293
142	0xbd5597a0	-0.052146554
143	0x3ebf8618	0.37406993
144	0xbe3cef20	-0.18450594
145	0x3e677ffc	0.22607416
146	0x3b67e1af	0.003538232
147	0xbe86afbe	-0.26305956
148	0x3e822d92	0.25425392
149	0xbc80a2b4	-0.015702583
150	0xbe97079f	-0.29498002
151	0xbd9e9c6a	-0.07744677
152	0x3e031b54	0.12803394
153	0x3e8d503b	0.27600273
154	0x3e938141	0.2880955
155	0x3f2efe2d	0.6835659
156	0x3ef44680	0.47710037
157	0x3e656e27	0.22405301
158	0x3ea50377	0.32229206
159	0x3efcc1f5	0.49366727
160	0xbe220590	-0.15822434
161	0x3e12ef24	0.14349037
162	0xbf1a8c8b	-0.603707
163	0x3ed37e26	0.4130718
164	0xbc1bedc6	-0.009517139
165	0x3def02d9	0.11670465
166	0x3e010524	0.12599617
167	0xbe322bbc	-0.17399496
168	0xbe0e1d82	-0.13878444
169	0xbd4c310e	-0.04985147
170	0x3e06d6ce	0.13167879
171	0xbeb74e8a	-0.35802108
172	0xbec1573b	-0.37761864
173	0x3c17ad2d	0.009257597
174	0x3de92f74	0.11386004
175	0xbed8185e	-0.4220609
176	0x3e6f80d5	0.2338899
177	0x3d95354d	0.07285557
178	0x3c385e14	0.011252899
179	0x3e393599	0.18086852
180	0xbf0a02fe	-0.53910816
181	0xbe0e18e3	-0.13876681
182	0x3e346bba	0.1761922
183	0x3ed26472	0.4109226
184	0x3e940113	0.2890707
185	0xbebfc8f8	-0.37458014
186	0x3e320730	0.17385554
187	0x3e39c377	0.1814097
188	0xbe698e9e	-0.2280831
189	0x3db267d0	0.08711207
190	0xbe35b8fa	-0.17746344
191	0x3c8d443f	0.017244456
192	0x3e3676a4	0.17818695
193	0xbeb0bbf0	-0.34518385
194	0xbe0deff3	-0.13861065
195	0xbe86dea6	-0.26341742
196	0x3f27ca21	0.655428
197	0x3ee046b9	0.43803957
198	0xbe91727f	-0.28407666
199	0xbe4136ff	-0.18868636
200	0xbddecfe7	-0.10879498
201	0xbe5c4d19	-0.21513785
202	0xbed020ff	-0.40650174
203	0x3e15f262	0.14643243
204	0xbd91ff9f	-0.07128834
205	0x3e4264ee	0.18983814
206	0xbe5b2d61	-0.2140403
207	0xbf05bf97	-0.5224547
208	0x3ee4c80d	0.44683877
209	0xbd818bb0	-0.063254714
210	0xbeedc6bd	-0.46440688
211	0xbe2ff7ac	-0.17184323
212	0xbe28a564	-0.16469342
213	0x3dd88f6e	0.10574232
214	0xbcfb3f36	-0.03066979
215	0x3e10a609	0.14125837
216	0xbe74ad7d	-0.23894306
217	0xbee3ba6b	-0.44478163
218	0x3e6b9eb4	0.23009759
219	0xbce74b0d	-0.02823403
220	0x3d9ebba1	0.07750631
221	0xbd28ec42	-0.041240938
222	0xbeeb69d5	-0.4597918
223	0xbe9058c9	-0.28192738
224	0xbe9f0e32	-0.31065518
225	0xbf2fbaf8	-0.68644667
226	0xbec7c65d	-0.39018527
227	0xbeb0b402	-0.34512335
228	0xbded60d1	-0.11590732
229	0x3da102ed	0.07861886
230	0x3c860206	0.016358387
231	0x3cc11317	0.023568673
232	0xbea926fb	-0.33037552
233	0xbdc0a69c	-0.09406778
234	0xbe0bd52f	-0.13655542
235	0x3e5167cb	0.2044975
236	0xbe945dc0	-0.28977776
237	0x3f6b8a3e	0.92007816
238	0xbda8c715	-0.08241097
239	0x3e7d9e5d	0.24767442
240	0x3e8821cf	0.26588294
241	0x3df1b05a	0.118012145
242	0x3e53cf03	0.20684437
243	0x3f082180	0.53176117
244	0x3e4da22f	0.200814
245	0xbdafb874	-0.085801035
246	0x3e9af8ca	0.30267936
247	0xbe1f3817	-0.1554874
248	0xbe4772f9	-0.19477452
249	0x3df72866	0.12068252
250	0xb9ba9c85	-0.000355933
251	0xbe653d06	-0.2238656
252	0x3f3608fc	0.7110746
253	0xbe95a89a	-0.29230195
254	0x3cdf1adb	0.027234485
255	0xbc36f08c	-0.011165749

bias f4 [64]
0	0xbf0567f9	-0.52111775
1	0xbd2967e8	-0.04135886
2	0xbf0996fb	-0.53746
3	0x3cabdee3	0.020980304
4	0xbf556a9c	-0.833658
5	0x3dd6a245	0.10480169
6	0xbe2bd7e6	-0.16781577
7	0x3f15be28	0.5849328
8	0xbf74f0f9	-0.95680195
9	0xbf6b3cdb	-0.91889733
10	0xbe027ec5	-0.12743671
11	0xbf581705	-0.84410125
12	0xbf099d2b	-0.53755444
13	0x3e809e12	0.25120598
14	0xbf18ab8a	-0.5963675
15	0xbf045a3e	-0.517002
16	0xbee1502c	-0.4400648
17	0xbf41ec27	-0.75750965
18	0xbf758e4d	-0.9592026
19	0xbf046341	-0.5171395
20	0xbf881d4b	-1.063394
21	0xbf06d12c	-0.5266292
22	0xbf29ca93	-0.6632473
23	0xbec45d76	-0.38352555
24	0xbf828f47	-1.0199975
25	0xbfbdd404	-1.4830327
26	0xbeed91c0	-0.4640026
27	0xbf3ff023	-0.74975795
28	0xbfa2c2f3	-1.2715744
29	0xbeadf858	-0.33978534
30	0xbea42fbf	-0.32067677
31	0xbf93018d	-1.1484848
32	0xbf31a8ad	-0.69398004
33	0xbebad718	-0.36492229
34	0xbf75c0b5	-0.9599717
35	0xbf0662b2	-0.5249435
36	0xbf388ead	-0.72092706
37	0xbf11b71b	-0.5692002
38	0xbd3db055	-0.04631074
39	0xbf3280f6	-0.6972803
40	0xbe18d499	-0.1492485
41	0xbf0cc772	-0.5499183
42	0xbee46dc9	-0.4461501
43	0xbf26efdd	-0.6520975
44	0xbec51f9b	-0.38500676
45	0xbe25d860	-0.16195822
46	0xbeba7724	-0.36419022
47	0x3e5bc708	0.21462643
48	0xbf65c3c1	-0.8975182
49	0xbe2466c5	-0.16054828
50	0xbf5c3568	-0.8601899
51	0xbf06f273	-0.527137
52	0xbf226dac	-0.63448596
53	0xbd898825	-0.06715421
54	0xbf323054	-0.6960499
55	0xbf4473bf	-0.76739115
56	0xbf0131cf	-0.50466627
57	0xbf2e6948	-0.68129396
58	0x3daecd30	0.0853523
59	0xbfaec856	-1.3654888
60	0xbf3f9f69	-0.74852616
61	0x3cfb67bc	0.030689113
62	0xbebc1d72	-0.36741215
63	0xbf8a3c9e	-1.0799749

weight f4 [32, 64]
0	0x3e578237	0.21045767
1	0xbd1cae9e	-0.038252465
2	0xbde3f7b2	-0.111312285
3	0xbe81e761	-0.2537184
4	0xbf84a394	-1.036242
5	0xbf19bc02	-0.600525
6	0x3e80f54e	0.25187153
7	0xbe13ab90	-0.14420915
8	0xbebf10f1	-0.37317613
9	0xbd90f18f	-0.07077324
10	0xbca8b771	-0.020595284
11	0xbdb73010	-0.08944714
12	0xbde2913b	-0.11062857
13	0x3e5f8f65	0.21832044
14	0x3db578b2	0.088609114
15	0x3dbc2c8a	0.09188183
16	0x3dc2d7cd	0.09513817
17	0xbdfd72c2	-0.12375404
18	0xbd38cbd8	-0.045116276
19	0xbaebd52a	-0.0017992605
20	0xbebdd807	-0.37078878
21	0xbd3f9fe1	-0.04678333
22	0x3e9b765f	0.30363747
23	0xbdb31fe9	-0.08746321
24	0xbec276f0	-0.37981367
25	0xbd01a5d1	-0.031652275
26	0x3e16af50	0.14715314
27	0xbc4289c7	-0.011873669
28	0xbf5f7f80	-0.87303925
29	0x3dfae08c	0.1224986
30	0x3e1a4f64	0.15069348
31	0xbe3e433b	-0.18580334
32	0x3eafc22d	0.34327832
33	0xbe1ab7be	-0.15109155
34	0x3e190892	0.14944676
35	0xbe9b7ab5	-0.30367056
36	0x3e83d1c7	0.25745985
37	0x3e80de4e	0.25169605
38	0x3ebf9603	0.37419137
39	0xbc479ff6	-0.012184134
40	0xbf11248b	-0.56696385
41	0x3ed1e0fa	0.40991956
42	0xbdb1983f	-0.08671617
43	0x3e7060ff	0.23474501
44	0x3de2b6c7	0.11070018
45	0xbd14c0b1	-0.036316577
46	0xbe82874a	-0.25493842
47	0x3e829a4e	0.2550835
48	0x3c970f4a	0.018439908
49	0x3ea7e72c	0.32793558
50	0xbec441ca	-0.38331443
51	0x3ecc11f2	0.3985744
52	0xbeca98aa	-0.39569598
53	0xbd0396f7	-0.032126393
54	0xbe3b603d	-0.1829843
55	0xbe8a5a3b	-0.27021965
56	0xbf1e0896	-0.6173185
57	0xbf0c8b25	-0.5489982
58	0xbc8af483	-0.016962295
59	0x3e98d86d	0.2985262
60	0x3e03a5b8	0.12856185
61	0xbede3a12	-0.4340368
62	0xbda04f2b	-0.078276
63	0xbf5a6c10	-0.8532114
64	0xbefb58c1	-0.4909115
65	0xbe3903ea	-0.180679
66	0x3cff44ce	0.031160738
67	0xbecc96f6	-0.39958924
68	0xbd1930a8	-0.037399918
69	0x3dac91c4	0.0842624
70	0xbd7e1ad6	-0.06203731
71	0x3df2d8a8	0.1185773
72	0x3e7762cb	0.2415878
73	0xbd7d4fda	-0.06184373
74	0x3ea52a28	0.32258725
75	0xbe078f57	-0.13238274
76	0x3e5a4309	0.21314634
77	0x3da57564	0.08079031
78	0xbdb5e24f	-0.088810556
79	0xbe5317ba	-0.2061452
80	0xbeefac1c	-0.46810997
81	0xbd0798a0	-0.03310454
82	0xbd8147aa	-0.06312497
83	0xbed359cd	-0.4127945
84	0xbee28bad	-0.4424719
85	0xbeefd090	-0.46838808
86	0xbe837322	-0.25673777
87	0xbe9f46f0	-0.3110881
88	0xbef4f431	-0.47842553
89	0xbf0597e9	-0.5218492
90	0x3d8a2062	0.06744458
91	0xbedad279	-0.42738703
92	0xbea9b02f	-0.3314223
93	0xbeaffec5	-0.3437406
94	0xbdd0bd6a	-0.10192378
95	0x3e59bd11	0.2126353
96	0x3b00f1d8	0.00196754
97	0xbe7a01a0	-0.24414682
98	0x3cea4c40	0.028600812
99	0xbd1770aa	-0.03697268
100	0x3ec536b6	0.38518304
101	0xbd77c831	-0.06049365
102	0xbebb6ef4	-0.36608088
103	0xbd490542	-0.04907728
104	0xbed5dc8a	-0.4176982
105	0x3d0758f0	0.0330438
106	0x3d0c8606	0.034307502
107	0xbe51e908	-0.2049905
108	0xbf062913	-0.52406424
109	0xbe7f1492	-0.2491019
110	0x3d65c585	0.056096572
111	0xbeb2adf1	-0.34898332
112	0x3d50d8ac	0.050987884
113	0x3db24124	0.08703831
114	0x3d8dd7d7	0.06925934
115	0x3e22aae8	0.15885508
116	0xbcf55144	-0.029945977
117	0x3dfdcca2	0.12392546
118	0x3c47b7f5	0.012189855
119	0x3e028484	0.12745863
120	0x3eae3a21	0.34028724
121	0x3ddc5a5c	0.10759422
122	0xbe66472e	-0.2248809
123	0x3e6154a4	0.22004944
124	0x3d922a93	0.07137027
125	0x3e411087	0.18853961
126	0xbe116214	-0.1419757
127	0x3dcfd5fc	0.10148236
128	0xbe00858b	-0.12550943
129	0x3eb1642d	0.3464674
130	0x3e0f10c6	0.13971242
131	0x3e8c4686	0.27397555
132	0xbeb749e0	-0.3579855
133	0x3df063c3	0.11737778
134	0x3e57ae47	0.21062575
135	0xbe720ec9	-0.23638453
136	0x3ea60bd5	0.32430902
137	0x3eed3afe	0.4633407
138	0x3d4b7eed	0.049681593
139	0x3e14c86c	0.1452958
140	0xbafbc96e	-0.0019209811
141	0xbf2894c2	-0.65851986
142	0xbe1f5b63	-0.15562205
143	0xbf9e0040	-1.2343826
144	0xbeac3d42	-0.33640486
145	0x3e827e64	0.25487053
146	0xbd84f136	-0.0649132
147	0x3e8e6ff1	0.2781978
148	0xbe2ddbb6	-0.16978344
149	0xbe3968f7	-0.18106447
150	0xbe8b4d28	-0.27207303
151	0xbc772407	-0.015084273
152	0xbdb7384b	-0.08946284
153	0x3ef82267	0.48463747
154	0x3d692bb3	0.05692644
155	0x3c9b9053	0.018989718
156	0xbf34ef53	-0.7067768
157	0xbd36a3d8	-0.044589847
158	0x3eb26385	0.34841552
159	0x3d8d071c	0.06886122
160	0x3dcb56df	0.09928679
161	0xbf0dce5b	-0.55393
162	0x3e707d33	0.2348526
163	0x3e5b1b26	0.21397075
164	0xbeb4888b	-0.35260424
165	0xbe496d57	-0.19670616
166	0x3e85feda	0.26171
167	0xbd93ea04	-0.07222369
168	0xbb69dc25	-0.0035684195
169	0x3ddf4b1c	0.10902998
170	0xbea1d068	-0.31604314
171	0xbe0254c0	-0.12727642
172	0x3e3b5294	0.1829322
173	0x3e14e47b	0.14540283
174	0x3ed5aad8	0.41731906
175	0x3d37180e	0.044700675
176	0xbe1cc6ff	-0.15310286
177	0x3da98cf7	0.0827884
178	0x3ec08ce6	0.37607497
179	0xbb3fb3ad	-0.0029251382
180	0xbd947506	-0.07248883
181	0xbf5d8d6f	-0.86543936
182	0xbe4a43ce	-0.19752428
183	0x3e2661cf	0.16248249
184	0x3eb74943	0.35798082
185	0x3e592e3b	0.21209042
186	0x3dce5403	0.10074618
187	0x3e7b3719	0.24532737
188	0x3eeeb98f	0.46625945
189	0x3e75e9f1	0.24015023
190	0xbe555844	-0.20834452
191	0xbeb0b3db	-0.3451222
192	0x3e877682	0.26457602
193	0x3ec80203	0.39064035
194	0x3c8d46a2	0.017245594
195	0x3ea4c6eb	0.32183012
196	0x3d3ba90f	0.045815524
197	0x3ed21f65	0.41039577
198	0x3d683d8c	0.05669932
199	0xbf60d750	-0.8782854
200	0xbe62d024	-0.22149712
201	0xbe07f071	-0.13275315
202	0xbdbd4018	-0.092407405
203	0xbed06cd0	-0.40708017
204	0xbda47447	-0.08029991
205	0x3c90cd06	0.017675888
206	0xbe605430	-0.21907115
207	0xbe029673	-0.12752704
208	0xbdf2340e	-0.11826335
209	0x3cfc91d4	0.030831255
210	0x3e5ced65	0.21574934
211	0xbe05f49f	-0.13081597
212	0x3ec4fc34	0.38473666
213	0xbe0dcbc7	-0.13847266
214	0x3dba253b	0.090891324
215	0x3eb9693f	0.3621311
216	0x3e568746	0.2095004
217	0x3f18818c	0.5957267
218	0xbf0d6cdf	-0.5524425
219	0xbf004bdb	-0.50115746
220	0xbdf56cbe	-0.119836316
221	0xbe28e9ca	-0.16495433
222	0x3e85fb3f	0.26168248
223	0x3db7906e	0.08963095
224	0xbe7cba36	-0.24680409
225	0xbf7ee5ad	-0.9956921
226	0xbdb1bdea	-0.08678801
227	0xbf0318e7	-0.5120987
228	0xbf07522a	-0.5285975
229	0x3cf68228	0.03009136
230	0x3d5e17b7	0.054221835
231	0xbe32832d	-0.17432852
232	0xbde9c0cf	-0.114137284
233	0xbe10b98a	-0.14133278
234	0xbe352c52	-0.17692688
235	0x3ecbaf6c	0.39782274
236	0x3ee12f4a	0.4398139
237	0xbe9932f9	-0.29921702
238	0x3eaf9891	0.34296086
239	0x3dcd17bc	0.100142926
240	0xbe603a2f	-0.21897195
241	0x3dffc289	0.124882765
242	0x3f119ecd	0.56882936
243	0x3e9a1c6c	0.3009981
244	0x3db8310d	0.08993731
245	0xbe7da9a2	-0.24771741
246	0x3d8ff287	0.0702868
247	0xbce56780	-0.028003454
248	0x3ec4e0f4	0.38452876
249	0x3d5f1a41	0.054468397
250	0x3e792bb4	0.24333078
251	0x3f06eb08	0.5270238
252	0x3e987633	0.2977768
253	0x3b8c13cc	0.004274821
254	0xbd2fb779	-0.042899583
255	0x3e17be41	0.1481867

bias f4 [32]
0	0x3f0be8be	0.5465201
1	0xbd96f9bc	-0.07371852
2	0x3ea53cb6	0.3227288
3	0x3de37961	0.111071356
4	0x3ec04b79	0.3755758
5	0x3ea22c4a	0.31674415
6	0x3e37cc11	0.17948939
7	0x3f6b291b	0.91859597
8	0xbdacee40	-0.0844388
9	0x3f106f25	0.56419593
10	0xbea76b02	-0.32698828
11	0x3ebbb8f8	0.36664557
12	0xbde4b9f5	-0.11168281
13	0x3d8f7e88	0.07006556
14	0x3eb1ca72	0.34724766
15	0x3c5ca617	0.013467333
16	0x3e3903b3	0.18067817
17	0xbef21d1b	-0.4728783
18	0x3e570d16	0.21001086
19	0xbc3fa3df	-0.011696785
20	0x3dd9297d	0.106036164
21	0x3d5c9819	0.05385599
22	0xbeaac7a7	-0.33355448
23	0x3ece6de6	0.4031822
24	0x3ed6dcb0	0.41965246
25	0xbd85667e	-0.065136895
26	0x3e0bf400	0.13667297
27	0x3e8784da	0.26468545
28	0xbe2860e4	-0.16443211
29	0x3e541567	0.2071129
30	0xbe4af9e9	-0.19821896
31	0xbf5fbb8a	-0.87395537

weight f4 [8, 32]
0	0xbe467fc5	-0.19384678
1	0xbda26e24	-0.07931164
2	0xbdbbc2e3	-0.09168031
3	0x3d632a76	0.055460416
4	0xbe9ed116	-0.31018895
5	0xbcb222a3	-0.021745032
6	0xbd07f8c9	-0.033196244
7	0x3d3b4e9a	0.045729257
8	0x3e270a78	0.16312587
9	0xbd33b922	-0.04387773
10	0x3e14ee8a	0.1454412
11	0xbe59a11e	-0.21252868
12	0xbd1b4cc2	-0.037915
13	0x3e3b9393	0.18318014
14	0xbdb3deeb	-0.087827526
15	0x3db9d14c	0.09073123
16	0x3e2d2c4e	0.16911432
17	0x3e23debc	0.16002935
18	0x3cc473c7	0.023980988
19	0x3dc5564e	0.09635602
20	0x3dca824a	0.09888132
21	0xbeaf5210	-0.34242296
22	0x3dba3ff2	0.09094228
23	0xbe5fae27	-0.21843778
24	0xbe511ab9	-0.2042035
25	0x3dc1c143	0.0946069
26	0xbd7d4a65	-0.061838526
27	0x3c67fb9d	0.01415911
28	0xbe1edb48	-0.15513337
29	0x3e2ec680	0.17067909
30	0x3e00aff7	0.12567125
31	0x3c475a9c	0.012167599
32	0x3d285b6b	0.041102808
33	0xbe914b7c	-0.28377903
34	0x3e06b96a	0.13156667
35	0x3e22e7ff	0.15908812
36	0xbebaed9a	-0.365094
37	0xbd3d011c	-0.046143636
38	0x3c09b853	0.008405763
39	0x3d16f70a	0.03685669
40	0x3d13e4b5	0.036106784
41	0xbe20cc90	-0.15703034
42	0x3e19b750	0.15011334
43	0xbe11171c	-0.14168972
44	0xbd79919b	-0.060929876
45	0x3c64680a	0.0139408205
46	0xbe0b6e7a	-0.13616362
47	0x3da81696	0.08207433
48	0x3e6e7a0a	0.23288742
49	0xbe6ea7d5	-0.2330621
50	0xbdb06dda	-0.086147025
51	0xbcdd8782	-0.027042154
52	0xbd98e89f	-0.07466244
53	0xbe32b5b7	-0.17452131
54	0x3eb82bc4	0.3597089
55	0xbe0f72e9	-0.14008678
56	0xbe2ab47d	-0.16670413
57	0x3e6b32aa	0.22968546
58	0xbd7150da	-0.058914997
59	0x3e87e0b3	0.2653862
60	0x3de4e2fe	0.11176108
61	0x3e2fd413	0.17170744
62	0x3d194397	0.037417974
63	0x3dc0afc3	0.09408524
64	0xbeb21c59	-0.34787253
65	0xbf20f59c	-0.6287477
66	0x3eb41d8d	0.35178795
67	0xbcf30693	-0.02966622
68	0xbb72d7ac	-0.003705482
69	0xbf8a04af	-1.0782679
70	0xbef4f894	-0.478459
71	0xbe3b6c6c	-0.18303078
72	0x3d917105	0.07101635
73	0x3e16ae86	0.14715013
74	0xbf2eae5b	-0.68234795
75	0xbf1354f6	-0.57551515
76	0xbf3d2196	-0.73879373
77	0xbe07cffa	-0.1326293
78	0xbef5e629	-0.4802716
79	0xbdd8e615	-0.1059076
80	0x3e5c9dae	0.21544525
81	0xbe9aef2b	-0.30260596
82	0xbde2a6c2	-0.11066963
83	0xbed6c193	-0.4194456
84	0xbe917d09	-0.28415707
85	0x3cd601f7	0.026123984
86	0xbeac6f1e	-0.33678526
87	0xbe73d78b	-0.23812692
88	0xbf0dc15b	-0.5537316
89	0xbef9869e	-0.48735517
90	0x3db0d3b0	0.08634126
91	0x3e78d33a	0.24299327
92	0x3d9c89d5	0.07643477
93	0xbf4b917e	-0.7951888
94	0x3df20938	0.118181646
95	0xbefdf650	-0.49601984
96	0xbe731328	-0.23737776
97	0xbeafeeb6	-0.3436181
98	0xbe03362b	-0.12813632
99	0xbeb1f5b7	-0.34757778
100	0x3d49a3fd	0.049228657
101	0xbf3e2e55	-0.7428945
102	0xbead394b	-0.33832774
103	0x3df631b8	0.12021202
104	0x3b9b7ca2	0.004745082
105	0xbdbf19c4	-0.09331086
106	0xbea93eb2	-0.33055645
107	0xbebea1fe	-0.37232965
108	0xbf94104c	-1.1567473
109	0xbe8f6429	-0.28006104
110	0xbe841ee0	-0.25804806
111	0x3df347fc	0.11878964
112	0x3ef932fa	0.48671705
113	0x3e3b17e7	0.18270837
114	0xbc98ec8b	-0.01866748
115	0xbec95179	-0.3931997
116	0x3e399be9	0.18125881
117	0xbe5abb34	-0.21360475
118	0xbf9e2bf5	-1.2357165
119	0x3edec76a	0.43511516
120	0xbb6874b0	-0.0035469942
121	0xbf78e1c2	-0.9721948
122	0xbda42b85	-0.08016113
123	0xbef1cb3c	-0.47225368
124	0x3da84bac	0.08217558
125	0xbd23bb8d	-0.039973784
126	0x3c5969f4	0.01326989
127	0xbf0901d7	-0.5351843
128	0x3d069f28	0.032866627
129	0xbf0aa1a2	-0.5415288
130	0x3e45a43c	0.19300932
131	0x3e71a2f1	0.23597313
132	0x3ddfab93	0.10921397
133	0xbdc13b34	-0.0943512
134	0xbe0f5c6a	-0.14000097
135	0xbf0bba03	-0.54580706
136	0x3e0d044c	0.1377117
137	0x3e13ef67	0.14446793
138	0xbe5918eb	-0.21200912
139	0xbe65b3bf	-0.22431849
140	0x3e0b8940	0.13626575
141	0xbe8c59f9	-0.27412394
142	0xbb3c46f9	-0.0028728826
143	0xbdbaf9d6	-0.09129684
144	0x3dbbcc9f	0.09169888
145	0xbf12091b	-0.57045144
146	0xbecf35ca	-0.40470725
147	0xbe30cc10	-0.17265344
148	0xbe686b0d	-0.22697087
149	0x3e9a34e8	0.3011849
150	0x3d4d41b0	0.050111473
151	0xbdd4d641	-0.10392428
152	0xbeb13653	-0.3461176
153	0xbeaf4666	-0.34233397
154	0x3e57f0f4	0.2108801
155	0xbdf4a3c2	-0.11945297
156	0xbd8875f5	-0.066631235
157	0xbb27e1c0	-0.0025616735
158	0xbe1ff2df	-0.15619992
159	0xbdcebf5e	-0.10095094
160	0x3de8ccf0	0.11367214
161	0xbf053b71	-0.52043825
162	0x3d43b47f	0.047779556
163	0xba995839	-0.0011699266
164	0xbd4016e7	-0.04689684
165	0xbe469e1f	-0.19396256
166	0x3ba05730	0.004893206
167	0x3cd1d595	0.02561454
168	0x3d228d0e	0.0396853
169	0xbe9d4eb9	-0.30724123
170	0xbd52b7cd	-0.051444817
171	0xbe23a044	-0.15979105
172	0x3db88b98	0.090110004
173	0xbe327baf	-0.17429994
174	0x3ec34b74	0.38143504
175	0xbe109f22	-0.14123204
176	0xbf2ca394	-0.674371
177	0x3e1480be	0.14502236
178	0xbd675aa3	-0.056482922
179	0x3daebe23	0.085323595
180	0x3dd8148f	0.10550796
181	0x3cc53ce2	0.024076883
182	0x3e423da2	0.18968824
183	0xbdf811f3	-0.121127985
184	0xbde4c454	-0.11170259
185	0x3e3446ef	0.17605184
186	0x3ed67a23	0.41890058
187	0xbf333e9c	-0.7001741
188	0xbe36a026	-0.1783453
189	0xbc34f9dc	-0.011045899
190	0xbdb1d253	-0.08682694
191	0x3eb7cdd2	0.35899216
192	0x3d1dacbf	0.03849482
193	0xbd29f7bb	-0.04149602
194	0xbe0e1fd2	-0.13879326
195	0xbd8e71d8	-0.06955308
196	0x3d83a1b7	0.06427329
197	0xbda5a94d	-0.08088932
198	0x3e4a4b7b	0.19755356
199	0xbbe1aa15	-0.0068867304
200	0xbdfb7f4f	-0.122801416
201	0xbe15f604	-0.14644629
202	0xbe97b607	-0.29631063
203	0x3e734481	0.23756601
204	0x3c4f1f96	0.012641808
205	0xbece4897	-0.40289757
206	0x3d166d54	0.036725357
207	0xbd7abfa4	-0.06121792
208	0xbc46fa35	-0.012144615
209	0x3e7c63ca	0.24647442
210	0x3e0b7931	0.1362045
211	0x3c1d2461	0.009591193
212	0x3e77a27e	0.2418308
213	0xbcfa5d90	-0.030562192
214	0xbea39f17	-0.31957313
215	0xbd56c005	-0.052429218
216	0x3e0c1ad1	0.13682105
217	0x3d66cb8b	0.056346457
218	0xbe1edf7a	-0.15514937
219	0xbe3d7595	-0.18501885
220	0xbdbc73f0	-0.09201801
221	0xbe6f65f3	-0.23378734
222	0xbe560ca8	-0.20903265
223	0xbe18a15b	-0.14905302
224	0x3e3d8d92	0.18511036
225	0xbd8ee89a	-0.06977959
226	0xbed8fd1c	-0.42380607
227	0xbf13f8f7	-0.57801765
228	0x3e185371	0.1487558
229	0xbb24483f	-0.0025067476
230	0x3eab53a8	0.33462262
231	0x3e1103db	0.14161627
232	0x3d82e575	0.06391422
233	0x3baf3e58	0.005348008
234	0x3ea01839	0.3126848
235	0x3dbb58a7	0.091477685
236	0xbc817e22	-0.015807215
237	0xbed2f9d6	-0.41206235
238	0xbdcf4065	-0.10119704
239	0xbdbcbc92	-0.092156544
240	0x3e422cc8	0.18962395
241	0x3e3ef72b	0.18648975
242	0x3e9f5b1e	0.31124204
243	0xbdd53912	-0.10411276
244	0xbeed29b3	-0.46320876
245	0x3d373802	0.044731148
246	0xbcc5e6f9	-0.024157988
247	0x3e31e36f	0.17371915
248	0xbe09030e	-0.13380072
249	0xbe164679	-0.1467532
250	0xbeb1225d	-0.3459653
251	0xbd94b171	-0.07260407
252	0xbd80242c	-0.06256899
253	0x3da8db20	0.0824492
254	0xbd34a206	-0.04409983
255	0x3dbf2fb8	0.093352735

bias f4 [8]
0	0xbe822b50	-0.2542367
1	0xbdee8cd2	-0.11647953
2	0xbe87e53c	-0.2654208
3	0xbe064273	-0.13111286
4	0x3ceece84	0.029151209
5	0x3ec13e87	0.37743017
6	0x3dea5339	0.11441655
7	0x3ea16b4e	0.3152718
