Example Models/model_save_k_means_centers_4/model_save.pth (torch, 15910 bytes, 6 tensors)

weight f4 [64, 10]
00000000: 1bc2 57be b820 5ebe 4573 b43d cec5 503e
00000010: fc1a 083e ff75 253f c619 213e 7810 e0bd
00000020: 79e7 423e 04ab 01ba a987 793b 4d2a 2abd
00000030: d7ce 6c3e 1fd4 96be e904 bcbd c799 60bd
00000040: c4c0 003f 4b3f 16bd b4c8 f4be 83f4 cabe
00000050: ab46 153e 8059 babd 51b9 a23e d837 183e
00000060: c15f 913d 4aaf 36bd 7620 4b3e 7a60 38be
00000070: bd4c c63e 9889 203e 253f 303e a622 2b3d
00000080: 0d7b 1f3e c2fc b2bd 7264 d33d 4f84 a8be
00000090: 1032 39be d6a7 733e c9c2 393d c1c1 c8be
000000a0: cc64 63be 7c32 253e bba9 22be 23dd 0e3e
000000b0: ca11 babd 118f 21be 18be 0abd 23d9 8cbe
000000c0: 47d4 da3d 1a07 fa3d 7b43 c9bd e09d 26be
000000d0: f8e0 97be 7443 513d ecba 1b3d c98b a63c
000000e0: 6011 853d cd8f 02bf 8564 573e 9a88 18be
000000f0: 9c65 c1bd 94b1 15be 3d91 87bd afde 8bbd
00000100: 24a8 c93b 2273 70be dda1 8c3e ea60 a6be
00000110: 3933 4ebe dc91 ecbd 86df 25be 1fbd b7bd
00000120: 7ee0 d4bd 2127 57be ccc0 ddbc aa0a 093f
00000130: 0d14 4d3d 8d80 063d 237f 49bd e0c1 d93d
00000140: d9cb 63be e01f a9be f831 4abd ff88 efbb
00000150: 9ccb 663c 4ce2 e03e 9c34 c23e ee8c 75be
00000160: 228d 2b3f adf7 8c3e e0ab 74be e729 65bd
00000170: 5607 83be 481f 933e 4805 a03d 29c5 e8be
00000180: 9c77 39bd 6267 06be 57f9 c83d d571 9a3e
00000190: 92cc 1abe 1b4e 6d3d 93be 983d 4f05 fe3e
000001a0: a522 cd3b 54b9 ea3e e38b 0c3e ad1d 463e
000001b0: d990 723e 64ee b7be 0ab0 1cbe ec08 6cbe
000001c0: 6624 b03e ac62 bdbe 68cf b5bd e9d3 4abe
000001d0: e653 063e 2e5a 5b3e 9a7a 1f3e ad1f fabd
000001e0: a815 d0bd cc36 67bd 67d9 39bd a560 00bf
000001f0: 3693 45be c33b 7d3e 211c 223e 79d8 0dbf
00000200: 99e4 29bf 943a 0e3f 8ade 243e e773 27be
00000210: 892d 993e baf4 2bbe cc7f c83d dbf5 15be
00000220: 5e1f 283d 60fd 75be f3f7 c9be 8dc9 d23e
00000230: 84a3 37be 0657 71bd b98f a1be 6bd9 793e
00000240: 8156 b23c 6a27 fd3e 22de 4b3e d899 37be
00000250: 81db 893e 27b6 bbba 8533 aebe 5b5d a039
00000260: 683d bfbc 3bba 53bd b798 eb3c a3e6 21bf
00000270: 764f 55be 88e1 b73d 9ca4 57be 1df9 babe
00000280: 6a3d 4dbe 8b7d c5be 1435 6ebd b3be b9be
00000290: 9cc8 4a3d 448f 13bf 8b90 b93e 3124 87bd
000002a0: 5d8c 023f 76d3 873e 92d3 51bb 5fff c63d
000002b0: 3e9c 73bc 387a a7be d4ea f5bd 6d74 2c3e
000002c0: 64fe 293f f140 833d 4aa4 a6bd 2dab 5abd
000002d0: e7d6 10bd fe2f 333d c515 2f3e a7e7 063d
000002e0: ad80 b23d ad79 d0be 6486 9abe 01dc 313b
000002f0: 2f78 8cbe 6203 f7bd 7777 713d e8cc 9a3e
00000300: ee71 c03d f50d 743d 69e1 cd3c ff2a 17bf
00000310: 9fe4 64be a845 2d3e 824f c03d 5a28 f5b8
00000320: ded2 74bd ca5d 143e 3920 6bbe a7fe 4b3d
00000330: 519d 9a3e 8f57 ec3d 9218 c53e 0714 153e
00000340: e801 66be bf66 333c aca6 27be 63e6 31be
00000350: e3f4 32bf a34a 30be a079 57be 685f 3bbf
00000360: f35b 1e3e 99ea 80be 11ee 993e 01fa 523d
00000370: b9c0 de3d 93d5 b53d 6fdb e23e 6098 9c3d
00000380: 09d2 3e3e 7b17 6a3f 999c 81be 68f1 433d
00000390: 9fde d1be d6d5 913e 175e 993d 4be1 bebe
000003a0: 0d49 1cbe 04cd f3bc 62ee 813e 00c3 673e
000003b0: 5c8d a2bd 3034 e4bd 17e1 f03d d29b 733e
000003c0: 79f3 373d bb05 11be c46e 4dbe 6b42 ab3e
000003d0: 6728 63bf 363f 23bf a0ae e6bc 22ab 663d
000003e0: 2698 4a3e 4b54 d13d 8c53 a5be 90c5 9ebe
000003f0: fb4b 50be 9fa5 8cbe 0843 8ebe 069a 3bbd
-0.21070139 -0.21692169 0.088110484 0.20387957 0.13291544 0.6463317 0.15732488 -0.10940641
0.19033612 -0.0004946443 0.0038075245 -0.041544247 0.23125778 -0.2945871 -0.09180624 -0.054834154
0.50294137 -0.036681455 -0.47809374 -0.39639673 0.14577739 -0.09099102 0.3178201 0.14865053
0.07098342 -0.044600762 0.19836602 -0.18005553 0.38730422 0.15677488 0.17211588 0.04178109
0.15574284 -0.08739616 0.10321893 -0.32913443 -0.18085504 0.23794493 0.045351777 -0.39210322
-0.2220642 0.1613254 -0.1588506 0.13951544 -0.09085424 -0.15777232 -0.033872694 -0.27509412
0.1068502 0.12208386 -0.09827324 -0.16271162 -0.29663825 0.05108972 0.03802006 0.020330327
0.06497455 -0.5100067 0.21034439 -0.1489586 -0.094432086 -0.14618522 -0.06619499 -0.06829583
0.006154077 -0.2348142 0.27467242 -0.32495815 -0.20136727 -0.11551258 -0.16198549 -0.08971619
-0.10394381 -0.2101102 -0.027069472 0.535319 0.05006795 0.03283744 -0.049193513 0.10632682
-0.2224573 -0.3303213 -0.04936406 -0.0073100324 0.01408663 0.4392265 0.37930763 -0.23979542
0.67012227 0.27532712 -0.2389369 -0.055948164 -0.25591534 0.28734803 0.07813507 -0.4546292
-0.045280084 -0.13125375 0.09813183 0.30164972 -0.151171 0.057935815 0.07458224 0.49613425
0.0062602335 0.4584452 0.13725238 0.19347258 0.23688067 -0.35924065 -0.15301529 -0.23050278
0.3440277 -0.36989343 -0.0887745 -0.198074 0.13117942 0.2142112 0.15574113 -0.12213073
-0.101603806 -0.056448743 -0.045373347 -0.5014747 -0.19294438 0.24729829 0.15831043 -0.55408436
-0.6636444 0.55558133 0.16100517 -0.16352807 0.29917553 -0.16792575 0.0979 -0.14644568
0.04104554 -0.24022436 -0.39446983 0.41169396 -0.1793347 -0.058920883 -0.31554964 0.24399345
0.021769764 0.49444133 0.19908956 -0.1792978 0.2692528 -0.0014321253 -0.3402368 0.00030587133
-0.02334471 -0.051691275 0.028759344 -0.6324255 -0.20831093 0.089785635 -0.21058887 -0.36518183
-0.20042959 -0.38572344 -0.058156088 -0.36278304 0.049507722 -0.5764048 0.3624309 -0.065987
0.5099543 0.2652852 -0.0032016975 0.09716677 -0.014868794 -0.32710433 -0.120076805 0.16841288
0.66403794 0.06408871 -0.081368044 -0.053385902 -0.035361197 0.04374694 0.17098148 0.032935765
0.08715949 -0.4071783 -0.30180657 0.002713919 -0.27435443 -0.12061192 0.05895182 0.30234456
0.0939673 0.059583623 0.025131898 -0.5904998 -0.22352837 0.16921103 0.09390165 -0.000116900264
-0.05977141 0.14488903 -0.2296151 0.049803402 0.30198148 0.11540138 0.38495308 0.14558421
-0.22461665 0.01094979 -0.16372174 -0.17373042 -0.6990492 -0.17215972 -0.2104249 -0.73192453
0.15464763 -0.25178984 0.30064443 0.051507954 0.10876603 0.08878627 0.4430804 0.07646251
0.1863481 0.9144208 -0.25314787 0.047837645 -0.4099016 0.28483456 0.07488649 -0.3728126
-0.15262242 -0.029760845 0.25377184 0.2263298 -0.079371184 -0.111427665 0.117616825 0.2378991
0.044909928 -0.14162342 -0.20061785 0.3344911 -0.88733524 -0.6376833 -0.02815944 0.05631555
0.19784603 0.10221156 -0.32290304 -0.31010103 -0.20341484 -0.2747011 -0.27785516 -0.045801185

bias f4 [64]
00000000: aea8 21bf 4351 b6be 38ba e6be 2075 9d3c
00000010: 5bbf ddbe 0f3f f7bd de14 02bf 1ef0 2ebf
00000020: 1de9 c43c a434 60bf e382 d0bd f2b2 91be
00000030: 6fbd f7bd 1482 e9be 0a6e f63e e3d3 55bf
00000040: 12bb 45bd 22db 53bf 9057 1abf 8bdb c8be
00000050: 8f6f d9be bcc5 67be 8cbc d13d 8941 47be
00000060: a226 08bf 7c79 bcbe 7241 9f3e 1948 58be
00000070: aadc 3dbf 201d 37be 89bf 063e 589a 0bbf
00000080: daab dfbb 838e 59bf b21c 6bbf 2ff6 d1be
00000090: 5c78 4cbe 5051 33be 46b5 99bf 2193 5e3c
000000a0: eecd 533e b738 08bf 69d1 043f 3c95 d9be
000000b0: 9a8f b7be b57a 32bf 7cf9 8fbe 145e 1dbc
000000c0: 5902 16bf 3f60 23bf bd62 31bf b7e5 c2be
000000d0: aeaf 59bf daa1 91be 0ed9 debe c414 2abf
000000e0: e8e6 063f be09 883e c46d 8ebe 4953 28bf
000000f0: b718 a4be cdef 63bf 24fc c5be e5ab 74be
-0.6314801 -0.35608873 -0.4506395 0.019220889 -0.43310055 -0.12072574 -0.5081309 -0.6833514
0.024036938 -0.87580323 -0.10181215 -0.28456837 -0.120966785 -0.45607054 0.48130828 -0.8352644
-0.048274107 -0.82756245 -0.6028986 -0.39229998 -0.42467925 -0.22634023 0.102410406 -0.19458593
-0.5318395 -0.36811435 0.31104618 -0.21121253 -0.7416483 -0.17882204 0.13159002 -0.54532385
-0.006825906 -0.8498308 -0.9184066 -0.41008136 -0.19967788 -0.17511487 -1.2008445 0.013584883
0.20684025 -0.5321154 0.51882035 -0.4249667 -0.35851747 -0.69718486 -0.2812003 -0.0096049495
-0.5859733 -0.63818735 -0.6929129 -0.38065884 -0.8503369 -0.28443795 -0.43524975 -0.66437936
0.52696085 0.26569933 -0.2781812 -0.65752083 -0.32050106 -0.8903778 -0.3866893 -0.23893698

weight f4 [32, 64]
00000000: 9323 2a3e e5ba 343e 1778 1dbd 1147 43be
00000010: 7a7c 453e 27cd ddbe bfd1 b73e 4093 b9bd
00000020: 0924 aabe 9854 bb3c 831b 293d 2520 3abe
00000030: adb7 6ebe 464e 5ebb 8151 0f3e 5ff7 c5be
00000040: aebd 59bf a310 003e 452a 86be b7b8 34bf
00000050: 5975 853e 6395 00bf 0d23 3f3e 4de7 9b3e
00000060: 4e1d d3be 6f91 93bd e83c 6abd dd58 163e
00000070: 4660 81be 82fe d4bd 414e 20bf 1fd7 303e
00000080: e760 a53e 604c d7be 2468 8a3e 022c 753e
00000090: 6ec2 7a3e 33a9 42be 972a ccbe 6c47 d1be
000000a0: 9f63 88bd c425 10be 7962 c8bd c8c5 64be
000000b0: 2d58 ad3d 5a57 88bd 2c5f 6b3e 136f 38be
000000c0: b1fe bdbd 5e2e 87bd 41bd cbbd a1df d43d
000000d0: aea8 0a3e d820 d9bd 51cf bf3c 0798 9c3e
000000e0: 97e2 cdbe de5b 6bbe 6433 103e e2e8 9f3e
000000f0: 2c58 9e3e f4c8 dabe e42f 513e 6344 e3be
00000100: 2ffe 09bf faea a3bd 5f99 0dbe 0d43 6fbd
00000110: 2160 843d 72ce 483e c790 423e 65a8 8f3d
00000120: d480 1bbd 611f 0bbf 7b43 91be cc8d 38bd
00000130: 2463 cd3d cd1d bdbe d05e 30be 665e 2c3e
00000140: 896d 373f aca4 c0be 2296 983c 51e1 9ebe
00000150: b0a2 aebd 9b9c 83bf 487b 9ebe 2007 54be
00000160: 442d efbf 3e4e 163e 516c 9c3d 527d 4739
00000170: 80c0 8d3e da17 ad3c fb1c bc3e d826 6bbd
00000180: b9e2 a0be 1f18 32be 461a 68bd 94e7 bc3d
00000190: 64da 2abe f50b 67bd 5cd9 cabe 2933 96bf
000001a0: 1310 4ebf d318 de3d 2588 163c 210a 423f
000001b0: 6319 2e3f 52cb c23d 0521 5fbe b11f 1f3d
000001c0: 390b 27bf 48c5 08c0 8d52 9abc 8d50 d9bd
000001d0: d2e1 b53d 786e a53e 777f f9bd 6873 b43e
000001e0: bc28 e83d a930 b8bc 6156 5dbd e009 8d3d
000001f0: 0fa7 213e ea81 ccbd 375f 803c 1855 27bf
00000200: 9562 febd d9e3 08bf 4052 79be 55f9 a03d
00000210: 7b7b e4bd 01ad b13c 7cc7 64be b6f2 683c
00000220: d34f 983e fd56 94be 24b4 c9be e1a6 a9be
00000230: 3d71 a5be eb40 c5be 2694 813d c3ae abbd
00000240: c15f 533e 8d89 eebe 829c 3cbd 05c8 ea3d
00000250: 5bc9 ebbe 664b 1b3e 8c7b 28be c720 0f3e
00000260: 82ae 033d 5909 c4be 74cd cbbe cf84 e5bd
00000270: 2bd5 6abe 9bfe d3be 6d09 66be a29e c6be
00000280: 1349 6fbe 5133 7abd f3bd 03bd 88ba 36be
00000290: d14e b1bd 376e cdbd f15f e7bd 1f8b 123e
000002a0: 5609 523d 5e92 e13d ec5e 5ebe 2c58 6fbe
000002b0: 9c66 babe cc7e 013e b28f 683c 3988 c5bd
000002c0: 844a 623e 2364 033e b068 9fbd c1a5 e2be
000002d0: 6dc0 4ebe 120c aebe baea 853e 232b 47be
000002e0: 1432 873d ac5c 15be ee76 b4be 63c3 84bd
000002f0: c452 54be ef3e 81be b19b 84be 466a 82be
00000300: 5495 933e 9a99 c1be f0d9 523e 91d3 a53d
00000310: 327a e9bd fd63 483d 6532 2ebe 81d7 ac3d
00000320: 52ed 3cbe 377a f7bd 2f4b ec3d 45aa 9b3d
00000330: 629a 40bf 5225 893d 03e3 1e3d 46ee 8d3e
00000340: e803 6bbe c4e3 93be ea37 553d bb5f cbbd
00000350: 3ded 24be ec61 febc 9502 b6bc c74c e33d
00000360: e165 f7be d6e4 dc3e dd53 873d f701 28bf
00000370: e4e4 f4be 05dc 8bbe 9e66 6fbf 692a d9bd
00000380: 62dd ce3e 6bb1 01bf 418e 603d 35e5 45be
00000390: 30ed 713e 0f99 22be 77e0 ee3e 511b 29be
000003a0: de1d acbb 681f 4ebd de46 debe b089 b23d
000003b0: fc34 36bf c758 4ebe 8611 e3bd 9f33 c5bd
000003c0: 780d 1cbd edc7 223b 1dbb 29bd ec9d 073b
000003d0: 992e a1bd 16c5 6f3e ff07 36bd f7d5 babd
000003e0: acad 90bd fe5f 613e 6eac d3bd de01 29be
000003f0: ce06 debe 2cd1 293f 5ec1 2b3a a654 1ebe
0.16615133 0.1764942 -0.038444605 -0.19070078 0.19285765 -0.4332058 0.3590221 -0.09061289
-0.33230618 0.022867486 0.041286003 -0.18176325 -0.23312254 -0.0033921166 0.13995935 -0.38665292
-0.85055053 0.12506346 -0.26204124 -0.7059435 0.26066092 -0.50227946 0.18665715 0.30449906
-0.41233295 -0.07205474 -0.05718699 0.14682336 -0.25268763 -0.10400106 -0.62619406 0.17269562
0.32300493 -0.42050457 0.27032578 0.23942569 0.24488232 -0.19009857 -0.39876243 -0.40874803
-0.06659626 -0.14076906 -0.09784407 -0.22341073 0.08464084 -0.06657286 0.22985524 -0.18011121
-0.09277094 -0.06600641 -0.09948207 0.10394216 0.13540909 -0.106019676 0.023414286 0.30584738
-0.40211937 -0.22984263 0.14082104 0.31232363 0.30926645 -0.4273144 0.20428425 -0.44388112
-0.5390348 -0.080038026 -0.13828038 -0.058413554 0.06463648 0.19610003 0.1900054 0.070145406
-0.037964657 -0.54344755 -0.28371796 -0.045057103 0.10028675 -0.369368 -0.17223668 0.16832885
0.7165151 -0.37625635 0.018626276 -0.31031278 -0.08527124 -1.0282167 -0.3095343 -0.20705843
-1.8685689 0.14678285 0.07637847 0.00019024804 0.27685928 0.021129537 0.3674086 -0.05741009
-0.31422976 -0.17392014 -0.05666568 0.092238575 -0.16684872 -0.056407887 -0.39618957 -1.1734363
-0.8049328 0.108445786 0.009187733 0.75796705 0.6800749 0.095114365 -0.2178994 0.038848583
-0.652515 -2.137041 -0.018838191 -0.10611067 0.088809624 0.32310843 -0.12182515 0.35244298
0.113358945 -0.02248414 -0.054037455 0.06886649 0.15786384 -0.09985717 0.015670402 -0.6536422
-0.12421147 -0.5347267 -0.24347782 0.07860056 -0.111563645 0.02168894 -0.22341722 0.014218023
0.297484 -0.28972617 -0.3939525 -0.3313513 -0.32312956 -0.3852609 0.06327085 -0.083829425
0.20641996 -0.46589318 -0.046047695 0.11463932 -0.4605206 0.15165481 -0.1645338 0.13977347
0.032148845 -0.38288382 -0.39805186 -0.11206972 -0.2293288 -0.41405186 -0.22464533 -0.38792902
-0.2336772 -0.061084095 -0.03216357 -0.17844594 -0.08657611 -0.100307874 -0.11297596 0.14310883
0.051278435 0.110142455 -0.21715897 -0.23373479 -0.3640641 0.12646025 0.014194416 -0.09645123
0.22098738 0.12831168 -0.077836394 -0.44267085 -0.20190592 -0.33993584 0.26155645 -0.19450049
0.066013485 -0.14586133 -0.35246986 -0.064825796 -0.20734698 -0.25243327 -0.25900033 -0.25471705
0.28824866 -0.378125 0.20590949 0.08096994 -0.1140026 0.04892348 -0.17011411 0.084395416
-0.18449906 -0.120838575 0.11537778 0.07600836 -0.7523557 0.066965714 0.038790714 0.2772085
-0.22950709 -0.2888471 0.052055277 -0.099303685 -0.16106124 -0.031052552 -0.022218028 0.110986285
-0.48319915 0.43143338 0.066077925 -0.65628 -0.4783088 -0.273163 -0.93515956 -0.10603792
0.40403277 -0.50661343 0.054823164 -0.19325717 0.23625636 -0.158787 0.46655628 -0.16514327
-0.005252584 -0.05032292 -0.43413442 0.08717668 -0.711746 -0.20151053 -0.11087327 -0.096289866
-0.038098782 0.0024838403 -0.04143821 0.0020693494 -0.07870216 0.23415026 -0.04444122 -0.09122842
-0.07064375 0.22009274 -0.10335623 -0.16504619 -0.43364567 0.66334796 0.0006551946 -0.15461978

bias f4 [32]
00000000: 07cb 73bd 94dc c43b db0e 193d f8db 1cbe
00000010: 36ce c0bd c536 85bb 6ed1 b33e d716 c63e
00000020: 1d30 003e 9363 a53e 7af5 853e 9fc1 a83e
00000030: 599c 823c ae85 5b3b bf64 be3e 618a dcbb
00000040: b90b 0d3e ac1d 88be 617d bf3d 52a7 e73e
00000050: f284 b5bb eb59 973d bdc7 813e 91e7 363f
00000060: ce64 abbd 9943 4cbd aef7 473e 2c05 743e
00000070: fd66 233d 2a97 1ebe b93d ae3e 57b1 a73e
-0.059519794 0.0060077403 0.037367683 -0.15318286 -0.094143316 -0.004065367 0.3512072 0.386893
0.12518354 0.32302532 0.26163846 0.3296022 0.015943693 0.0033496427 0.37186238 -0.0067303632
0.13774003 -0.26585138 0.09350086 0.45244843 -0.00553953 0.07390197 0.253477 0.7144709
-0.08368836 -0.049869154 0.19528076 0.23830098 0.03989314 -0.15487352 0.34031466 0.32752487

weight f4 [8, 32]
00000000: 1e17 853d 1b97 f1bd 34c4 8cbb 20a3 8e3e
00000010: c47f 9f3e ddc5 cabd e76c bbbd d247 16bd
00000020: 109d 753d 05b8 5dbe a3e4 92bd 833a 55be
00000030: 7cd2 26be 7114 603d e937 70bc 19e5 f3bd
00000040: f931 2e3e c0c4 00be b34d 59bd 61d3 053e
00000050: e463 543e bb22 1d3d 5262 b5bd 7890 0b3e
00000060: f6c1 48be e072 b1bd 3f0b a1bd b3cb 91be
00000070: 5657 a3be 0a44 3a3e 0677 343e 6b94 8abe
00000080: 94a0 593d 4307 96be 9c1a c83d b998 4b3e
00000090: e2da 043e 9037 8a3d 2d4f 33bd 5612 12bd
000000a0: 20b7 c6bc 0f72 98be d13c ddbe af1e 38bd
000000b0: 62e3 b0ba 42d9 fc3d c020 f3bc 8d4e bfbc
000000c0: 480c 833d 3573 2c3e 2f65 123e f5f5 a0bd
000000d0: d371 923e 8e59 63be b314 b1bd 068d de3d
000000e0: c72c 6cbe fc19 983d 0a89 fe3d ab63 04bd
000000f0: 73d7 2dbe d6aa 753c 6672 173e 1a88 8fbd
00000100: 4a61 6abe fc6d 1bbd 26cd 42bf 8f51 2e3d
00000110: 3654 9d3d ae8b 8cbe fd96 01bf 02b6 b0be
00000120: 1fd5 c8be 0e5e d03d b971 4b3d b3e5 733d
00000130: 82c1 dabd afb4 2bbe 1365 e8be 1f42 86bd
00000140: 1be7 4fbe f7bd 543e add3 873e 40a8 10be
00000150: c3ce 03bc b00d f9be b68f 73bf de36 9bbe
00000160: 0d1d 0cbe cd7a c83d 8701 92be 6924 4d3e
00000170: 022f 25be 1251 97be 3131 f7be 2f1b 9fbd
00000180: cea3 84be d321 d4be 9316 a1bf 6fab 18bf
00000190: 1824 53be bbb8 41be 7628 54bd e510 5a3d
000001a0: dabe 59be 1d13 333d eb0a 41be 02e4 04be
000001b0: b181 0dbe 1edb f4bd b74f f9be 24a2 863c
000001c0: 08b3 94be d03d a6be 483f 0cbe 66e7 153e
000001d0: 4358 6fbf 8147 783e 83ef 9fbf 067c b33d
000001e0: 6dd2 de3d 50c2 6ebd e775 373d 746c b03e
000001f0: 6a23 da3c ffd3 00bf 27b4 10bf 0e15 ff3c
00000200: 503c 5fbe c117 e43e ecf1 b8be 8961 d0bd
00000210: d50e 983d 9269 2e3e 0bee 52bb 5a46 17be
00000220: 8691 cdbe ef31 c7bd 4927 6b3e ad5e 943e
00000230: 15c5 fdbd 8e2e 9ebb d720 d53d 6945 5cbe
00000240: 2727 5abd 8ac8 91be e329 913e 34b7 a4be
00000250: 5a0f 273e 895d 9ebe 8031 583c 1874 f8be
00000260: 71c7 a33c c290 01be c3e6 82be 1e26 bc3e
00000270: beea 963d 05d3 cfbd 98eb 2bbd c05d 89be
00000280: 680b 9fbe ff20 3b3f 36b2 c3be d7fe 42be
00000290: 509f 323d d969 1ebe 0d89 86bb d413 68be
000002a0: 9ea3 733d 8db0 b03d b74f 103b 34a1 2f3e
000002b0: 2718 edbd 19ee 9b3d 95de 843d 067e d7bd
000002c0: 99b6 183d b96a 263e f363 133e 3aec 1bbe
000002d0: e85b 5bbd dedf b1bd 72ea 143d e373 783d
000002e0: 8dba 07be 5ca7 e9bd 9063 f9bc 8e35 5bbe
000002f0: 3884 923d 3481 433e d049 cbbd 9194 9c3e
00000300: 52f0 7ebd 246c 12bf df76 a9be a987 24bf
00000310: 08c1 e6bd 13d1 54be 127e a23d 3161 a3be
00000320: 8379 29be b341 9bbd 9b76 053e be88 703e
00000330: 2d89 92bd b08d 2bbc e853 9e3d a830 0cbe
00000340: 76f1 833d 68b2 febe 2e44 73be 3714 efbc
00000350: ff57 0cbf 5e67 4b3e f250 243e 012a 0e3e
00000360: 1afe 8a3c 3f2d 35be 4ccf 6d3e d8e3 b1be
00000370: 5cd5 513c 169d 14be b7a4 f4bd 39bc 34be
00000380: 3ab1 0cbe 9de0 35bf 0da5 aabe 5221 01bf
00000390: 0b18 6abe bc4a 5c3e e8b3 413d c970 173d
000003a0: 410a 9a3c bc50 a03d 527b babd c0c4 8cbe
000003b0: 2d54 12be eeb2 fcbe b260 713d 4961 03be
000003c0: 5c9a babe 3f65 5dbb 76ed 0fbf 5625 863e
000003d0: 36b4 41bf 49d8 e0bd f5a3 5f3d 526a 773d
000003e0: b7f5 17be 457d 1fbe 3d27 543e febc 4ebe
000003f0: 1296 d63d 5a91 97bc 4e8e bc3d 99bb 57be
0.0649855 -0.11796399 -0.00429585 0.2785883 0.31152165 -0.09901021 -0.09151631 -0.036689587
0.05996424 -0.21652229 -0.07172515 -0.20823102 -0.16291231 0.054706994 -0.0146617675 -0.11908931
0.1701125 -0.12575054 -0.053052615 0.13068916 0.2074123 0.0383632 -0.08856644 0.13629329
-0.1960524 -0.08664489 -0.07863473 -0.28475723 -0.3190257 0.18190017 0.17623529 -0.2706636
0.053131655 -0.29302415 0.097707 0.19882478 0.12974122 0.06748879 -0.04377668 -0.035662018
-0.024257243 -0.2977452 -0.43210462 -0.044951137 -0.00134955 0.12346126 -0.029678702 -0.023352886
0.06398827 0.16840823 0.14296411 -0.078594126 0.28602466 -0.22202131 -0.08646526 0.10866742
-0.23063956 0.07426831 0.12428482 -0.032321613 -0.16976719 0.014994344 0.14789733 -0.07008381
-0.22888675 -0.037946686 -0.7609428 0.04255825 0.076820776 -0.27450317 -0.50621015 -0.3451386
-0.39225098 0.101741895 0.049669 0.05954523 -0.1068144 -0.16768144 -0.45389614 -0.0655558
-0.20303003 0.20775591 0.26528683 -0.14126682 -0.008044901 -0.48643255 -0.9514116 -0.30315298
-0.13682957 0.097890474 -0.2851679 0.2003342 -0.16131213 -0.2955404 -0.48279718 -0.07768857
-0.25906223 -0.41432056 -1.2585014 -0.59636587 -0.20619237 -0.18918125 -0.0517964 0.053238768
-0.2126421 0.0437194 -0.18851821 -0.12977603 -0.13819005 -0.11955856 -0.4869363 0.016434737
-0.2904284 -0.32469034 -0.13696015 0.14639053 -0.9349405 0.24246027 -1.2494968 0.0876389
0.10879979 -0.05829078 0.044790175 0.34457743 0.026628215 -0.5032348 -0.5652489 0.03113797
-0.21800351 0.44549373 -0.36122072 -0.10174853 0.07424704 0.1703246 -0.0032185342 -0.1477293
-0.40150088 -0.09726321 0.22964205 0.28978482 -0.12391106 -0.004827327 0.10406654 -0.21510853
-0.053259995 -0.28473312 0.2835227 -0.32171023 0.1631445 -0.30930737 0.0131953955 -0.48526073
0.019992562 -0.12652877 -0.25566682 0.3674783 0.07368992 -0.10147671 -0.041972727 -0.26829338
-0.3106339 0.73097223 -0.38221902 -0.19042526 0.043608963 -0.15470065 -0.004105693 -0.22663814
0.05948221 0.086274244 0.002202017 0.17151338 -0.11576872 0.07613773 0.06487767 -0.10522084
0.037283514 0.16251649 0.14393596 -0.15226832 -0.053554446 -0.086852774 0.036356397 0.060657393
-0.13254757 -0.114088744 -0.030442983 -0.21407148 0.07154125 0.19092256 -0.09926188 0.30582097
-0.062240906 -0.5719626 -0.33098504 -0.642695 -0.112672865 -0.2078288 0.07934202 -0.3191009
-0.1655026 -0.075808905 0.13033526 0.23489663 -0.071550705 -0.010470793 0.077308476 -0.13690436
0.064425394 -0.49745488 -0.23756477 -0.029184444 -0.5482177 0.1986365 0.16046503 0.1388321
0.016966868 -0.17693041 0.23223609 -0.34744143 0.0128072165 -0.14513049 -0.11945479 -0.17649926
-0.13739482 -0.7104586 -0.3332905 -0.5044147 -0.22860734 0.21512884 0.047290713 0.036972795
0.018803718 0.07827899 -0.09105553 -0.27493858 -0.14289923 -0.49355263 0.058930106 -0.1283008
-0.36445892 -0.0033782271 -0.5622171 0.2620036 -0.75665605 -0.10978753 0.05459972 0.06040413
-0.14839827 -0.1557513 0.20718093 -0.20189282 0.104778424 -0.018501926 0.0920683 -0.21067657

bias f4 [8]
00000000: e8c4 eabe cc30 17be ae5d adbe 6f6f 01be
00000010: b6d8 623d 5530 223e 4612 7d3e 42bb e13e
-0.45853353 -0.14764708 -0.33860534 -0.12640165 0.055382453 0.1583875 0.24714002 0.4408818
