runthroughs/great_total_above/aug_model_save_k_means_centers.pth (torch, 16174 bytes, 6 tensors)

weight f4 [64, 10]
-0.07320604 -0.039872088 0.1619981 -0.12695163 -0.5946951 -0.075310685 -0.32364666 0.3318301
-0.19450125 0.48690754 -0.054863896 -0.006382352 0.028550288 -0.4798 -0.31631887 0.03918128
-0.47316796 0.29381767 -0.094573244 0.08789779 0.24775852 -0.556089 -0.047325406 0.17339562
0.057006743 -0.018079657 -0.16339564 0.27527717 0.01906361 0.10065912 -0.056020506 -0.11387275
-0.18820156 -0.43445593 -0.3228014 -0.3802647 -0.041171335 -0.46624398 0.27582225 0.16449021
0.16499966 0.23904397 0.06641264 0.08710474 -0.1985686 -0.12915108 -0.4761259 0.10720383
0.5325559 -0.4501845 0.0009435755 -0.028977733 -0.24666494 -0.22143954 -0.14589125 0.35624704
0.34461397 0.70189744 -0.31987226 -0.63881516 -0.4075292 -0.30206594 -0.1124273 0.018314049
0.009854902 0.56112313 0.26226598 -0.04425665 0.51239276 -0.0043287557 -0.34832284 -0.36507446
-0.013160985 0.13691345 0.13687967 0.45068437 0.4995989 -0.2715194 0.41490886 -0.38123387
-0.061767187 -0.11684793 0.002285071 -0.05878862 -0.116021805 -0.03521686 -0.34745854 0.073389366
0.19055371 -0.15742926 0.22559942 -0.12606424 -0.24544813 0.050066385 0.14193566 0.61929166
0.007338359 -0.07443637 -0.042403366 -0.5102555 0.021579277 0.180142 -0.039514683 -0.50058496
-0.3928937 -0.082171425 0.37958622 0.060506437 -0.20233981 0.4660744 0.13295677 0.17758393
-0.46352705 0.06519312 -0.39850363 -0.12901303 0.054571927 0.13943896 0.040257636 0.057497963
-0.5581473 -0.2706355 -0.093498565 -0.39626116 -0.3235444 0.14114173 -0.61975867 0.23132989
-0.03991901 0.5298951 -0.20017536 -0.22634614 -0.05849036 -0.15317628 0.24501562 -0.4171865
0.16881055 -0.037799418 0.26031062 -0.2748328 0.34176874 0.08281873 0.0010416557 -0.024365652
-0.22633497 -0.013916564 -0.23927203 -0.13697436 -0.021241542 -0.20066151 0.18566754 0.53654486
-0.03246565 0.13835314 0.12720011 0.22559613 -0.11489008 0.3509393 -0.04217033 0.15605733
-0.12401072 -0.14811537 -0.6683982 -0.2008738 -0.23600468 -0.91838807 0.13207784 -0.28398827
0.3423498 -0.16742072 0.035387777 -0.3124252 0.028600091 -0.26620823 -0.20389207 -0.47418082
0.3354263 0.21783085 0.14081077 -0.106523104 -0.18337703 -0.19725879 -0.27710524 -0.4133739
-0.12769346 -0.4706225 0.4086727 -0.059975564 0.47326487 -0.16253799 -0.20166823 -0.05351301
-0.35647124 0.26502803 0.1169444 0.17336772 -0.18702678 0.16148199 0.1716378 0.26035333
0.0056617837 -0.1175828 -0.15980697 -0.2206777 -0.28736833 0.14156827 -0.049700737 -0.42519593
-0.5480177 -1.0906041 -0.110106915 -0.22665145 -0.3847026 -0.5572184 -0.50297385 -0.08652318
-0.00890062 -0.5226306 -0.74149764 -1.1836439 -0.102315366 0.014844503 -0.11680161 0.33360535
0.037438385 -0.038472023 0.26802853 0.009751714 0.7268893 0.4094098 -0.011677773 0.16216685
0.3397358 0.112277284 0.1616864 0.31237203 -0.23084037 0.08101726 -0.382918 0.23234494
-0.10743049 -0.22561617 0.04179693 -0.50715053 -0.27893594 0.50925475 0.033125125 -0.2992858
-1.1622115 -0.83973885 -0.060972303 -0.07703323 0.049466886 0.27112916 -0.4010581 -0.22750843
00000000: 0ced 95bd ea50 23bd d4e2 253e 9cff 01be
00000010: f03d 18bf 7d3c 9abd 04b5 a5be a3e5 a93e
00000020: 562b 47be f24b f93e f7b8 60bd 0d23 d1bb
00000030: 4be2 e93c 58a8 f5be 8cf4 a1be 8d7c 203d
00000040: 1243 f2be 456f 963e 9eaf c1bd c203 b43d
00000050: 69b4 7d3e d95b 0ebf 49d8 41bd 9f8e 313e
00000060: e77f 693d ca1b 94bc 3051 27be 21f1 8c3e
00000070: 4a2b 9c3c 5e26 ce3d c275 65bd 1e36 e9bd
00000080: e9b7 40be 0271 debe 3a46 a5be 0eb2 c2be
00000090: 46a3 28bd 88b7 eebe 9338 8d3e 1f70 283e
000000a0: acf5 283e f1c7 743e 5a03 883d f863 b23d
000000b0: 9155 4bbe 2e40 04be c6c6 f3be ae8d db3d
000000c0: 9555 083f 957e e6be 485a 773a b662 edbc
000000d0: bc95 7cbe 0cc1 62be 8464 15be 0366 b63e
000000e0: 3e71 b03e 8daf 333f 4cc6 a3be 6489 23bf
000000f0: aba7 d0be 63a8 9abe 4940 e6bd 5807 963c
00000100: 7476 213c c4a5 0f3f ba47 863e 7646 35bd
00000110: 2c2c 033f 3cd8 8dbb 5f57 b2be 0aeb babe
00000120: 2ca1 57bc 0a33 0c3e 2f2a 0c3e 1ac0 e63e
00000130: 6dcb ff3e 9704 8bbe ef6e d43e 1631 c3be
00000140: 97ff 7cbd f84d efbd 21c1 153b 56cc 70bd
00000150: d79c edbd 8e3f 10bd 16e6 b1be 2a4d 963d
00000160: 8320 433e 2335 21be 8903 673e fc16 01be
00000170: c156 7bbe 6912 4d3d 9557 113e e689 1e3f
00000180: 9e76 f03b 1872 98bd 27af 2dbd 1ba0 02bf
00000190: 06c7 b03c 2577 383e 26da 21bd 5626 00bf
000001a0: 5d29 c9be 7e49 a8bd 2059 c23e 99d5 773d
000001b0: 2b32 4fbe 4ea1 ee3e d225 083e 90d8 353e
000001c0: 6b53 edbe f883 853d ab08 ccbe fe1b 04be
000001d0: d086 5f3d 16c9 0e3e 31e5 243d fc82 6b3d
000001e0: bee2 0ebf bc90 8abe 2d7c bfbd bee2 cabe
000001f0: 9da7 a5be 7587 103e 81a8 1ebf bee1 6c3e
00000200: 1e82 23bd 35a7 073f c5fa 4cbe 48c7 67be
00000210: 9693 6fbd 3eda 1cbe 60e5 7a3e 7899 d5be
00000220: acdc 2c3e 90d3 1abd 6f47 853e e2b6 8cbe
00000230: 50fc ae3e de9c a93d 2a88 883a 7a9a c7bc
00000240: 5bc4 67be 4d02 64bc ba03 75be 0243 0cbe
00000250: be02 aebc 367a 4dbe a21f 3e3e 015b 093f
00000260: b4fa 04bd 72ac 0d3e bf40 023e ac02 673e
00000270: 7e4b ebbd 51ae b33e ccba 2cbd 7ecd 1f3e
00000280: 55f9 fdbd 8eab 17be 251c 2bbf ddb1 4dbe
00000290: 36ab 71be 7b1b 6bbf 6a3f 073e e966 91be
000002a0: 7948 af3e 5670 2bbe c6f2 103d 32f6 9fbe
000002b0: bd4a ea3c 724c 88be 15c9 50be d4c7 f2be
000002c0: ffbc ab3e 0d0f 5f3e b330 103e c928 dabd
000002d0: 30c7 3bbe 35fe 49be bde0 8dbe bea5 d3be
000002e0: 13c2 02be 6ff5 f0be 8c3d d13e f0a8 75bd
000002f0: c64f f23e 5c70 26be 1e82 4ebe 7530 5bbd
00000300: 6683 b6be c1b1 873e 8c80 ef3d 4f87 313e
00000310: f383 3fbe 895b 253e d2c1 2f3e 084d 853e
00000320: 7c86 b93b 40cf f0bd 70a4 23be 56f9 61be
00000330: f121 93be 46f7 103e 0093 4bbd 48b3 d9be
00000340: e34a 0cbf ea98 8bbf bc7f e1bd 5117 68be
00000350: bdf7 c4be dda5 0ebf e5c2 00bf 1133 b1bd
00000360: e8d3 11bc 1ecb 05bf cad2 3dbf a581 97bf
00000370: b88a d1bd 5c36 733c af35 efbd 52ce aa3e
00000380: fe58 193d d794 1dbd 093b 893e a7c5 1f3c
00000390: 6b15 3a3f 299e d13e 2154 3fbc 110f 263e
000003a0: daf1 ad3e a2f1 e53d 1f91 253e 3aef 9f3e
000003b0: 6b61 6cbe 61ec a53d d40d c4be d5eb 6d3e
000003c0: 8404 dcbd ed07 67be 4233 2b3d 9ed4 01bf
000003d0: b1d0 8ebe 855e 023f 36ae 073d fd3b 99be
000003e0: 59c3 94bf 20f9 56bf 18be 79bd 99c3 9dbd
000003f0: ca9d 4a3d 71d1 8a3e 7d57 cdbe f8f7 68be

bias f4 [64]
-0.5239863 -0.42149723 -0.64968926 0.02232013 -0.034098454 -0.23314953 -0.6050621 0.07881923
-0.7320637 -0.7540957 -0.9721579 -0.6073879 -0.6537839 0.02896767 0.11921737 -0.058943678
-0.22229606 -0.60414505 -0.92289776 -0.6734188 0.051089518 -0.5864968 -0.39626718 -0.50201446
-0.29997048 -1.1486794 -0.39576912 -0.8706627 0.16492076 -0.6912206 -0.44109082 -0.28808108
-0.63384646 -0.38728198 -0.6773909 -0.10073551 -0.30370703 -0.6984449 -0.5020939 0.33391997
-0.41310114 -0.049701508 -0.23329964 -0.40057582 -0.6993774 -0.8226675 -0.34302425 -0.70281225
-0.24509592 0.30224422 0.19929725 -0.43374774 -0.7049913 -0.23663054 -0.6482338 -0.60961246
-1.131088 -0.062880635 -0.52336276 -0.53309494 0.45673078 -0.52498764 -0.6708959 -0.5437055
00000000: f723 06bf 7cce d7be 0952 26bf b5d8 b63c
00000010: d2aa 0bbd c0be 6ebe 5ae5 1abf fa6b a13d
00000020: 8768 3bbf 6a0c 41bf 57df 78bf c67d 1bbf
00000030: 625e 27bf 9b4d ed3c 3d28 f43d ed6e 71bd
00000040: 94a1 63be 40a9 1abf 0743 6cbf 2d65 2cbf
00000050: 3e43 513d a724 16bf 88e3 cabe 0584 00bf
00000060: bb95 99be ed07 93bf 40a2 cabe c0e3 5ebf
00000070: fde0 283e d5f3 30bf a8d6 e1be 5d7f 93be
00000080: c343 22bf d349 c6be 7d69 2dbf 6b4e cebd
00000090: 7d7f 9bbe 49cd 32bf 3a89 00bf 8ff7 aa3e
000000a0: fe81 d3be cf93 4bbd 1ae6 6ebe 4618 cdbe
000000b0: 660a 33bf 569a 52bf e0a0 afbe 81eb 33bf
000000c0: 6dfa 7abe c1bf 9a3e 9414 4c3e 2f14 debe
000000d0: 4f7a 34bf 474f 72be a6f2 25bf 900f 1cbf
000000e0: 7ec7 90bf 90c7 80bd 1afb 05bf e978 08bf
000000f0: 9ed8 e93e 9765 06bf d5bf 2bbf 4930 0bbf

weight f4 [32, 64]
-0.113980524 0.20782907 0.19034916 0.052200273 0.09504229 0.14137554 -0.62217534 -0.5248349
0.09083855 -0.26372704 0.16865137 0.25565794 0.23464024 -0.26052594 0.16094929 0.2455724
-0.13863263 0.11328526 0.18538508 -0.31314045 0.035603028 -0.4955869 -0.079186164 0.13020669
-0.10783072 0.06658214 -0.62885314 0.18376614 0.17755383 -0.16774176 0.03199104 0.016002852
-0.03256793 0.30013397 -0.3203182 0.308176 -0.06341292 -0.061379552 -0.5445463 -0.381014
0.23946518 0.09309234 0.2536079 0.351075 -0.090775676 0.22691661 -0.674865 0.1749144
-0.16602536 0.1582579 0.15448117 -0.11512506 -0.16688295 -0.09192829 -0.109618545 -0.25144005
-0.0068155555 0.11338465 0.01942129 -0.092150375 -0.46477878 0.22548348 -0.33055615 -0.8422349
-0.061616372 -0.21366987 0.06559342 -0.16615258 -0.0848505 -0.011911432 -0.1279994 -0.061653417
-0.024627661 -0.21613975 -0.04378413 -0.0032931583 -0.1289626 -0.0797911 -0.08863771 0.026121981
-0.11422143 -0.15335672 -0.16018772 -0.0054734815 -0.06495657 -0.05310432 -0.013405767 -0.07260121
-0.25454563 -0.00911677 -0.14058971 -0.00093244575 0.011057221 -0.06891856 -0.06690476 0.01126936
-0.026544774 -0.2685023 0.094336174 0.07165243 -0.18858723 -0.16090262 -0.17594247 -0.072855815
-0.04683093 0.0030626892 -0.2154488 0.08666461 0.03604321 -0.34939662 -0.20035118 -0.016962584
-0.032580115 -0.1495412 -0.109474674 -0.11011643 0.12207425 -0.21593316 0.019402135 -0.13463339
-0.1262076 -0.16556498 -0.14345743 0.09351552 -0.3214954 0.0785557 -0.15664406 -0.13025533
-0.6584867 -0.6906752 -0.289755 -0.16130738 -0.15244184 -0.068175375 -0.20733888 0.2506102
0.2938641 0.13033831 0.30141398 -0.033264544 -0.7627337 0.18196261 0.121655114 0.1670395
0.1829007 0.1448372 0.27463996 0.2667769 -0.5631584 -0.6573444 -0.103000425 0.00013396904
-0.6944385 0.43619666 -0.1289639 0.04788255 -0.0955473 0.21184109 -0.45397675 -0.28659192
-0.1793387 0.11776247 0.10969205 0.011160408 0.24127555 0.19968072 0.19283506 -0.031569507
-0.76498085 -0.6660967 -0.25020638 0.19885577 0.10626824 0.26405415 0.029622545 -0.07157321
0.121853575 0.05559066 -0.15696329 -0.026402725 0.4743454 0.097603284 0.15811394 -0.07321329
0.012253303 0.31052926 0.052743338 0.11217422 0.13671048 0.103803344 -0.034765776 -0.15407763
0.022792129 -0.09886671 0.0022659916 -0.037790902 -0.0008843068 -0.10473685 -0.1547902 -0.09721632
-0.09963323 -0.03656361 -0.048177857 -0.025453296 0.050163846 0.050884653 -0.049015597 -0.047107108
-0.08845551 -0.14827164 -0.033703346 -0.16913813 -0.18723309 0.0039000784 0.0026906845 -0.08230399
-0.05545014 -0.13933255 -0.0022955402 -0.06582394 -0.03169512 0.07949449 -0.17977887 -0.04123368
-0.09672089 0.08196948 0.073312014 0.02706427 0.022716993 -0.035225242 -0.16494265 -0.17781495
0.013243156 -0.10552962 0.055376884 0.03180442 0.011880855 -0.12218063 -0.0056269984 -0.03902611
-0.07386218 0.03471628 -0.036918923 -0.1564794 -0.07619877 -0.12514298 0.045803044 0.011268401
-0.0313429 -0.026107144 -0.1789927 -0.09138437 -0.16056576 -0.08571113 -0.128189 0.06579667
00000000: 9f6e e9bd 25d1 543e e4ea 423e f4cf 553d
00000010: 88a5 c23d c0c4 103e e246 1fbf 945b 06bf
00000020: 9009 ba3d 3b07 87be f2b2 2c3e 99e5 823e
00000030: 8845 703e a863 85be e4cf 243e 5577 7b3e
00000040: b6f5 0dbe 1a02 e83d 96d5 3d3e f253 a0be
00000050: 7bd4 113d 91bd fdbe 5b2c a2bd e754 053e
00000060: 5ad6 dcbd 385c 883d 85fc 20bf 312d 3c3e
00000070: acd0 353e 7fc4 2bbe 0909 033d 6a18 833c
00000080: f365 05bd 29ab 993e bf00 a4be 3fc9 9d3e
00000090: a2de 81bd 2069 7bbd 6367 0bbf 4414 c3be
000000a0: 5c36 753e 32a7 be3d e5d8 813e 1ac0 b33e
000000b0: 99e8 b9bd d45c 683e f4c3 2cbf c31c 333e
000000c0: 8d02 2abe 5c0e 223e 5030 1e3e b0c6 ebbd
000000d0: 5de3 2abe e644 bcbd b07f e0bd c0bc 80be
000000e0: 0655 dfbb 3636 e83d 6619 9f3c 56b9 bcbd
000000f0: 7cf7 edbe 24e5 663e a83e a9be b59c 57bf
00000100: 7361 7cbd 46cc 5abe d855 863d e723 2abe
00000110: 19c6 adbd 2b28 43bc 4612 03be 4b88 7cbd
00000120: f3bf c9bc bd53 5dbe fd56 33bd 07d2 57bb
00000130: c60e 04be 8469 a3bd b087 b5bd c4fd d53c
00000140: edec e9bd 8b09 1dbe 4008 24be e45a b3bb
00000150: f307 85bd ea83 59bd dda3 5bbc f1af 94bd
00000160: ce53 82be 815e 15bc c0f6 0fbe 606f 74ba
00000170: 5929 353c 2d25 8dbd 5d05 89bd 1fa3 383c
00000180: 6d74 d9bc 2279 89be 5333 c13d 82be 923d
00000190: 031d 41be a8c3 24be 432a 34be 6e35 95bd
000001a0: cad1 3fbd 66b7 483b 9c9e 5cbe 377d b13d
000001b0: 0ca2 133d 1de4 b2be dc28 4dbe 1ef5 8abc
000001c0: ba72 05bd 5421 19be 4234 e0bd b984 e1bd
000001d0: 1002 fa3d 951d 5dbe 3af1 9e3c 56dd 09be
000001e0: 913c 01be de89 29be 81e6 12be 1185 bf3d
000001f0: 0c9b a4be d0e1 a03d 4d67 20be a761 05be
00000200: 9692 28bf 17d0 30bf c45a 94be c32d 25be
00000210: b719 1cbe 889f 8bbd a550 54be fb4f 803e
00000220: 5b75 963e 6877 053e ef52 9a3e 6740 08bd
00000230: 8442 43bf 6854 3a3e 5126 f93d 670c 2b3e
00000240: 524a 3b3e 3450 143e 9c9d 8c3e fb96 883e
00000250: 262b 10bf b947 28bf e3f1 d2bd 0a7a 0c39
00000260: b9c6 31bf 2b55 df3e 1d0f 04be 7e20 443d
00000270: 4eae c3bd dfec 583e a46f e8be 2dbc 92be
00000280: 90a4 37be 732d f13d 3aa6 e03d 25da 363c
00000290: f010 773e 1a79 4c3e 8e76 453e 074f 01bd
000002a0: c9d5 43bf 5085 2abf 0d1b 80be d9a0 4b3e
000002b0: 2aa3 d93d 1b32 873e fbaa f23c fa94 92bd
000002c0: 5e8e f93d 08b3 633d fcba 20be 874a d8bc
000002d0: 66dd f23e 3be4 c73d 9fe8 213e d9f0 95bd
000002e0: 14c2 483c b1fd 9e3e 6609 583d 99bb e53d
000002f0: d5fd 0b3e d996 d43d 8f66 0ebd 87c6 1dbe
00000300: 8fb6 ba3c a17a cabd 0881 143b a2ca 1abd
00000310: d3d0 67ba 4680 d6bd 5281 1ebe 5a19 c7bd
00000320: 820c ccbd b9c3 15bd 2556 45bd 6e83 d0bc
00000330: 9b78 4d3d 6d6c 503d 94c4 48bd 62f3 40bd
00000340: 2a28 b5bd 85d4 17be 850c 0abd 8c32 2dbe
00000350: 08ba 3fbe 7598 7f3b 3256 303b ff8e a8bd
00000360: b01f 63bd 31ad 0ebe c670 16bb b4ce 86bd
00000370: bed2 01bd 02ce a23d f417 38be a6e4 28bd
00000380: 9a15 c6bd 9ddf a73d 9c24 963d e3b5 dd3c
00000390: fd18 ba3c 5848 10bd bae6 28be 1f15 36be
000003a0: d2f9 583c ea1f d8bd dfd2 623d 5a45 023d
000003b0: eba7 423c d739 fabd af62 b8bb d8d9 1fbd
000003c0: 0e45 97bd a832 0e3d 4c38 17bd 233c 20be
000003d0: 1a0e 9cbd 7b25 00be f99b 3b3d 199f 383c
000003e0: 6a61 00bd a6de d5bc dd49 37be bb27 bbbd
000003f0: 5a6b 24be 5189 afbd fa43 03be 68c0 863d

bias f4 [32]
0.5445627 -0.10569937 0.3097063 -0.15663815 -0.10581231 -0.12244816 0.42457268 0.0013914681
0.4246274 0.34250298 0.053823657 -0.57536805 -0.23056123 0.20976534 -0.060746208 0.40826142
0.60522395 0.5337313 0.04017796 0.6491747 -0.3279117 0.57733905 -0.036642857 0.001988424
0.20121391 -0.1054054 0.44864735 0.1287815 -0.015229853 0.08365368 0.14295985 0.012874115
00000000: 7668 0b3f e978 d8bd d391 9e3e c065 20be
00000010: 20b4 d8bd 1ac6 fabd 9761 d93e ec61 b63a
00000020: c368 d93e 8d5c af3e 3276 5c3d 524b 13bf
00000030: 3e18 6cbe bacc 563e 04d1 78bd a407 d13e
00000040: f5ef 1a3f 9da2 083f a591 243d 5030 263f
00000050: 0be4 a7be 7ecc 133f d216 16bd 3850 023b
00000060: 050b 4e3e c9de d7bd 1bb5 e53e 4cdf 033e
00000070: a286 79bc 9f52 ab3d 1164 123e f4ed 523c

weight f4 [8, 32]
-0.08946736 -0.091159366 0.22864819 -0.052026786 0.39603594 0.05717632 -0.10503736 0.27277586
0.042566795 -0.39381582 0.086280026 0.104051515 0.064471014 -0.14589114 -0.034106947 -0.24506913
-0.089127384 0.06644723 -0.081324086 -0.03876947 0.11889772 -0.35715577 0.039332125 0.15388896
0.048274655 0.1666807 -0.011605751 -0.45390356 -0.37167743 0.19494845 0.306048 0.060195386
-0.04984042 -0.15398009 0.10100628 0.0066038948 0.30238634 -0.034787323 -0.10435183 0.32878256
0.16053425 -0.20830823 0.021435734 0.35097355 0.059708696 -0.17307039 -0.2218404 -0.06677488
-0.110474974 0.011957184 0.018727347 -0.07683363 -0.018870687 -0.22932993 0.063233525 0.14229074
0.12520199 0.08709856 -0.025778485 -0.2855229 -0.3265485 -0.062045757 0.3474539 -0.5805062
-0.16884193 -0.3009882 -0.5847638 -0.052424934 0.20028585 -0.09191217 0.24657317 0.1700708
-0.62781924 0.37630862 -0.5278395 0.2928441 -0.25836617 0.008084483 0.20142828 -0.531332
-1.1361094 -0.0048417724 -0.24699499 -0.20406519 -0.05144226 0.010388613 -0.182012 -0.12837689
-0.084772445 0.103587516 -0.5867894 0.03502405 0.16703531 -0.24009229 -0.5726286 -0.22448012
-0.27886745 0.07285375 -0.28363982 0.026213981 -0.38287172 -0.35979185 0.0011984273 -0.8071815
0.11340869 0.057009194 -0.079589665 -0.3518398 -0.6630816 -0.08470408 -0.047695726 -0.32792947
-1.3721201 0.07295312 -0.27151346 0.18885097 -0.53168947 0.30179784 -0.31882378 -0.1649144
-0.3844661 -0.9855435 -0.06300391 -0.4107578 0.27874863 -0.108147755 0.11149852 -0.23001759
0.094159596 -0.10118534 0.028414948 0.055052128 0.046651024 0.46802238 -0.11970837 0.016747363
-0.47361684 0.010943906 -0.31357637 0.21538152 -0.02424685 0.47097328 0.22929709 0.032388404
0.010558597 -0.21987897 -0.0116182305 -0.2194979 0.05696687 0.19090773 -0.010542195 -0.08665546
0.26839805 -0.043296102 -0.41012472 -0.7429763 -0.33443666 -0.254613 0.042982586 -0.1466362
0.0038530834 0.016920893 -0.16772068 0.11181329 -0.16944766 0.4567421 0.2793012 -0.25513908
-0.03010772 0.024196045 -0.02225411 -0.2323213 0.155315 -0.2867626 -0.1794453 0.04905087
0.025243908 -0.11097728 0.017338177 -0.009047709 -0.18503805 -0.1924854 0.25629354 0.009130846
0.23846045 -0.55583155 -0.06878527 0.028463671 -0.030839888 -0.070189245 -0.3367835 0.09860251
-0.086088054 -0.22905748 -0.13394731 -0.13413602 -0.41133818 -0.4066514 -0.1560176 -0.6562243
0.065175906 0.06370058 -0.054121234 -0.6457536 -0.01567695 -0.2618635 -0.2548968 0.033918142
0.05981322 0.16521092 0.09776972 -0.03185559 -0.28467217 -0.027552549 -0.27676922 -0.3048925
-0.022363914 -0.12467048 0.12124973 -0.08284138 0.06282467 0.22286493 0.20457481 0.12204318
-0.77412206 -0.24005534 0.091772854 -0.094108246 -0.4200492 -0.5704978 -0.39244083 -0.2009525
0.15064587 0.04857496 -0.05152304 -1.1380395 -0.11327015 -0.2931881 -0.13646288 0.041452873
0.06827734 0.0873845 -0.5582818 0.33085316 -0.38453516 0.08027788 -0.17455691 0.12502635
-0.5107452 -0.33185247 0.091630414 0.103972696 -0.269211 -0.23413128 -0.012405468 0.08595442
00000000: aa3a b7bd c3b1 babd c022 6a3e 0a1a 55bd
00000010: 39c5 ca3e b831 6a3d d41d d7bd 47a9 8b3e
00000020: 855a 2e3d 3aa2 c9be 95b3 b03d f618 d53d
00000030: 6109 843d 7d64 15be bab3 0bbd 67f3 7abe
00000040: 6b88 b6bd 7c15 883d 3e8d a6bd bccc 1ebd
00000050: a680 f33d 1fdd b6be b91a 213d 1195 1d3e
00000060: a5bb 453d 58ae 2a3e 0c26 3ebc 0c66 e8be
00000070: 814c bebe 91a0 473e 53b2 9c3e 708f 763d
00000080: 7825 4cbd f5ac 1dbe 61dc ce3d 7c65 d83b
00000090: 62d2 9a3e 277d 0ebd 6ab6 d5bd 3056 a83e
000000a0: 1763 243e c14e 55be fe99 af3c ceb2 b33e
000000b0: 1b91 743d 5d39 31be 212a 63be 45c1 88bd
000000c0: b440 e2bd 11e8 433c 186a 993c f35a 9dbd
000000d0: b396 9abc 77d5 6abe 9480 813d aab4 113e
000000e0: f334 003e bb60 b23d 672d d3bc 0f30 92be
000000f0: 5d31 a7be b123 7ebd 7ae5 b13e 0e9c 14bf
00000100: e6e4 2cbe 201b 9abe 15b3 15bf 87bb 56bd
00000110: bc17 4d3e 733c bcbd ad7d 7c3e 0a27 2e3e
00000120: c3b8 20bf 86ab c03e 7d20 07bf a9ef 953e
00000130: 9248 84be c874 043c 3743 4e3e 6005 08bf
00000140: 086c 91bf bba7 9ebb 41ec 7cbe 77f6 50be
00000150: 1fb5 52bd 0035 2a3c 5b61 3abe 3b75 03be
00000160: 2d9d adbd b125 d43d d537 16bf 6175 0f3d
00000170: 4e0b 2b3e c1da 75be ca97 12bf 1ede 65be
00000180: b7c7 8ebe 5934 953d 3d39 91be b4be d63c
00000190: c307 c4be a336 b8be 8c14 9d3a 72a3 4ebf
000001a0: d142 e83d 7982 693d e8ff a2bd 5924 b4be
000001b0: b7bf 29bf 5579 adbd 985c 43bd 5fe6 a7be
000001c0: a2a1 afbf 7268 953d d003 8bbe 2662 413e
000001d0: cd1c 08bf 3f85 9a3e df3c a3be 52df 28be
000001e0: bed8 c4be 944c 7cbf 3208 81bd d94e d2be
000001f0: 24b8 8e3e 927c ddbd 5659 e43d bb89 6bbe
00000200: bfd6 c03d 423a cfbd 77c6 e83c 577e 613d
00000210: 2515 3f3d a1a0 ef3e a929 f5bd c431 893c
00000220: e87d f2be 124e 333c 158d a0be f98c 5c3e
00000230: 54a1 c6bc 6923 f13e dbcc 6a3e b4a9 043d
00000240: f7fd 2c3c f427 61be 645a 3ebc 0fc4 60be
00000250: 1856 693d 517d 433e 2cb9 2cbc 6b78 b1bd
00000260: 786b 893e 4157 31bd defb d1be b233 3ebf
00000270: 483b abbe a35c 82be 820e 303d cd27 16be
00000280: 0384 7c3b af9d 8a3c f8be 2bbe 5efe e43d
00000290: b083 2dbe 1ada e93e 9100 8f3e 97a1 82be
000002a0: 77a4 f6bc c936 c63c 404e b6bc a3e5 6dbe
000002b0: e50a 1f3e 8cd2 92be 82c0 37be 91e9 483d
000002c0: 50cc ce3c 0e48 e3bd cb08 8e3c d83c 14bc
000002d0: 9d7a 3dbe e51a 45be e838 833e 8b99 153c
000002e0: fa2e 743e fa4a 0ebf 4bdf 8cbd a52c e93c
000002f0: efa3 fcbc 61bf 8fbd e36e acbe 1df0 c93d
00000300: ef4e b0bd 0b8e 6abe 7c29 09be f45a 09be
00000310: eb9a d2be 9d34 d0be 14c3 1fbe 51fe 27bf
00000320: f27a 853d 7375 823d 3aae 5dbd 1c50 25bf
00000330: f26c 80bc f912 86be d581 82be c0ed 0a3d
00000340: b5fe 743d 0d2d 293e 7e3b c83d 027b 02bd
00000350: 8dc0 91be e2b5 e1bc b2b4 8dbe df1a 9cbe
00000360: 8734 b7bc 3d53 ffbd c751 f83d bea8 a9bd
00000370: 38aa 803d b436 643e 0f7c 513e c6f1 f93d
00000380: dd2c 46bf 11d1 75be 68f3 bb3d d3bb c0bd
00000390: b010 d7be 250c 12bf 01ee c8be 7ec6 4dbe
000003a0: e942 1a3e 8af6 463d d309 53bd 47ab 91bf
000003b0: 2efa e7bd c01c 96be edbc 0bbe 7dca 293d
000003c0: fdd4 8b3d a5f6 b23d 8eeb 0ebf 9665 a93e
000003d0: cbe1 c4be bb68 a43d 0cbf 32be e806 003e
000003e0: 33c0 02bf 91e8 a9be baa8 bb3d a3ef d43d
000003f0: 06d6 89be 1cc0 6fbe 4e40 4bbc df08 b03d

bias f4 [8]
-0.400353 -0.17161123 -0.21103661 -0.22353964 -0.111368135 0.07207855 0.12077375 0.49969253
00000000: 12fb ccbe dbba 2fbe fb19 58be 93e7 64be
00000010: fa14 e4bd eb9d 933d 3a58 f73d b3d7 ff3e
