runthroughs/great_total_above/baseline_model_save.pth (torch, 16000 bytes, 6 tensors)

weight f4 [64, 10]
00000000: ada6 67bc 9aa7 1a3c 20c7 cfbe c354 91be
00000010: c339 abbe cae1 b6be 9674 babd a946 94bd
00000020: 0452 48bb 3c7b 5e3d 3933 8dbe 6259 88be
00000030: 80f7 503d 8046 893d be3f 1e3b b28c d53e
00000040: 0d1a 36be d6c2 0e3d b6d4 293f 137e b4be
00000050: 736b 8bbe 684c 5cbc e062 58be 69aa 833e
00000060: c361 d8be eccb cabc 9bd6 f73c 6c8f 8ebe
00000070: b187 1fbe b9c0 0d3e 37a7 203e 035c 1d3e
00000080: 6eaa 2b3d 1f71 92be 7995 18bd 96b1 f4be
00000090: 3130 89be d17d dfbd 8588 58bd e244 213e
000000a0: ec9e eebd 8856 c6bd 9462 9a3e 30d7 803d
000000b0: 7ae8 713e d14b 8b3d 6576 6a3e bd5e dfbd
000000c0: 3acf 4f3e e6e1 b5be e367 27be b32b aebe
000000d0: 4a62 993d dc55 2d3e 508b 08bf 5c0a 733d
000000e0: 5bfe 873e e43c e63c ac10 4a3e d8bb c7bc
000000f0: 791b 953d 937d 4e3e be39 b0be 1812 ccbd
00000100: b4c3 0fbd 693d 313e f605 953e 8f2f a13e
00000110: ac5f 3a3e 7716 abbe 8276 46be d725 3abd
00000120: f02a b6be 5063 2d3e 6ab8 543e e5ff fbbe
00000130: 0563 18bd dcc8 fbbd f3ce 0e3e d720 a6be
00000140: 0518 0c3e 3c6c 27be 7032 073e 96ab e33d
00000150: ab8d dd3d 0e8d 623e 40eb 0cbe bef9 97be
00000160: 1683 cb3e de07 3e3e 22f5 87be e909 9ebe
00000170: df52 d33c 8c33 ebbd abc6 f3bd 99d9 d7bc
00000180: 15f7 15be 2e76 423c 6f0c 64be 5203 c3be
00000190: 01f9 6cbd edc8 53be ecf7 51be ea24 153d
000001a0: 6b5d 50bd 2bfc fe3e 58fb 863e a20a 55be
000001b0: 565d 9fbc 305e debe 043c 893d 23c2 03bc
000001c0: 704f 953e 3207 e7bd 9240 18bd 4971 273f
000001d0: 46fc 5fbe 4fc1 a8bd 0e92 10bf a7de d8be
000001e0: 239c 7bbe 587c 38be 21ad 8bbe 8894 533e
000001f0: 6532 2fbe 3f16 073e 03cd d83e 5384 333c
00000200: 5634 5a3e 088a aebd 5edd fb3d dc1c 863e
00000210: 927a 893e 7fc7 bf3e b2e3 3b3e 4380 94bc
00000220: dd71 ecbe 4c2a 263c 7e73 623d b293 dabd
00000230: 64e7 77be 7c68 59be 58af cebe e8df 1dbe
00000240: 40ff 86be bb4c b83e 25a5 8e3d 3a1b 8dbe
00000250: fff4 a9bc d419 b1be 5229 44be d51c 07be
00000260: 5800 cdbe 5327 afbe d120 8cbe c486 35bf
00000270: 7e54 3fbe 537c 25bd 6202 b1bc ebaa 0d3e
00000280: 9912 afbe 9ec6 c7bd 4b32 9c3e b338 3ebe
00000290: 1fd3 503e ddee 55be 5ccc 92be a306 893e
000002a0: b404 74be 86c9 23bc 0238 bd3e b716 af3c
000002b0: 880f cabd 1ae5 e5bd 993b acbc 6e3b 003e
000002c0: 1f2f da3d 71d0 733c ad0b cabd b7fb a23c
000002d0: 6898 14be 93ab 0cbd 9351 f93e 2522 42bb
000002e0: 5bf3 19be 73d0 abbc 6813 10be d8d0 9ebe
000002f0: b7d1 4abe 4fe7 563e b60a 9fbe bcd9 9e3b
00000300: 35db ef3c ed5d 8a3e 8812 963d 7655 c1be
00000310: 1c24 d5be 7cfe 383e c456 19be 12c6 fa3d
00000320: b454 23bd de14 b6bd e861 b4bd 60a0 85be
00000330: ebf5 85be e14b 3c3e b494 1bbe 1301 86be
00000340: 1fb7 1bbf 8585 50bf 0b58 843e e5f4 fcbe
00000350: 1148 aebd 12cd 513e c4ac bf3d b44e 8f3b
00000360: 4d45 d3bd c60f 293e 259d 27be 47a2 c0bd
00000370: 4f2c 2cbe 6d4e febd c4c6 0fbe 9ca3 c93d
00000380: 97ca 06be 92df 203f c8a7 283e a944 9ebe
00000390: 1636 74be 0681 29bf 5028 70be 530b 9dbd
000003a0: f424 973c e3d7 113e 3896 04be b22f a0bc
000003b0: ad03 593e 0433 ebbe 77db 403e b8ba 88be
000003c0: 4f9a 893c 4433 93bd 6b48 57be 8376 553d
000003d0: 621e 823e 30ab 16be 0a48 7dbd ae92 b4be
000003e0: 26d3 4bbe bf47 8c3e 0e33 c3be d99e 5fbe
000003f0: 4329 97be 5e3f 473e b8ab 773d b606 f43e
-0.01413886 0.009439373 -0.40581608 -0.2838498 -0.33442506 -0.35719138 -0.09104268 -0.0724004
-0.0030566463 0.054316744 -0.27578142 -0.26630694 0.051017284 0.067029 0.002414688 0.41708905
-0.17783375 0.03485378 0.66340196 -0.35252437 -0.27230415 -0.013445951 -0.21131468 0.2571595
-0.42262086 -0.02475544 0.030253699 -0.27843797 -0.15579106 0.13843049 0.15688787 0.15367131
0.04191058 -0.2860193 -0.037251923 -0.47791737 -0.2679458 -0.109126695 -0.05286457 0.15748933
-0.11651406 -0.09684473 0.30153334 0.06291044 0.23623839 0.0680157 0.22896726 -0.10906742
0.20293894 -0.3552391 -0.16348223 -0.34017715 0.0748945 0.16927284 -0.53337574 0.05933605
0.26561245 0.028105207 0.19732922 -0.024381563 0.072806306 0.2016509 -0.34419054 -0.099643886
-0.035098746 0.17308582 0.2910611 0.31481597 0.18200558 -0.33415577 -0.19381145 -0.045446243
-0.35579634 0.16932416 0.20773473 -0.4921867 -0.037203807 -0.1229417 0.13946132 -0.3244693
0.13681038 -0.16349882 0.13202834 0.11116712 0.10818037 0.2212412 -0.13761616 -0.29682726
0.39748448 0.18557689 -0.2655421 -0.30866936 0.025796352 -0.11484441 -0.11903127 -0.026348876
-0.14645036 0.011868997 -0.22270368 -0.3808847 -0.057854656 -0.20682116 -0.20504731 0.036412157
-0.05087034 0.49801764 0.26363635 -0.20804837 -0.019453686 -0.43431234 0.067009 -0.008041891
0.29162169 -0.11280669 -0.037170954 0.65407234 -0.21873578 -0.08239996 -0.5647286 -0.4235737
-0.2457128 -0.18016183 -0.27280524 0.20662129 -0.17109068 0.1319208 0.42343912 0.0109568415
0.21309027 -0.08522421 0.12298082 0.26193893 0.26851326 0.3745689 0.18348578 -0.018127566
-0.4618062 0.01014192 0.055285923 -0.10672702 -0.24209362 -0.21231264 -0.40368152 -0.15417445
-0.26366615 0.3599604 0.069650926 -0.27559835 -0.020746706 -0.34590018 -0.19156387 -0.13194592
-0.40039325 -0.3420969 -0.27368787 -0.7090876 -0.18684575 -0.040401768 -0.021607582 0.13834731
-0.34193876 -0.0975468 0.3050712 -0.18576317 0.20393036 -0.208919 -0.2867154 0.26762876
-0.23829919 -0.009996777 0.36956793 0.021373136 -0.098662436 -0.11225338 -0.021024512 0.1252267
0.10653519 0.014881239 -0.09865508 0.019895418 -0.14511263 -0.034343313 0.4869505 -0.0029622403
-0.15034239 -0.02097342 -0.14069903 -0.3101871 -0.19806562 0.20986675 -0.3106286 0.0048477333
0.02927933 0.27024785 0.07327753 -0.37760514 -0.41629112 0.18065828 -0.14974505 0.1224481
-0.0398757 -0.08890699 -0.08807737 -0.2609892 -0.26164183 0.1838832 -0.15193444 -0.26172695
-0.60826296 -0.81453735 0.2584842 -0.4940559 -0.08509839 0.20488384 0.09359124 0.004373396
-0.103159525 0.16509923 -0.1636854 -0.09405952 -0.16813777 -0.12417302 -0.14040667 0.09845659
-0.1316322 0.6284114 0.16470253 -0.3091176 -0.23848757 -0.662125 -0.23452878 -0.076681755
0.018450238 0.1424251 -0.12947929 -0.019553993 0.21192808 -0.4593736 0.18833719 -0.26704955
0.016797213 -0.071875125 -0.21023719 0.052114975 0.25413805 -0.1471374 -0.06183628 -0.35268158
-0.19904765 0.27398488 -0.3812489 -0.2183794 -0.29523668 0.19457766 0.060466498 0.4766137

bias f4 [64]
00000000: 53bd 8ebe 811d 2bbe acb4 a93e c325 013e
00000010: 08a8 bb3d 2869 59be 943a bebe 0c8c dfbe
00000020: b134 453e 3a82 0d3e d9ea d3bd 97d6 24bd
00000030: c526 5fbd b3be 02be a658 d63e 6bd1 f0be
00000040: a259 13be a001 593e bec4 f2bd 73bc b6be
00000050: 545d 013c cfd0 26be c36f 9fbe c691 fd3d
00000060: e1e1 1bbe b52d eb3e cca3 a5bd ad24 21bb
00000070: b87d 51bc 7cd7 ef3d 8c16 0f3d 38eb a1bd
00000080: 07e5 c73c 936c d2be 2f7c 5ebe ad7c 30be
00000090: fbe7 00bc 17d7 163d c62b d6bd 370b 14be
000000a0: 5bab 8dbc f52e 643e 3111 2f3e 783c c4be
000000b0: 5071 8d3e 67b2 373e 32fb 84be dc9e 92be
000000c0: 6927 923e efea 74be 4770 3bbe fffd e2bd
000000d0: 7a0b f4be c758 e33d 5ce1 d1be d7df 943e
000000e0: 54e0 88be ac70 193d ef0b 78be b761 a13e
000000f0: b305 98be a4c0 9fbd 07cb 10be 696a edbe
-0.27878818 -0.16710474 0.33145654 0.12612061 0.09162909 -0.2123152 -0.37154067 -0.43661535
0.19258381 0.13819209 -0.10347528 -0.04024371 -0.054480333 -0.12768058 0.41864508 -0.47034773
-0.14389661 0.21192026 -0.11853932 -0.3569065 0.007895786 -0.16290592 -0.31139955 0.1238132
-0.15222885 0.4593331 -0.080878824 -0.002458851 -0.012786321 0.11711022 0.03493361 -0.079061925
0.024401201 -0.4109846 -0.2172706 -0.1723506 -0.007867808 0.03682622 -0.10457568 -0.14457403
-0.017293623 0.22283538 0.17096402 -0.38327384 0.27625513 0.17939149 -0.25972897 -0.28636825
0.28545693 -0.23917745 -0.18304549 -0.11083602 -0.47665006 0.11100917 -0.40992248 0.29077026
-0.2673365 0.037460968 -0.24223302 0.31519863 -0.29691848 -0.07800415 -0.14139949 -0.46370247

weight f4 [32, 64]
00000000: 312c 11be 106d 58bd 3de4 7d3e c259 46be
00000010: 6f60 c93d bea1 1b3e 8f87 63bd 8f81 263e
00000020: d6e8 df3d 3e25 d73c 0e38 333e b365 2ebc
00000030: 3732 a3bc 3aae 99bc d627 463e 422a d03d
00000040: 711c 3b3d 3651 b23d d9bd 3bbe e9c7 f53e
00000050: 3111 5ebe 8d63 e73d 30c0 ba3c 21bf 253d
00000060: 9d84 82bd b556 1c3e b570 033d 3a1b 86be
00000070: 1a1e 04be cad0 163a 9e8f 8a3c 066e 39be
00000080: 88f9 0b3e 9b81 58bc 0bac 543e b207 3ebd
00000090: c566 8b3d c09d 2dbe ad1b d33d 4cfe 31be
000000a0: ff36 5c3e faf3 f33d 141b c53d 812d 1b3e
000000b0: 0f0b 353d e07d ad3d 2ddc 49bd f36b 1b3d
000000c0: 3984 2ebd d7f7 cc3d 884b 94bc f0bd 9dbc
000000d0: a388 1abd 193a 2fbd 4ad6 d2bd 94cc d63c
000000e0: d9a6 67be 82de 76be 0f45 72be 2445 6dbc
000000f0: fb1d 363c 9c43 b2bd a2a8 113d 3166 e73d
00000100: ae54 c63d 2c13 44be 14ab 733e 8885 b3bd
00000110: 041e 123d af49 ff3d be45 4dbc 4d65 903d
00000120: 30d8 32be 7e36 a0bd 46b0 bcbd 8321 9fbf
00000130: 38a3 edba d72c 00be 175c 173d 2554 523e
00000140: 2f4f 313e ae7d 26bd f322 1bbc 1d7f 223e
00000150: c7a4 ddbe 187d b83d c6e6 00bf 9ea2 b73d
00000160: be40 d43d 5c23 b8bd 56ea 6e3e 4cbd afbc
00000170: b945 253e 713d 2b3e cf89 863e 89a7 323e
00000180: 6a31 c73d 7213 65be 8477 7d3d 1a0d 393d
00000190: da3e 9f3d 936c 52bf 6d97 f73b 3a7e 61bd
000001a0: 880b f03d ee79 223d 399f eb3d 5cd6 623e
000001b0: 6be7 563d 2438 fb3d 77fc fbbc 67eb 843d
000001c0: 468a 793e 291f 6ebd d8ba d33d e7ad 2e3e
000001d0: 4778 113e 97eb 463e c1cc 04bd 2a20 163e
000001e0: 0d7d 3abd e5dd b13d 8029 60be 68d2 163e
000001f0: 5021 803e 6e69 a03d e192 89be 167f ca3c
00000200: f49d c03d 526b 1c3e 37d1 da3d b435 1f3d
00000210: 5011 b6bc cf92 5c3d d913 b03c 5625 03bc
00000220: 5cf0 f53b c128 1d3e 19ec 30be e307 593e
00000230: a73f 0abe f288 2abe 2735 253c 4fc5 233e
00000240: 940f 693d 58d2 093d ccf7 033e 2505 453d
00000250: 1691 ae3d 7de0 f63d bdeb 95bd 2119 acbd
00000260: ab1d 893e 0d7a b0bd a461 edbd c695 32bd
00000270: 4634 e0be 42c1 b1bd 67fa 2f3c be34 06be
00000280: 4cef cdbd 83fa 81bd ae8a a5bd 3398 193e
00000290: fae5 1b3e 616a 4e3b 9257 19be 1f95 543e
000002a0: f9ee 10bc 47df b5bd 3f62 05be 1348 7c3e
000002b0: 6307 e53c 4ad4 eb3c 1663 80bc 0aa4 fcbd
000002c0: 5ef4 873d 98b8 2dbe f9b6 3fbc 45d9 853d
000002d0: 7ffb b13d a261 0f3e be83 083e aa96 37bd
000002e0: 5f51 90be 28af 0bbe 1d89 ffbc 0fcf 00be
000002f0: 0ac6 823e eaa9 35bd a80b b53e eb43 023d
00000300: e2fd 563e c6ba 9f3d 1e5f 55be 5ef7 df3d
00000310: 6b92 d9bd 2793 0bbf e7fa 61be 45b7 a33e
00000320: f89b 09bf 67cc 023e 942e bf3c ee3e 193e
00000330: 4a9b 08bf 3039 43bd e263 59be 6eb1 863e
00000340: db32 3d3e 2532 4abe 0468 acbc ca82 023e
00000350: 0406 023f 3064 3dbd 45cd 8b3e c55e 0dbf
00000360: edf6 213e e834 70be 530f f03d c051 44bc
00000370: 7556 14be 74a7 d83d 3240 713e cf35 333d
00000380: 7aac 2cbe e486 cebd f34d ab3d 4732 b4be
00000390: a3a6 d1bb 75a9 0dbe 6732 913d bac8 bebe
000003a0: 3398 d4bd 22d7 213e 5016 d3be a60b 09be
000003b0: 3314 203d a7e0 ad3c 1aa2 93be 800f 52be
000003c0: 6a28 ce3d 8035 8bbe 49c4 333e d2ea 133e
000003d0: 9489 473e 8931 ad3d d488 b63d 0f0d 893d
000003e0: 0cac 33be 7f1a 4d3c cb7e 6c3e c4b8 07be
000003f0: 2743 f3be 59e7 0f3d cb7e 83bd 9bf9 4e3e
-0.14177014 -0.052838385 0.24794097 -0.19370177 0.098328464 0.15198418 -0.0555492 0.1626036
0.10933082 0.026262876 0.17501852 -0.010644364 -0.019921405 -0.018759836 0.19351134 0.1016431
0.04568142 0.08706896 -0.1833414 0.48004082 -0.21686246 0.11298285 0.02279672 0.040465478
-0.0637295 0.15267451 0.032089908 -0.26192647 -0.12902108 0.0005753158 0.016914185 -0.18108377
0.13669407 -0.013214494 0.20768754 -0.046394058 0.06806711 -0.16954708 0.10308013 -0.17382163
0.21505354 0.11911769 0.09624305 0.15154077 0.0442 0.084712744 -0.04928224 0.037944745
-0.042606566 0.10008209 -0.018102422 -0.019255608 -0.037727963 -0.042780016 -0.10294779 0.026220597
-0.22622241 -0.24108317 -0.23659156 -0.014481816 0.011115546 -0.08704302 0.03556121 0.11298788
0.0968412 -0.19147938 0.2379573 -0.087657034 0.035673156 0.12465226 -0.012528835 0.070505716
-0.17465281 -0.078228936 -0.09213309 -1.2432102 -0.0018130308 -0.12517105 0.036953058 0.20539911
0.17315362 -0.0406472 -0.009468782 0.15868802 -0.43289778 0.09008235 -0.5035213 0.08966564
0.10363911 -0.08991119 0.2333158 -0.021452568 0.16139878 0.16722657 0.26277015 0.17446722
0.09726222 -0.22370699 0.061881557 0.04517851 0.0777566 -0.8219692 0.007555893 -0.05505202
0.117209494 0.039667062 0.11504979 0.22152084 0.05246679 0.12266567 -0.030760033 0.06490212
0.24369153 -0.058135185 0.10338372 0.17058526 0.14206038 0.19425808 -0.03242183 0.14660707
-0.045529414 0.08684901 -0.21890831 0.14728701 0.25025415 0.07832609 -0.26869872 0.024718802
0.09405127 0.15275314 0.10684436 0.038869575 -0.022225052 0.053850945 0.02149384 -0.008004507
0.0075054597 0.15347578 -0.17277564 0.21194415 -0.13500844 -0.16653803 0.010083473 0.15993236
0.056899622 0.033647865 0.12887496 0.04810061 0.08523767 0.120545365 -0.07320354 -0.084032305
0.26780447 -0.08617029 -0.11590889 -0.043599866 -0.4378988 -0.08679439 0.010740853 -0.13106057
-0.10055408 -0.063466094 -0.08083092 0.14999466 0.15224448 0.0031496512 -0.14974812 0.2076001
-0.008846038 -0.088804774 -0.13025759 0.24636869 0.027957624 0.02878775 -0.015672248 -0.123359755
0.06638406 -0.16964948 -0.011701339 0.065355815 0.08690547 0.14002088 0.13331506 -0.04482142
-0.2818708 -0.13641036 -0.03119331 -0.12578987 0.25541717 -0.044351496 0.35360456 0.031803053
0.20995286 0.07799296 -0.20837066 0.109358534 -0.1062363 -0.5452141 -0.22068368 0.3197576
-0.53753614 0.12773286 0.02333764 0.14965412 -0.5336195 -0.04766196 -0.21229509 0.26307243
0.18476431 -0.19745691 -0.021045692 0.12745205 0.5079043 -0.046238124 0.27305046 -0.5522273
0.15816851 -0.23457682 0.11721673 -0.011982381 -0.14486106 0.10578814 0.23559645 0.043752488
-0.1686267 -0.10084322 0.08364477 -0.3519461 -0.0063980385 -0.13834174 0.070896916 -0.37262517
-0.10380592 0.15804723 -0.4122796 -0.1338335 0.039081763 0.021225287 -0.2883461 -0.20513725
0.10066302 -0.27189255 0.17555346 0.14445046 0.19486076 0.08456714 0.08912817 0.06691944
-0.175461 0.012518524 0.23095243 -0.13254076 -0.4751217 0.03513274 -0.06420668 0.20212404

bias f4 [32]
00000000: 6796 523e 8431 423e bb7a 4e3e 0069 87be
00000010: 270b 9e3e 1d1d 1c3d a5be a13d 7211 5f3d
00000020: 5bf5 743d 3f42 d33d 0a2c 69bd b6b8 753d
00000030: 4fd2 e43d 45c8 403e cfed 033e 52b0 853e
00000040: 0c94 fa3d 7772 c73c 7642 a7bc b659 fe3d
00000050: f03f 51bb 16ca 713b 59d1 c03c a3cf 163e
00000060: 895d ab3c e383 fa3c 30f3 963d 4ae5 2f3e
00000070: 4d6a 02bd 68ce 683d f92f 9b3c 6197 03be
0.20565186 0.18964201 0.20164005 -0.26447296 0.30867884 0.038113702 0.07897691 0.054459997
0.0598043 0.1031537 -0.056926765 0.059990607 0.11172926 0.18826397 0.12883686 0.26111084
0.12235269 0.024346573 -0.020417433 0.12419455 -0.003192898 0.0036894134 0.023537325 0.14727645
0.020918624 0.030580467 0.07370603 0.1717731 -0.031839658 0.05683747 0.018943774 -0.12850715

weight f4 [8, 32]
00000000: 3d40 5dbe a9f8 53be 0422 3fbe 0f6e 343e
00000010: d877 78be cab5 293e 2eaa b13e a658 89bd
00000020: 765d f63d 1940 3abb 58b0 f53d 3974 303e
00000030: 8d9a 21be 7251 923d 933f df3d 3003 ac3c
00000040: 0054 c63d bfa3 823e 14fa b33d a545 143e
00000050: 336d 44be 11f4 2d3e 05d4 163d 5497 d8bd
00000060: cce7 7ebe dbe9 57be a0b0 b63b ca5d 55be
00000070: 776b b43d d075 563d e4ff eb3d 4240 9b3e
00000080: 9bab 7fbc f554 19be 8db0 28be 68a4 6abc
00000090: 592b 81bd c924 19bc 52e8 e43d 852b 3e3b
000000a0: 03de f03d ac96 5b3e ccbb de3d 5de0 7e3e
000000b0: 4d6a 06be dcaf d13d f7df 83bd dc27 99bd
000000c0: 2324 ae3c 88e5 1e3e d396 04bf 7c40 053e
000000d0: 9852 22be 268b 453d 3111 dcbc 8d10 0e3e
000000e0: 9af7 75be 310d 63be f871 7fbd 2296 04be
000000f0: 75f8 493d 1a54 a73d c65c 823d 3c74 e83d
00000100: e0a5 e5bd 0b17 0fbf d91e 3f3e f07c 8ebe
00000110: 0873 95be 2cf0 11be 6c96 f5be cf4b 043d
00000120: 3ea5 4d3d c07a febd d4a2 bb3d 4dfb d63b
00000130: ce8b 09bd e4c4 af3d 9ec9 abbe b69d 05be
00000140: 2d2f efbe 0758 de3d 4fbd 703c 27ea a2be
00000150: fb9b 45be 01b5 88bd f8c9 dbbd 054d a0be
00000160: 690b b03d f2a8 393c f9b7 733e 8843 8a3e
00000170: 048c ccbe ec10 f13d 49ff edbd f44b f6bd
00000180: 658a 2a3e 08b8 1dbf 7882 b93d b2df 7c3d
00000190: 6969 b3bd 5a0a 763d 9ea3 803d 3b6b d63d
000001a0: f9fa 88be 9ab8 cbbe b193 7e3e d55e c2be
000001b0: c14f 93bd adba a13c b9af f03d 5f11 ce3d
000001c0: 73f2 f0be 10d4 adbe c3e7 04bd cce0 cbbe
000001d0: 6be5 bcbe ed63 82be 7376 a4be d94a debe
000001e0: 70d5 cd3d 5743 d2bd f356 50be fd6f fabc
000001f0: 13e4 dfbe 2b52 883d 340b 26be afea 71bd
00000200: c903 593e a9eb a5bd cf6b fa3d 9bec debe
00000210: 3171 ffbc 887c 49be d138 13be 9e32 0e3e
00000220: e229 a03e 7107 be3d c681 20be e201 10bd
00000230: 5357 bc3d 7bec 553d 3c69 81be aceb 25be
00000240: f40a cc3d a8cd 333e 2bf9 c03b 2101 813b
00000250: bede a1bd 9330 063e 7090 1abf 7173 293e
00000260: d222 2fbe 9259 38be ed57 c23e 158f c53e
00000270: d4a7 9cbe 35c4 213e 34c8 afbc aeda 24be
00000280: 7aa7 073d 116c 66be d763 e13d 36c6 5ebd
00000290: 0421 553d ac58 53bd 6742 b2be 646b bfbd
000002a0: 31ab fbbd 7147 993c 2dee ffbd 2e8a afbe
000002b0: b039 223e 65c8 a43e aff2 d33d 0c13 4ebd
000002c0: 37cb 833e 0e03 563d 63c0 a83c a1ac 343e
000002d0: f269 e0bd f1a7 e73b e775 3c3e b38b debc
000002e0: 6cef a63e 00a1 1fbd ec68 28be 3388 dd3e
000002f0: 66ea bd3d b70c 403e 0d40 2fbd 51d6 14be
00000300: bb41 c8bd afbf f63d 562b 973d bd34 a8bc
00000310: a42e eb3d 4939 ed3d 6157 0e3e 045a 23bd
00000320: 3fa2 e2bc 76c7 94bd 3dad 3f3e d3dd 1dbf
00000330: 7f36 983e 3239 66be 8cf3 8a3d 4474 59be
00000340: 650a a1bc 233d d1be a904 fe3d 0f8e 423d
00000350: 5283 403e 0004 a8bd 1f06 1fbe 6227 c73d
00000360: 12a9 033e 1ec5 16bd f9a3 623e a5b8 b8be
00000370: 3925 d43c 28b6 1b3e 0256 52be 3ceb a83d
00000380: 7ca5 823e a3a5 4a3e 4637 163e 4c22 4a3f
00000390: 5493 393e 9757 ec3d b0d9 323e cb9e d1bd
000003a0: d270 883d 8ea0 15bf 6d13 543e 78f3 cebe
000003b0: f57a 943d 1ed2 c4be 9444 1d3e 9c95 c43d
000003c0: b4bf 103e 7183 e9be 061c dc3b e8f6 5a3c
000003d0: 2209 2e3e f9fa b7be e351 ea3d 2ee6 aabd
000003e0: 80d8 b5bd 297e 6c3d 6a2b 38be 869e cabe
000003f0: 26f0 1ebe e525 fabe 8cb8 6e3d 687f 82bd
-0.21606536 -0.20700325 -0.1866532 0.17620109 -0.24264467 0.16573253 0.3470015 -0.067063615
0.12029545 -0.0028419553 0.119965255 0.17231835 -0.15781613 0.07144441 0.10900798 0.020997614
0.096839905 0.25515553 0.08787933 0.14479692 -0.19182281 0.16987635 0.03682329 -0.105757385
-0.24893111 -0.21085303 0.0055752546 -0.20836559 0.0880956 0.05235845 0.11523417 0.30322462
-0.015604879 -0.14973815 -0.16473599 -0.014321424 -0.06307096 -0.009347149 0.11177124 0.002901764
0.117610954 0.21444196 0.10875663 0.24890275 -0.13126488 0.10238621 -0.06439202 -0.07478306
0.021257466 0.15517247 -0.5179264 0.1301288 -0.1585182 0.048228405 -0.026863666 0.13873501
-0.24020234 -0.22173001 -0.06236455 -0.12947896 0.049309213 0.08170338 0.063653514 0.11350295
-0.11213279 -0.55894536 0.18664111 -0.27829695 -0.29189324 -0.14251775 -0.47966325 0.03229886
0.050206415 -0.124257565 0.091619164 0.006560719 -0.033580594 0.08582476 -0.3355226 -0.13048443
-0.4671568 0.10856634 0.014693572 -0.3181927 -0.19297783 -0.06675149 -0.10731882 -0.3130876
0.08595926 0.011331784 0.23800649 0.27004647 -0.39950573 0.11770806 -0.116209574 -0.12026206
0.16654356 -0.61608934 0.09058088 0.06173677 -0.0876034 0.060068466 0.062812075 0.10469671
-0.26753977 -0.39789277 0.24861027 -0.37962976 -0.07192946 0.019742334 0.117522664 0.10061907
-0.47059974 -0.33950853 -0.032447588 -0.39819944 -0.36893782 -0.25466862 -0.3212162 -0.4341648
0.100504756 -0.1026675 -0.20345668 -0.030570978 -0.43728694 0.06656297 -0.16215211 -0.059061702
0.2119285 -0.08101589 0.12227594 -0.4353989 -0.031181904 -0.19676411 -0.14377142 0.13886496
0.31281954 0.09278763 -0.15674505 -0.035158046 0.09196343 0.05222748 -0.252756 -0.16203183
0.09963027 0.1755892 0.005889078 0.003936902 -0.07903813 0.13104467 -0.60376644 0.16547944
-0.17103127 -0.18002918 0.37957707 0.38585725 -0.30596793 0.15797503 -0.021457769 -0.16099045
0.033118702 -0.22502162 0.11005371 -0.054388247 0.05203344 -0.051598236 -0.34816286 -0.09346655
-0.122885115 0.018710824 -0.124966 -0.3428511 0.15842319 0.3218414 0.103490226 -0.050311133
0.25740978 0.052249007 0.02059955 0.17643978 -0.109577075 0.0070695807 0.18404351 -0.027166223
0.3260454 -0.0389719 -0.16446275 0.43267974 0.092732236 0.1875485 -0.042785693 -0.1453488
-0.09778162 0.120482795 0.073813125 -0.02053296 0.11483505 0.11583192 0.1390052 -0.039880767
-0.027665256 -0.07264607 0.18718429 -0.616666 0.29729077 -0.22482756 0.06784734 -0.21235758
-0.019658277 -0.40866956 0.124032326 0.04749876 0.18800095 -0.08203888 -0.15529679 0.097243086
0.12857464 -0.03680908 0.22132863 -0.36078373 0.025896655 0.15206206 -0.20540622 0.082479924
0.2551688 0.19789748 0.14669523 0.7895858 0.18122607 0.11540144 0.17465854 -0.102353655
0.06662144 -0.5844811 0.20710535 -0.40420127 0.07250015 -0.38441557 0.15358192 0.09598848
0.14135629 -0.45608094 0.006717208 0.013364531 0.16995671 -0.35933664 0.114414 -0.083446845
-0.08879185 0.057737503 -0.17985311 -0.3957407 -0.15521297 -0.48857036 0.058281466 -0.06371957

bias f4 [8]
00000000: b26a 9dbe 1ad1 d7bd f27a 82bd 8820 083c
00000010: c8f3 77bd bc0c 013e 3d81 2a3e 7a37 9a3e
-0.30745465 -0.1053793 -0.06371106 0.008308537 -0.060535222 0.12602514 0.16650863 0.3012045
