models_save/aug_model_save_k_means_centers_15/aug_model_save.pth (torch, 15950 bytes, 6 tensors)

weight f4 [64, 10]
0.027271735 -0.0051069707 0.24074973 0.06673564 0.12122797 0.4425811 -0.20919786 -0.2257232
0.05583784 -0.13922863 0.043636017 -0.05093479 -0.43411672 -0.16195403 -0.10122263 -0.45022845
-0.050199676 -0.43976158 0.25848702 -0.17031786 0.16824432 0.28232464 -0.23407006 -0.14207238
-0.2044663 -0.46402282 0.056909624 0.2334261 0.2524201 0.27445516 -0.0378962 0.11636386
0.08258162 -0.11544952 -0.1251794 -0.22614753 0.20782802 0.26974276 0.1415694 0.08295198
0.10799046 -0.12675974 0.59116817 -0.3094327 -0.0013410342 -0.20606162 0.1202835 0.026849287
0.0674451 0.035313003 -0.41067824 -0.10391026 0.09736553 0.1672722 0.090598226 -0.41689828
-0.25785723 0.10810945 -0.07387546 -0.0447695 0.115101345 -0.09279538 -0.08118845 -0.081008226
0.149636 0.44628137 0.0033530202 -0.5104128 0.19345011 0.04962993 0.27642208 0.07766197
-0.019037522 -0.07520846 -0.12415828 0.08493053 -0.24281423 -0.5664012 -0.016945748 0.03424777
-0.12563133 -0.023165217 -0.2124548 -0.3430801 -0.25633633 -0.6532247 -0.36813062 0.26034307
-0.39980248 -0.2990485 -0.103009365 -0.0698066 -0.74087 0.058493927 -0.44740802 -0.77109927
0.037205607 -0.22747533 0.14897773 0.10169759 0.29410213 0.36965576 0.22724506 0.1004736
0.2591651 0.15337005 -0.28657925 0.24747786 -0.43667513 0.06687504 -0.16766274 -0.31499368
-0.07404158 -0.21288532 -0.088848144 0.5250509 0.2839032 -0.35508633 0.46309575 0.5505175
-0.06978465 0.44970307 0.18351394 0.19901834 0.18724562 -0.20622137 -0.37403974 0.0038810999
0.11338243 -0.12843992 0.18330134 -0.16006094 0.31779385 0.07790619 0.19336113 0.05337906
0.048045002 0.09973595 -0.038423456 -0.09737982 0.03856137 0.2663501 0.009446316 -0.54877573
-0.33024475 -0.13316132 0.17999507 -0.014102205 -0.104714975 0.009532333 -0.05817075 -0.16818094
-0.02963847 -0.4043573 -0.20967735 -0.38154104 -0.2732275 0.11252705 -0.16986972 -0.30430365
-0.082925916 0.14804079 -0.32110077 0.26808754 0.0071909428 0.41415092 -0.033755183 0.0747105
0.1278971 -0.069386825 -0.107847735 -0.22651765 -0.29537466 -0.30239457 -0.26288506 -0.511167
0.14777142 -0.24654709 0.31527436 0.046015278 -0.20159924 -0.11957648 -0.030356701 -0.31778833
-0.052986775 0.1276456 0.1258231 0.047462914 -0.5968998 -0.583017 -0.040337473 -0.068502225
0.16942109 -0.048044298 -0.065153554 0.19317988 0.30861333 -0.13782452 0.5963665 0.2252166
-0.20882595 -0.04929478 -0.25977233 0.10396241 0.19244696 -0.40994546 -0.12612617 -0.18869348
0.026620725 0.3068314 -0.16026293 -0.2682593 -0.3743941 -0.011566029 0.15827686 0.16607136
0.0069610644 0.2207422 0.19498779 -0.02934842 0.047021553 0.04452875 0.19718584 0.2641582
-0.027423512 0.3058501 0.29576945 0.032822244 -0.09643436 -0.17657156 -0.06369253 -0.21506317
0.19465916 -0.11210096 0.31277663 -0.2078628 0.03471343 -0.1342274 0.1666681 0.1935956
-0.298866 -0.05391995 -0.2208823 0.26332128 0.25943097 0.43556175 0.4291305 -0.29412466
0.10055518 -0.174738 0.03508824 -0.086084485 -0.11310782 -0.2557186 -0.23590836 0.16352858
00000000: f968 df3c 6058 a7bb 1987 763e b2ac 883d
00000010: 5f46 f83d fd99 e23e f737 56be fc23 67be
00000020: 38b6 643d f391 0ebe aebb 323d 00a1 50bd
00000030: 8c44 debe 47d7 25be cf4d cfbd 5884 e6be
00000040: 2d9e 4dbd 6e28 e1be 6958 843e ce67 2ebe
00000050: 3d48 2c3e db8c 903e 10b0 6fbe 6c7b 11be
00000060: 9d5f 51be 6694 edbe 111a 693d 4007 6f3e
00000070: 353d 813e 6385 8c3e 0c39 1bbd 2d50 ee3d
00000080: 8d20 a93d cc70 ecbd 072f 00be 3893 67be
00000090: ded0 543e b91b 8a3e 92f7 103e bae2 a93d
000000a0: 1a2a dd3d 4ecd 01be cc56 173f f66d 9ebe
000000b0: a4c5 afba d101 53be 3257 f63d 09f3 db3c
000000c0: a820 8a3d 5ea4 103d 6b44 d2be e7ce d4bd
000000d0: 9467 c73d 6749 2b3e 908b b93d b173 d5be
000000e0: dd05 84be 7d68 dd3d 044c 97bd 3960 37bd
000000f0: 41ba eb3d 810b bebd 2146 a6bd a4e7 a5bd
00000100: 2e3a 193e fe7e e43e 58be 5b3b 6aaa 02bf
00000110: c917 463e c148 4b3d 3287 8d3e 3d0d 9f3d
00000120: 94f4 9bbc e506 9abd b246 febd 0ff0 ad3d
00000130: 4ba4 78be abff 10bf cfd1 8abc 6447 0c3d
00000140: 80a5 00be fbc4 bdbc c08d 59be 32a8 afbe
00000150: 843e 83be bc39 27bf 9e7b bcbe b04b 853e
00000160: e9b2 ccbe e31c 99be 93f6 d2bd c3f6 8ebd
00000170: a8a9 3dbf 5497 6f3d aa12 e5be c366 45bf
00000180: e864 183d 4bef 68be 9e8d 183e d346 d03d
00000190: 8e94 963e 8543 bd3e eeb2 683e 1ac5 cd3d
000001a0: 4ab1 843e 0a0d 1d3e 84ba 92be d66a 7d3e
000001b0: e293 dfbe c8f5 883d c8af 2bbe da46 a1be
000001c0: 1da3 97bd 9cfe 59be 04f6 b5bd bc69 063f
000001d0: c35b 913e e0cd b5be e31a ed3e b7ee 0c3f
000001e0: 41eb 8ebd 7b3f e63e 14eb 3b3e 77cb 4b3e
000001f0: 51bd 3f3e b22b 53be 2382 bfbe 0d5a 7e3b
00000200: 0c35 e83d c185 03be 59b3 3b3e 04e7 23be
00000210: e0b5 a23e 488d 9f3d 7600 463e 00a4 5a3d
00000220: d6ca 443d 5d42 cc3d ea61 1dbd 126f c7bd
00000230: 87f2 1d3d 0a5f 883e b9c4 1a3c 917c 0cbf
00000240: d715 a9be 715b 08be a150 383e ef0c 67bc
00000250: ce74 d6bd 812d 1c3c 7444 6ebd a037 2cbe
00000260: 60cc f2bc ec07 cfbe a9b5 56be 5959 c3be
00000270: 7ae4 8bbe 9574 e63d 54f2 2dbe b0cd 9bbe
00000280: 10d5 a9bd 0198 173e 5267 a4be c542 893e
00000290: 00a2 eb3b 970b d43e e042 0abd d201 993d
000002a0: 75f7 023e ae1a 8ebd 46df dcbd 3ef4 67be
000002b0: 593b 97be 76d3 9abe df98 86be d7db 02bf
000002c0: 6451 173e d776 7cbe a46b a13e 847a 3c3d
000002d0: 0870 4ebe 83e4 f4bd 9eae f8bc 27b5 a2be
000002e0: a908 59bd 87b5 023e c5d7 003e 7968 423d
000002f0: 6dce 18bf 9a40 15bf e838 25bd e54a 8cbd
00000300: b97c 2d3e 19ca 44bd 3a6f 85bd f2d0 453e
00000310: 9102 9e3e df21 0dbe 7aab 183f 2e9f 663e
00000320: 78d6 55be 53e9 49bd e100 85be 3eea d43d
00000330: d110 453e 5fe4 d1be 3827 01be dd38 41be
00000340: b513 da3c 0119 9d3e f71b 24be 4859 89be
00000350: 95b0 bfbe 717f 3dbc 5413 223e 9c0e 2a3e
00000360: a419 e43b 3e0a 623e e1aa 473e 196c f0bc
00000370: ac99 403d c763 363d 16eb 493e be3f 873e
00000380: 46a7 e0bc 6298 9c3e 186f 973e 9e70 063d
00000390: 617f c5bd 2dcf 34be 3b71 82bd 8539 5cbe
000003a0: bb54 473e 3095 e5bd 4224 a03e fcd9 54be
000003b0: ab2f 0e3d e872 09be 0bab 2a3e ed3d 463e
000003c0: f704 99be 2adb 5cbd f82e 62be 0cd2 863e
000003d0: 23d4 843e f301 df3e feb6 db3e 8297 96be
000003e0: e0ef cd3d 85ee 32be b0b8 0f3d 104d b0bd
000003f0: 13a5 e7bd 8ced 82be f691 71be 0974 273e

bias f4 [64]
-0.0055871224 -0.36704567 -0.52530044 -0.24855918 -0.8469719 -0.6246392 -0.0143808285 -0.2667752
-0.6074629 -0.059965238 -0.5299657 -0.13460141 -0.46229684 -0.101918586 -0.21791402 -0.21264456
-0.14982535 0.09855537 -0.5406812 -0.023239598 -0.4689102 -0.07495473 -0.12055561 0.010825996
-0.03615154 0.031747542 0.40639693 -0.58887106 -0.39805955 -0.21077374 -0.3073919 -0.47918826
-0.6615726 -0.13855991 0.2515312 0.1597677 -0.3491023 0.3643365 -0.14677165 -0.2692581
-0.31511462 -0.101887755 -0.02152881 -0.37009856 -0.7322518 -0.25805363 0.20849195 -0.6948696
-0.4488504 -0.24251321 -0.295634 -0.31154078 -0.29782605 -0.10619791 -0.6662543 0.9575606
-0.028230919 -0.45698512 -0.562863 -0.11652142 -0.30415016 -0.21630856 0.31247225 -0.45958334
00000000: 2e14 b7bb 69ed bbbe 177a 06bf 4c86 7ebe
00000010: 27d3 58bf 5be8 1fbf 919d 6bbc c296 88be
00000020: b082 1bbf 1c9e 75bd d5ab 07bf f4d4 09be
00000030: 2cb2 ecbe b1ba d0bd da24 5fbe 7fbf 59be
00000040: d16b 19be 66d7 c93d 156a 0abf f860 bebc
00000050: ff14 f0be de81 99bd dce5 f6bd 855f 313c
00000060: a313 14bd b609 023d 4213 d03e 41c0 16bf
00000070: 76ce cbbe 12d5 57be 7962 9dbe 2a58 f5be
00000080: d25c 29bf a6e2 0dbe b3c8 803e 259a 233e
00000090: 89bd b2be 508a ba3e 4f4b 16be 33dc 89be
000000a0: b456 a1be 87aa d0bd 305d b0bc 8f7d bdbe
000000b0: db74 3bbf 9b1f 84be ea7e 553e f9e2 31bf
000000c0: b8cf e5be 6255 78be 575d 97be 4682 9fbe
000000d0: a87c 98be 4a7e d9bd a48f 2abf b122 753f
000000e0: 8744 e7bc f4f9 e9be ca17 10bf c8a2 eebd
000000f0: 92b9 9bbe fe7f 5dbe 5dfc 9f3e 824e ebbe

weight f4 [32, 64]
-0.05338491 -0.3788434 -0.26219478 0.16499841 0.1986721 0.30530727 -0.24554744 0.08631161
-0.48022506 0.09547754 -0.15205213 -0.13697413 0.116595805 0.06496203 -0.67189175 -0.5861967
-0.17270388 -0.07432437 -0.37919995 -0.13698682 0.098530605 0.30185825 -0.13243078 0.12238924
-0.11024602 -0.24671723 0.11329223 -0.35861278 0.048250932 0.021067267 -0.005715877 -0.4650334
0.018012438 -0.5811295 0.08494969 0.019497387 -0.41339415 -0.052581847 0.17695257 0.03263334
-0.3722052 0.21582143 0.02418843 0.30833286 0.33573952 0.10644875 0.025539005 0.14254378
-0.007378352 0.050963514 0.14382431 -0.30797443 -0.32712653 0.20491432 -0.07334199 -0.12828718
-0.071024545 0.11260412 -0.10383688 0.09230421 -0.056586895 -0.36274216 -0.05227742 0.016174909
-0.11509278 -0.10563946 -0.11251772 0.0046035904 0.00012772316 0.02350502 -0.09226067 0.05124842
0.011643441 -0.12544605 -0.07530855 0.04485632 -0.0003927635 -0.054593846 -0.08743928 -0.1223469
0.06639932 -0.09467266 0.029214107 -0.083073646 -0.0397425 -0.17747048 -0.10171629 0.056674603
-0.14997081 -0.044889405 -0.14633809 0.009406994 -0.15703689 -0.11070489 -0.1582429 -0.10881697
-0.016629767 -0.12397677 0.007060994 0.033480044 0.08706669 0.07909304 0.041643422 -0.067497924
-0.033365704 0.05049496 0.009811648 -0.055987053 0.064579464 -0.14972548 0.047756214 0.018873109
-0.11239315 -0.111021474 0.057995923 0.06924962 -0.043904036 -0.06538911 0.06876583 0.009267996
-0.053714648 0.076554745 0.065200105 -0.0117232585 0.0060469056 -0.14551945 -0.08294086 -0.011602335
0.022966184 -0.2078877 0.32266796 0.14921656 -0.13522859 -0.012416232 -0.3401934 -0.3116866
0.1145425 -0.16257071 -0.31012568 -0.13904187 -0.019599702 0.03584255 -0.09534559 0.15800196
0.09675595 -0.08008733 -0.06643868 -0.052241184 0.032531876 0.14071405 -0.022488123 0.123235874
0.11506067 -0.01344148 0.08430782 0.122003324 0.016356375 -0.36053565 0.36555886 -0.103131995
0.16691315 -0.30298647 -0.027836023 0.14276172 -0.28056112 0.011305921 -0.034761947 0.1805669
-0.3970067 0.34223962 0.08720699 0.05761203 -0.2368114 -0.07392727 0.034136653 -0.038649213
-0.043372832 0.20391214 0.22835623 0.039947998 -0.34503442 -0.45766824 -0.10488891 0.033314336
0.008204867 0.12027459 -0.07206288 -0.11207782 -0.13054478 0.17163794 0.13988404 0.16559125
0.082976654 0.17771137 -0.014810399 -0.025198203 -0.20861052 -0.4612412 0.12880608 -0.015530606
-0.27599916 0.1521725 0.21236543 -0.07669655 0.08375419 0.08289268 0.20920923 -0.22790924
0.27494758 0.060600214 0.24021971 0.24349439 0.06847949 0.06876278 0.0542347 -0.07670269
0.05378956 -0.031913523 -0.42046702 -0.0669044 0.18756202 0.014106309 -0.29078788 0.28200275
0.20613973 0.09244135 0.31096444 0.020966824 0.08402543 -0.035881776 0.1302217 -0.025602058
-0.2970101 0.051249232 -0.30483833 -0.09211143 -0.20974381 0.06744674 0.034408003 0.09156057
-0.065343015 0.3358208 -0.51878667 -0.0416622 0.05413295 0.03135251 0.04497472 -0.08796121
0.12841205 0.09434387 -0.14213176 -0.1289609 -0.14713077 0.05549355 0.027019823 -0.41768563
00000000: 23aa 5abd c3f7 c1be 653e 86be 58f5 283e
00000010: b370 4b3e 3c51 9c3e ca70 7bbe 24c4 b03d
00000020: 0fe0 f5be ba89 c33d 8eb3 1bbe f242 0cbe
00000030: c8c9 ee3d d00a 853d 1901 2cbf fd10 16bf
00000040: 49d9 30be 6037 98bd 7f26 c2be 4646 0cbe
00000050: 6aca c93d 2a8d 9a3e ef9b 07be 36a7 fa3d
00000060: aac8 e1bd 71a3 7cbe c205 e83d 189c b7be
00000070: c5a2 453d 4395 ac3c 404c bbbb dc18 eebe
00000080: d28e 933c e7c4 14bf 1afa ad3d fcb8 9f3c
00000090: 66a8 d3be 1060 57bd 0e33 353e 8aaa 053d
000000a0: ae91 bebe 4b00 5d3e d026 c63c cedd 9d3e
000000b0: 0de6 ab3e cd01 da3d 2d37 d13c fff6 113e
000000c0: 1ac6 f1bb 1ebf 503d ae46 133e d3ae 9dbe
000000d0: 217d a7be 0fd5 513e 5334 96bd b75d 03be
000000e0: 5175 91bd fd9c e63d 6ea8 d4bd fd09 bd3d
000000f0: a9c7 67bd 57b9 b9be d920 56bd 3e81 843c
00000100: c3b5 ebbd 8059 d8bd b16f e6bd b7d9 963b
00000110: 6ded 0539 9a8d c03c 2af3 bcbd dde9 513d
00000120: 22c4 3e3c ee74 00be 5e3b 9abd 43bb 373d
00000130: d3eb cdb9 cc9d 5fbd 5d13 b3bd 0391 fabd
00000140: 5efc 873d bde3 c1bd 6c52 ef3c 8422 aabd
00000150: 08c9 22bd d2ba 35be a150 d0bd a123 683d
00000160: f391 19be f4dd 37bd a7d9 15be cb1f 1a3c
00000170: 47ce 20be 3fb9 e2bd 6d0a 22be 6edb debd
00000180: 263b 88bc 88e7 fdbd e95f e73b 5f22 093d
00000190: 0550 b23d 88fb a13d 4b92 2a3d 5a3c 8abd
000001a0: 7aaa 08bd ced3 4e3d 09c1 203c ae52 65bd
000001b0: 3d42 843d a351 19be 059c 433d c79b 9a3c
000001c0: 612e e6bd 3a5f e3bd 228d 6d3d bfd2 8d3d
000001d0: b8d4 33bd baea 85bd 19d5 8c3d cbd8 173c
000001e0: e403 5cbd bcc8 9c3d a287 853d e912 40bc
000001f0: 1f25 c63b 0d03 15be e6dc a9bd b817 3ebc
00000200: 9423 bc3c 83e0 54be bc34 a53e 3acc 183e
00000210: 5d79 0abe 746d 4bbc d42d aebe 6395 9fbe
00000220: 4295 ea3d f078 26be cbc8 9ebe fe60 0ebe
00000230: 8e8f a0bc a3cf 123d 8c44 c3bd 44cb 213e
00000240: fc27 c63d d304 a4bd 0111 88bd dafa 55bd
00000250: 2540 053d 5817 103e 0339 b8bc 1763 fc3d
00000260: eea4 eb3d a739 5cbc 94a9 ac3d e1dc f93d
00000270: cefd 853c 2198 b8be 882a bb3e de36 d3bd
00000280: 48eb 2a3e 0b21 9bbe 5f08 e4bc 2130 123e
00000290: b5a5 8fbe 783c 393c 8b62 0ebd 88e6 383e
000002a0: 7644 cbbe 083a af3e 9499 b23d 98fa 6b3d
000002b0: b07e 72be 2e67 97bd e0d2 0b3d a34e 1ebd
000002c0: b6a7 31bd 58ce 503e 37d6 693e 83a0 233d
000002d0: 5aa8 b0be 7e53 eabe ffcf d6bd 9d74 083d
000002e0: b56d 063c 8652 f63d b495 93bd 0e89 e5bd
000002f0: 88ad 05be dbc1 2f3e c33d 0f3e c190 293e
00000300: aaef a93d f8f9 353e 51a7 72bc 766c cebc
00000310: ff9d 55be ce27 ecbe bee5 033e 1574 7ebc
00000320: c34f 8dbe 1cd3 1b3e 5376 593e 1513 9dbd
00000330: 5187 ab3d a3c3 a93d f23a 563e 0a61 69be
00000340: eec5 8c3e ee37 783d 28fc 753e 9856 793e
00000350: fa3e 8c3d 80d3 8c3d 3425 5e3d 4d16 9dbd
00000360: 7152 5c3d c1b7 02bd 7447 d7be 2d05 89bd
00000370: 4210 403e 261e 673c 26e2 94be aa62 903e
00000380: 4b16 533e e451 bd3d bb36 9f3e 9ec2 ab3c
00000390: 8615 ac3d c5f8 12bd d658 053e 68bb d1bc
000003a0: b511 98be b7ea 513d c513 9cbe eba4 bcbd
000003b0: 15c7 56be 8421 8a3d 68ef 0c3d 1c84 bb3d
000003c0: 8fd2 85bd b4f0 ab3e 34cf 04bf fca5 2abd
000003d0: 83ba 5d3d 7d6b 003d 6937 383d 0225 b4bd
000003e0: 737e 033e 5c37 c13d fd8a 11be 530e 04be
000003f0: 73a9 16be 344d 633d ad58 dd3c e4da d5be

bias f4 [32]
0.1620005 -0.13616107 0.22866385 -0.09275859 0.12927286 0.20109712 0.5495854 -0.3151828
0.031745918 -0.1375773 -0.0007767583 0.18791522 0.15069915 0.18692894 -0.14620383 0.15112436
0.23811944 -0.14227569 -0.065900944 -0.30829266 -0.054999676 0.34062594 0.0670116 0.006300728
-0.1826756 0.276575 0.20840462 0.2237381 0.16736968 -0.15323862 0.3161508 -0.11104666
00000000: 76e3 253e cf6d 0bbe db26 6a3e 37f8 bdbd
00000010: 1b60 043e 67ec 4d3e a1b1 0c3f a45f a1be
00000020: 0208 023d 10e1 0cbe 5e9f 4bba d96c 403e
00000030: e150 1a3e 4d6a 3f3e 75b6 15be 58c0 1a3e
00000040: 95d5 733e b8b0 11be 13f7 86bd 89d8 9dbe
00000050: 5747 61bd 8666 ae3e 613d 893d 5676 ce3b
00000060: 500f 3bbe 3d9b 8d3e 0568 553e 9a1b 653e
00000070: f562 2b3e 96ea 1cbe 85de a13e 6e6c e3bd

weight f4 [8, 32]
0.21233472 -0.11500382 -0.22572698 0.10003195 -0.033057615 -0.02822565 -0.108700536 0.16144362
0.046465136 -0.16651273 -0.0049039065 0.05749418 -0.09784497 0.039121427 0.20744479 -0.37461558
-0.36832306 -0.10898115 0.17569774 0.07305717 0.13387819 0.18450747 0.007723611 -0.28146005
0.34518534 -0.25414565 0.07804339 -0.30865988 -0.1178558 0.08607311 -0.16209725 0.21037294
0.09883056 0.08184351 -0.2067167 0.02990199 -0.018453747 0.050074995 -0.28546357 0.19014366
-0.052172694 -0.15987615 -0.10053573 -0.25882354 -0.032643043 0.053930797 -0.05507298 -0.26358494
-0.0701791 -0.09342849 0.15334317 0.12597337 0.14066845 0.08870676 0.0015796808 0.024976732
0.2805061 -0.19364695 -0.081689894 0.029310897 0.023285644 -0.004929843 -0.020867584 0.27582666
-0.6109415 0.09582431 -0.04408558 -0.4875136 0.04912394 -0.36777553 -0.18626195 -0.02561206
-0.030097563 -0.13981484 0.1357752 0.18197389 -0.07061596 -0.57967114 0.15575236 -0.0035459972
0.2803076 -0.018765895 -0.042384014 0.054756645 -0.0534079 -0.1575657 -0.6975209 -0.2936063
-0.23905641 -0.0077855904 -0.08650262 0.047829557 -0.2454809 -0.00020733889 -0.23846243 0.056529373
0.08483537 0.12750001 0.1311089 -0.52954274 -0.40324706 -0.37756306 0.07369917 -0.09284991
-0.080454126 -0.1539765 0.13346647 -0.12922153 -0.10963485 -0.41990548 -0.18035892 -0.16209684
0.26784605 -0.05307435 -0.13652599 -0.5162498 -0.28470352 0.09856962 -0.8520283 0.022881692
-0.34074917 -0.016064214 0.20998728 -0.34312353 -0.123354845 -0.019274306 -0.039066467 -0.32377982
0.29777765 0.15145276 0.031972393 -0.09683257 0.16762194 -0.16127546 -0.32337236 -0.09642989
-0.0037561022 -0.071523264 0.10360114 0.4246199 -0.052046847 -0.08262784 -0.23817039 0.05071975
0.45811063 -0.120153315 0.037259325 -0.32183376 0.036235567 -0.34549776 0.0041747415 0.03309797
0.17147662 -0.1593147 -0.291847 0.35821137 -0.05012093 -0.06982584 0.008013914 0.066906646
-0.10889837 -0.1313371 0.02506183 -0.11792363 0.04162145 0.110648446 -0.08533704 -0.20045763
0.10427332 -0.1372622 -0.068844825 0.028380662 0.22872452 0.17045715 0.037548512 -0.06429974
-0.17455044 -0.05507899 -0.079706125 -0.032615297 0.18356682 -0.026364893 0.049702566 -0.04591721
-0.14541627 0.37152788 0.0755596 0.06694834 -0.1554937 -0.054906882 0.05951378 -0.13801579
-0.044161968 -0.1717211 0.10432365 -0.11366111 0.0037867054 0.16555315 0.11395896 -0.2765513
-0.282607 -0.17349197 -0.03568128 0.10336554 -0.38109183 0.13080819 0.023220576 0.28730878
-0.28005752 0.011398685 -0.2868786 -0.25360754 0.035417143 -0.079270855 0.16258685 -0.03817434
-0.29484403 -0.023957366 0.016352003 -0.06258037 -0.0153038865 0.118175976 0.06296817 -0.59775096
0.12807465 -0.052208904 0.19694942 -0.07699306 -0.3053574 0.123716764 0.102563836 0.38818282
-0.024224062 -0.3469947 0.06675366 0.054944824 -0.50676984 0.057129674 -0.31296146 -0.011779491
-0.26840377 -0.19695164 -0.28984463 -0.19791165 -0.37213823 0.26950166 0.16630104 0.14213566
0.09090447 -0.16616887 -0.29669383 -0.15239948 -0.48299432 -0.23667234 0.13543625 -0.6810743
00000000: 466e 593e 1f87 ebbd f924 67be 8ddd cc3d
00000010: 6c67 07bd 7a39 e7bc 639e debd 7a51 253e
00000020: 3a52 3e3d 5082 2abe f3b0 a0bb 047f 6b3d
00000030: f262 c8bd ca3d 203d 686c 543e 9dcd bfbe
00000040: d794 bcbe 8231 dfbd 1cea 333e ff9e 953d
00000050: 5d17 093e 87ef 3c3e 5816 fd3b 881b 90be
00000060: 22bc b03e 611f 82be 36d5 9f3d ab08 9ebe
00000070: 625e f1bd 1947 b03d d2fc 25be 016c 573e
00000080: ad67 ca3d 929d a73d 8bad 53be 05f5 f43c
00000090: 502c 97bc 701b 4d3d 4828 92be 05b5 423e
000000a0: 09b3 55bd 93b6 23be ade5 cdbd 8584 84be
000000b0: b6b4 05bd 8ae6 5c3d 3494 61bd 9bf4 86be
000000c0: 0fba 8fbd 7057 bfbd fe05 1d3e 2aff 003e
000000d0: 640b 103e e4ab b53d 4b0d cf3a 019c cc3c
000000e0: 7f9e 8f3e 634b 46be 084d a7bd 681d f03c
000000f0: 89c1 be3c 858a a1bb 7ff2 aabc 2739 8d3e
00000100: aa66 1cbf 893f c43d 1593 34bd 629b f9be
00000110: 2f36 493d 134d bcbe 74bb 3ebe 62d0 d1bc
00000120: 2a8f f6bc 9f2b 0fbe a708 0b3e 5d57 3a3e
00000130: 1a9f 90bd 5465 14bf 8c7d 1f3e f663 68bb
00000140: 7a84 8f3e efba 99bc dc9a 2dbd 8148 603d
00000150: 3ec2 5abd e758 21be bb90 32bf 9153 96be
00000160: 34cb 74be 441e ffbb 4928 b1bd ede8 433d
00000170: 585f 7bbe 1c69 59b9 7f2f 74be 588b 673d
00000180: 2bbe ad3d 5d8f 023e 6941 063e 1d90 07bf
00000190: 6676 cebe f24f c1be 97ef 963d 1828 bebd
000001a0: 22c5 a4bd 04ac 1dbe 6fab 083e a652 04be
000001b0: 3c88 e0bd dafd d6be 02b0 38be b7fc 25be
000001c0: 1e23 893e 7d64 59bd 78cd 0bbe f228 04bf
000001d0: a9c4 91be dede c93d 871e 5abf 6372 bb3c
000001e0: ad76 aebe 1999 83bc e806 573e e3ad afbe
000001f0: 77a1 fcbd 26e5 9dbc 2904 20bd 78c6 a5be
00000200: 5076 983e 6f16 1b3e 7cf5 023d 2850 c6bd
00000210: 16a5 2b3e 6525 25be 1091 a5be 097d c5bd
00000220: f028 76bb ca7a 92bd d62c d43d c867 d93e
00000230: 132f 55bd c938 a9bd f0e2 73be 83bf 4f3d
00000240: 7a8d ea3e f112 f6bd 3c9d 183d 65c7 a4be
00000250: bf6b 143d 15e5 b0be 45cc 883b bd91 073d
00000260: 9197 2f3e 6523 23be f86c 95be 7b67 b73e
00000270: 9b4b 4dbd da00 8fbd cb4c 033c 5a06 893d
00000280: 1c06 dfbd 3c7d 06be 784e cd3c f281 f1bd
00000290: 417b 2a3d a79b e23d 30c5 aebd c444 4dbe
000002a0: 408d d53d 768e 0cbe 84fe 8cbd 907e e83c
000002b0: c336 6a3e 528c 2e3e 78cc 193d 95af 83bd
000002c0: 5abd 32be 829a 61bd f73c a3bd 9e97 05bd
000002d0: f1f8 3b3e 30fb d7bc eb94 4b3d af13 3cbd
000002e0: 01e8 14be e738 be3e febe 9a3d 361c 893d
000002f0: be39 1fbe 0ae6 60bd b9c4 733d 0354 0dbe
00000300: 2ee3 34bd a8d7 2fbe a3a7 d53d 28c7 e8bd
00000310: 602a 783b c486 293e 5163 e93d 2298 8dbe
00000320: ddb1 90be e1a7 31be 8926 12bd 50b1 d33d
00000330: 781e c3be 95f2 053e 1439 be3c 231a 933e
00000340: b363 8fbe 8dc1 3a3c c0e1 92be d9d8 81be
00000350: 9111 113d c258 a2bd 2b7d 263e b25c 1cbd
00000360: ccf5 96be 3d42 c4bc a3f4 853c 232a 80bd
00000370: 27bd 7abc 3f06 f23d 75f5 803d 3506 19bf
00000380: 0026 033e 01d9 55bd 1cad 493e 8aae 9dbd
00000390: ce57 9cbe 375f fd3d fd0c d23d e6bf c63e
000003a0: 8a71 c6bc 4aa9 b1be 25b6 883d d30d 613d
000003b0: abbb 01bf ce00 6a3d 7c3c a0be c4fe 40bc
000003c0: 386c 89be b1ad 49be 8466 94be 5aa9 4abe
000003d0: e788 bebe 1ffc 893e d24a 2a3e 038c 113e
000003e0: 1f2c ba3d 2c28 2abe 41e8 97be 9c0e 1cbe
000003f0: 084b f7be 3c5a 72be cdaf 0a3e e35a 2ebf

bias f4 [8]
-0.37603226 -0.100335084 -0.31898192 -0.06268718 -0.057182495 0.10548752 0.13419698 0.41734618
00000000: 4d87 c0be 7b7c cdbd 9951 a3be 2362 80bd
00000010: 3138 6abd d709 d83d ef6a 093e 66ae d53e
