runthroughs/first_full_run_kmeans/model_save_k_means_centers.pth (torch, 16134 bytes, 6 tensors)

weight f4 [64, 10]
0	0x3d854906	0.06508069
1	0xbc886db4	-0.016653873
2	0xbe1b7196	-0.15180048
3	0xbe6bd564	-0.23030621
4	0xbe721898	-0.23642194
5	0x3e0081f5	0.12549575
6	0xbe516575	-0.20448859
7	0xbe8ab5a7	-0.27091715
8	0xbf3f6ca2	-0.74775136
9	0xbf900e48	-1.1254358
10	0x3e7a542f	0.24446176
11	0x3df9bb78	0.1219396
12	0xbdaed7f6	-0.08537285
13	0xbd9088ad	-0.07057319
14	0xbdad29e9	-0.08455259
15	0x3c42fc4e	0.011900974
16	0x3f1e353b	0.61799973
17	0xbe2ba200	-0.16761017
18	0x3de48b72	0.111594096
19	0xbe87d7a8	-0.2653172
20	0x3d67e2b1	0.056612674
21	0xbea4da2d	-0.32197705
22	0x3f070949	0.52748543
23	0xbe602313	-0.2188838
24	0x3d995e8d	0.07488737
25	0xbed804b8	-0.421911
26	0x3de1bff6	0.11022942
27	0xbe0be7b4	-0.13662606
28	0x3e5a8bf9	0.21342458
29	0xbdc940aa	-0.09826787
30	0x3d9ddfb7	0.07708686
31	0x3d6daf70	0.05802864
32	0xbf250948	-0.6446729
33	0xbd6374c5	-0.055531282
34	0xbe5d551a	-0.21614495
35	0xbf3e23a4	-0.74273133
36	0xbda85d51	-0.08220924
37	0xbe27f11a	-0.16400567
38	0x3e23429a	0.15943375
39	0xbe01cf83	-0.12676816
40	0x3e321c29	0.17393555
41	0x3c1fb8db	0.009748663
42	0xbd8e8a90	-0.069600224
43	0x3cfc633e	0.030809041
44	0xbe93621e	-0.28785795
45	0x3da6320f	0.08115017
46	0x3d9e601b	0.077331744
47	0x3e35f1c1	0.17768003
48	0xbe63efac	-0.22259396
49	0x3dd5a4e6	0.104318425
50	0xbe494f62	-0.19659188
51	0xbde396b7	-0.11112731
52	0x3d8d2e70	0.06893623
53	0xbedcb46d	-0.43106404
54	0xbe7706c6	-0.24123678
55	0xbdae3d65	-0.08507804
56	0xbf212cec	-0.6295917
57	0x3ed80ebd	0.42198744
58	0xbeea5bf5	-0.45773283
59	0x3f152d52	0.5827228
60	0x3bab1102	0.0052205333
61	0xbd42b49f	-0.047535535
62	0xbe0344e3	-0.12819247
63	0xbe895f74	-0.26830637
64	0xbe6aedf8	-0.2294234
65	0xbd094503	-0.03351308
66	0x3e6fc134	0.23413545
67	0x3ebff20e	0.3748936
68	0x3e079412	0.13240078
69	0xbcb44e93	-0.022010123
70	0xb9a3e8a2	-0.00031263108
71	0xbe35f589	-0.17769445
72	0xbea587b4	-0.32330096
73	0xbecc4265	-0.39894405
74	0xbedf2798	-0.43584895
75	0xbe0d97fb	-0.13827507
76	0xbdd74a06	-0.10512166
77	0xbe90263a	-0.28154165
78	0xbe89b74c	-0.26897657
79	0xbf65c4a0	-0.8975315
80	0xbdf2443d	-0.11829422
81	0x3d33f2ee	0.043932848
82	0x3d4c463f	0.04987168
83	0xbd795081	-0.06086779
84	0x3e44df67	0.19225846
85	0xbebd4e9d	-0.3697404
86	0x3e6e28b0	0.23257709
87	0x3d5f5ef3	0.05453391
88	0x3eb4593d	0.35224333
89	0xbc625b73	-0.0138157485
90	0x3c4f32a3	0.01264635
91	0x3cf2ec28	0.029653624
92	0xbea2822e	-0.31739944
93	0xbbc3fdf9	-0.0059812036
94	0xbdfe0475	-0.12403194
95	0x3e92a355	0.28640237
96	0x3ee703dd	0.45120135
97	0x3f71b372	0.94414437
98	0xbe2b1764	-0.16708142
99	0xbe98edb5	-0.29868856
100	0xbe85104d	-0.25989
101	0xbda4ba17	-0.08043306
102	0xbed48cca	-0.41513664
103	0x3e3f732b	0.18696277
104	0x3e436516	0.1908153
105	0x3f26c729	0.65147644
106	0x3eaf8bc1	0.3428631
107	0xbe590112	-0.21191815
108	0x3e310c4f	0.17289852
109	0x3d20fa1f	0.039301034
110	0xbde1ab0a	-0.11018951
111	0x3dda3756	0.10655086
112	0x3e9c253e	0.30497164
113	0xbe06d176	-0.1316584
114	0x3e1a6cf8	0.15080631
115	0xbd222194	-0.039582804
116	0x3dbcd34c	0.09219989
117	0x3df32199	0.118716426
118	0xbf1c7ec9	-0.6113096
119	0x3efcdf40	0.49389076
120	0xbe924891	-0.2857099
121	0xbe89ee10	-0.2693944
122	0xbeb088aa	-0.34479266
123	0x3ecf079c	0.40435493
124	0xbe6da1d1	-0.2320626
125	0x3e410a39	0.18851556
126	0x3e346b7b	0.17619126
127	0xbeb82ef8	-0.35973334
128	0x3e73d735	0.23812564
129	0x3dc149db	0.09437915
130	0x3ea9f734	0.33196414
131	0xbe3c99a8	-0.1841799
132	0xbe11612d	-0.14197226
133	0xbe02cbe4	-0.1277309
134	0xbbfb21b4	-0.00766393
135	0xbe580f47	-0.21099578
136	0x3d591101	0.05299473
137	0x3e28a995	0.1647094
138	0xbe713fe7	-0.23559533
139	0x3e50ec41	0.20402624
140	0xbe4a2b6c	-0.19743127
141	0xbeb0e64e	-0.3455071
142	0x3eaf76e0	0.34270382
143	0xbda8f33e	-0.0824952
144	0xbebe594d	-0.37177506
145	0x3ea89d48	0.32932496
146	0x3e49f696	0.19722971
147	0xbd265f98	-0.04061851
148	0x3e5bd6f7	0.21468721
149	0x3e5cbe02	0.21556857
150	0x3eaadf13	0.33373317
151	0xbd96798e	-0.073474035
152	0x3ed72a1d	0.42024317
153	0xbe6a47c4	-0.22878939
154	0xbca1173d	-0.019664401
155	0x3b467ca6	0.0030286699
156	0xbe20a1f2	-0.15686777
157	0x3e7146f4	0.23562223
158	0x3e21367e	0.15743443
159	0x3eade788	0.33965707
160	0x3d1ce97c	0.038308606
161	0x3e1da024	0.1539312
162	0xbd6a8291	-0.057253424
163	0xbf25b36a	-0.6472689
164	0xbea1bdf4	-0.31590235
165	0xbdd0acd1	-0.10189212
166	0x3e282fba	0.16424456
167	0xbceb187f	-0.028698204
168	0xbe4e449d	-0.20143361
169	0x3e8d4905	0.27594772
170	0xbdbb2891	-0.09138597
171	0x3e18b542	0.14912894
172	0xbea771e0	-0.32704067
173	0xbdddda1f	-0.10832619
174	0xbe6249da	-0.22098485
175	0x3f0cb9aa	0.549708
176	0xbd5975fa	-0.053091027
177	0x3da58f15	0.08083931
178	0x3eae5cb7	0.3405511
179	0x3de8fe39	0.11376614
180	0x3e11b23b	0.14228146
181	0xbe3a1c24	-0.18174797
182	0x3e236d86	0.15959749
183	0x3ecaa4d1	0.3957887
184	0xbf1e8cbc	-0.61933494
185	0x3dae9bfe	0.08525847
186	0xbd548d0b	-0.05189232
187	0xbd35beaf	-0.044371303
188	0xbdf40012	-0.11914076
189	0xbe0f7c34	-0.14012223
190	0xbeb966e0	-0.362113
191	0x3d48e1d2	0.049043484
192	0xbd0e8286	-0.034792446
193	0xbd9e8bc7	-0.07741504
194	0xbc3e3255	-0.01160868
195	0xbeba7628	-0.3641827
196	0xbe90ab94	-0.28255904
197	0x3e5925c6	0.21205816
198	0xbdeea336	-0.11652224
199	0x3e58c9b8	0.211707
200	0xbecf8e37	-0.4053819
201	0xbe086ff9	-0.13323964
202	0xbe3150cb	-0.17315976
203	0x3e256fd6	0.16155943
204	0x3e0a9808	0.13534558
205	0x3e81a17f	0.25318524
206	0x3e15f324	0.14643532
207	0x3b9e430c	0.00482977
208	0xbda9bb41	-0.08287669
209	0x3e5c6d72	0.21526125
210	0xbe84a574	-0.2590748
211	0xbe5d7006	-0.21624765
212	0xbd7b8dd0	-0.06141454
213	0x3ec9ebd5	0.39437738
214	0x3de3cb8b	0.11122807
215	0xbe102f7a	-0.14080611
216	0x3e889097	0.26672813
217	0x3e00c4d2	0.12575081
218	0x3ea6a2a0	0.32545948
219	0xbe3569eb	-0.17716186
220	0xbdc52db2	-0.09627856
221	0xbe017a54	-0.1264432
222	0xbf305cf7	-0.68891853
223	0xbe3f1505	-0.18660362
224	0xbe89d972	-0.2692371
225	0xbf49f968	-0.7889619
226	0x3df0dfba	0.117614225
227	0xbe8e5978	-0.27802634
228	0x3e9029bb	0.28156838
229	0xbdb5d4ad	-0.08878455
230	0xbd4caacd	-0.049967576
231	0xbe2c7cf4	-0.16844541
232	0xbc67982d	-0.014135403
233	0x3e9ec8e7	0.3101265
234	0xbf224c5d	-0.6339777
235	0x3ea4cc02	0.32186896
236	0x3e7128b8	0.23550689
237	0xbd66df93	-0.05636556
238	0x3e148d35	0.14506991
239	0x3ca0b756	0.019618671
240	0x3e0b5b91	0.13609149
241	0xbe981388	-0.297024
242	0x3c363102	0.011120083
243	0xbb0eacc9	-0.0021770468
244	0xbd3cc987	-0.04609063
245	0x3e4f3491	0.20234896
246	0xbe836634	-0.25663912
247	0x3cab5bf2	0.020917866
248	0xbe2483bf	-0.16065882
249	0xbbbe6ba6	-0.0058111725
250	0x3dd53db3	0.10412159
251	0xbd630d20	-0.05543244
252	0xbe1a3cc6	-0.15062246
253	0xbb3c9952	-0.002877791
254	0x3d3f5ba5	0.04671826
255	0x3edcdbf9	0.43136576

bias f4 [64]
0	0xbeae502a	-0.34045535
1	0xbefc39c1	-0.49262813
2	0x3e03aa12	0.12857845
3	0xbe36f7c2	-0.1786795
4	0xbe8b05f6	-0.27152985
5	0xbed8251e	-0.42215818
6	0xbf1ceab5	-0.61295635
7	0xbec60363	-0.3867446
8	0xbf134afa	-0.5753628
9	0xbe64b3ab	-0.22334163
10	0x3eb4135d	0.35171023
11	0xbf191506	-0.59797704
12	0x3e9b8018	0.30371165
13	0xbe8212e1	-0.25405028
14	0xbeecb4da	-0.4623173
15	0xbec2616f	-0.3796496
16	0xbe49a1dd	-0.19690652
17	0xbec37352	-0.3817392
18	0xbe42eb15	-0.19034989
19	0xbee7314c	-0.45154798
20	0xbe49fd2a	-0.1972548
21	0x3cc518e0	0.024059713
22	0xbd959e92	-0.073056355
23	0x3e65c881	0.22439767
24	0xbddc4c99	-0.10756797
25	0xbf00de8d	-0.50339586
26	0xbdf12330	-0.117742896
27	0xbf182979	-0.5943828
28	0xbf4cc763	-0.7999174
29	0xbc8c7681	-0.01714635
30	0xbf43c176	-0.7646707
31	0xbebc26b0	-0.36748266
32	0xbe374668	-0.17897952
33	0xbea1fa13	-0.31636104
34	0xbf322191	-0.6958247
35	0xbecc0ff8	-0.39855933
36	0x3dae4882	0.085099235
37	0xbddcf77b	-0.10789391
38	0xbf22385e	-0.6336726
39	0xbeff1119	-0.49817732
40	0x3ad896b6	0.0016524408
41	0x3cd03de0	0.02542013
42	0xbed77022	-0.42077738
43	0xbf6459b5	-0.8919938
44	0xbf250ba4	-0.6447089
45	0xbe8fa46f	-0.2805514
46	0x3d9eb16c	0.07748684
47	0xbe75e4f8	-0.24013126
48	0xbe9ada39	-0.30244616
49	0xbf01f8c2	-0.507702
50	0xbef07586	-0.46964663
51	0x3bdb140d	0.00668574
52	0xbee12ea5	-0.439809
53	0x3e6274fd	0.2211494
54	0xbeef9935	-0.46796575
55	0x3e9a0275	0.3008
56	0xbf05a1e7	-0.5220017
57	0xbea27325	-0.31728473
58	0x3e5944ed	0.212177
59	0xbf03e097	-0.5151457
60	0x3d1956b1	0.03743619
61	0xbf1da83e	-0.6158484
62	0xbf5c6d7d	-0.86104566
63	0x3d98f058	0.07467717

weight f4 [32, 64]
0	0x3e994b96	0.2994048
1	0xbe61ab37	-0.2203797
2	0xbd989ef0	-0.0745219
3	0x3dacb621	0.08433176
4	0xbe85a68a	-0.26103622
5	0xbe85eae1	-0.2615576
6	0xbe2aa454	-0.16664249
7	0x3ecdf31f	0.4022455
8	0x3e5c5a6d	0.2151887
9	0xbf022f47	-0.5085339
10	0xbc8d3ea2	-0.01724178
11	0x3e12852a	0.1430861
12	0xbe03a41a	-0.12855569
13	0x3c26ab9d	0.010172752
14	0xbedbba34	-0.429155
15	0x3db53436	0.08847849
16	0x3e8ab7c2	0.2709332
17	0x3d1f72d6	0.038927875
18	0x3e134226	0.14380702
19	0xbe38ddda	-0.1805338
20	0xbdc8e4e7	-0.09809285
21	0x3c581082	0.0131875295
22	0x3e377b32	0.17918089
23	0xbcbadf19	-0.02281146
24	0x3d54f3d4	0.051990345
25	0xbd863ea7	-0.06554919
26	0xbe5be7a0	-0.21475077
27	0xbd48e157	-0.049043026
28	0x3d916a99	0.0710041
29	0x3dbb0ef0	0.091337085
30	0xbde25863	-0.11052015
31	0xbe95efdb	-0.29284558
32	0x3e8425ba	0.25810033
33	0xbc2d8842	-0.010591568
34	0x3e0c0e94	0.13677436
35	0x3d5f1a0d	0.054468203
36	0xbe5fac35	-0.21843036
37	0xbef1d2a8	-0.4723103
38	0x3d9bbc88	0.07604319
39	0x3e94b86c	0.29046953
40	0xbd41b168	-0.04728833
41	0x3e028732	0.12746885
42	0x3d9cfa9d	0.07664988
43	0x3e4155f2	0.18880442
44	0x3da708ae	0.081559524
45	0x3d607882	0.054802425
46	0x3e4ecf42	0.2019625
47	0xbde844cb	-0.11341246
48	0x3e903e42	0.281725
49	0x3e2d8827	0.16946469
50	0xbe061f8c	-0.13097972
51	0x3dd3be83	0.103390716
52	0xbebe75f0	-0.37199354
53	0x3c7ce51c	0.015435483
54	0xbe1864e4	-0.14882237
55	0x3d3f84f6	0.04675766
56	0xbeb6acf7	-0.35678837
57	0x3ddbaa1e	0.10725807
58	0x3d816d13	0.063196324
59	0xbce46471	-0.027879925
60	0x3f3fa05e	0.74854076
61	0x3c9b87cd	0.018985653
62	0xbdcba6cb	-0.099439226
63	0x3e1d9010	0.15386987
64	0xbe460792	-0.19338825
65	0xbe4a1992	-0.19736317
66	0xbce6fc1b	-0.028196385
67	0x3e42fab3	0.19040947
68	0xbe212552	-0.15736893
69	0xbd3eb754	-0.046561554
70	0xbd8fe3ee	-0.07025896
71	0xbe504f66	-0.20342788
72	0xbd3a9bbb	-0.045558672
73	0xbe68afad	-0.22723265
74	0xbd1b66ac	-0.037939712
75	0x3e5c894a	0.21536747
76	0x3de6212c	0.11236796
77	0xbe9b63cb	-0.30349573
78	0xbdfb97a9	-0.12284786
79	0x3e2fe163	0.17175822
80	0xbf1820d1	-0.59425074
81	0xbe37bb52	-0.17942551
82	0xbc3af5de	-0.011411158
83	0x3deebf26	0.116575524
84	0x3d8abe16	0.06774537
85	0x3e5e43f7	0.21705614
86	0x3e0d0284	0.13770491
87	0xbe836e42	-0.25670058
88	0xbe839cbe	-0.25705522
89	0xbf828b1f	-1.0198706
90	0x3c0e88d8	0.008699618
91	0xbe655ff6	-0.22399887
92	0x3ed25f2e	0.4108824
93	0xbea6187a	-0.3244055
94	0xbee4aa8c	-0.44661367
95	0xbe33f01e	-0.17572066
96	0x3e8f7520	0.28019047
97	0x3e832e1e	0.25621122
98	0x3e44223f	0.19153689
99	0x3e88bdd9	0.26707342
100	0xbf0630e8	-0.52418375
101	0xbbc36f28	-0.0059641786
102	0x3e494327	0.19654523
103	0xbe669a70	-0.2251985
104	0x3e902379	0.28152063
105	0x3d3a3bab	0.04546706
106	0xbf2ffbfc	-0.6874387
107	0x3edb6139	0.42847613
108	0x3ea09a3c	0.3136767
109	0xbe21860e	-0.15773794
110	0x3e96c3d6	0.29446286
111	0x3de59dd4	0.11211744
112	0xbe182544	-0.14857966
113	0x3e84518a	0.2584346
114	0x3e87ddad	0.26536313
115	0xbeb0ac62	-0.34506518
116	0xbf1d7e0e	-0.6152047
117	0xbc52f5f7	-0.012876025
118	0x3d6810d9	0.056656692
119	0xbc7f33cf	-0.015576317
120	0xbef62d3d	-0.4808139
121	0x3db42306	0.08795743
122	0xbdfd7a09	-0.12376792
123	0xbe054a13	-0.13016538
124	0xbdcf1cfc	-0.1011295
125	0x3e540eb1	0.2070873
126	0xbe0eaa16	-0.1393207
127	0xbecbbeb0	-0.3979392
128	0x3d8fa478	0.07013792
129	0xbd3f8234	-0.04675503
130	0x3dbc4dc7	0.09194522
131	0x3e265e4b	0.16246907
132	0x3eb11df9	0.3459318
133	0x3da1d5e5	0.07902125
134	0xbe7cd13c	-0.24689192
135	0xbf1240e6	-0.5713028
136	0xbef079e4	-0.46967995
137	0x3e055fdc	0.13024849
138	0xbc850ac4	-0.016240485
139	0xbeed2b09	-0.46321896
140	0x3d90c6b9	0.07069153
141	0x3d95caae	0.07314049
142	0xbf01e23e	-0.50735843
143	0xbee4cf4d	-0.44689408
144	0xbca6ea6c	-0.020375453
145	0x3c7c1070	0.015384778
146	0xbe6cdf04	-0.23131949
147	0xbeaf0a64	-0.34187615
148	0x3e3ba705	0.18325432
149	0xbeee0fb7	-0.46496364
150	0xbd4b8a6b	-0.049692553
151	0x3d4a7a28	0.049432904
152	0xbe899004	-0.26867688
153	0x3da57ee4	0.08080843
154	0x3cc6e190	0.024277478
155	0xbe4da7e3	-0.20083575
156	0xbe35af3c	-0.17742628
157	0x3e1ff52c	0.1562087
158	0xbe6600b2	-0.22461203
159	0xbdefc25b	-0.11706992
160	0xbde6d843	-0.112717174
161	0xbe08dd20	-0.13365602
162	0xbf600119	-0.87501675
163	0x3ac621f8	0.0015116325
164	0x3eaea37c	0.34109104
165	0xbe4ff247	-0.20307265
166	0x3dc1720c	0.09445581
167	0xbd764365	-0.060122866
168	0x3cbba18d	0.022904182
169	0xbd782c6a	-0.06058923
170	0x3c833013	0.016014135
171	0xbd232809	-0.039833102
172	0x3dabcbee	0.08388506
173	0xbe052d62	-0.13005593
174	0xbe917597	-0.28410026
175	0x3d82611d	0.06366179
176	0x3e29865e	0.16555163
177	0xbe52b79e	-0.20577857
178	0x3df92697	0.121655636
179	0x3e1d7402	0.15376285
180	0x3e6a6d28	0.22893202
181	0xbeea8dec	-0.45811403
182	0x3e803627	0.25041315
183	0x3e22d53c	0.15901655
184	0xbdefe6de	-0.11713956
185	0xbed14c24	-0.40878403
186	0xbe0493ec	-0.12947053
187	0xbe47ced7	-0.19512497
188	0xbedef4de	-0.43546194
189	0x3e916c8b	0.28403124
190	0xbeaedf6c	-0.34154832
191	0xbde93ef3	-0.1138896
192	0xbd64386d	-0.055717874
193	0x3ec85db1	0.3913398
194	0x3e8a5596	0.27018422
195	0xbbc9d48a	-0.00615937
196	0xbf4d8453	-0.80280036
197	0xbdafc69e	-0.08582805
198	0xbe64bea5	-0.2233835
199	0xbd2ee175	-0.04269548
200	0x3e1127a3	0.14175276
201	0x3e0a76f6	0.13521942
202	0xbb27a343	-0.002557949
203	0x3c1d2c3e	0.009593068
204	0xbdd81788	-0.10551363
205	0xbec74830	-0.38922262
206	0xbf273ed3	-0.6533024
207	0xbf31922f	-0.69363683
208	0xbe9ea8a2	-0.30988032
209	0xbe8661c2	-0.26246458
210	0xbed82f94	-0.422238
211	0x3e7e4149	0.24829592
212	0xbcf0f78e	-0.029414918
213	0x3e62a151	0.2213185
214	0x3d59faf2	0.053217836
215	0xbe6f4aba	-0.2336835
216	0xbdeffd01	-0.117181785
217	0x3e1a64b5	0.15077479
218	0x3e007673	0.12545185
219	0xbf29feae	-0.66404235
220	0xbe8d870c	-0.27642095
221	0xbc94bd73	-0.018156743
222	0xbe3c0ac3	-0.1836348
223	0x3e61dfa7	0.22057973
224	0x3e33e645	0.1756831
225	0xbd2266c2	-0.03964878
226	0xbc437ae4	-0.011931155
227	0x3e32ee1c	0.17473644
228	0xbea978be	-0.3309993
229	0x3e925609	0.28581265
230	0xbd83a62c	-0.06428179
231	0x3e13fe43	0.14452462
232	0x3dc01bc8	0.09380299
233	0x3d960a3d	0.073261715
234	0x3daee3aa	0.08539517
235	0x3c1b4c72	0.009478675
236	0xbdc789ce	-0.09743081
237	0xbe2ccd4a	-0.16875187
238	0xbec4b234	-0.38417208
239	0x3daabadf	0.08336424
240	0xbdb2201c	-0.086975306
241	0xbe893c20	-0.26803684
242	0x3e31b94a	0.17355838
243	0xbcc60ffc	-0.024177544
244	0x3b1b42d8	0.0023690965
245	0x3db50e77	0.088406496
246	0xbd312045	-0.043243665
247	0xbe98ea0b	-0.2986606
248	0x3de03ac7	0.10948711
249	0x3d6756c3	0.056479227
250	0xbdf3fcfb	-0.119134866
251	0xbe281bc5	-0.16416843
252	0xbe056999	-0.13028564
253	0x3e4de1e8	0.20105708
254	0x3e777b84	0.24168211
255	0xbe29d3ee	-0.16584751

bias f4 [32]
0	0xbe24de31	-0.16100384
1	0xbe287ceb	-0.16453902
2	0x3d5fed49	0.054669652
3	0xbcd923f7	-0.026506407
4	0xbd6b3062	-0.05741919
5	0x3e41bebe	0.18920419
6	0xbe00f90b	-0.12595002
7	0xbc87f437	-0.016595943
8	0x3e901e4c	0.28148115
9	0x3f199b5b	0.6000268
10	0xbe3bfebb	-0.1835889
11	0xbcd79595	-0.026316443
12	0x3e6d2002	0.23156741
13	0x3f205c7f	0.6264114
14	0xbe1c5255	-0.15265782
15	0xbe8b4831	-0.27203515
16	0x3e945ce8	0.28977132
17	0x3eec1430	0.46109152
18	0xbe49fe6f	-0.19725965
19	0x3c992c53	0.018697893
20	0xbe8a5ea0	-0.27025318
21	0x3df12874	0.11775294
22	0x3e320b48	0.17387116
23	0xbe1f577d	-0.15560718
24	0x3e8a6024	0.27026474
25	0x3d9fc956	0.07802074
26	0xbd6bb0bb	-0.05754159
27	0x3e046f77	0.12933145
28	0x3ef2981e	0.4738168
29	0x3e16a791	0.14712359
30	0x3cc4ecf7	0.024038775
31	0x3e38e38d	0.18055554

weight f4 [8, 32]
0	0x3e601786	0.21883973
1	0xbe18926a	-0.14899603
2	0x3d84e32d	0.06488643
3	0xbde0d312	-0.109777585
4	0x3e9d4aca	0.30721122
5	0xbd145a1e	-0.036218755
6	0xbdadfe69	-0.084957905
7	0xbd43dfdd	-0.047820915
8	0xbce38a6a	-0.027775962
9	0xbdd69a14	-0.10478607
10	0x3dfd615f	0.12372088
11	0x3e914597	0.28373405
12	0xbd867d52	-0.06566872
13	0xbc82570d	-0.01591065
14	0x3e266dd0	0.16252828
15	0x3e8e62f3	0.27809867
16	0xbed2ac2b	-0.4114698
17	0x3bb54275	0.005531604
18	0xbd84787f	-0.06468295
19	0x3dda19d1	0.10649455
20	0x3e58e41c	0.21180767
21	0xbd1a7e56	-0.03771814
22	0xbe6c1b09	-0.23057188
23	0xbd204257	-0.039125767
24	0xbe1d5371	-0.15363862
25	0x3dc874b8	0.09787887
26	0xbde64b63	-0.112448476
27	0xbe205a31	-0.15659405
28	0xbd79be05	-0.060972232
29	0xbdc815f8	-0.09769815
30	0x3d87af84	0.06625274
31	0x3e44486a	0.19168249
32	0x3e66aa64	0.22525936
33	0xbc35fb0a	-0.011107216
34	0xbce1d86b	-0.027569016
35	0x3d6833d4	0.056690052
36	0x3deb681d	0.114944674
37	0xbd69d84f	-0.057091054
38	0x3e05e152	0.13074234
39	0x3e99616b	0.29957137
40	0x3cef63ac	0.029222332
41	0x3e1686f3	0.14699917
42	0xbee766e0	-0.45195675
43	0x3e173b7b	0.14768784
44	0x3dd0fd34	0.10204545
45	0x3d280bd4	0.041026905
46	0x3b17b22d	0.0023146973
47	0x3e794e7e	0.24346349
48	0xbe9d59a2	-0.30732447
49	0x3c54218b	0.01294745
50	0x3d79d655	0.06099542
51	0x3e1357d2	0.1438897
52	0x3e27cb0d	0.16386051
53	0x3ec6f262	0.38856798
54	0xbe2f60ca	-0.17126766
55	0xbcc3a879	-0.023884045
56	0xbec6186e	-0.38690513
57	0xbac3ee06	-0.0014948256
58	0x3da4ec8b	0.080529295
59	0xbe1b5962	-0.15170816
60	0xbe7aabc8	-0.24479592
61	0xbd58910d	-0.052872706
62	0xbda9d7e4	-0.08293131
63	0x3db93566	0.09043388
64	0xbe822548	-0.25419068
65	0xbecd40c3	-0.40088472
66	0xbeda5859	-0.4264553
67	0x3e9eef2c	0.3104185
68	0xbd8b7e0d	-0.06811152
69	0x3d64598e	0.05574947
70	0xbe48a1ad	-0.19592924
71	0x3e8b24f4	0.2717663
72	0x3d0129c5	0.031533975
73	0xbee551b0	-0.44788885
74	0xbe9e78df	-0.30951592
75	0xbe2f9cb5	-0.17149623
76	0xbdce69d2	-0.100787774
77	0xbe4436e9	-0.19161572
78	0x3e2ed2c8	0.17072594
79	0x3dce138e	0.100623235
80	0xbc3d2418	-0.01154425
81	0xbf611cc7	-0.87934536
82	0xbd947a63	-0.07249906
83	0xbae1bc9b	-0.0017222347
84	0xbe443c74	-0.19163686
85	0x3e80c25b	0.2514828
86	0xbe6f6c3f	-0.23381136
87	0xbd5810b3	-0.0527503
88	0x3c185c2e	0.009299321
89	0x3d0fbbed	0.03509133
90	0xbe8223fc	-0.2541808
91	0x3bd3a901	0.006459356
92	0x3e593cc8	0.21214592
93	0xbd425293	-0.04744203
94	0xbedcd026	-0.43127555
95	0xbe9dcfc3	-0.30822572
96	0xbe2d8292	-0.1694434
97	0xbe30b56d	-0.17256708
98	0xbe4bb69d	-0.1989388
99	0xbee8c9c8	-0.45466447
100	0xbd9166ed	-0.0709971
101	0xbf04049e	-0.51569545
102	0xbecae397	-0.39626762
103	0xbe07ecf2	-0.13273981
104	0xbe655550	-0.22395825
105	0xbde9b96c	-0.114123195
106	0xbe90c9d6	-0.2827899
107	0xbed7eae9	-0.4217141
108	0xbea7c72e	-0.3276915
109	0x3dc9f497	0.09861105
110	0xbdf634d0	-0.12021792
111	0xbf1f9ad2	-0.6234561
112	0xbe9b6b2b	-0.303552
113	0xbf6f9a58	-0.93594885
114	0xbe090822	-0.13382009
115	0xbeb98998	-0.36237788
116	0xbe6107dd	-0.21975656
117	0xbe8e7ee3	-0.27831182
118	0x3e1ed093	0.15509252
119	0xbe41d132	-0.18927458
120	0x3d65c560	0.056096435
121	0x3d9a2f40	0.075285435
122	0xbe671c46	-0.22569379
123	0x3daa9a00	0.083301544
124	0x3ea1b659	0.31584433
125	0xbe5fa682	-0.21840861
126	0xbee24eb1	-0.44200662
127	0x3dc2793d	0.094957806
128	0xbc8ca17d	-0.017166847
129	0xbc24f76d	-0.0100687565
130	0x3cd71b86	0.026258241
131	0x3e9be768	0.30449986
132	0xbd91d4f6	-0.07120697
133	0x3e4cce72	0.20000628
134	0x3df003d8	0.11719483
135	0x3ec337c5	0.38128486
136	0x3dff9337	0.12479251
137	0xbe815aa4	-0.25264466
138	0xbeb43587	-0.35197088
139	0xbe2f9cc2	-0.17149642
140	0x3d4dd554	0.050252274
141	0xbf0db0e0	-0.55348015
142	0x3d41a98d	0.047280837
143	0xbcc863b3	-0.024461603
144	0x3e341488	0.17585957
145	0xbd3fee5a	-0.04685817
146	0x3dcd2414	0.10016647
147	0x3e2c5f89	0.16833319
148	0xbd3a93cb	-0.045551103
149	0x3e86fe43	0.2636586
150	0x3def874a	0.11695726
151	0xbdcaec44	-0.09908345
152	0xbe42cff8	-0.19024646
153	0xbe90e252	-0.2829767
154	0xbd4c1fc8	-0.049834996
155	0x3d71b9fb	0.059015255
156	0x3e64005f	0.22265767
157	0x3de9ad58	0.11410016
158	0x3db84827	0.08998137
159	0x3cc67901	0.024227621
160	0x3de4d133	0.11172714
161	0x3ceac344	0.028657563
162	0xbe90483c	-0.2818011
163	0xbe24cd44	-0.16093928
164	0x3cc4aa6f	0.02400705
165	0xbe9e0824	-0.30865586
166	0x3e6f2012	0.23352078
167	0xbc735ec2	-0.014854135
168	0x3e91bd38	0.28464675
169	0x3d93b931	0.07213057
170	0x3d75b863	0.059990298
171	0xbdc09c0a	-0.09404762
172	0x3ce40df8	0.027838692
173	0x3d30e4da	0.043187
174	0xbd0f8997	-0.035043325
175	0xbe8cce8f	-0.27501342
176	0x3e2218a0	0.15829706
177	0xbc8e3d6b	-0.01736327
178	0xbe1c9930	-0.15292811
179	0xbc75ce5d	-0.015002814
180	0xbe1f27a4	-0.15542465
181	0xbea27a03	-0.31733713
182	0x3dbb2c00	0.09139252
183	0xbcd79d3f	-0.026320098
184	0x3d25ce4f	0.040479954
185	0x3d1a094d	0.037606526
186	0xbe25eb7f	-0.16203116
187	0x3cd7f4bc	0.026361816
188	0xbeac0e61	-0.3360472
189	0xbd99348b	-0.07480725
190	0x3e07125a	0.13190594
191	0xbf3a2c92	-0.7272426
192	0xbe1341ff	-0.14380644
193	0xbe8fc2eb	-0.28078398
194	0x3d61d665	0.055136103
195	0x3d8f521a	0.069980815
196	0x3d44778d	0.047965575
197	0xbe0ba4df	-0.13637112
198	0xbd1e772f	-0.03868788
199	0xbe3ffe6e	-0.18749401
200	0xbe12a15a	-0.14319363
201	0x3e1cf64f	0.15328334
202	0xbe82cd3e	-0.25547212
203	0xbeeb56c5	-0.45964637
204	0x3d69281c	0.056923017
205	0x3dba37e5	0.09092692
206	0xbe3485c1	-0.17629148
207	0xbf22f0c9	-0.6364866
208	0x3d626f90	0.055282176
209	0x3e32bca7	0.17454778
210	0x3d9dcf06	0.07705502
211	0xbeae3944	-0.34028065
212	0xbe367a30	-0.17820048
213	0xbc9b018b	-0.018921634
214	0xbd44aeba	-0.048018195
215	0x3c16a13f	0.0091937175
216	0x3e707068	0.2348038
217	0xbdb9fee2	-0.09081818
218	0x3e066894	0.13125831
219	0xbd27fa8c	-0.041010424
220	0xbcf8c27f	-0.03036618
221	0x3e71646f	0.23573469
222	0x3deecb8f	0.116599195
223	0x3da6b821	0.081405886
224	0x3aec19e7	0.0018013091
225	0x3df6b278	0.12045759
226	0x3c553b99	0.0130146975
227	0x3dea8e1a	0.11452885
228	0xbe2648c3	-0.16238694
229	0xbe13aebe	-0.14422128
230	0xbe91b580	-0.28458786
231	0xbf434b2a	-0.76286566
232	0xbe11f5b9	-0.14253892
233	0x3e0cca84	0.13749129
234	0xbdf0fda6	-0.117671296
235	0xbf49f470	-0.7888861
236	0xbf04503c	-0.5168493
237	0x3d3f4cfa	0.04670427
238	0xbea65927	-0.32489893
239	0xbe9b4539	-0.3032625
240	0xbe4a04a3	-0.19728331
241	0x3eaa630b	0.3327869
242	0x3cbb0f28	0.022834376
243	0xbf0a896d	-0.54115945
244	0xbdb8a2eb	-0.09015449
245	0xbe6ae419	-0.22938575
246	0x3da656e8	0.08122045
247	0xbd3836fd	-0.044974316
248	0x3e254c05	0.1614228
249	0x3e176bcb	0.14787214
250	0x3bca815d	0.006179972
251	0x3e261591	0.16219164
252	0xbe0fb394	-0.14033347
253	0xbeea62a0	-0.4577837
254	0x3d221a66	0.039575957
255	0x3e0b7ba0	0.13621378

bias f4 [8]
0	0xbe9b5048	-0.30334687
1	0xbde200f7	-0.1103534
2	0xbe804303	-0.25051126
3	0xbd7936f3	-0.06084342
4	0xbdd24230	-0.102665305
5	0x3e88d16c	0.26722276
6	0x3d98889a	0.0744793
7	0x3edf7ca9	0.43649796
