models_save/aug_model_save_k_means_centers_19/aug_model_save.pth (torch, 15950 bytes, 6 tensors)

weight f4 [64, 10]
0	0xbf504756	-0.8135885
1	0x3ee6862a	0.45024234
2	0x3e8a7e51	0.27049497
3	0xbdf7f6f1	-0.12107647
4	0xc0141f26	-2.3144011
5	0xc00629d1	-2.0963023
6	0xbe3755e6	-0.17903861
7	0xbe6c64a6	-0.2308527
8	0x3e883d5b	0.2660931
9	0xbdacd4bb	-0.084390126
10	0xbf6e2d34	-0.93037724
11	0xbfbc7ab6	-1.4724948
12	0xbd46cb97	-0.048534002
13	0xbeecf539	-0.4628084
14	0xbe33404f	-0.17505
15	0xbfc1f881	-1.5153962
16	0xbe4c995e	-0.1998038
17	0x3e27b3e2	0.16377214
18	0x3eddfe2f	0.4335799
19	0xbe1b03fd	-0.1513824
20	0xbfa9d601	-1.3268434
21	0xc04075ec	-3.0071974
22	0xbe882dab	-0.26597342
23	0x3e3907de	0.18069407
24	0xbf222d75	-0.6335061
25	0xc02fbbbb	-2.7458332
26	0xc00e2b84	-2.221406
27	0xbc81f692	-0.015864644
28	0xbf748284	-0.9551165
29	0xbeed498f	-0.46345183
30	0x3e706e55	0.23479588
31	0xc00638c3	-2.0972145
32	0xc01bba31	-2.4332392
33	0xc044a6c5	-3.0726788
34	0xbe5cde9e	-0.21569297
35	0x3e8a8bf1	0.27059892
36	0xbe538670	-0.20656753
37	0xc0184a07	-2.3795183
38	0xc011d5b0	-2.2786674
39	0x3bf1c2d7	0.007377963
40	0xbf820869	-1.0158817
41	0xbff138f6	-1.8845508
42	0xc00c799e	-2.194923
43	0xbfbaee59	-1.4603988
44	0xbebdfe70	-0.37108183
45	0xbec367d1	-0.38165143
46	0xc008ab30	-2.1354485
47	0xc015914d	-2.3369935
48	0xbfcaaa12	-1.5833151
49	0xbdc32703	-0.09528925
50	0xbdfcdbd3	-0.12346616
51	0xbeafd3e9	-0.34341362
52	0x3dd8cbef	0.10585772
53	0xc01f6a4c	-2.4908628
54	0xc016ffc1	-2.35936
55	0xbfdefba4	-1.7420545
56	0xbfcdba99	-1.607257
57	0xbe96f4f8	-0.2948377
58	0xc037911e	-2.8682323
59	0xbe949e4d	-0.29027024
60	0xbf416bc7	-0.7555508
61	0xbe2079e2	-0.15671495
62	0xbf4ca69d	-0.7994173
63	0xbf3ac456	-0.72955835
64	0xc009bca1	-2.152138
65	0xbffc990b	-1.9734205
66	0xbf01c337	-0.506885
67	0xbfe00b02	-1.7503359
68	0xbef7cd46	-0.483988
69	0xc01373f3	-2.303952
70	0x3f07817c	0.5293195
71	0x3f8ee2a3	1.1162914
72	0x3f87349d	1.0562931
73	0x3f0aa966	0.5416473
74	0x3f37a1ae	0.7173108
75	0x3effd876	0.49969834
76	0xc021eee2	-2.5302052
77	0x3f9113dc	1.1334186
78	0xbf911071	-1.1333143
79	0xbf2473fb	-0.6423947
80	0xbfbd28e8	-1.4778109
81	0xbf479980	-0.779686
82	0xc0040483	-2.0627754
83	0xbfd89815	-1.6921412
84	0xbd1ae1dd	-0.037813056
85	0xbe930bd4	-0.28719962
86	0xbfd5d935	-1.6706911
87	0xbc93b17d	-0.018028969
88	0x3e08eddf	0.1337199
89	0xbe991e21	-0.299058
90	0xbf3e23bc	-0.74273276
91	0xbec48ddc	-0.3838948
92	0xbe03719d	-0.12836309
93	0xbf475f82	-0.7788011
94	0xbf5ae0d4	-0.8549931
95	0xc00a68af	-2.1626394
96	0xbfd0c17b	-1.6309046
97	0xbf1d2815	-0.61389285
98	0xbf0eaf78	-0.55736494
99	0xc00d4c6d	-2.2077897
100	0x3d38dd97	0.0451332
101	0xc041e159	-3.0293791
102	0xbeb703c6	-0.35745066
103	0xbf066c12	-0.5250865
104	0x3dcdcf7a	0.10049339
105	0xbd6f4b4c	-0.058421418
106	0xbe3c5c44	-0.18394572
107	0xbfaef779	-1.3669273
108	0xc080d197	-4.0255847
109	0xbfdc6fb3	-1.7221588
110	0xbed3257a	-0.4123953
111	0xbee129be	-0.4397716
112	0xbf00a192	-0.50246537
113	0xc06c6c69	-3.6941168
114	0xc052708d	-3.2881196
115	0xbfc0f2db	-1.5074114
116	0xbf069fa8	-0.52587366
117	0xc0571ba4	-3.361062
118	0xbf626ffb	-0.8845212
119	0xbea4ff9d	-0.32226267
120	0x3e22e5bd	0.1590795
121	0xbe87a13e	-0.26490206
122	0xbe651c68	-0.22374117
123	0xbfe16a7b	-1.761062
124	0xc010baa9	-2.2613928
125	0xbf856359	-1.0420943
126	0xbf6373d3	-0.8884861
127	0x3caf3891	0.021389278
128	0xbfca009a	-1.5781434
129	0xbee67351	-0.45009854
130	0xbfcfe307	-1.6241158
131	0x3f298f59	0.66234356
132	0xbe24935b	-0.16071837
133	0x3ee5ba45	0.44868675
134	0x3f0cacfd	0.5495146
135	0x3f3ed9f8	0.74551344
136	0xc06b2b21	-3.6745074
137	0x3ecc9448	0.3995688
138	0xc07c5a89	-3.9430258
139	0xbe7520b9	-0.23938264
140	0xc01ab3f1	-2.4172328
141	0xc06361d4	-3.552846
142	0xc02db410	-2.7141151
143	0xc00f02a4	-2.2345362
144	0xbf5c8a72	-0.8614875
145	0xbd4b4b15	-0.04963215
146	0xbf197df9	-0.59957844
147	0xc0401e53	-3.0018508
148	0xbe1fe98d	-0.15616436
149	0xbe68f72f	-0.22750543
150	0x3f68b232	0.90896904
151	0xbf579d4e	-0.842244
152	0xbf02b675	-0.5105966
153	0xbfb25e87	-1.3935097
154	0x3f79354c	0.9734695
155	0xbd9e6902	-0.077348724
156	0x3e9335fb	0.2875212
157	0xbebea406	-0.37234515
158	0xbfdef4a6	-1.7418411
159	0xbdfae482	-0.12250616
160	0xbdfd50c7	-0.12368923
161	0xbef2ba8c	-0.4740795
162	0xbd428af6	-0.047495805
163	0xbecab215	-0.3958899
164	0xbfd48303	-1.6602482
165	0xbeba8d61	-0.3643599
166	0xbe489c36	-0.1959084
167	0xbe6fc476	-0.23414788
168	0x3dbed128	0.09317237
169	0x3e159881	0.14608957
170	0xc03679e2	-2.8511891
171	0xc029712d	-2.6475327
172	0xc04ab12e	-3.1670642
173	0xbfc92759	-1.5715133
174	0xbeaa259f	-0.33231828
175	0xbf86bfb3	-1.0527252
176	0xbefb69fd	-0.491043
177	0xbefd7d73	-0.49509773
178	0xbecdf36b	-0.40224776
179	0xbe871dfe	-0.2639007
180	0xbf9a5cfe	-1.2059629
181	0xc00154e3	-2.020806
182	0xbfc2cdb9	-1.5219032
183	0xc0064077	-2.0976846
184	0xbf097deb	-0.5370776
185	0xbe3f697b	-0.18692581
186	0x3d7b4dcc	0.06135349
187	0xbee2ea31	-0.443193
188	0xbd18e590	-0.037328303
189	0xbdb06d67	-0.08614617
190	0xbef79954	-0.48359168
191	0xbfcb01fd	-1.5859982
192	0xbfa6b673	-1.3024429
193	0xbe21aa95	-0.15787728
194	0xc052dfe8	-3.2949162
195	0xbe57ddb7	-0.21080671
196	0xbe9cce76	-0.30626267
197	0xc020edaa	-2.5145059
198	0xbff5f704	-1.9216008
199	0xbe898f02	-0.2686692
200	0xbfe1d0bc	-1.7641826
201	0xc04b70dd	-3.1787636
202	0xbf5e7ac4	-0.86906075
203	0xc06b8e33	-3.6805542
204	0xbe1a2f66	-0.15057144
205	0xc0050b28	-2.078806
206	0xbfb08716	-1.3791225
207	0xbe8820d5	-0.2658755
208	0xbe8a4e04	-0.27012646
209	0xbe2a60c8	-0.16638482
210	0xbfc378d5	-1.527125
211	0xbe0232bd	-0.12714668
212	0xc00a00a6	-2.1562896
213	0xbecb7217	-0.3973548
214	0x3ed686e3	0.41899785
215	0x3ea15a68	0.31514287
216	0x3e0338c1	0.12814619
217	0xc026914c	-2.6026182
218	0xbf768060	-0.96289635
219	0xc01cff63	-2.4530876
220	0x3ed64c88	0.41855264
221	0xbe4c960e	-0.19979116
222	0xbff5725c	-1.9175525
223	0xc005560d	-2.0833771
224	0x3ecfb6db	0.40569195
225	0x3e0a492c	0.13504475
226	0x3d0596fe	0.0326147
227	0xbf312dc8	-0.6921048
228	0xbf812ead	-1.0092369
229	0xbf1d451d	-0.61433583
230	0xc02d5adb	-2.7086704
231	0xc004a9a3	-2.0728538
232	0xc0084e0c	-2.1297636
233	0x3ec325ac	0.3811468
234	0x3e9c82cb	0.30568537
235	0x3e535499	0.2063774
236	0xbff613b8	-1.9224768
237	0xbff50709	-1.9142772
238	0xbed2e728	-0.41191983
239	0xbf3dbeda	-0.7411934
240	0xc0338d97	-2.805517
241	0xbf6aea13	-0.9176342
242	0xc04b018b	-3.1719692
243	0xc053fa5b	-3.3121555
244	0xc02d00f6	-2.7031837
245	0xbfaeb5bb	-1.364921
246	0xbf82bda7	-1.0214127
247	0xc0681a1f	-3.6265943
248	0xbe9aee32	-0.30259854
249	0xbeba3afe	-0.36373132
250	0xc0084b01	-2.1295779
251	0xbfca450f	-1.5802325
252	0xbfbc20a1	-1.4697458
253	0xbf71b443	-0.9441568
254	0xbf93de0e	-1.1552141
255	0xbfe5ea13	-1.7962059

bias f4 [64]
0	0x3f3985c3	0.7246973
1	0xbe32dd02	-0.1746712
2	0xbe98c913	-0.29840907
3	0x3f29b8a7	0.6629738
4	0x3d090c4a	0.033458985
5	0xbdb85770	-0.090010524
6	0xbe2a3922	-0.16623357
7	0x40359b90	2.8376198
8	0x3f4e9392	0.80693924
9	0xbec3e101	-0.38257602
10	0x3ae1a702	0.001721591
11	0xbf66bebf	-0.90134805
12	0x3ed23bb5	0.41061178
13	0x3fa6160d	1.2975479
14	0xbe9af685	-0.30266204
15	0x401e1ee4	2.4706354
16	0x3d02178b	0.031760734
17	0xbeef751c	-0.46769035
18	0x3d3718dc	0.044701442
19	0xbe7439f2	-0.2385023
20	0xbf086d98	-0.53292227
21	0x3fa503e6	1.2891815
22	0x3ef27031	0.4735122
23	0x3fa04257	1.2520245
24	0xbf4e8e02	-0.80685437
25	0x3c84f100	0.016228199
26	0xbf23eafb	-0.64030427
27	0xbd083e86	-0.033262752
28	0x3f269580	0.6507187
29	0x3e75b149	0.2399341
30	0xbeb79cc0	-0.35861778
31	0x3e9c4507	0.30521414
32	0x3c7cc64a	0.015428135
33	0x3e3aaf02	0.18230823
34	0x3ef0bd53	0.47019443
35	0x3f744ff3	0.9543449
36	0x3eacf29e	0.33778852
37	0x3e800fda	0.25012094
38	0xbc7dd8b9	-0.015493565
39	0xbf71b955	-0.9442342
40	0x3e603119	0.2189373
41	0x3f2e7124	0.6814139
42	0x3df28671	0.11842049
43	0x4012dff6	2.2949195
44	0xbeab87f6	-0.33502167
45	0xbe946f6e	-0.28991264
46	0x3e2a5fe8	0.16638148
47	0xbf78452e	-0.9698056
48	0x3e2d40ec	0.16919297
49	0x3eb48cfd	0.35263816
50	0x3d964608	0.07337576
51	0x3f501f5b	0.81297845
52	0x3ef982a1	0.48732474
53	0x3ffc3179	1.9702598
54	0xbd9933bc	-0.07480571
55	0x3d4739e5	0.048639197
56	0x3da2a279	0.079411454
57	0x3fa94d9b	1.3226808
58	0x3ea2804e	0.31738514
59	0x3f743f3d	0.95408994
60	0xbf67ebfc	-0.9059446
61	0xbe527bd6	-0.20555052
62	0x3f89c105	1.076203
63	0x3d86df79	0.06585593

weight f4 [32, 64]
0	0x3f551c23	0.8324606
1	0xc0ae4db0	-5.4469833
2	0xc0a9ea8d	-5.3098817
3	0x40abb8f1	5.366326
4	0x40c164b8	6.043545
5	0xc092eba7	-4.591266
6	0x40c90d79	6.2828946
7	0xc032f49d	-2.79618
8	0x409e2bf9	4.9428678
9	0xc099d785	-4.8075585
10	0xc01cc071	-2.4492457
11	0xc0007665	-2.0072262
12	0x40bff542	5.9986887
13	0xc02328ec	-2.5493727
14	0xc05c9176	-3.4463782
15	0xc094fcf0	-4.655876
16	0xc00a44fc	-2.1604605
17	0x40a1d937	5.0577655
18	0xc0b2c782	-5.586854
19	0xc0995ab9	-4.7923245
20	0x4083f539	4.1236844
21	0xc0b3156a	-5.596364
22	0xc0ad2c71	-5.411675
23	0x409fd31b	4.9945197
24	0xc0b2c714	-5.5868015
25	0xc0bc6c5e	-5.8882284
26	0x40af6ce8	5.482044
27	0x3fc29d98	1.5204344
28	0xc0b5b70d	-5.678595
29	0x409f5055	4.978556
30	0x40c265a5	6.074908
31	0xc0acd917	-5.4015
32	0x3faf093a	1.3674691
33	0xbf3f47f9	-0.74719197
34	0xc046a8c2	-3.1040502
35	0xc0516f79	-3.2724288
36	0xc09dbbce	-4.9291754
37	0x40a004ed	5.0006013
38	0xc008a125	-2.1348355
39	0x4090873a	4.516507
40	0xc0bb7880	-5.8584595
41	0xc0a2309d	-5.0684342
42	0x40b32cb7	5.5992084
43	0xc0a10b82	-5.032655
44	0xc0a6829f	-5.203445
45	0xbfa4b587	-1.2867898
46	0x4041353a	3.0188737
47	0xc0b59a59	-5.6750913
48	0xc0ac78d0	-5.3897476
49	0xbff42a7c	-1.9075465
50	0xc04db432	-3.2141232
51	0xc0b53e72	-5.6638727
52	0xc091c137	-4.554836
53	0xbff992ea	-1.949796
54	0x40aff5f9	5.498776
55	0xc0d9a7b1	-6.80172
56	0xc09f934e	-4.9867315
57	0x3fc2b8d9	1.5212661
58	0xc0867163	-4.201341
59	0x40a7e8c0	5.247162
60	0xc0a7aa00	-5.239502
61	0x3fda6ac6	1.7063835
62	0xc0bb6178	-5.855648
63	0xc0450fc5	-3.0790875
64	0xc046548c	-3.0989103
65	0xc0a2227f	-5.066711
66	0x409aad29	4.8336377
67	0xc0b2ced1	-5.587746
68	0x40c1eeab	6.0603843
69	0x40a49655	5.143351
70	0x40cba520	6.363907
71	0xbfe10a4a	-1.7581265
72	0x409deb3c	4.934965
73	0xc0a4389d	-5.131911
74	0xc044c33a	-3.0744157
75	0x3ff8c5e5	1.9435393
76	0x40cda123	6.42592
77	0xc05e3ad8	-3.4723415
78	0x405679bd	3.3511803
79	0xc0b4edc6	-5.654025
80	0x401b3a28	2.4254246
81	0x409ac085	4.836001
82	0xc0b3777f	-5.608337
83	0xc0980999	-4.7511716
84	0x40834eb5	4.103358
85	0x405077fe	3.2573237
86	0xc0bd4576	-5.914729
87	0xc0a3e6f7	-5.121944
88	0x40af8d66	5.4860106
89	0x40b9d9d8	5.8078423
90	0xc0be21b9	-5.9416165
91	0x3fca305d	1.5796009
92	0x40a0af69	5.0214124
93	0xc0acc832	-5.399438
94	0x40c465dc	6.137434
95	0xc0a93fcd	-5.289038
96	0xc04f16ed	-3.2357743
97	0x3f611fbb	0.8793904
98	0x40268463	2.6018302
99	0xc0147c78	-2.320097
100	0xc0bf459d	-5.9772477
101	0x40ba9ab0	5.8313828
102	0xc0404400	-3.0041504
103	0xc0a3176f	-5.0966105
104	0xc0c54218	-6.164318
105	0xc0bd028b	-5.9065604
106	0xc0b37ded	-5.609122
107	0xc0b68b1a	-5.70448
108	0xc08d533c	-4.4164104
109	0xc06dbd5a	-3.714682
110	0x408a1590	4.315132
111	0xc0b8376f	-5.756767
112	0xc0be43cf	-5.9457774
113	0x3fff2b15	1.9935023
114	0xc06ba9e1	-3.6822436
115	0xc0b2f370	-5.5922165
116	0xc0af0745	-5.4696374
117	0xbfbccf14	-1.4750695
118	0xc0aaa6c2	-5.332856
119	0xc0e00916	-7.001109
120	0x408ed0cc	4.462988
121	0xbfffd2c6	-1.9986198
122	0xc070cb8e	-3.762424
123	0xc0aba077	-5.363338
124	0xc09cc47d	-4.8989854
125	0xbfddff31	-1.7343503
126	0x40ba9ae2	5.8314066
127	0xc05d7dfe	-3.460815
128	0xbf8b4f79	-1.0883628
129	0xc098eb45	-4.7787194
130	0x408d8ab6	4.4231825
131	0xc0b8f4b2	-5.77987
132	0xc0c1b8b5	-6.0537972
133	0xc0a77ca4	-5.233965
134	0xc0cbe3a8	-6.37154
135	0x3e1764c8	0.14784539
136	0xc0a480f1	-5.14074
137	0xc05f1c1e	-3.4860911
138	0x401720f2	2.3613858
139	0x3ffe7320	1.9878883
140	0xc0cebf9b	-6.4608893
141	0xc037005c	-2.859397
142	0xc05e7f84	-3.476533
143	0xc0b6ae0b	-5.7087455
144	0x4020d051	2.5127146
145	0xc0a145a2	-5.03975
146	0xc0b36d21	-5.6070714
147	0xc09cfd23	-4.9059005
148	0x408d20cd	4.410254
149	0xc0bb1ae7	-5.847034
150	0xc0b47bb6	-5.6401014
151	0xc09a7e02	-4.827882
152	0x40b87b8d	5.765082
153	0x40bc4e40	5.884552
154	0xc0bfea80	-5.9973755
155	0x3fb745d9	1.4318191
156	0xc0b6d880	-5.713928
157	0xc0a92668	-5.2859383
158	0xc0cca2ad	-6.394858
159	0x409c2898	4.8799553
160	0x401fffd8	2.4999905
161	0x3f72dde7	0.94869846
162	0x4014aa33	2.3228881
163	0xbfd8f61a	-1.6950104
164	0xc0a3b154	-5.1153965
165	0xc0c17323	-6.045305
166	0xc07090cf	-3.7588384
167	0xc0ac8205	-5.3908715
168	0x40c2c45d	6.08647
169	0x40bab70a	5.8348436
170	0x40b2da8e	5.589179
171	0xc0978029	-4.7343946
172	0x40896ddc	4.2946606
173	0xbfb9a88f	-1.4504565
174	0xc097d089	-4.744206
175	0x40b99821	5.7998204
176	0x40c0f38c	6.02973
177	0xc0057dad	-2.0857956
178	0x406da8fc	3.713439
179	0xc0b4bfeb	-5.6484275
180	0xbecb8d47	-0.39756224
181	0x3ea19172	0.31556278
182	0xc0589eb1	-3.3846858
183	0x40db0505	6.8443627
184	0xbfa4fa9a	-1.2888978
185	0xbfb4b845	-1.4118735
186	0xc08e7be4	-4.4526234
187	0xc0abc859	-5.3682065
188	0xc099e498	-4.8091545
189	0x3fb10fde	1.3832967
190	0x40ba8ae8	5.8294563
191	0xbf38ebb2	-0.7223464
192	0xbfb7ab8a	-1.4349225
193	0x40a50834	5.1572514
194	0xc0a00c55	-5.0015054
195	0xc0b9893f	-5.7980037
196	0x40bbd769	5.870045
197	0x408ff37f	4.4984736
198	0xc0cd5558	-6.416668
199	0xc010a837	-2.260267
200	0xc0b7da08	-5.745365
201	0xc08fcedc	-4.4940014
202	0xc03ca998	-2.9478512
203	0x3fdae7e9	1.7102023
204	0xc0c609bb	-6.188688
205	0xc067828b	-3.6173427
206	0x402103a7	2.515848
207	0xc0bb9e93	-5.863107
208	0xc04850fa	-3.1299424
209	0xc0916974	-4.5441227
210	0x40a2cfc8	5.087864
211	0x4093f7b9	4.6239896
212	0xc0a67471	-5.201714
213	0xc091f584	-4.56122
214	0x40ae0570	5.4381638
215	0xc0a6b2f1	-5.2093434
216	0x40901631	4.502709
217	0x40affda0	5.49971
218	0x40b99dd0	5.800514
219	0xbf00e3f9	-0.5034786
220	0xc0c065a6	-6.0124083
221	0xc0af0b45	-5.4701257
222	0xc0c783e3	-6.2348495
223	0xc0a4a7a3	-5.1454635
224	0x400126d0	2.017994
225	0xbf9c1144	-1.2192769
226	0xc07a2f92	-3.9091535
227	0xbf46374e	-0.7742814
228	0x4062a719	3.5414488
229	0x40b29803	5.581056
230	0x403a7037	2.913099
231	0x40a034ad	5.00643
232	0xc0c76e64	-6.2322254
233	0x40ba86ff	5.828979
234	0x409dfbc7	4.9369845
235	0xc020c0bc	-2.5117636
236	0xc05e7715	-3.4760182
237	0x40209826	2.5092864
238	0xc0927379	-4.576596
239	0xc0b429c8	-5.6301003
240	0x40b05531	5.5103993
241	0xbfc6b193	-1.5522941
242	0xc08bf822	-4.3740396
243	0xc0b0d9b1	-5.5265737
244	0xc0a87cdc	-5.2652416
245	0xc0073f02	-2.1132207
246	0xc06a1599	-3.6575682
247	0xc0cf3fae	-6.4765234
248	0xbfb23997	-1.3923825
249	0x400020b3	2.0019958
250	0x4060f667	3.5150392
251	0xc0a2a4e6	-5.082629
252	0xc09bc2e8	-4.8675423
253	0xbfa9fbd9	-1.3279983
254	0xc0a7bd62	-5.241868
255	0x401779e9	2.3668158

bias f4 [32]
0	0xbf2f0565	-0.68367606
1	0xbfbe610c	-1.4873366
2	0xc00936a7	-2.1439607
3	0xbf9cae1a	-1.2240632
4	0xbff2c7cf	-1.8967227
5	0xbe36ec66	-0.17863616
6	0xbfd3c45f	-1.6544303
7	0xc02ab362	-2.6671987
8	0xbf03ad95	-0.5143674
9	0xbff99d48	-1.9501123
10	0xbff97e0c	-1.9491591
11	0xbf94559b	-1.1588625
12	0xc003823a	-2.0548234
13	0xbfc3eed8	-1.5307264
14	0xbf95e1e0	-1.1709557
15	0xbf657534	-0.8963196
16	0xbf68418c	-0.90725017
17	0xbf601e67	-0.8754639
18	0xbfa629ed	-1.2981545
19	0xbf1d8b29	-0.61540467
20	0xbf9cbaa1	-1.2244455
21	0xbf6c4f57	-0.92308563
22	0xbe9cc82b	-0.30621466
23	0xbfdaab20	-1.7083473
24	0xbfd422a1	-1.6573068
25	0xbfb0fd5d	-1.382732
26	0xbfe22aaf	-1.7669276
27	0xc0065040	-2.098648
28	0xbfda3e5a	-1.7050278
29	0x3d5b11e6	0.053483866
30	0xbfb2104e	-1.3911226
31	0xbe944fda	-0.28967172

weight f4 [8, 32]
0	0xc0b638d0	-5.694435
1	0xb7a40e8e	-1.9557101e-05
2	0x3f9d6758	1.2297163
3	0x373acb4c	1.1133798e-05
4	0xbfecdf8b	-1.850572
5	0xc0c053f5	-6.0102487
6	0xbee5b9fd	-0.4486846
7	0x3b949ff4	0.0045356695
8	0xc0b3478e	-5.6024847
9	0xba207cc4	-0.0006122107
10	0xbd23bd4e	-0.039975457
11	0xbce891cd	-0.028389836
12	0xbe56502f	-0.20929025
13	0x3bb776d9	0.0055988845
14	0xbef00872	-0.46881443
15	0x3b66c4aa	0.0035212436
16	0xc0d69e72	-6.7068415
17	0xc0b94dae	-5.7907324
18	0x3b116c86	0.002218993
19	0xc0d40dec	-6.6266994
20	0xbbe10dab	-0.0068680844
21	0x3fc8d8a2	1.5691111
22	0x4010caf9	2.2623885
23	0x3b870b89	0.004121248
24	0x3c6537f8	0.013990395
25	0xc0d49a0a	-6.6438036
26	0x3eddf02a	0.43347293
27	0xbc810052	-0.015747223
28	0xbf3575e8	-0.70883036
29	0xbca30b39	-0.019902812
30	0x3fdf137d	1.7427822
31	0x40af454f	5.4772105
32	0x404f48c4	3.2388163
33	0x40027baf	2.038799
34	0x3f3d18b6	0.7386583
35	0x401fe69b	2.49845
36	0x3e218841	0.15774633
37	0xbe279933	-0.16367035
38	0x401819ce	2.376575
39	0xbf834296	-1.0254695
40	0xbfb53e7c	-1.4159694
41	0xbfc2a143	-1.5205463
42	0xbf847469	-1.0348026
43	0xbf014f89	-0.50511986
44	0x4013661b	2.303107
45	0x3fbe205c	1.4853625
46	0xbffb5c3e	-1.9637525
47	0xbfae8598	-1.363452
48	0x401ea8c2	2.4790502
49	0xc0439e0b	-3.0565212
50	0x4049b3f5	3.1516087
51	0x401d99b4	2.4625063
52	0xbf5595ae	-0.8343152
53	0xbb0145c2	-0.0019725417
54	0x3f74544a	0.95441115
55	0xbe221ad2	-0.15830544
56	0xbfddccb5	-1.7328097
57	0xbf1afeee	-0.6054524
58	0x3ffe62ad	1.9873863
59	0xbd6fa436	-0.058506213
60	0x3fe176f6	1.7614429
61	0x3d10efd5	0.03538497
62	0xc0b75b0a	-5.729863
63	0xbe939bc5	-0.2882978
64	0xc0b0d517	-5.526012
65	0xb78d6405	-1.6855085e-05
66	0xbf84c4cb	-1.0372556
67	0x323f59e0	1.1138098e-08
68	0xbfd9581b	-1.6980013
69	0xc098f389	-4.7797284
70	0xbf046a29	-0.5172449
71	0xb8405980	-4.585972e-05
72	0xc0adb248	-5.428013
73	0xb96d3580	-0.00022622012
74	0xbc2392e2	-0.00998375
75	0xbbf5abdb	-0.0074972934
76	0x3ead1769	0.33806923
77	0xbbbaf270	-0.0057051703
78	0x3efa09ee	0.488357
79	0x34f61365	4.5835182e-07
80	0xc0d0699b	-6.5128913
81	0xc0af4b27	-5.477924
82	0xb69087e6	-4.307355e-06
83	0xc0d2aec6	-6.5838346
84	0xbb811182	-0.0039388547
85	0xbfbf1032	-1.4926817
86	0xc01711e3	-2.3604667
87	0xbc328f4f	-0.010898425
88	0xbd37da0b	-0.044885676
89	0xc0d3bd06	-6.616824
90	0xbed86a32	-0.4226852
91	0xbc9c88c7	-0.01910819
92	0x3f446c54	0.76727796
93	0xbc56a305	-0.01310039
94	0xbfdc9450	-1.7232761
95	0x40af0288	5.469059
96	0xc0af799f	-5.4835963
97	0x3898ed85	7.292166e-05
98	0xbf8829f4	-1.0637803
99	0x34985ce7	2.8379802e-07
100	0x3fe7817e	1.8086393
101	0xc09a8980	-4.8292847
102	0x3f07955b	0.52962273
103	0xb89a70fe	-7.364339e-05
104	0xc0ab2aa8	-5.348957
105	0x3a849910	0.0010116417
106	0xbc02a530	-0.007973954
107	0xbc030759	-0.007997357
108	0x3ea24525	0.31693378
109	0xbbad78dd	-0.005293949
110	0xbef906c8	-0.48637986
111	0x34e8200d	4.3236687e-07
112	0xc0c8c2bf	-6.2737727
113	0x40af25db	5.473371
114	0x392fb121	0.00016755286
115	0xc0cfe7e0	-6.497055
116	0xbbaed0a2	-0.0053349296
117	0xbf89eb31	-1.07749
118	0xc017317a	-2.3623948
119	0xbc4e7e66	-0.012603378
120	0x3d243d53	0.040097546
121	0xc0d8b6fd	-6.7723374
122	0xbed98b95	-0.42489305
123	0xbcbad867	-0.022808267
124	0x3f34f8c1	0.7069207
125	0xbc95ae4c	-0.018271588
126	0xbfdd3d29	-1.728429
127	0xc0b026ba	-5.5047274
128	0x40a35575	5.104182
129	0xbbba01b5	-0.005676473
130	0xbff8c491	-1.9434987
131	0xbc43818f	-0.011932745
132	0x3e477ccf	0.19481204
133	0xc00a4d72	-2.160977
134	0x4027f929	2.6245825
135	0x3c0dea27	0.008661783
136	0x4093dc80	4.6206665
137	0xbb91ef85	-0.004453602
138	0xbca2b424	-0.019861288
139	0xbd8ccb8f	-0.06874763
140	0xbf3866ab	-0.7203166
141	0x3eaac819	0.33355787
142	0x3fafe262	1.3740962
143	0xb7a110bd	-1.920049e-05
144	0xc082adf0	-4.0837326
145	0xc09a4c05	-4.8217797
146	0xbe107942	-0.14108756
147	0xc0829c49	-4.081578
148	0x3c808966	0.015690517
149	0xc033ad08	-2.807436
150	0x3eb41ab5	0.35176626
151	0xbd1175ca	-0.035512723
152	0x3efae9e4	0.4900657
153	0xc03eff8f	-2.984348
154	0x4005398f	2.081638
155	0xbd64c141	-0.055848364
156	0x3ff242a3	1.8926586
157	0xbd816a60	-0.063191175
158	0xc0933c9a	-4.6011477
159	0xc0d07bc5	-6.5151086
160	0x3d4d23ac	0.050082847
161	0xc0ca6238	-6.3244896
162	0x3df5a0ea	0.119935825
163	0xc0d82085	-6.7539697
164	0xbf1c0c3a	-0.60956156
165	0xbbfe1508	-0.007753972
166	0x403f6275	2.9903843
167	0x4005aa88	2.0885334
168	0xbc06cffd	-0.008228299
169	0xc0c183bb	-6.0473304
170	0xc062aee4	-3.5419245
171	0xbfe16e49	-1.7611781
172	0xc0885651	-4.2605367
173	0xc02334b8	-2.5500927
174	0xc08884f9	-4.266232
175	0xc0cc2c29	-6.3803906
176	0xbae2e13e	-0.0017309559
177	0x3b70eee4	0.0036763484
178	0xc0d247ed	-6.57128
179	0x3be22b02	0.0069020996
180	0xc0bda439	-5.9262967
181	0xc04bc35f	-3.1837995
182	0x3df697c1	0.120406635
183	0xc029a30d	-2.6505768
184	0xc09b7844	-4.858431
185	0xbc933504	-0.017969616
186	0xc090d30d	-4.525763
187	0xbffb19aa	-1.9617207
188	0x3fd1a675	1.6378924
189	0xc00fe2e0	-2.2482224
190	0xbfc6d488	-1.5533609
191	0x3cd4ed16	0.025991958
192	0x3e151547	0.14558898
193	0xc01cff0d	-2.453067
194	0x3f5ad7be	0.85485446
195	0xc0315aae	-2.7711596
196	0x4021e519	2.529608
197	0xbcc05583	-0.023478275
198	0xc099bf27	-4.804584
199	0xc0704f9f	-3.7548597
200	0x3ee38e41	0.4444447
201	0xc019e010	-2.4043007
202	0xc09f26af	-4.973472
203	0xc0d7bd62	-6.741868
204	0xc09d838d	-4.9223084
205	0x4038ce9b	2.8876102
206	0xc0b0b262	-5.5217752
207	0xc01a8882	-2.4145818
208	0xbe4d948c	-0.20076197
209	0xbf93ad97	-1.153735
210	0xc01e658d	-2.4749482
211	0xbd49a0ab	-0.04922549
212	0xc018f412	-2.3898969
213	0xc08a70f4	-4.326288
214	0xc0690c77	-3.6413858
215	0xc06a961a	-3.6654115
216	0x405826eb	3.3773754
217	0x3c2dea0f	0.010614886
218	0x4017b538	2.3704357
219	0xc075a4ba	-3.838179
220	0xc0a1d8fe	-5.0577383
221	0xc07291b5	-3.7901433
222	0xc0688782	-3.6332707
223	0xbdc2e669	-0.095166035
224	0xbe909b73	-0.28243598
225	0x401185c4	2.2737894
226	0xbff2d157	-1.8970135
227	0x40469788	3.1029987
228	0xc0766628	-3.8499851
229	0x3b6d4f9b	0.0036210779
230	0xc06269c5	-3.5377057
231	0xc0c08ece	-6.017432
232	0x3f1f5c18	0.622499
233	0x40296013	2.646489
234	0xc0a799a3	-5.2375045
235	0xc0530555	-3.2972004
236	0x404873ae	3.1320605
237	0xc08abb0c	-4.335333
238	0x4091765f	4.5456996
239	0x40426aec	3.037776
240	0x3e5cfa2d	0.2157981
241	0xbf95c3e9	-1.1700412
242	0x403914f3	2.8919036
243	0x3eaefb0e	0.34175915
244	0xbfc0efa1	-1.5073129
245	0x407789b9	3.867781
246	0x4019c1e6	2.4024596
247	0xc0d331e2	-6.599839
248	0xc096ac5e	-4.708541
249	0xbca0ad86	-0.019613992
250	0xc00ec43f	-2.230728
251	0xc0d33a82	-6.600892
252	0xc08c2acd	-4.3802247
253	0xc0d73dba	-6.726285
254	0xc01c6225	-2.4434903
255	0x3d919c4b	0.07109889

bias f4 [8]
0	0xbda59907	-0.08085828
1	0x3d107b8e	0.03527408
2	0xbff0d23c	-1.8814158
3	0xbfc04472	-1.5020888
4	0xbe2336d6	-0.15938887
5	0x3f0f6fd2	0.5603
6	0x3e84870f	0.25884292
7	0x3f8e858d	1.1134506
